model/건조model.pth (torch, 201120 bytes, 18 tensors)

linear1.weight f4 [24, 48]
00000000: cd8f 99bb aa24 843d 60e5 d53d 41cd b73d
00000010: a9ea 7b3c ca06 623c 270c 80bd 4ba9 d9bd
00000020: 520c 9a3d d69d 4abd fce1 b53c 0283 b7bd
00000030: 6214 50bd 9aba bdbc f135 12be 23c4 b2bd
00000040: 4d1e fb3d e520 503d 7cff 883d 9ae4 643d
00000050: 8d93 0bbd 2eb7 febb 2c25 d3bb 4f87 b8bb
00000060: e214 3b3d 0fde 9a3c 9601 833d dcef 18be
00000070: 4db5 e4bd f4c6 18be 5ee1 04be 72fa 81bd
00000080: 8e41 3cbd e721 94ba 3df7 8b3d 506b 7d3c
00000090: 8b41 0bbe 36dc 013d 22ed 70bd e736 13be
000000a0: a3af b9bc cad5 bbbd f059 f8bc 2518 17bd
000000b0: 5e67 cdbd 7cf3 903d 631b acbd 4cb9 d43d
000000c0: ef32 37bd e2ca 77bd 0165 64be 007b 70bc
000000d0: 3ab9 903c de4e 3fbd 4da4 c3be 3854 633c
000000e0: 93e9 11bd 5ac4 03be 8c9c ddbe d499 873d
000000f0: cc31 f33d b8f0 1abd 6cf0 30be 6137 9d3d
00000100: ac04 08bc 07b6 2ebe 6762 82be 84bb 00bd
00000110: 744a f63d fbc4 e13d 0853 39be cb39 e2bd
00000120: 7ef5 953d e02f b53d 4ce8 6ebe 4726 853d
00000130: 5782 263c feb2 f3bc 3060 88be 7368 7b3d
00000140: 239e 8ebd 8c6a 71bc b7df c9be 87e3 c6bc
00000150: bc76 8b3c 6833 ac3c 2b53 c1be c170 0c3d
00000160: 465c 8ebd a3dc b8bd 0fba 85be a94b bfbc
00000170: 8423 bb3d 1180 afbd d8e4 2fbe de81 e8bd
00000180: 2e8c 37be 0419 c23d 79de 97bc 75a2 0dbd
00000190: a334 7dbc 1716 fcbd 9c05 913d 16c2 15be
000001a0: 50bb d23b 7acb 1dbe 742e bdbd bdb8 9cbd
000001b0: aa42 8f3c 5bb4 98bd 5406 51bd 71be 31be
000001c0: 8b75 cf3d dbd3 0bbb b8c4 17be 3274 3abe
000001d0: 38fd 10be 3328 433d 1ea2 1cbe 826e 21be
000001e0: 3832 d73d 6932 cb3d bb28 00bd e10b f5bd
000001f0: 4194 863d 740c b0bd c99f 523d 7f1e 14be
00000200: 495c 25bd b6cc d2bc e396 ec3c 52d1 9d3c
00000210: 0111 e1bd 7e51 22be 4c31 cebb e383 a0bd
00000220: 1c25 a4bd 8105 153d db4c 2d3d b39f 9ebd
00000230: 465a 4f3d ff01 59bd 6a87 283d a6c9 0e3d
00000240: de2a be3d 4081 803c 7ca8 053e b23a 813d
00000250: ea00 90bd acb9 f33d 580d 8ebc 1208 0b3e
00000260: 886a bbbc f91d c5bd f0c1 65bc 1e36 d9bd
00000270: 64d7 b3bc da27 62bd 90c9 b4bd 1828 6c3d
00000280: 94f9 7fbd f876 b23d b7bc 84bd 9069 763d
00000290: 404f d2bb a07a a9bd 9cb4 223d 425b bdbd
000002a0: 0061 b73d 9f43 bbbd 3a5f fcbd d84a 883d
000002b0: 0af8 093e 0071 9fbc 56f4 8d3d 0a67 01be
000002c0: 6653 d23d 3c03 dabd 08b3 f43d 23ad d1bd
000002d0: 755d c9bd 13c9 84bd a22b bb3d 9450 063d
000002e0: 0609 e3bd 0d96 81bd 3593 e6bd 4834 953c
000002f0: 7074 a7bd 9652 0d3e 9461 3ebd 475c d7bd
00000300: 326e e53d c48d 3abc 908a 3dbe 46c6 47bd
00000310: e193 023e 77a0 ca3d c4cb 59be 5dca 76bd
00000320: 8707 84bd 38cb a7bd 2dad d2be 115e 80bd
00000330: c694 f4bc c363 ed3d ea71 1bbe a1d3 673d
00000340: 814b 083d 438d 11bb c787 c3be eaf5 0f3d
00000350: e6fd 90bd adcc 03be 04d3 6ebe a069 41bd
00000360: 9302 b73d 04a3 03be bf26 65be e924 b83c
00000370: 4699 ca3c b3b0 3d3d 300d a0be a3c5 dbbd
00000380: 2f58 90bd 2650 95bd 6013 a0be 6ebc b53d
00000390: 99bf 40bd 9ce3 f2bd 6096 d6be 3925 b03d
000003a0: 72ec 9d3a 8f6d e33d aebe 8cbe 94ed b33d
000003b0: d399 f83d f597 603d 3981 d9be ca74 553d
000003c0: d966 f0bd 3e7b 3b3c d5a0 78bd 8544 1abe
000003d0: ccec 253d 3001 ab3b 6a54 b03d 4f73 e0bc
000003e0: 1a2c 13be 95cc cfbd 0ce9 8fbd 7b43 0d3d
000003f0: 67a4 e4bd e15b 99bc dc69 f63d 0c48 d0bd
-0.004686332 0.064523056 0.104441404 0.08974696 0.015375772 0.013795564 -0.06252318 -0.10627993
0.07521881 -0.04946693 0.022202484 -0.08960535 -0.05080069 -0.023160268 -0.1427839 -0.08728816
0.12261639 0.05081262 0.06689355 0.055882074 -0.034076262 -0.0077733016 -0.00644364 -0.0056313644
0.045674212 0.018904714 0.06396787 -0.14935249 -0.11167393 -0.14919645 -0.12976596 -0.06346597
-0.045960955 -0.0011301608 0.06834266 0.01546748 -0.13599221 0.03170415 -0.058819897 -0.14376412
-0.022666758 -0.091716364 -0.030316323 -0.03688826 -0.10029481 0.07077691 -0.08403661 0.10386905
-0.04472631 -0.06049622 -0.22304155 -0.014677763 0.017666448 -0.046706073 -0.3821129 0.01387506
-0.035623144 -0.12867871 -0.43283498 0.06621137 0.118747324 -0.037827224 -0.17279214 0.07676578
-0.008301895 -0.17061625 -0.254657 -0.03142883 0.120259196 0.11023899 -0.1809808 -0.110461794
0.073222145 0.08847022 -0.23330802 0.065014414 0.010162911 -0.029748436 -0.26635885 0.061378907
-0.06963756 -0.014734875 -0.39428493 -0.024278415 0.01702439 0.021020606 -0.37758765 0.034287218
-0.069511935 -0.09026458 -0.26118514 -0.023351507 0.091376334 -0.085693486 -0.1717714 -0.11352895
-0.17924568 0.094774276 -0.0185387 -0.03457876 -0.015454444 -0.12308901 0.07081148 -0.14624819
0.006431021 -0.15409651 -0.09237376 -0.076524235 0.017487843 -0.07456275 -0.051031426 -0.17357804
0.101298414 -0.0021335992 -0.14821136 -0.18208387 -0.14159095 0.04764576 -0.15296218 -0.15764812
0.10507625 0.09921724 -0.031288844 -0.11965156 0.06571246 -0.08596125 0.051421914 -0.14464758
-0.040371213 -0.02573238 0.028880542 0.01926485 -0.10989571 -0.158514 -0.0062924977 -0.078376554
-0.080148906 0.036382202 0.042309623 -0.07745304 0.0506232 -0.05298042 0.041144766 0.034860276
0.0928552 0.015686631 0.13052553 0.06310023 -0.07031424 0.119006485 -0.017340347 0.13577297
-0.022877946 -0.096248575 -0.014023289 -0.10606025 -0.021953292 -0.055213787 -0.088275075 0.057655424
-0.062493876 0.08714098 -0.06481307 0.060159266 -0.0064181387 -0.08275342 0.039723024 -0.09245922
0.08954048 -0.09143757 -0.123228505 0.066549 0.13473526 -0.019463062 0.06931369 -0.12636963
0.10269813 -0.10645148 0.1194821 -0.10238101 -0.09832279 -0.06483664 0.09139182 0.03279169
-0.110857055 -0.06327448 -0.11258546 0.018213406 -0.081765056 0.13801035 -0.046479777 -0.105156474
0.11202659 -0.011386339 -0.18509889 -0.048773073 0.12751724 0.098938875 -0.21269137 -0.060251582
-0.06446748 -0.08193058 -0.41147748 -0.06267942 -0.029856097 0.11591294 -0.15180174 0.05659831
0.03327513 -0.0022209443 -0.38189527 0.03514663 -0.07079677 -0.12871046 -0.23322684 -0.047219872
0.08936038 -0.12855154 -0.22378062 0.022478538 0.02473129 0.04631109 -0.3126006 -0.107310556
-0.0704807 -0.07290678 -0.31264782 0.08873831 -0.04705772 -0.11859819 -0.41911602 0.0860085
0.0012048616 0.11104881 -0.27489227 0.08785549 0.12138715 0.054832418 -0.42481402 0.05211333
-0.11738367 0.011442957 -0.060700256 -0.150652 0.04050903 0.0052186474 0.08609851 -0.027398733
-0.14372292 -0.10146443 -0.07026872 0.034488183 -0.1116417 -0.01872057 0.1203191 -0.10169992

linear1.bias f4 [24]
00000000: ec29 b6bc aafb d4bc 7b9f 97bc e8d5 eebd
00000010: 9032 45be 8e1b 493d bd62 ab3e 0496 9e3f
00000020: 14a0 65c0 5179 e5bd 1cfd 44bd 488a 843c
00000030: b897 ad3d 87a5 e0bd 7c38 0dbd d9fa 0540
00000040: ef0a 10be a32b bf3c 490c 07be ee3d d3bd
00000050: dc9c ecbb 806b 7f3c 8052 d8bb 977a 2dbd
-0.022236787 -0.025998909 -0.018508663 -0.11661893 -0.1925757 0.049098544 0.3347377 1.2389531
-3.5878954 -0.1120478 -0.048092946 0.016179219 0.08476204 -0.10969072 -0.034477696 2.0934355
-0.14066671 0.023336237 -0.1318828 -0.103145465 -0.0072208475 0.015589595 -0.0066016316 -0.04235324

linear2.weight f4 [12, 24]
00000000: 6450 373e 4587 a5bd 5788 11be eaef c3bd
00000010: ab9a 87bd 4a20 f6bd d130 f73e bff5 873e
00000020: f6a4 44bf c07a fabc ccba 0c3d 40a8 093e
00000030: 212c a9bd 7050 033e 0091 3c3b 4094 2bbf
00000040: 882f 833c 6df8 d0bd 1123 3bbe 3c6d 21bd
00000050: 7286 dabd 80bd c03c bec6 db3d c886 fd3d
00000060: 861d 223e f97a 2abc d266 193e ec03 e2bd
00000070: 4199 b33d 05c9 e5bd b346 c83c 1c98 0fbd
00000080: 07a9 e0bd 20c8 4e3d c001 66bc 713e 30be
00000090: 8c96 483e 3cd8 4b3e 31a3 46be df21 cabd
000000a0: 186e df3d 2c46 f5bd 9859 de3d b6ca 8cbd
000000b0: 3856 c53d f668 f5bd e0c0 b93d 3785 aabd
000000c0: 08d0 863d 623b c33d 8afa 3e3e 147d b1bd
000000d0: a951 253e 11c5 5e3d 335d 1a3f eddf cb3f
000000e0: 5fb5 b1bf f5ad ef3d a046 4a3d 857f 5d3d
000000f0: f9e5 ffbd a8c2 22be 28f5 ca3d 36b2 59bf
00000100: 2a06 e3bd 3ed5 2fbe 1e16 3abd eb39 2ebe
00000110: ff4b 1cbe a0ca e9bd e8ad 173e eb17 d63d
00000120: a98f c0bd f780 333d 6473 a73d e21c 043e
00000130: 4562 f5bd 3ea7 213e f71e a1be 1c48 7f3f
00000140: 9d0c 483f cf5b d13d e06c d0bc 883f 133e
00000150: 5f53 37be 28c5 98bd 0c13 3bbd 2e94 1bbd
00000160: 29a9 ebbd f617 ccbd 7b46 c7bd c441 cdbc
00000170: 5675 323e d8e3 af3d abe4 a93c 1bb8 d13d
00000180: 9953 033e d3e8 043d 9636 e63d 46e4 2b3e
00000190: 2c1b 2b3e 00dc 653d d323 193d cdc8 6cbe
000001a0: 77be c1be a574 d9bd 9813 493d f374 93bd
000001b0: c041 dc3d b4cc 9d3d b0af 3e3e 1bdb f03c
000001c0: cec6 c0bd 2cac 2b3e bef0 d23c 347e dfbd
000001d0: 796a 2bbe b90d 123e 87a9 453e 2cf5 2dbe
000001e0: c696 fcbd 829c b43d d7b8 18be 97a6 45be
000001f0: 5023 973d 64d7 123d 2b8b ccbf 2e92 28be
00000200: c3de efbc 14ea fabd 840d 233e df83 153e
00000210: 9551 dcbd 2c72 1e3d b477 0c3d 68d8 37bf
00000220: dc66 1a3e e995 37bd 1950 d7bd ae3e 62ba
00000230: ae6b 07be 5939 b1b8 2a99 5ebd 5493 b9bd
00000240: 14e4 99bd 4a0f 9fbe 7e2d 22be a897 9dbc
00000250: 8252 ad3d 7580 693d 652a 9d3d 8b50 013f
00000260: 552a c4bd a323 86bd 64b1 da3d 8f56 f13d
00000270: a0c3 27bc e90e b3bd b022 d2bc a78d 633e
00000280: c8b9 35be e488 3bbe 52b3 04be b5bb f4bd
00000290: a39c 2c3d 5419 41be d818 a23d a010 0d3e
000002a0: 4771 443c 1c17 8cbd 3094 0dbe 9148 24be
000002b0: e214 4a3e 6f29 e13d a15e da3c ad5c 343e
000002c0: 42b2 0c3e 211a 253d e869 65bd 1777 863c
000002d0: 2a2f 7d3d 2e78 493e 99f1 f5bd 939a 033f
000002e0: 0476 ca3d 4ee4 ffbd 10b2 8cbd ec3e 18be
000002f0: f314 c5bd 3802 3ebe 0784 063d 5c3b cb3d
00000300: 448e f73d 5f19 2cbe 54e4 be3d 6212 153e
00000310: 305c 493c d81d 16bd 995b f73c aa67 01be
00000320: 1ccc 83be 9000 96bc da23 31be e401 fc3d
00000330: 5ebf dabd c853 d53d 6c4d 393e 8913 17bd
00000340: 70bb 433e e4df 763c e451 183d d0ab 77bc
00000350: ca71 90bd 2828 853d 2424 cebd 0c9c 1e3d
00000360: 1033 233c 02ad 28bd 61e4 62bd 4038 8f3d
00000370: b2da 1dbe 7c5f dbbd 919f f13e 0437 c6be
00000380: 5772 1c3f 280f 6d3c 9c58 953d a6a2 243d
00000390: abed eabd 609a bbbd 1046 353d 66b7 073e
000003a0: ba58 26be fa73 1f3e c7a1 10bd f166 073e
000003b0: 1d62 29be bf64 04be 935d 4c3e 5681 543d
000003c0: e2fc d7bd 49b5 20be c0bd 3cbe a8bc 743d
000003d0: 91a2 a63c d524 0bbd 3ad3 653e 517d 7b3f
000003e0: e4d2 8abe 98a3 86bc 88e7 c63d 81ef 1abe
000003f0: b2f3 f5bd fc2e bd3c 94f4 34be 932b f4bf
0.1790176 -0.08082441 -0.14212166 -0.09567244 -0.066212974 -0.120178774 0.4827943 0.26554677
-0.7681421 -0.03057611 0.03435783 0.13443089 -0.0826037 0.12823653 0.002877295 -0.67023087
0.016013876 -0.102036335 -0.18275096 -0.039410815 -0.10670175 0.02352786 0.107312664 0.12379223
0.15831575 -0.0104052955 0.14980629 -0.11035904 0.08769465 -0.11219982 0.024447775 -0.035057172
-0.109697394 0.050483823 -0.014038503 -0.1721132 0.19588679 0.19906706 -0.1939819 -0.09869742
0.109096706 -0.11976275 0.108569324 -0.068746015 0.096355855 -0.1198291 0.09069991 -0.0832619
0.065826476 0.09532811 0.1865026 -0.08666435 0.16144432 0.054387156 0.6029846 1.5927712
-1.3883475 0.117031015 0.04938376 0.05407669 -0.12495036 -0.15894568 0.09910041 -0.85037553
-0.1108516 -0.17171189 -0.04543125 -0.17014281 -0.15263365 -0.11415601 0.14812434 0.10453781
-0.09402401 0.043824162 0.08176306 0.12901643 -0.11981634 0.15786454 -0.31468937 0.99719405
0.78144246 0.10222589 -0.02544254 0.14379704 -0.17902897 -0.074594796 -0.04567246 -0.037983112
-0.11506874 -0.09965508 -0.0973024 -0.025055774 0.17427573 0.085883796 0.02073892 0.102401935
0.12824859 0.0324486 0.1124088 0.16786298 0.16709584 0.05611801 0.03738768 -0.23123474
-0.37840626 -0.10617951 0.04909095 -0.07200041 0.10754728 0.0770506 0.18621707 0.029401353
-0.09412919 0.16764897 0.02574956 -0.10912743 -0.16739835 0.14263047 0.19302951 -0.16988057
-0.12333445 0.08818914 -0.14914261 -0.1930183 0.07379782 0.035849944 -1.5979971 -0.16462013
-0.029281026 -0.12251678 0.15923125 0.14601086 -0.10757748 0.0386831 0.034293845 -0.71814585
0.150783 -0.0448207 -0.10513324 -0.0008630556 -0.1322467 -8.4506995e-05 -0.054345287 -0.09061304
-0.075142056 -0.31066352 -0.15837666 -0.019237354 0.08463003 0.05700727 0.07674102 0.50513524
-0.09578387 -0.06549766 0.10678366 0.11784088 -0.010239512 -0.08743078 -0.025651306 0.22222005
-0.17746651 -0.18313938 -0.1295903 -0.11949865 0.042141568 -0.18857318 0.07914895 0.13775873
0.011989898 -0.06840345 -0.1382606 -0.16043307 0.19734529 0.10994231 0.02665645 0.17613478
0.13739875 0.04030812 -0.056009203 0.016414208 0.061812557 0.19674751 -0.12008972 0.51407737
0.09885791 -0.124947175 -0.068699 -0.14867753 -0.09623136 -0.18555534 0.032840755 0.09923431
0.12087682 -0.16806553 0.09320894 0.14557794 0.012290046 -0.036649555 0.030195044 -0.12637201
-0.2574166 -0.018310815 -0.17298833 0.12305048 -0.10681032 0.10416371 0.1809594 -0.036883865
0.1911447 0.015068028 0.037187472 -0.015116647 -0.070529535 0.065018 -0.10065487 0.038723037
0.009960905 -0.041180618 -0.05539358 0.06993151 -0.15415457 -0.107115716 0.47192052 -0.3871385
0.6111197 0.014468946 0.072922915 0.040194176 -0.11471113 -0.09160304 0.04425627 0.13253555
-0.16244784 0.15571585 -0.035310533 0.13222863 -0.16541333 -0.12929057 0.1995757 0.051881157
-0.105462804 -0.15694155 -0.18431759 0.05975023 0.02034119 -0.033970673 0.22443858 0.9823809
-0.27114022 -0.01643543 0.0971213 -0.15130426 -0.12009372 0.023093693 -0.17671424 -1.9075798

linear2.bias f4 [12]
00000000: 7820 05c0 a2e6 3dbe 8699 40bf 76b4 b1bf
00000010: 27ac 22be b4fc 87ba 74fc 28c0 5cb9 81be
00000020: a873 2ebe 3cd2 67c0 620d 88bf adc6 e93f
-2.0801067 -0.1854501 -0.7523426 -1.3883197 -0.15885983 -0.0010374994 -2.6404085 -0.2533673
-0.17036307 -3.6222067 -1.0629084 1.8263756

linear3.weight f4 [1200, 12]
00000000: dfed 4e3e 3025 febd 2e55 9abd e03c cdbe
00000010: 332f c83d 19e9 d4bd fec2 9d3e 8338 14bf
00000020: 6c43 abbd b685 f9be b78f e0be 0a7e ab3d
00000030: f91f 7ebe a8e4 423e cade babd de28 efbd
00000040: c0ad 0abe 159b 303c 27a9 a2be c106 d33c
00000050: 5052 dbbc 95c8 b8be 33c0 a93b 1143 3bbc
00000060: c978 65bf 43aa 7fbe 2e3c e13e c9a4 3ebf
00000070: dc05 e53d e0ba a3bc d160 b43e cf8e 8dbe
00000080: fb94 7fbe d901 5b3e 7bef 673d e786 533f
00000090: 2892 9ebe 2130 8bbe 13f6 29bf 970f abbe
000000a0: 58f9 533e e0b5 3abe d798 f23d d1cf 063d
000000b0: eeaa 213e 07a8 12bf e7ee 2fbe 00ee 13be
000000c0: 3814 6dbe 7e5d 2c3e ebd3 b1be 85fa 13c0
000000d0: eab5 483d 78d1 2abe 6d98 81be 5de6 ee3e
000000e0: f551 a63d f62a 533f b55b 38bc 64fa a03d
000000f0: e8f0 28bd 3e80 153e 3d83 053d 7228 e0ba
00000100: fbff 963d f067 f8bd 0924 1bbc 8013 32be
00000110: 8893 673e eb9f 20be 49ba 90be 4f3a 39be
00000120: 950f 52bf f15b cd3c 064d 62bf 0846 ef3f
00000130: facc f3bd cebb 833e 4044 383e 6864 ac3f
00000140: 8159 4dbe 9998 a8bf 7f02 abbf faca 41bf
00000150: 960d a6c1 48aa 643e 9d1f 15bf caaf 77bf
00000160: 1b78 1b3a 0717 b13e 64b6 9a3e 7d67 01c0
00000170: dfd3 283c e468 503d df57 963d c736 9d3b
00000180: 69e2 193e 1fa1 1cbe 5034 12be 13a7 14be
00000190: 5817 0b3d dc14 84bd 0293 6abe 7bd6 92be
000001a0: d82b 283d 84be 82be 9c1a a5bd 84fa 29be
000001b0: 6457 58be 7cbb 2abd 1030 c0bf 6b4f 76c0
000001c0: 7614 0a3d 3d50 44bd e8f2 193e a1f7 2cbf
000001d0: 4d91 2fbd 5185 1ebf 1310 bcbf 1f7f 863f
000001e0: 4200 65bf 706f 813e 9e46 6c3e 6339 6dbf
000001f0: 013c 57be 7cf5 2bbe 2c07 a2be bf12 21bf
00000200: d64f f23d c9a7 73bf 7888 2b3e 9862 e33c
00000210: 900c 80bc ffe9 7dbd d74f 0a3d 0e4f d0be
00000220: eec4 fb3d 9a32 06bd eed5 6d3d a239 873c
00000230: c0e9 5fbc b39b 02bf 602e cdbe 87d7 f0bd
00000240: 95bd 08bf b2d0 e83c 39eb d43d 08af 0dbf
00000250: ee4d 273e 08dc b9be db68 74bf 98ba 9bbf
00000260: 00fe 813e 3d73 00bf 694c f3bc 8f7a 9f3e
00000270: cefd a1bd ccac 0dbe 4162 f0bc 5271 d0bd
00000280: 49f9 313d 414d fbbd bbfa cb3d e8dd 50bd
00000290: 508f b5bd 93ad d5bd 6722 58be 788f 58be
000002a0: 5dfd e13d 14e1 963d 20af 27be 8eec 15be
000002b0: 2007 19bd 7f49 493e 4e1e 28bd 9795 1dbe
000002c0: 000f a7ba 078a b9bd 3c0a d4bd 8767 82be
000002d0: 14b3 c7bf 4cc0 9fbe 3aa6 6a3e 7d70 74bf
000002e0: 44a4 62be 846e 4f3e f74c 83bf 8a40 92c0
000002f0: cfae 273e d6ae 84be 8cb6 9cbf 6627 5b3f
00000300: 07d1 d23d b170 273e 3e19 6fbe e5a9 a8bd
00000310: 59fa 76be c810 6d3d 806a 4e3d 530e 70be
00000320: 518d 00be e62c afbe 5852 bebe 38d4 c53b
00000330: f01e ebbe 2464 9e3d f58a f5be 865c b6be
00000340: 6b03 793d 7238 f83d ea58 34be f25a 6abf
00000350: d0f0 813d 3193 7dbf 2f94 183e 1d78 8e3e
00000360: a24f ce3d 9d38 ae3d 1583 663f b826 24be
00000370: 09ed 57be ca59 873e aa49 2ebf d84b 0cc0
00000380: a238 263e 7177 d6bf c676 44bf 0289 9d3e
00000390: d8d2 6ebe e4a7 df3d 6eb0 43be 4004 76be
000003a0: 05bf 3abe 5252 9a3d 39ab 053e 6ec8 99be
000003b0: 42c1 f4bd 613f ecbd 28c8 b03d a024 443c
000003c0: d6c8 8bbf 9468 73bd 8bdf 2bbe 3f24 debf
000003d0: 54cf 14be cfc3 08bf 2ef0 d9bd c725 993f
000003e0: ce05 12be d7da acbf cfa6 8bbf 6876 b43e
000003f0: 8269 af3d 48bf 383d adb4 8dbe 2b15 91be
0.20207928 -0.12409437 -0.07535778 -0.40085506 0.097746275 -0.10396022 0.3081283 -0.5789873
-0.08362469 -0.48734826 -0.43859646 0.083736494 -0.24816884 0.19032538 -0.09124525 -0.11677717
-0.13542843 0.010779162 -0.31769678 0.025760056 -0.026772648 -0.36090532 0.0051803826 -0.011429564
-0.8963743 -0.24967293 0.43991226 -0.7447019 0.11182758 -0.01998657 0.35230115 -0.27648017
-0.24959175 0.21387424 0.05662487 0.8262772 -0.30970883 -0.27185157 -0.66391104 -0.33410332
0.20700586 -0.18233442 0.11845558 0.032913033 0.15787861 -0.5728764 -0.17180978 -0.14446259
-0.23152244 0.1683254 -0.34731993 -2.3121655 0.04900161 -0.16681468 -0.25311604 0.46660128
0.08121101 0.8248743 -0.011252333 0.07860258 -0.04124537 0.14599702 0.03259586 -0.0017101897
0.07373043 -0.121291995 -0.009469041 -0.17390251 0.22614872 -0.15686004 -0.28267124 -0.18088649
-0.82055026 0.025068255 -0.8839878 1.8693247 -0.119043306 0.2572922 0.17994785 1.3468142
-0.20053674 -1.3171569 -1.3360137 -0.7570034 -20.756634 0.22330582 -0.58251363 -0.9675261
0.0005930678 0.3458788 0.30217278 -2.0219414 0.01030442 0.05088128 0.07340979 0.0047977897
0.15027775 -0.15295838 -0.14277768 -0.14516859 0.03395781 -0.06449291 -0.22907642 -0.2867926
0.041057438 -0.25535977 -0.08061716 -0.1659947 -0.21127087 -0.041682705 -1.5014668 -3.8485973
0.03371092 -0.047928084 0.15034068 -0.6756535 -0.04286318 -0.61922175 -1.4692405 1.0507544
-0.8945352 0.25280333 0.23073813 -0.9266569 -0.21018983 -0.16792864 -0.31646097 -0.6291923
0.11831634 -0.95177895 0.16751277 0.027756974 -0.01563099 -0.061990734 0.033767547 -0.40685314
0.12293421 -0.0327631 0.058065347 0.016506974 -0.01366657 -0.5101883 -0.40074444 -0.117598586
-0.5341428 0.028419826 0.10396428 -0.553452 0.16338322 -0.36300683 -0.95472497 -1.2166319
0.253891 -0.5017584 -0.029699521 0.31148192 -0.079097375 -0.13835448 -0.029343726 -0.10177864
0.043450627 -0.122705944 0.099599324 -0.050992876 -0.08865225 -0.10433497 -0.21106873 -0.21148479
0.11034653 0.07367149 -0.16375399 -0.1464102 -0.03736031 0.19656943 -0.041044526 -0.15389095
-0.0012745559 -0.0905953 -0.103535146 -0.2546961 -1.5601525 -0.31201398 0.22914973 -0.95484143
-0.22132975 0.20257002 -1.0257863 -4.5703783 0.16375278 -0.2591464 -1.2243209 0.8560699
0.10293775 0.16351582 -0.23349473 -0.0823553 -0.24118938 0.057877332 0.050394535 -0.23442964
-0.12553908 -0.34213942 -0.37172198 0.0060372613 -0.4592204 0.07733944 -0.47957578 -0.35617465
0.060794275 0.12120141 -0.17612043 -0.9154502 0.063447595 -0.9905272 0.14900278 0.27826014
0.100737825 0.08506892 0.90043765 -0.16030395 -0.21086515 0.2643569 -0.6808115 -2.1921291
0.16232541 -1.6755201 -0.76743734 0.3076859 -0.23322618 0.109206945 -0.19110271 -0.24025059
-0.1823693 0.075352326 0.13053598 -0.30035728 -0.119509235 -0.11535526 0.08631927 0.011971623
-1.0920665 -0.059425905 -0.16784494 -1.7354811 -0.14532214 -0.5342378 -0.10641514 1.1964654
-0.14260027 -1.3504285 -1.0910281 0.35246587 0.08565046 0.045104295 -0.27676907 -0.28336462

linear3.bias f4 [1200]
00000000: a911 7cbe 4298 b1bd cc52 0040 56a7 babe
00000010: 35ed 933f cb91 a1bd f417 cf3d cfa2 e43f
00000020: 94d6 a9be dceb f23f 3d47 d93e c77d ebbd
00000030: aaef 393e d6a7 47be 9913 3dbe cfd7 473f
00000040: 9c60 64be 2476 f83e 8b86 3d3f 5047 65be
00000050: 2e62 173f 4cb1 b1be 26ea 89be 275e ecbe
00000060: 5d72 bbbd a8df 1c3e 3bcc 82be 4ac3 4ebd
00000070: d13f 193d 0a3a 02c0 ca6b ecbd 22dd 0fbe
00000080: 8332 5e3e 813d 92be f0df 2440 aa41 a9bd
00000090: 55e0 1ebe 7d2a a2be 4ec7 08bd 72e7 9cbd
000000a0: 895e 623f d5ca 5ebe c2c0 f03e 41af e7be
000000b0: e240 8dbe 1335 9bbd dd57 39be a1cc 34bf
000000c0: 7e78 35bf 83e0 32bd f19a b4be 9a8a 9bbc
000000d0: 2ad4 d0be 0383 66be 2fe7 26be 31d7 c2be
000000e0: 1d44 2bbf 3bfb ecbd 1feb 963c a0a8 d5bd
000000f0: 3058 bebd e21f e2bd b806 efbd 2500 e1bd
00000100: 134d c4bd 4ecf 953e 7e45 75bc 77aa e2bd
00000110: 3dfe d7bd 2f35 a0be 7eae ffbd 1de1 18be
00000120: 54d7 06be 45a8 00bb c7dc e2be e17f 3abe
00000130: baef 01bf d084 f8bc 5efe 00be ba66 223e
00000140: 2fb8 01bf b237 90bd 8108 94bd 1c24 8cbe
00000150: e625 96be 69a8 80bc a224 e4be 7a59 6dbe
00000160: 7ae2 5a3f 6c7b 03be b0c4 5cbe 72be c9be
00000170: 9df1 0cbe ecc9 ecbe d4ad f23f 9ff6 41be
00000180: 58cf 61bf 67d6 97be 7750 8dbf 49dd efbe
00000190: 6c98 953f 48d5 a1bc 0521 abbe 766a 3fbf
000001a0: d27d 82bd a833 8ebe 91d2 1fbf f6e8 783f
000001b0: 5fc9 27bd cd3f 2cbe be4a a0be 8c61 2ebe
000001c0: 9f30 7dbe 5f5c 9ebe 40b5 54be 16b9 53be
000001d0: 09a1 a0be 2291 0b40 cf30 10bf 22f7 20be
000001e0: 6942 88be 61d7 24be e4f1 22be 6109 e4be
000001f0: 5573 f4bd 0ef2 97be 0341 aabe c579 89bd
00000200: 58d5 efbb ad87 bfbe 3876 52be bcd1 b7be
00000210: 25d8 b5bc 6de1 8dbd 26c3 62be 1bf4 b3be
00000220: c8fa 4dbe f357 47bd 7ce6 bfbe fcf6 01bd
00000230: a702 0cbe 3638 193e 6698 0bbf c714 47bd
00000240: 98a4 f3bc 373b 28c0 3e8b 06be f399 923e
00000250: d4a1 d9be 2d1d 04be 3a4f 45be bf42 31be
00000260: b733 a0be 12ee ccbe d45c e3be 3504 493e
00000270: d085 b3be 8678 b3be 066b c3bd f395 6dbe
00000280: b25e c53f 8890 00be 7b0c 8fbe b606 3abd
00000290: 506e 9ebe 5207 1f40 ea66 84be 9ed4 aabe
000002a0: fdcd 2dbe a030 88be 9975 08bc 99b3 a8be
000002b0: 7faf 46bc 5ed6 8cbe af49 7640 c8b3 f23d
000002c0: 5acc 44bf 0e2a a0bd 8968 d2be 3cf8 88be
000002d0: 6329 683e f281 5bbc ca29 8940 5d2b 94be
000002e0: 7204 23bd d46a ddbd 566e 31be 2dee efbd
000002f0: 5441 fd3d df2a 00bf b991 83be ad7b 1cbe
00000300: 72c1 cbbe 8543 cfbe a15a c43c 1493 4fbd
00000310: 94c8 cbbe 3f96 01ba a711 91be 5c4d 04be
00000320: 83e6 ddbe 40f3 333f 47b0 15c0 ef9f 70bd
00000330: 7f3e c3be 5ede 15bf cb15 81be 4583 023f
00000340: 1b24 d2bd 1fd5 96be eefa 12be ddbf c4be
00000350: ef82 9dbe 294f 2cbd 53e6 39be 9c6a 6abe
00000360: fc04 2fbf 9a7c 933e a8d9 47be c37b 913d
00000370: f18d 19bd 0863 c1be 8869 2abe 4f01 a9be
00000380: 9588 b1bd d329 a9bc 9ee7 c0be 03ba 7dbf
00000390: e12b 0abf 64cc febe e987 c13e 4a35 173e
000003a0: 1005 eabe 5bd8 dfbe 5716 2ebe 12d0 4b40
000003b0: 1aab ecbe ce5e cabe fea8 84be 3b40 b2be
000003c0: edf0 493e bda7 0bbf 125c 0ebb 6fa1 9cc0
000003d0: fc92 74be 1d83 bfbe 2f5e 1abd f8eb 78be
000003e0: 84c0 9ebe fc40 0b3e fb2a 01bf a5c0 36bf
000003f0: d61c f1be f1d6 f5bd 059c 93bd f747 803e
-0.24616112 -0.08671619 2.0050535 -0.36455792 1.1556765 -0.07889136 0.101119906 1.7862185
-0.33171523 1.8978229 0.42437163 -0.114985995 0.18157831 -0.19497618 -0.18464507 0.7806367
-0.22302479 0.48527634 0.7403342 -0.22390485 0.59134185 -0.3470558 -0.26936454 -0.46165583
-0.091526724 0.15319693 -0.2554644 -0.05047921 0.037414376 -2.0347924 -0.11543997 -0.14049199
0.21698956 -0.2856255 2.576168 -0.082644776 -0.15515263 -0.3167304 -0.033393197 -0.07661332
0.884255 -0.21757062 0.47022063 -0.45250896 -0.27588564 -0.075784825 -0.18099923 -0.7062474
-0.7088698 -0.043671142 -0.3527446 -0.018986989 -0.40786868 -0.22510915 -0.16299127 -0.38054803
-0.6690081 -0.11571356 0.018422661 -0.10432553 -0.09294164 -0.110412374 -0.116712034 -0.10986356
-0.09585013 0.29259723 -0.0149701815 -0.1106767 -0.10546539 -0.31290576 -0.124844536 -0.14929624
-0.13168079 -0.0019631546 -0.44309065 -0.18212844 -0.5075642 -0.030336767 -0.12597033 0.158595
-0.50671667 -0.07041873 -0.072281845 -0.273713 -0.2932579 -0.015705304 -0.445592 -0.23178664
0.85501826 -0.1284005 -0.21559405 -0.3940311 -0.13764043 -0.46247804 1.8959298 -0.18941735
-0.88207006 -0.29655764 -1.1040181 -0.46848515 1.168714 -0.01975502 -0.3342363 -0.7477182
-0.063716546 -0.27773786 -0.62430674 0.9723047 -0.040963527 -0.16821213 -0.31307024 -0.17029399
-0.24725579 -0.3092985 -0.20772266 -0.20676073 -0.3137286 2.1807332 -0.56324476 -0.15719274
-0.26613167 -0.16097786 -0.15912586 -0.44538406 -0.1193606 -0.2967686 -0.33252725 -0.06712679
-0.0073191337 -0.374082 -0.2055291 -0.35902202 -0.022197792 -0.06927762 -0.22144756 -0.35147175
-0.20115197 -0.04866786 -0.37480533 -0.031729683 -0.13672887 0.14962849 -0.54529417 -0.0486038
-0.02974157 -2.6286142 -0.13139054 0.2863308 -0.42506278 -0.12901755 -0.19268504 -0.17310618
-0.31289455 -0.40025383 -0.4440676 0.19630511 -0.35063028 -0.3505289 -0.095418975 -0.23201732
1.5419524 -0.12555134 -0.2793921 -0.045416556 -0.30943537 2.4848218 -0.25859767 -0.3336534
-0.1697311 -0.26599598 -0.008328819 -0.32949522 -0.0121268025 -0.275073 3.8482473 0.11850697
-0.76874316 -0.07820521 -0.4109538 -0.26751888 0.22672038 -0.013397681 4.286351 -0.28939334
-0.03979916 -0.108113915 -0.17327246 -0.1171535 0.12365976 -0.50065416 -0.25697115 -0.15281554
-0.39796025 -0.404812 0.023968996 -0.050677374 -0.39801466 -0.0004943348 -0.2833378 -0.12920135
-0.4333993 0.70293045 -2.338884 -0.058746275 -0.38133618 -0.5854243 -0.2521194 0.5098155
-0.10260793 -0.29459473 -0.14353535 -0.3842763 -0.30763957 -0.04206768 -0.18154268 -0.22892231
-0.6836698 0.28806 -0.19516623 0.07103684 -0.03748888 -0.37770867 -0.1664182 -0.3300881
-0.08668629 -0.020649826 -0.3767671 -0.99111956 -0.53973204 -0.49765313 0.37799004 0.14766422
-0.45706987 -0.43719754 -0.1700071 3.1845746 -0.4622429 -0.39525455 -0.2591018 -0.3481463
0.19720812 -0.54552823 -0.0021722359 -4.8947062 -0.23884195 -0.3740472 -0.037687477 -0.24308765
-0.31006253 0.13599008 -0.5045621 -0.713877 -0.47092313 -0.120038874 -0.07207493 0.25054905

linear1.weight f4 [12, 1200]
00000000: 36a0 983c 900c c339 5d69 20be ac79 95bc
00000010: e089 323c b29f 8dbd e07b b8bd a187 0ebe
00000020: 2c97 d9bc 2bec 48bd 22fb e83d c9b8 87bc
00000030: 30af 72be 945f 2cbc 0869 e9bb 1c55 f73b
00000040: 6365 a4bc 163d cabc f8c6 cabd 33d2 e73b
00000050: 8df0 3abd b235 96bc ea99 edba bf79 983a
00000060: 0da7 003c 490f 27be 31b2 e8bc 7eea 2ebc
00000070: ec1c 0c3d eb74 adbc 8ab1 d33b 30e1 23bd
00000080: 1ff4 f5bc 5abf 4bbc c714 39be 9d29 253b
00000090: b24f a43c d890 40bc df94 99bc 2baa d7bd
000000a0: 0569 703b 0f7a 3e3d 6504 acbd 5bb9 dd3d
000000b0: 1cb3 e03b ac50 b7bd 2c05 8dbc ba32 353c
000000c0: 6d5b 12be fbc8 183d 9c83 9fbb 9e21 ad3c
000000d0: b868 9b3c f49c 8f3c 42f5 f63c d18b 4bbc
000000e0: 9c1d 67bd 3529 3abb ec3a e4bc 4097 9c3c
000000f0: d9c9 f0bc 8d33 153c 5281 fabc 206c c13a
00000100: b05f 41bc 9b51 74bc 8192 dabc 083a 6d3c
00000110: 3210 bc3c 6282 913c 232c 9e3c 3630 883c
00000120: 685c b3bc 5d81 e0bc d058 273d 548e 633c
00000130: 5235 0e3e b4b6 eebb 68a8 093b 1a26 42bd
00000140: 201f 2eba 1f1b 053c 3cf0 583c fdac 913c
00000150: ca21 e23c 0eb8 fabc f1e8 b1bd 31e8 0fbc
00000160: 5959 13be a57e 9dbb b855 9cbc c542 06bd
00000170: 3ae5 9c3c 4dd2 a73d 2466 debc 388c b93b
00000180: 02ee 91bd d69e b1bc 5106 8f3d 5a5c 02bd
00000190: 78d8 5ebd 018f 8bbd 551b d23c 2061 65bc
000001a0: aa71 c6bc a881 dc3b fcb0 d13c 2c7a 7ebd
000001b0: 8e73 e73c e9f9 e9bc 4791 32bd 042c 193c
000001c0: 184c dbbc a68c e23c 8a29 023c 90de 92bc
000001d0: 8bb2 983c b063 d2bc 510e 4bbc bffb 72bd
000001e0: 98a5 1b3c f475 c43c 922a a53c 675c 1e39
000001f0: c682 923c 424a cb3c 7b17 b53c f191 95bc
00000200: ed41 f63c 7fd2 603c b659 fabb 0925 05bc
00000210: 0120 8fbd fa95 36be 995c fc3c 0bae fa3c
00000220: e7ef c238 9462 c03a c8ce b0bd 40d6 e2bc
00000230: b832 81bb 8f03 0dbe c0ba 033e 7615 903c
00000240: 961c 29bd c8b6 f5bb 0f5e 013c 1c96 f2bd
00000250: 0a11 b13c c8ca de3c 4023 553c 7697 873c
00000260: 9177 c93c a6f9 e43c 3874 a1bd 1176 16be
00000270: 288e 0d3d 503d 2b3b c69d ddbe fa1b 9dbc
00000280: f657 533d 6caa 49ba 774b c2bc b844 ba3b
00000290: 16f4 d73c 4d3a 053d 8004 8e39 c0e8 1a3a
000002a0: fb91 4d3c 3a0d 533d 861b 363c 40d9 85bc
000002b0: 53c9 9d3c 80c8 39b9 cdbd e8bd 9870 b63c
000002c0: f670 253e aca8 e2bb f811 0cbb 4c3c a0bd
000002d0: 47d3 f3bd 76c7 6cbd 58aa 043b fc0f b1bc
000002e0: 284e a7bc daec 8bbc 1e9c a53c 31c5 21bc
000002f0: 78f9 4b3c 8944 b13c e035 483c c53b 0bbb
00000300: 1adf 0fbe 1322 14be b82e c6bc 660b dc3d
00000310: a733 9a3d d141 42bd ca5d 07bc e651 3cbc
00000320: 21ac c038 7144 4cbe 84a1 9bbd 8e45 dfbc
00000330: 7077 d73c 31d3 883d d660 afbc 12dc 4dbd
00000340: fe6c 91bc 4f7d 853c dc4f 0bbe fb6c b83b
00000350: ada7 99bd 0c93 8e3c f399 0c3c b4ca 0abd
00000360: a79e 8d3c 5eb1 7abd afcd fcbc 4dcc a7bc
00000370: f29d 11bd 0aa9 d83c c105 863a 6512 3fbd
00000380: d0a6 cbbb 1545 94bc 145a b23c e1f3 f1bc
00000390: 9aaf 42bc 3e87 653d 105d 2ebe 6fc0 05be
000003a0: e0d2 403d 858b 373d fd39 893c 81ea 0cbd
000003b0: c769 d53d 483d b43b ef62 3dbc d7e0 cb3b
000003c0: de6e 593e 5ea3 55be 5a0a 8c3c f751 abbc
000003d0: 7038 b83c d155 7cbc aa46 a03c 60d2 7a3b
000003e0: 00df 4aba 528a cabb 7926 9b3c 8435 9c3d
000003f0: 8d05 c2bc 6031 e93c 3642 85bd 7553 29be
0.018631082 0.00037202658 -0.15665193 -0.018246494 0.01089713 -0.06915225 -0.09008002 -0.13918926
-0.026561342 -0.049053352 0.11376025 -0.016567605 -0.23699641 -0.0105208345 -0.0071231164 0.0075479876
-0.020067876 -0.024687331 -0.099012315 0.0070746182 -0.045639563 -0.01833615 -0.0018127535 0.0011632963
0.007852328 -0.16314425 -0.02840528 -0.0106760245 0.03420727 -0.021173915 0.0064603733 -0.040009677
-0.030023633 -0.0124357585 -0.18074332 0.0025201805 0.020057533 -0.011753283 -0.018747745 -0.10530504
0.003668369 0.046503123 -0.08399276 0.108263694 0.006857289 -0.08950934 -0.01721438 0.011059457
-0.14292689 0.037301045 -0.004867984 0.021134194 0.018970832 0.017530896 0.030146245 -0.012423472
-0.056424722 -0.002840591 -0.027860127 0.01911509 -0.029393123 0.009106529 -0.030579243 0.0014756955
-0.011802599 -0.014912034 -0.026681187 0.014479168 0.022956941 0.017762367 0.019308155 0.016624551
-0.021894649 -0.027405435 0.040856183 0.013888914 0.13887528 -0.0072849635 0.002100492 -0.047399618
-0.0006642211 0.008124142 0.01324087 0.017782683 0.027604003 -0.030605342 -0.08687008 -0.008783386
-0.14389552 -0.004806357 -0.019083843 -0.03277852 0.019152272 0.081944086 -0.027148314 0.0056624673
-0.071254745 -0.021682184 0.06983627 -0.031826355 -0.05440566 -0.06814385 0.025647799 -0.014000207
-0.024224121 0.0067293234 0.025597088 -0.06212823 0.028253343 -0.02856155 -0.04359558 0.009348873
-0.026769683 0.027654957 0.007944474 -0.017928392 0.018639823 -0.0256823 -0.01239355 -0.059322115
0.00949993 0.023982026 0.0201619 0.00015102477 0.017884623 0.024815682 0.022105923 -0.018258067
0.030060733 0.013722061 -0.007640089 -0.008126506 -0.06988526 -0.17830649 0.030805873 0.030600568
9.295326e-05 0.0014677816 -0.086331904 -0.027690053 -0.0039428137 -0.13770889 0.12864208 0.017588358
-0.041287027 -0.007498596 0.0078959605 -0.11845037 0.02161457 0.027196303 0.013008893 0.016551714
0.024593147 0.027951073 -0.07883495 -0.14693476 0.0345594 0.0026129074 -0.43284434 -0.01917838
0.051597558 -0.00076929363 -0.023717625 0.0056844614 0.026361506 0.032526303 0.00027087703 0.0005909316
0.0125470115 0.051526286 0.011114961 -0.016338944 0.019261038 -0.00017717667 -0.113643266 0.022270486
0.16156372 -0.00691708 -0.0021373015 -0.07824001 -0.11905532 -0.05780741 0.0020243134 -0.021614067
-0.02042301 -0.017080713 0.020216044 -0.009873674 0.012449615 0.021639125 0.012219876 -0.0021245342
-0.1404995 -0.14466123 -0.0241922 0.107443616 0.07529383 -0.04742605 -0.008262107 -0.0114941355
9.187335e-05 -0.19947983 -0.07599166 -0.027254846 0.02630207 0.066809066 -0.02140848 -0.050258704
-0.017752167 0.016295103 -0.13604683 0.005628226 -0.07502685 0.017404102 0.008581626 -0.03388472
0.017287565 -0.061204307 -0.030859796 -0.02048316 -0.03555102 0.026447792 0.0010225103 -0.0466484
-0.006214954 -0.018099347 0.021771468 -0.029535236 -0.011882687 0.05603718 -0.17027688 -0.13061689
0.047076106 0.04481079 0.016751284 -0.034403328 0.10420566 0.0055004694 -0.011559232 0.0062218714
0.21233699 -0.20863101 0.01709478 -0.020913107 0.022487849 -0.01540132 0.019564945 0.0038272366
-0.0007738918 -0.00618104 0.018939244 0.07627395 -0.023684287 0.028465927 -0.06506769 -0.16535743

linear1.bias f4 [12]
00000000: e7f2 1bbf 5d89 e0bb e438 a840 3e3f 8bbd
00000010: 82de 12c0 c4d7 9bbd d709 913f 888d 5ebd
00000020: 4af2 a4bd 8570 76c0 68a1 2fbd 0274 e2bc
-0.60917515 -0.0068523125 5.2569447 -0.06799172 -2.2948308 -0.076095134 1.1331128 -0.054334193
-0.080540255 -3.8506176 -0.04287854 -0.027643207

linear2.weight f4 [24, 12]
00000000: dde8 37be f61d f3bd bf69 b8be ab41 14bd
00000010: 4017 a0bd c1ee d0bd 66ef a3bc ed55 81be
00000020: 90e5 733e f673 eabb 0237 3fbe 22ec 8e3e
00000030: 7e68 79be 33bb c43d 2241 98bd e3b5 7f3e
00000040: 9296 7abe f19a f2bd bb67 67be d0e9 8c3d
00000050: 8cfa 62bd fc67 21bc ada7 6b3e 009c 7e3b
00000060: 8650 f23c f0e4 66be 3bc5 0d3e b43c 9c3d
00000070: 83dc ffbd 146f 853e c9cd 3b3e dbc8 df3d
00000080: f577 353e eff7 73be 955a e73d 3746 c9bc
00000090: 3809 693d 1a6c 493e 2527 00be 803a 99bb
000000a0: 469a 8abb 4a32 873e c03f 56be 38b3 043d
000000b0: 507b 793d 54a8 b1be c6c4 8b3e 661b 4d3e
000000c0: 84c7 f03c 405d a4bb 179b 94bd dc26 533e
000000d0: 125f 9fba f66f 98bd 172c 583e 71de 4d3e
000000e0: f3d9 143e 473f cabc 2b60 2ebe ab7f 41be
000000f0: 1ae6 04bc 38c4 71be 5c96 bc3c add4 1cbe
00000100: 9e95 44bf add3 2d3e e16d bbbd e970 e63d
00000110: f480 f03d fc4b 523e d8ab 8b3c 5958 e63d
00000120: cda2 0ebc 50bc d8bd 5a94 2bbe 6a80 16be
00000130: 8b04 e53d fee6 1b3e 0c85 41be d753 a6bc
00000140: d91c cc3c 1809 903e 5cf4 663e f707 643c
00000150: 615d 97be 2c1c b43d 6cff 0a3c bc25 dbbd
00000160: dbb5 83be e8e4 6d3e 0d5b c3be 20d6 5b3d
00000170: 6057 60bd 1b5c 38be 646e 55be a00e ddbd
00000180: 55f0 25be 74c4 26be 9f66 5fbe e99a 16be
00000190: 17ac 60be 1cdb 5fbe 2ddc 99be b0c1 1dbd
000001a0: cc28 91be af77 1ebd a826 7f3d 42c4 913e
000001b0: 4112 babd dadc c63d f4c5 dcbe 4aa4 a93d
000001c0: c9dd 85be b3dd 083e b860 b1be 0296 8fbe
000001d0: 72a8 843c 9aaa 99be 7c52 25be fc08 7cbe
000001e0: 47a4 41be 7faa 1fbe d5b3 1bbd b48f 473e
000001f0: cc06 e5bd b8d2 bc3d 6bf6 343e 32d9 5abe
00000200: fd40 4c3e d627 393c 40b6 b73d 979f d73d
00000210: 78d0 cd3d 73c8 0abe 093a 4dbe aef9 803e
00000220: 9f1f 35be 9a17 0cbe 9266 a9bd fab6 65be
00000230: 3454 5bbe d4f1 45bb 00bc 4bbe d0e6 8cbe
00000240: 1148 033e f827 b5bd c769 5d3c 448f 27be
00000250: 2743 6cbe 2640 563e d344 cdbe a0a0 4cbc
00000260: 6015 33bc 34af 0ebe 30f1 c83d d2d6 823e
00000270: 7073 943c d615 8abe d38f dabc 7d50 8a3e
00000280: 5663 aebd 3b84 19be f4de 20bf bc50 5dbe
00000290: 27c2 8fbe 7002 68be b4dc 7bbd 70f1 573e
000002a0: 2689 0d3d 2479 a2bd 37d8 de3b 888e c6bd
000002b0: c2e3 3bbe b613 b9bd 3c87 2dbe 6ea3 2c3e
000002c0: 84a1 6b3e c618 b9be e0bb 183e 6474 9cbd
000002d0: b291 4fbd ce62 3e3e 6ee1 663e ff2d 233e
000002e0: 5511 943e 7660 0cbe f99f b5bd 9583 3c3c
000002f0: f4f4 ed3c 9c71 16be 89d2 1cbe a3d6 7ebe
00000300: 133f ce3c 0f5c a83c d6ac ccbc da9a 463e
00000310: 6990 5abd 108d 1fbe f2ff fdbd 468d 923e
00000320: ac0c 8cbe f2e7 45be e013 4e3e 1bce 31be
00000330: b2db 5a3c d718 033e 2217 3e3b 55a5 9a3e
00000340: 3051 d4bd 7bd4 dd3d 4b8f 30be dc55 d0bc
00000350: d5d3 01be 2856 4bbe 1232 c2bd d1f5 61be
00000360: 8e6d 7cbe d284 403e ccab 4ebd 8a2c 443e
00000370: d285 76be 809b 3b3c 89af 13bd 2494 e1bd
00000380: 7132 8d3e 491a dcbc 7208 8cbe 8433 333e
00000390: d39c 62bc c052 643d 5a44 fb3c 42d8 603e
000003a0: 9a9f 7c3e 2335 e23b aa49 d13c 80fb 3abe
000003b0: 9415 46bd 19fe c2bd dc77 873e 5d19 703e
000003c0: 6af5 153e b68c 32be 1259 44be c438 533e
000003d0: d26b ecbc c0d9 b83c 07e6 86be 9ce3 6b3e
000003e0: 084c 463d 3b1a cbbd 5905 8bbe 1c8d 803d
000003f0: 4e81 363d c0cf e9bb d8f7 17bd 3fd3 af3d
-0.17959924 -0.11870949 -0.36018178 -0.03619544 -0.078169346 -0.10201789 -0.020011615 -0.2526087
0.2381804 -0.007154937 -0.18673328 0.2791453 -0.24356267 0.09606018 -0.07434298 0.24971728
-0.244715 -0.11845959 -0.22598164 0.06880534 -0.05541472 -0.009851452 0.23013182 0.0038850307
0.029579412 -0.2254827 0.13844769 0.07628766 -0.12493231 0.26061308 0.1834022 0.10926982
0.17721541 -0.23825048 0.11296574 -0.024569614 0.056893557 0.19670144 -0.12514932 -0.004676163
-0.0042298166 0.26405555 -0.20922756 0.03239748 0.060908616 -0.34698737 0.27298564 0.20029983
0.029392011 -0.005015999 -0.072561435 0.20620292 -0.001215907 -0.0744323 0.21110569 0.20104386
0.14536266 -0.024688376 -0.17028873 -0.18896358 -0.008111501 -0.23610008 0.023020916 -0.15315504
-0.767908 0.16975279 -0.09151817 0.11252005 0.11743346 0.20536798 0.017049715 0.1124732
-0.008705807 -0.10582793 -0.1675581 -0.14697424 0.11182507 0.15224835 -0.1889841 -0.02030365
0.0249161 0.28131938 0.22554153 0.013917915 -0.2956343 0.08794436 0.008483749 -0.10700557
-0.25724682 0.23231852 -0.38155404 0.053671002 -0.054770827 -0.18003885 -0.20842892 -0.10793805
-0.1620496 -0.16285878 -0.2181649 -0.14707531 -0.21940647 -0.21860927 -0.30050793 -0.038514793
-0.28351438 -0.038688358 0.062292725 0.28470045 -0.09085513 0.09710093 -0.43119776 0.08283289
-0.2614577 0.13365822 -0.34644103 -0.28044134 0.016193602 -0.3001297 -0.16144747 -0.24612802
-0.18910323 -0.15592383 -0.038013298 0.19488412 -0.11182937 0.09219879 0.17672126 -0.21371916
0.19946666 0.0113010015 0.08970308 0.10528486 0.10049528 -0.13553028 -0.2004167 0.2519049
-0.17687844 -0.13680878 -0.08271517 -0.22433081 -0.2141884 -0.0030203955 -0.19895935 -0.27519846
0.1282046 -0.08845514 0.013513989 -0.16363245 -0.23072492 0.20922908 -0.4009157 -0.012489468
-0.010930389 -0.13934022 0.09811628 0.2555452 0.018121451 -0.26969784 -0.026679909 0.27014533
-0.085150406 -0.14991848 -0.628402 -0.21612829 -0.28077814 -0.2265718 -0.061489776 0.21088195
0.034554623 -0.07933262 0.006800677 -0.096951544 -0.18348601 -0.09036963 -0.16946119 0.16859218
0.23010832 -0.36151713 0.14915419 -0.07639387 -0.050676055 0.18592378 0.22546932 0.15935515
0.28919473 -0.13708672 -0.08868403 0.011505981 0.029047467 -0.14691776 -0.15314688 -0.24886565
0.02517656 0.02055171 -0.024984758 0.19395009 -0.053360377 -0.15581155 -0.12402333 0.28623408
-0.27353418 -0.19326761 0.20124769 -0.17363779 0.0133580435 0.12802444 0.0029005487 0.30204263
-0.10367048 0.10831543 -0.17242162 -0.025431566 -0.12678464 -0.19857085 -0.094822064 -0.22066428
-0.24651167 0.18800667 -0.050456807 0.19157615 -0.24074486 0.011450648 -0.036056075 -0.11014584
0.27577546 -0.026868002 -0.27350193 0.1750012 -0.013831335 0.05574298 0.030672241 0.21957496
0.24670258 0.006903307 0.025547821 -0.18260002 -0.048360422 -0.095211215 0.26458633 0.23447175
0.146444 -0.1743649 -0.19174603 0.20627123 -0.028860006 0.022564769 -0.26347372 0.23036045
0.048412353 -0.099171124 -0.27152517 0.062769145 0.04455691 -0.0071353614 -0.037101597 0.08585214

linear2.bias f4 [24]
00000000: d2b2 d5be be67 7abf 9454 123f 87ed 46be
00000010: d6a6 573f b671 a23f a86c 15bf 2ea5 bfbe
00000020: e361 80bc 3e52 58bc 9622 c7bf aacb aabe
00000030: 5142 9cbe f460 4ebe 42f3 aebe 2f8c 4ac0
00000040: 4580 57bd 7409 5cbe fb34 97bd 715b 18bf
00000050: 4d9a d8be 76a3 1cbd 2496 67bd aaf9 02bf
-0.41737992 -0.9781455 0.57160306 -0.19426547 0.84238946 1.2690952 -0.5836892 -0.3743071
-0.015671676 -0.013203202 -1.555743 -0.33358508 -0.30519345 -0.20154172 -0.34169966 -3.1648061
-0.05261256 -0.21487981 -0.07383152 -0.5951453 -0.42305222 -0.038241826 -0.05653967 -0.5116221

linear3.weight f4 [48, 24]
00000000: 7dcf 083e 37ae 133e 6255 d03d 24bc e03d
00000010: ec0c 613e 06cf 0c3d 22b0 51be 83b3 d63c
00000020: ed75 813d 9dee 46bd 265b 26bc 6f59 93bd
00000030: 2163 4bbc 8e1c 96ba 875b 153c f227 54be
00000040: 20be 373e da54 ebbd 6d07 923c 8334 f7bc
00000050: c983 043d a410 c3bd bdeb d8bd bcf9 bebc
00000060: 9423 7dbd 8e14 f83d f578 60be 57eb 2cbd
00000070: ac2e 983e 4c5a a33c efce 6e3e fdeb a3bc
00000080: 4722 2c3d 54ac 85bd 5717 163d 80e0 0f3e
00000090: 40a4 1d3d dc3a 1f3e fdcc 6cb9 df50 e4bb
000000a0: f440 40be 1caf bebd 0560 a4bd 9bcc ccbd
000000b0: 1036 263e bf19 d63c fe11 5ebd f67b af3c
000000c0: 12f0 51bc d487 d93d c0e7 9fbe b02b 01be
000000d0: 5a13 63be d4cc 9a3d 2165 fb3d dc17 083c
000000e0: 9e97 583b 3b3e 90bd fbd3 90bd 7792 f3bd
000000f0: 313f 313e 2856 1b3e 0f23 dbbd 0511 81bd
00000100: 8b5f bbbd 48c8 44be 780e 5cbd c563 05be
00000110: 2282 743e af4a 88bd 2538 353d 1fe5 f1bc
00000120: 8387 81be 139d c13d a17b 283e 368a ba3d
00000130: d15b 4bbe 97e0 8e3e ad2a e0bc 86bd 863d
00000140: 8ead 22be 4b65 6b3e 4f38 11bc f026 52be
00000150: 7f64 23be 3edc 10be 9436 7fbd 912b c23d
00000160: c805 8e3e def3 ebba 0ad8 3cbc 4aa4 c8be
00000170: b29f 1c3e c246 3f3d e961 60bd 22a0 eebd
00000180: 2165 1d3e 685a 0f3e de40 d03d f5f0 02bb
00000190: a688 623e db2f 103d df76 50be 5fc5 89bc
000001a0: e52b c6bd 6942 a8bd c0cd 2fbc 9a81 11be
000001b0: 16df 58bc d3a6 d63a aa69 02bc 1aab 52be
000001c0: 38d5 5cbc aecb d5bd 13af 213e 610b 08bd
000001d0: 518d 423e c319 c2bd 2b21 87bd 796e edbc
000001e0: 80a5 f9bd 497c e63d b643 61be 8d6a d3bd
000001f0: 1b11 993e 62f2 9d3c 659c 733e 176c bbbd
00000200: 50d0 d8bc fde7 05be 739b 143d ba6c efbd
00000210: 15f3 1e3d d64c 083e 47f1 363d 195d b5bb
00000220: cf48 43be f047 c6bd a440 c33d ab52 cfbd
00000230: 8b18 a4bc 0752 d63c a371 a2bd 1c99 58bc
00000240: 50bc 783b 43aa e03d 5bc2 a0be 6213 413d
00000250: 5cbf 62be 78ee 993d 7e60 013e bdd3 2abd
00000260: f8a2 cabd 3338 d2bd 8bfc 89bd 927f 74bd
00000270: 4467 383e 5ea5 1c3d 5db0 42bd f392 91bd
00000280: 7549 3dbd 7062 30be e6ee c53d 7622 05be
00000290: 6a29 353d dfa3 89bd 0531 2f3e 139e 4bbd
000002a0: 293c 83be 7339 d53d 102e 273e 1e20 aa3d
000002b0: 9274 4ebe 7264 8f3e f0c8 dcbc b83b 4ebd
000002c0: 3980 073e 5c3f 8b3e 17cc 0cbc 68a4 d93d
000002d0: 6caf 23be 1c22 52bd fd3b c0bc 3597 c93d
000002e0: 2040 a03d 2b33 a3bc bd10 643e c648 c6be
000002f0: 9038 ca3d 9319 3a3d 5449 d9bd c627 2dbd
00000300: 3fd8 f83d 199c 1a3e 9be2 d03d a60a 3abe
00000310: ba5e 633e 4dd5 103d c200 4fbe d8f7 d13b
00000320: 39fa 85bd ca3b c9bd 671b 45bc 5ee0 90bc
00000330: 8614 51bc 4fad 0b3c 7b3e 9abc cfb8 4fbe
00000340: c2f5 beb8 62b9 e6bd ae36 2b3d e347 10bd
00000350: aa49 5c3e f6a1 c1bd 7b26 e5bd ebd0 83bc
00000360: a07c 49bd db4c e63d f734 61be 3c79 863d
00000370: f987 993e 19d2 973c 3a24 773e 3ba3 f2bc
00000380: b62b db3d dcca 75bd 4df0 143d 2887 77bc
00000390: 9430 1d3d 7319 64bd acbb ed3c 9beb acbb
000003a0: e135 04be 790c e8bd 72ad 393e 9bfa cfbd
000003b0: 7a29 94bd bb8b d63c 51c8 193c ffe2 94ba
000003c0: 2d24 96bd 138e e73d d102 a2be 65df 3bbe
000003d0: b514 63be ee08 983d 30ac fb3d 0c7f e63c
000003e0: 602a c0bd ac98 1abc 807e 86bd 7571 323d
000003f0: 01ee 3c3e 735c e63c a9d4 69bd 6021 8cbd
0.133604 0.14421926 0.101725355 0.10973385 0.21977586 0.03437712 -0.20477346 0.026208645
0.06321321 -0.048567403 -0.010153567 -0.071947925 -0.012413771 -0.0011452602 0.00911606 -0.20718363
0.1794362 -0.114907935 0.017825807 -0.030176407 0.032352243 -0.09524658 -0.105918385 -0.023312442
-0.061801508 0.121132955 -0.21921141 -0.042216625 0.29723108 0.019940518 0.23321126 -0.020009989
0.042024877 -0.065270096 0.036643352 0.14050484 0.03848672 0.15549797 -0.00022583078 -0.0069676484
-0.18774778 -0.09310743 -0.08026127 -0.09999963 0.1623156 0.026135324 -0.054216377 0.021421414
-0.012813585 0.1062161 -0.312315 -0.12614322 -0.22175351 0.07558599 0.12275148 0.00830647
0.0033049355 -0.070431195 -0.07071682 -0.1189317 0.17309262 0.15169585 -0.10700046 -0.06302074
-0.09149083 -0.19217026 -0.053724736 -0.1302634 0.23877767 -0.0665487 0.044242997 -0.029528199
-0.252987 0.09453788 0.1645341 0.09108393 -0.19859244 0.27905723 -0.0273641 0.065791175
-0.15886518 0.22987859 -0.008863523 -0.20522666 -0.15956305 -0.14146516 -0.06230791 0.09480966
0.27738786 -0.0018001755 -0.011526117 -0.39187843 0.15295294 0.04669834 -0.054780874 -0.11651637
0.15370609 0.13999331 0.101686224 -0.0019980047 0.2212244 0.03520189 -0.20357846 -0.016817747
-0.09676341 -0.08215792 -0.010730207 -0.14209595 -0.013236782 0.0016376622 -0.007959763 -0.20573083
-0.01347857 -0.104392394 0.15789442 -0.033213977 0.1899922 -0.0947757 -0.06598123 -0.028983342
-0.1218977 0.11254174 -0.21998486 -0.10323057 0.29895863 0.019280616 0.23790129 -0.09151476
-0.026466519 -0.13076778 0.03628106 -0.1169066 0.03880604 0.1331056 0.044663694 -0.0055347797
-0.19070743 -0.0968169 0.095338136 -0.101231895 -0.020031234 0.02616216 -0.07931831 -0.013220098
0.003795404 0.10969975 -0.3139828 0.047137626 -0.2214331 0.075161874 0.12634465 -0.041705836
-0.09894365 -0.102646254 -0.06737622 -0.059691973 0.18008143 0.038243644 -0.047531474 -0.071081065
-0.046212632 -0.17225051 0.09664707 -0.13001427 0.04422895 -0.06720709 0.17108543 -0.0497113
-0.25631836 0.10411348 0.16326165 0.08306907 -0.20161656 0.2800632 -0.026951283 -0.05034992
0.13232507 0.27196777 -0.008593581 0.10627061 -0.15984887 -0.05130206 -0.023466105 0.098432936
0.07824731 -0.01992186 0.2227201 -0.38727397 0.0987407 0.045434546 -0.10609689 -0.04227426
0.12150621 0.15098609 0.101994716 -0.18168125 0.22204104 0.03535967 -0.20215133 0.006407719
-0.06541867 -0.09825857 -0.012030459 -0.017685112 -0.012761241 0.008525207 -0.018828621 -0.20285343
-9.105682e-05 -0.11265828 0.041800193 -0.035224807 0.21512476 -0.0945472 -0.1118898 -0.01609083
-0.049191117 0.11245128 -0.2199286 0.06566092 0.2998655 0.0185328 0.24134913 -0.02961885
0.107016966 -0.060007915 0.03636198 -0.015107907 0.038376406 -0.055688333 0.029020153 -0.00527711
-0.12911178 -0.11330504 0.1813257 -0.10155221 -0.072344735 0.026189676 0.009386138 -0.0011359154
-0.07331119 0.113063954 -0.31642774 -0.18346937 -0.22175868 0.07423578 0.122887015 0.028136753
-0.093830824 -0.009435814 -0.06567097 0.043565232 0.18450166 0.028120255 -0.057087574 -0.06842303

linear3.bias f4 [48]
00000000: 49c7 fdbe bfe4 96bd 58da db3e 8ab9 af3f
00000010: f900 ffbe 49bc 9bbd f960 dc3e fc8d b03f
00000020: 8895 ffbe 6ab0 9fbd 530e dd3e c3f3 b03f
00000030: 8300 00bf 0521 a3bd 07f9 dd3e a557 b13f
00000040: 5105 00bf d3f5 a5bd 0ef5 dd3e f1fe b13f
00000050: 6cf5 ffbe 5e2f a9bd 098c de3e 4c5f b23f
00000060: a508 00bf 68e7 acbd 8a38 de3e fefa b23f
00000070: fb0d 00bf bb34 b0bd 8bc6 dd3e 4263 b33f
00000080: a611 00bf 7688 b3bd 887c dd3e 7fc6 b33f
00000090: f3fe ffbe 4ca7 b6bd f712 dd3e 5496 b43f
000000a0: ff88 ffbe bc81 b9bd ed2c dc3e 9fa0 b43f
000000b0: 88a5 febe 3b14 bbbd 7f01 db3e 8d12 b53f
-0.49566105 -0.073678486 0.4294002 1.3728497 -0.4980543 -0.07604272 0.43042734 1.379333
-0.4991877 -0.0779732 0.4317499 1.382439 -0.5000078 -0.07965282 0.43354055 1.3854872
-0.5000811 -0.08103528 0.43351024 1.3905927 -0.4999193 -0.08260988 0.43466213 1.3935332
-0.5001319 -0.08442575 0.4340251 1.3982847 -0.5002133 -0.086038075 0.4331554 1.4014666
-0.5002693 -0.08766262 0.43259072 1.4044951 -0.49999198 -0.08918628 0.43178532 1.4108377
-0.49909207 -0.09057948 0.43003026 1.4111518 -0.49735665 -0.09134718 0.4277458 1.4146286
