model/세정model.pth (torch, 54880 bytes, 18 tensors)

linear1.weight f4 [6, 12]
-0.08547124 0.094968975 0.01575613 0.016043216 0.23400164 -0.26021323 0.19401443 0.18135968
0.28835535 -0.035060346 -0.25391522 -0.28550684 0.09949741 0.11513451 -0.017123103 -0.2249488
0.07411215 -0.2737869 -0.044948667 -0.27846262 -0.061496943 -0.16150926 0.21842611 -0.2476266
0.18710649 -0.061797947 -0.023646891 0.12195474 -0.24094594 0.041516006 0.25367182 0.06281853
0.025236666 -0.1672706 0.2269392 0.01061967 0.18398017 -0.26174408 0.26186472 0.1428167
0.13475493 0.1427581 0.18810043 0.08957267 -0.04559563 0.025367528 0.1284801 -0.10111579
-0.25864342 0.2557295 0.17587665 -0.26553497 -0.05267808 0.2350825 0.229774 -0.18178102
0.07564491 -0.0897315 -0.27152172 0.028104037 0.1478801 0.19025189 0.0819734 0.0603306
-0.15043467 0.26820642 0.07250211 0.0095568 -0.17492355 0.14836845 0.023925543 0.17699617
00000000: 8c0b afbd 187f c23d 0013 813c 106d 833c
00000010: 209e 6f3e ab3a 85be b8ab 463e 5ab6 393e
00000020: 50a3 933e 709b 0fbd 2d01 82be f42d 92be
00000030: 4cc5 cb3d a4cb eb3d c045 8cbc fa58 66be
00000040: 1cc8 973d cc2d 8cbe 181c 38bd a792 8ebe
00000050: 38e4 7bbd af62 25be 18ab 5f3e d491 7dbe
00000060: d898 3f3e d81f 7dbd 20b7 c1bc 68c3 f93d
00000070: 88ba 76be b00c 2a3d 46e1 813e 00a7 803d
00000080: 20bd ce3c fc48 2bbe c062 683e 20fe 2d3c
00000090: 4c65 3c3e 5203 86be 2213 863e 8a3e 123e
000000a0: 32fd 093e 2e2f 123e 669d 403e e071 b73d
000000b0: 7cc2 3abd 90cf cf3c 4a90 033e cc15 cfbd
000000c0: e96c 84be faee 823e 0219 343e 33f4 87be
000000d0: f8c4 57bd 78b9 703e e049 6b3e ce24 3abe
000000e0: b8eb 9a3d 26c5 b7bd e504 8bbe 703a e63c
000000f0: e26d 173e 64d1 423e ace1 a73d 381d 773d
00000100: 8c0b 1abe 5a52 893e fc7b 943d 2094 1c3c
00000110: 291f 33be e6ed 173e 80ff c33c 7c3e 353e

linear1.bias f4 [6]
-0.030048579 -0.28687856 -0.1212389 -0.15875593 -0.118091196 -0.11088902
00000000: 7028 f6bc bfe1 92be 1a4c f8bd ea90 22be
00000010: ccd9 f1bd c819 e3bd

linear2.weight f4 [3, 6]
0.21350014 -0.28799742 0.32734638 -0.23390144 -0.2456772 0.25011683 -0.082889766 -0.2796213
-0.2600338 0.043112636 0.26361996 -0.17271905 -0.015854537 0.35136306 0.36866975 0.11804634
0.002722174 0.016164511
00000000: c89f 5a3e 6674 93be f299 a73e dc83 6fbe
00000010: ce92 7bbe 500f 803e 1cc2 a9bd 862a 8fbe
00000020: 2623 85be e096 303d 32f9 863e 43dd 30be
00000030: 60e1 81bc dce5 b33e 48c2 bc3e 48c2 f13d
00000040: 8066 323b 706b 843c

linear2.bias f4 [3]
0.31835425 -0.10037485 0.40495163
00000000: 54ff a23e 5491 cdbd d255 cf3e

linear3.weight f4 [1200, 3]
0.36701393 0.2879367 0.5390382 -0.53959686 0.24814922 0.4005422 -0.43620256 0.5448891
-0.13139829 0.021992505 0.28627723 -0.32456908 -0.13689345 0.08540839 0.028351128 0.08399993
0.45129204 0.41983408 0.40054637 -0.44089535 0.3265069 -0.46960294 -0.08527514 0.07439995
-0.26146626 0.27313352 -0.1371336 0.13986349 0.4531926 0.091526866 -0.011275828 0.16560775
0.12457591 0.3678336 0.07248008 0.015287876 -0.011134982 0.07680905 -0.555365 0.3325917
0.20373493 0.48904836 -0.35582468 -0.0138142705 0.5218723 -0.2511079 -0.004670024 -0.2642528
-0.0036885738 -0.2786546 0.51691055 -0.3091387 -0.044450223 0.5020219 0.12892896 -0.11619261
0.3157171 0.26097137 -0.37701118 -0.39248556 0.53544474 -0.272527 0.025851667 0.2334348
-0.34892607 -0.3061114 0.23385471 0.48506558 0.42648256 -0.45405102 0.16507506 0.100967765
-0.27425873 0.43125653 0.17846543 -0.13824236 0.28922915 -0.21564287 0.38396072 0.1266762
-0.048401117 0.4200989 0.5336541 -0.43088645 -0.40807942 -0.5246733 0.31837338 -0.11335033
0.060060322 0.50527334 0.33025473 -0.044488072 0.14702487 -0.4170555 -0.30281264 -0.26703385
-0.1772008 -0.22864565 -0.4398967 0.5289798 0.51236165 0.40682715 -0.07460976 -0.2653854
-0.043518364 -0.44379964 -0.13957518 0.25350767 0.023518562 0.07837641 0.31528652 0.4947554
-0.37760872 0.55533993 -0.32097653 0.15475917 0.4404472 0.45450556 0.37183583 -0.49941123
0.44764662 -0.50950253 0.41534734 -0.47191218 0.025165498 -0.07744831 -0.5058858 0.39094847
0.4109335 -0.3172393 0.3400504 -0.48491284 0.36228746 -0.5593167 -0.5054026 0.15651995
0.05281198 -0.32759643 -0.16101962 0.25072753 0.42643058 0.022137225 -0.07423699 -0.4409517
0.42753482 -0.23249534 -0.40413722 -0.35053146 -0.17359358 -0.54002035 -0.07714069 0.31545722
-0.28042406 0.38558263 -0.4542011 0.09748721 -0.5737132 0.52109754 0.23389679 -0.50667316
0.5629343 0.4561665 -0.26990896 0.48573935 -0.11052337 0.34500384 -0.55708075 -0.06715351
-0.41008288 0.012609243 -0.11067721 0.34950477 -0.3553151 0.4640894 -0.1970776 0.05674857
-0.52033377 0.32576042 -0.26346263 -0.1752091 0.039871395 -0.42562592 -0.117119074 0.14144474
-0.3930266 0.56669736 -0.41649568 -0.29311857 0.16700685 -0.13646063 -0.5457575 -0.43904734
-0.36493263 0.42013228 -0.12649179 0.15903366 0.49481654 0.16669822 0.30437326 -0.020832062
-0.33028105 0.02360332 -0.37937737 0.16198951 -0.2543456 -0.46548697 -0.42625552 0.3721949
-0.35996062 0.027384043 0.5718074 -0.42834854 -0.52965546 -0.24598837 -0.23514849 0.40345013
0.5418166 -0.57695687 -0.5636007 -0.1462079 -0.25276273 0.22515428 0.320818 -0.45612195
-0.19474784 0.5690278 0.0652858 -0.11680886 0.5733975 -0.1768839 -0.22571644 0.31310523
0.28042865 -0.19208595 -0.33474177 -0.48033223 0.13321674 -0.03175664 0.5204096 0.17151052
0.53514874 -0.45550334 0.101768434 0.117519796 -0.22619614 0.30706662 0.55543125 0.368451
0.23041755 -0.14703834 0.41835284 0.55995107 0.39825368 0.57146716 0.56330943 -0.01596874
00000000: 40e9 bb3e 706c 933e 68fe 093f 0523 0abf
00000010: d41a 7e3e de13 cd3e f155 dfbe da7d 0b3f
00000020: 468d 06be a029 b43c ee92 923e eb2d a6be
00000030: cc2d 0cbe 98ea ae3d a040 e83c 2808 ac3d
00000040: c00f e73e 7ef4 d63e 6a14 cd3e 09bd e1be
00000050: ea2b a73e cc6f f0be bca4 aebd 005f 983d
00000060: e8de 85be 28d8 8b3e c06c 0cbe 6038 0f3e
00000070: dc08 e83e 7072 bb3d 40be 38bc 1495 293e
00000080: a821 ff3d b054 bc3e 7070 943d 007a 7a3c
00000090: 806f 36bc 104e 9d3d 672c 0ebf 7649 aa3e
000000a0: e49f 503e 8c64 fa3e a72e b6be 4055 62bc
000000b0: 6c99 053f 3791 80be 0007 99bb 254c 87be
000000c0: 00bc 71bb d1ab 8ebe 4054 043f 6d47 9ebe
000000d0: 7011 36bd 8284 003f f405 043e 64f6 edbd
000000e0: aca5 a13e 0a9e 853e 9c07 c1be def3 c8be
000000f0: e812 093f a988 8bbe e0c6 d33c 8809 6f3e
00000100: 70a6 b2be a2ba 9cbe 9c77 6f3e 845a f83e
00000110: ec5b da3e 6079 e8be 7009 293e 30c8 ce3d
00000120: a46b 8cbe a8cd dc3e a4bf 363e 688f 0dbe
00000130: d815 943e 7cd1 5cbe 8096 c43e 68b7 013e
00000140: 4040 46bd 3417 d73e 8e9d 083f 269d dcbe
00000150: c9ef d0be fd50 06bf d601 a33e 3824 e8bd
00000160: d001 763d 9859 013f 2617 a93e 2039 36bd
00000170: b08d 163e 4c88 d5be 420a 9bbe a9b8 88be
00000180: 2074 35be 1622 6abe 243a e1be 386b 073f
00000190: 222a 033f a64b d03e 00cd 98bd 98e0 87be
000001a0: 5040 32bd b539 e3be ccec 0ebe c2cb 813e
000001b0: 00aa c03c d083 a03d 3c6d a13e 9450 fd3e
000001c0: ee55 c1be c22a 0e3f 0957 a4be 3079 1e3e
000001d0: 4c82 e13e f4b4 e83e 4461 be3e d4b2 ffbe
000001e0: f031 e53e c26e 02bf 68a8 d43e 799e f1be
000001f0: e027 ce3c 389d 9ebd bb81 01bf 662a c83e
00000200: e065 d23e 316d a2be 161b ae3e 7f46 f8be
00000210: be7d b93e 612f 0fbf 1162 01bf c446 203e
00000220: 6051 583d b8ba a7be 54e2 24be 5c5f 803e
00000230: 1c55 da3e 2059 b53c 9009 98bd 6cc4 e1be
00000240: d8e5 da3e 4213 6ebe 13eb cebe dc78 b3be
00000250: 84c2 31be c63e 0abf f0fb 9dbd 9c83 a13e
00000260: be93 8fbe 166b c53e 0c8d e8be 60a7 c73d
00000270: dede 12bf a666 053f a482 6f3e 55b5 01bf
00000280: 761c 103f a88e e93e 8231 8abe d4b2 f83e
00000290: 145a e2bd 58a4 b03e d89c 0ebf c887 89bd
000002a0: 62f6 d1be 0097 4e3c bcaa e2bd 4af2 b23e
000002b0: dceb b5be 209d ed3e b6ce 49be 3071 683d
000002c0: 9834 05bf 12ca a63e 93e4 86be 046a 33be
000002d0: 3050 233d a4eb d9be 20dc efbd e4d6 103e
000002e0: c83a c9be 1413 113f ec3e d5be a313 96be
000002f0: d803 2b3e 56bc 0bbe c3b6 0bbf d0ca e0be
00000300: 73d8 babe 941b d73e 1087 01be b8d9 223e
00000310: 9858 fd3e f0b2 2a3e d0d6 9b3e 00a8 aabc
00000320: 991a a9be c05b c13c c03d c2be 94e0 253e
00000330: 9639 82be 4f54 eebe 2a3e dabe 5490 be3e
00000340: c24c b8be 8054 e03c f861 123f 8050 dbbe
00000350: 8097 07bf 60e4 7bbe c4ca 70be 0491 ce3e
00000360: 7eb4 0a3f 72b3 13bf 2348 10bf 86b7 15be
00000370: 1e6a 81be d88e 663e 4242 a43e d188 e9be
00000380: fa6b 47be ceab 113f 90b4 853d 7c39 efbd
00000390: 2eca 123f 0e21 35be 3622 67be 544f a03e
000003a0: 5894 8f3e 2eb2 44be 4663 abbe 1bee f5be
000003b0: f869 083e 4013 02bd 9039 053f 74a0 2f3e
000003c0: 82ff 083f bc37 e9be f86b d03d 38ae f03d
000003d0: f69f 67be d637 9d3e be30 0e3f 9ca5 bc3e
000003e0: 94f2 6b3e 3891 16be 5832 d63e f458 0f3f
000003f0: e8e7 cb3e ac4b 123f 0c35 103f e0d0 82bc

linear3.bias f4 [1200]
-0.48235857 -0.5681987 -0.1330938 -0.49451393 -0.52274764 0.53735614 -0.22461557 -0.49438477
-0.3046419 0.047777236 0.039701164 -0.49955446 0.4488951 -0.083492726 -0.19806972 0.029111743
-0.22958243 -0.47030276 -0.32660088 -0.4577238 -0.29651484 -0.39173335 0.47211313 0.23126668
0.20270687 -0.13952342 0.57183886 -0.30092594 -0.38213378 0.06346345 0.013335705 0.27116442
-0.25463858 0.33278054 -0.32605737 0.19182843 -0.23305818 -0.518819 0.15312088 0.3742444
0.25441295 -0.22038296 -0.18589523 0.48469138 -0.43950492 -0.009376168 0.05536586 -0.44000703
0.36692816 0.14841032 0.3138219 -0.46527156 0.077227 0.27809006 0.16135877 0.38573515
-0.27613038 -0.34069574 -0.06918216 0.3812983 0.25223434 -0.04401779 -0.5101839 -0.20937794
-0.026517987 0.57069564 -0.39506513 -0.13314274 -0.33543754 0.11011243 0.06869942 -0.15598938
-0.35092264 -0.010576546 0.28092963 0.2397924 0.32537484 -0.5763881 0.4976431 -0.22481564
-0.032963693 0.09055823 0.26057452 0.5519216 -0.22512916 0.16970038 0.17023867 -0.058963
-0.23523316 0.53358054 -0.05350542 -0.5446398 -0.013745129 0.48181784 0.11579782 0.31568557
-0.19854489 0.4165234 0.41210467 -0.1036742 -0.23378569 0.33582938 0.45826626 -0.005060494
-0.42495197 0.23042685 -0.01351887 0.08238566 0.29931343 -0.030934274 -0.47493726 0.5144026
-0.10974172 0.44386506 -0.4754615 0.043901443 -0.33976597 0.3565892 0.21266705 0.1901691
-0.54596555 0.16909951 0.013793528 -0.39242196 -0.047450304 0.08137804 0.24930054 0.3949632
-0.30207586 -0.2314384 0.24288201 -0.2944485 -0.018115103 0.13998944 0.27138668 0.2531187
0.017784119 0.19607109 -0.22404006 -0.11237121 -0.47822797 0.5052972 -0.32283846 0.1540488
0.16361523 0.015878797 -0.17153949 0.4080503 -0.06955439 0.48665714 -0.014519632 -0.048654735
-0.12604815 0.26173347 0.5678191 -0.33346665 -0.5450552 -0.37203413 -0.22634625 0.40984064
-0.077272475 -0.07240015 0.07304126 0.0056479573 0.1724081 0.32796216 0.41527832 -0.018948257
0.14522052 0.121278346 -0.10050741 -0.25762513 0.118238986 0.42609537 -0.5629862 -0.21476802
0.49756777 -0.52802664 0.12350333 -0.5519132 0.22843587 -0.04565841 -0.23024976 0.16444856
-0.1759148 -0.528702 -0.05040568 -0.30590183 -0.49252948 0.1548428 0.36627322 -0.24603042
-0.21994853 -0.19686541 -0.4475708 0.08157247 -0.56711227 -0.21747047 0.08578116 0.22663867
0.29846543 -0.0014591217 0.40271616 -0.16682515 -0.39737326 0.48426545 -0.37337428 -0.47468475
0.47744727 0.27833825 -0.3094885 0.25610173 0.13984776 0.15796661 -0.3333166 -0.24406758
-0.116595864 0.33966756 0.4136836 -0.24864978 -0.45145303 0.41182542 -0.42223737 0.3646744
-0.25827125 -0.5189861 -0.004843712 -0.119791985 0.3073551 -0.18441302 -0.121904224 -0.54731375
-0.41382986 0.21155077 -0.42308956 -0.01579678 0.11388987 0.5051812 -0.42045927 -0.189471
-0.028222024 0.307935 -0.21115467 0.1061551 -0.53077775 0.50557077 -0.55202806 -0.14536333
0.48990345 -0.20639926 0.12863827 -0.41996986 -0.45324436 -0.16741633 -0.2547842 -0.31664678
00000000: b4f7 f6be 7875 11bf be49 08be ee30 fdbe
00000010: cad2 05bf 2c90 093f a001 66be 0020 fdbe
00000020: 06fa 9bbe 10b2 433d b09d 223d 9ac5 ffbe
00000030: 94d5 e53e 3cfe aabd cad2 4abe c07b ee3c
00000040: a817 6bbe 86cb f0be 3b38 a7be c65a eabe
00000050: cbd0 97be 4691 c8be d0b8 f13e 2cd1 6c3e
00000060: 6492 4f3e 3adf 0ebe 0864 123f f712 9abe
00000070: 0aa7 c3be 20f9 813d 007e 5a3c 10d6 8a3e
00000080: fd5f 82be 3662 aa3e fef0 a6be ac6e 443e
00000090: cea6 6ebe 52d1 04bf b8cb 1c3e f69c bf3e
000000a0: 6a42 823e 12ac 61be 525b 3ebe 7829 f83e
000000b0: ca06 e1be 809e 19bc 50c7 623d 9a48 e1be
000000c0: 02de bb3e e0f8 173e 44ad a03e 1338 eebe
000000d0: 3029 9e3d d261 8e3e 3c3b 253e 147f c53e
000000e0: f660 8dbe ac6f aebe 60af 8dbd 8839 c33e
000000f0: dc24 813e 004c 34bd 699b 02bf 2c67 56be
00000100: 403c d9bc 1c19 123f fa45 cabe 9256 08be
00000110: 78be abbe a082 e13d 48b2 8c3d aebb 1fbe
00000120: 22ac b3be 4049 2dbc 02d6 8f3e 248c 753e
00000130: 8897 a63e 2c8e 13bf 14cb fe3e 1236 66be
00000140: f004 07bd 9876 b93d 066a 853e bc4a 0d3f
00000150: 4288 66be f0c5 2d3e 0c53 2e3e 3083 71bd
00000160: f6e0 70be bc98 083f 8028 5bbd 846d 0bbf
00000170: 4033 61bc d4b0 f63e 6827 ed3d 8aa1 a13e
00000180: 5a4f 4bbe 8e42 d53e 62ff d23e 2453 d4bd
00000190: 8465 6fbe d4f1 ab3e e0a1 ea3e 80d2 a5bb
000001a0: 4e93 d9be 04f5 6b3e 407e 5dbc d0b9 a83d
000001b0: 9c3f 993e e069 fdbc fa2a f3be e4af 033f
000001c0: 44c0 e0bd 4842 e33e b16f f3be 00d2 333d
000001d0: cef5 adbe dc92 b63e 64c5 593e b0bb 423e
000001e0: 66c4 0bbf 6c28 2d3e 40fe 613c 88eb c8be
000001f0: 405b 42bd 88a9 a63d a448 7f3e 9e38 ca3e
00000200: b0a9 9abe 30fe 6cbe 10b6 783e f4c1 96be
00000210: 2066 94bc 6459 0f3e 32f3 8a3e c698 813e
00000220: 00b0 913c dcc6 483e c26a 65be e022 e6bd
00000230: 4cda f4be 285b 013f 154b a5be f8be 1d3e
00000240: c08a 273e 4014 823c 0ca8 2fbe f8eb d03e
00000250: 8872 8ebd 202b f93e c0e3 6dbc 304a 47bd
00000260: c412 01be ee01 863e 985c 113f 24bc aabe
00000270: bd88 0bbf 427b bebe 50c7 67be a2d6 d13e
00000280: 0841 9ebd 8846 94bd a896 953d 8012 b93b
00000290: c08b 303e a8ea a73e 5c9f d43e 6039 9bbc
000002a0: b0b4 143e c860 f83d d4d6 cdbd 71e7 83be
000002b0: 4827 f23d 2c29 da3e dd1f 10bf 26ec 5bbe
000002c0: 34c1 fe3e c12c 07bf 50ef fc3d 2f4a 0dbf
000002d0: 18eb 693e 5004 3bbd 98c6 6bbe 3465 283e
000002e0: 0223 34be 0459 07bf 3076 4ebd 2a9f 9cbe
000002f0: d32c fcbe 1c8f 1e3e 2a88 bb3e 66ef 7bbe
00000300: 303a 61be 1697 49be 0028 e5be 780f a73d
00000310: 452e 11bf 94b0 5ebe 08ae af3d f813 683e
00000320: 76d0 983e 0040 bfba d030 ce3e 36d4 2abe
00000330: 8274 cbbe a4f1 f73e ea2a bfbe e109 f3be
00000340: f873 f43e 5a82 8e3e 4775 9ebe c41f 833e
00000350: 4034 0f3e 00c2 213e 79a8 aabe daec 79be
00000360: d0c9 eebd e8e8 ad3e 56ce d33e 0c9e 7ebe
00000370: da24 e7be c8da d23e 7f2f d8be 9ab6 ba3e
00000380: 213c 84be 46dc 04bf 00b8 9ebb 8055 f5bd
00000390: a65d 9d3e c4d6 3cbe eca8 f9bd c11c 0cbf
000003a0: 82e1 d3be c4a0 583e 329f d8be 4068 81bc
000003b0: 183f e93d 8e53 013f 7046 d7be b004 42be
000003c0: e031 e7bc a8a9 9d3e ee38 58be d867 d93d
000003d0: 0de1 07bf 166d 013f b651 0dbf 20da 14be
000003e0: a0d4 fa3e 545a 53be c0b9 033e 4a06 d7be
000003f0: a50f e8be 306f 2bbe 1373 82be 871f a2be

linear1.weight f4 [3, 1200]
0.023365077 0.00822993 0.0026991144 -0.013972891 0.004695695 0.01836333 -0.02609062 -0.014281118
-0.010575265 0.0028533973 -0.0014545787 0.0021239314 -0.011180468 -0.009519301 -0.01384993 -0.024805352
-0.022505917 0.019832086 -0.020467266 0.0096421465 -0.0117286965 -0.0058816466 0.0051177144 0.023979336
-0.0133270975 -0.018520763 0.02552424 -0.018287566 0.010173835 -0.018686641 0.00062854216 -0.028139694
0.004672598 0.0030655302 -0.0010308307 -0.016932223 -0.024490736 -0.027469281 -0.0077974834 0.007519152
0.0112616345 -0.023046395 0.013530266 -0.027874619 -0.0103217345 -0.014725005 -0.0086021535 0.0062926896
-0.01213273 -0.020022627 0.0066777132 0.020211741 -0.017546304 -0.015870858 0.021933492 0.01081121
-0.0012840498 -0.02035486 0.01828463 -0.004478568 -0.009311624 0.026706886 -0.02841734 -0.027012786
0.00071161427 0.02581343 0.01617134 0.023143545 -0.0066048373 -0.027845137 0.028658383 0.028469812
0.02776301 -0.028138613 -0.017730732 0.027647179 0.019514628 0.026126798 0.024356116 -0.009606084
0.009877104 -0.0051710885 0.0056828856 -0.028586062 0.02510494 0.022694413 -0.012997868 -0.023006046
-0.019085567 -0.012339702 -0.0027593002 -0.01408447 -0.0020115431 0.0029799417 -0.012847077 -0.016418027
0.016531467 -0.014025625 0.01678856 -0.021642242 0.02073725 0.027894363 0.024196759 -0.0040986445
0.011593156 0.019424275 0.02307456 -0.022300337 -0.0056916885 0.026305847 -0.009803971 -0.008808849
0.00540461 0.027780026 -0.026825236 -0.01585064 -0.0029027537 -0.005258469 -0.01242473 -0.005993817
0.016390108 0.010604788 -0.016600257 0.012221668 0.019576903 -0.005379176 0.016822953 0.0045045987
-0.013475327 0.024729304 -0.00655316 0.025290038 -0.0015053488 0.017264646 0.006205626 -0.008623341
-0.020230073 -0.0052659884 0.0009002853 0.009609956 0.02674536 0.017732896 -0.009336421 -0.023841368
-0.009838194 0.0010741707 0.026849747 -0.028206633 -0.024129726 0.023550268 -0.001803603 -0.019825451
-0.013294308 -0.022808028 -0.0076729264 0.015297916 0.023355246 0.0061475635 -0.001820121 -0.02642464
-0.004888188 -0.025409251 0.0060687847 0.017794296 0.024636596 0.022658087 0.010204531 -0.01530037
0.022933777 -0.0025299918 -0.0069997776 0.02796334 0.017725024 0.02100274 -0.023693867 0.008934516
0.01020281 0.005750805 0.010863379 0.022971895 0.020072889 0.018010285 0.015719194 0.0020582955
-0.025455633 -0.007669503 -0.026355984 -0.008165596 0.007828999 0.003031738 0.017781254 -0.005322648
0.013668314 0.025963847 0.0196319 0.024462193 -0.008816294 0.023284145 0.012614068 0.00047756732
-0.01651153 0.010778982 -0.021043342 -0.025769398 0.0036781281 0.00529876 -0.017761841 -0.028188188
0.027441323 0.0015545003 -0.007785015 0.002767887 0.012923047 -0.023824472 0.009240992 -0.02331019
0.008195855 0.015184626 -0.018425412 -0.025739823 0.011266582 -0.017815996 0.0040671714 -0.000589937
-0.01696913 -0.015662154 -0.010750828 0.010485366 0.0109235905 -0.010549003 0.018478043 -0.007867627
-0.0069400556 -0.0003435798 -0.011803579 -0.008813757 -0.0007890705 -0.003193494 -0.014670919 -0.010999512
0.013315674 0.023203265 0.02517452 0.0106624365 0.028029587 0.0140113495 0.022396557 0.016760167
-0.008330699 0.015275147 0.010231301 0.020414282 0.02519529 0.018587388 -0.020019528 -0.026089966
00000000: 1e68 bf3c d4d6 063c a0e3 303b 8dee 64bc
00000010: 58de 993b b26e 963c ffbb d5bc 5afb 69bc
00000020: e043 2dbc 1000 3b3b 90a7 beba a831 0b3b
00000030: 482e 37bc d8f6 1bbc d1ea 62bc 9834 cbbc
00000040: 545e b8bc e676 a23c f8aa a7bc 18fa 1d3c
00000050: b829 40bc d4ba c0bb 80b2 a73b 5070 c43c
00000060: e659 5abc dbb8 97bc 3618 d13c cecf 95bc
00000070: 28b0 263c ba14 99bc c0c4 243a 3785 e6bc
00000080: 981c 993b 10e7 483b f01c 87ba 72b5 8abc
00000090: cca0 c8bc 4207 e1bc 0882 ffbb 3863 f63b
000000a0: b882 383c cbcb bcbc 0cae 5d3c 5059 e4bc
000000b0: 7e1c 29bc 2641 71bc 0cf0 0cbc e832 ce3b
000000c0: 5cc8 46bc 7e06 a4bc b8d0 da3b 1893 a53c
000000d0: 44bd 8fbc 9a03 82bc dead b33c 8021 313c
000000e0: 904d a8ba 3cbf a6bc a6c9 953c f4c0 92bb
000000f0: c88f 18bc 66c8 da3c 7bcb e8bc eb49 ddbc
00000100: a08b 3a3a b076 d33c c279 843c 8897 bd3c
00000110: 646d d8bb 7c1b e4bc fcc4 ea3c 8639 e93c
00000120: 406f e33c f382 e6bc 0a40 91bc 567c e23c
00000130: 24dd 9f3c de07 d63c 7a86 c73c d662 1dbc
00000140: 94d3 213c 3c72 a9bb 8037 ba3b 512d eabc
00000150: e0a8 cd3c a2e9 b93c 02f5 54bc 2d77 bcbc
00000160: 5659 9cbc 762c 4abc 60d5 34bb 8dc2 66bc
00000170: 18d4 03bb 204b 433b 8c7c 52bc 197f 86bc
00000180: 006d 873c bccb 65bc 2a88 893c 124b b1bc
00000190: 2ae1 a93c b882 e43c 4838 c63c ec4d 86bb
000001a0: 38f1 3d3c a81f 9f3c dc06 bd3c 32af b6bc
000001b0: 5881 babb 5c7f d73c d6a0 20bc fe52 10bc
000001c0: 2819 b13b f092 e33c 99c0 dbbc 34d9 81bc
000001d0: 203c 3ebb 3c4f acbb 1891 4bbc c867 c4bb
000001e0: 8c44 863c b4bf 2d3c 43fd 87bc 643d 483c
000001f0: be5f a03c cc43 b0bb 4ad0 893c 509b 933b
00000200: 9ec7 5cbc 1c95 ca3c e4bb d6bb 0e2d cf3c
00000210: 204f c5ba 966e 8d3c 9058 cb3b ea48 0dbc
00000220: 8ab9 a5bc 508e acbb 2001 6c3a 1473 1d3c
00000230: 1619 db3c 9444 913c caf7 18bc f94e c3bc
00000240: 6030 21bc 30cb 8c3a 00f4 db3c 9911 e7bc
00000250: b4ab c5bc 7eec c03c e066 ecba fc68 a2bc
00000260: 5fd0 59bc e7d7 babc 2c6d fbbb 1ca4 7a3c
00000270: 8053 bf3c 8071 c93b 2091 eeba 7d78 d8bc
00000280: 182d a0bb 1027 d0bc a8dc c63b 58c5 913c
00000290: b0d2 c93c 749d b93c e830 273c 67ae 7abc
000002a0: 9edf bb3c 38ce 25bb 645e e5bb 6013 e53c
000002b0: 1234 913c f00d ac3c a419 c2bc 1462 123c
000002c0: b029 273c 4071 bc3b 50fc 313c 8e2f bc3c
000002d0: e66f a43c 4e8a 933c 8ac5 803c 78e4 063b
000002e0: 5588 d0bc 7450 fbbb 81e8 d7bc fec8 05bc
000002f0: 3445 003c 20b0 463b fea9 913c 9c69 aebb
00000300: 10f1 5f3c 22b2 d43c 14d3 a03c f064 c83c
00000310: 3872 10bc 64be be3c 3cab 4e3c 0062 fa39
00000320: 3043 87bc 549a 303c 1663 acbc 581a d3bc
00000330: c00c 713b 38a1 ad3b 4881 91bc eaea e6bc
00000340: a0cc e03c 60c0 cb3a 7019 ffbb 7065 353b
00000350: 30bb 533c 8a2b c3bc 8867 173c 03f5 bebc
00000360: e847 063c f0c8 783c e4f0 96bc 52dc d2bc
00000370: 7897 383c daf2 91bc e845 853b 00a6 1aba
00000380: d802 8bbc eb4d 80bc 3e24 30bc d0ca 2b3c
00000390: dcf8 323c bad5 2cbc 445f 973c 38e7 00bc
000003a0: 6869 e3bb 8022 b4b9 cc63 41bc 9467 10bc
000003b0: a0d9 4eba f049 51bb 4b5e 70bc 4c37 34bc
000003c0: fc29 5a3c c614 be3c cc3a ce3c 80b1 2e3c
000003d0: 4e9e e53c dc8f 653c fc78 b73c 9e4c 893c
000003e0: 7c7d 08bc 9c44 7a3c 30a1 273c da3b a73c
000003f0: 5a66 ce3c 9444 983c feff a3bc a0ba d5bc

linear1.bias f4 [3]
0.013875876 -0.026678324 -0.016101785
00000000: a457 633c 808c dabc e4e7 83bc

linear2.weight f4 [6, 3]
-0.47939923 0.28083712 -0.034102917 0.1165418 -0.09662655 -0.30782974 0.53200066 -0.014513493
0.32817924 0.25739187 0.4821887 -0.11767313 -0.5598422 0.40476716 0.50303185 0.16732591
-0.14401692 -0.39701316
00000000: d173 f5be e2c9 8f3e 80af 0bbd 78ad ee3d
00000010: 24e4 c5bd dc9b 9dbe 3231 083f 00ca 6dbc
00000020: 1c07 a83e dec8 833e 70e1 f63e 9cfe f0bd
00000030: d251 0fbf a43d cf3e b2c6 003f 7c57 2b3e
00000040: 2c79 13be 4f45 cbbe

linear2.bias f4 [6]
-0.15365386 0.2745319 0.44041848 -0.1433374 -0.42841017 0.3579747
00000000: 7057 1dbe 728f 8c3e 887e e13e 0ac7 12be
00000010: 9458 dbbe 7648 b73e

linear3.weight f4 [12, 6]
-0.3143895 -0.0065102875 -0.068175286 -0.12693277 -0.14608532 -0.035829127 0.18027204 0.30967188
0.26406395 0.08725032 -0.19946653 -0.096657366 -0.090676576 0.14106661 -0.2931763 -0.24895297
0.028397828 -0.009893656 0.16344565 0.2576198 -0.114898056 -0.34036714 -0.31728718 0.13591385
0.27270633 0.19775414 -0.082146615 0.35485554 -0.02785191 0.06150213 -0.036819845 0.16952467
-0.32000804 -0.01730588 0.33942956 -0.2484954 -0.042153 0.062024623 0.22130966 0.110473335
0.06990045 -0.3837748 0.02526173 -0.08192411 0.268956 -0.22550935 0.30783212 0.2522059
-0.2836797 -0.3349818 0.19565624 -0.037542015 0.13706285 -0.22985317 0.3773119 0.07205704
0.21027994 0.3979808 -0.2753752 0.06614214 -0.19503029 0.24841982 0.15584564 -0.34167784
-0.25239253 -0.23900062 -0.102404594 -0.35503387 -0.2175851 0.0766052 0.20458186 0.22516525
00000000: a9f7 a0be 4054 d5bb 7c9f 8bbd aafa 01be
00000010: 6497 15be 90c1 12bd 3c99 383e 508d 9e3e
00000020: 6433 873e 4cb0 b23d f440 4cbe 4cf4 c5bd
00000030: a4b4 b9bd c473 103e 341b 96be 87ed 7ebe
00000040: 90a2 e83c 0019 22bc 4c5e 273e bee6 833e
00000050: ac4f ebbd 9a44 aebe 7773 a2be 002d 0b3e
00000060: 2aa0 8b3e 1080 4a3e 7c3c a8bd a0af b53e
00000070: b029 e4bc a8e9 7b3d 68d0 16bd e097 2d3e
00000080: 18d8 a3be 10c5 8dbc b6c9 ad3e 9475 7ebe
00000090: a0a8 2cbd 880d 7e3d 009f 623e d83f e23d
000000a0: f827 8f3d 217e c4be b0f1 ce3c d4c7 a7bd
000000b0: 9ab4 893e eceb 66be 2c9c 9d3e 2221 813e
000000c0: 773e 91be bc82 abbe 1c5a 483e a8c5 19bd
000000d0: 345a 0c3e a15e 6bbe 062f c13e a492 933d
000000e0: a053 573e 24c4 cb3e fafd 8cbe 8875 873d
000000f0: 05b6 47be c461 7e3e 0096 1f3e 66f0 aebe
00000100: 9839 81be 94bc 74be 80b9 d1bd 00c7 b5be
00000110: a1ce 5ebe 30e3 9c3d e87d 513e b891 663e

linear3.bias f4 [12]
0.30411345 0.38591897 -0.3578336 0.17406124 0.1719212 -0.103488654 0.07838759 -0.07631534
0.22133553 0.2842518 0.070631415 0.02553767
00000000: c2b4 9b3e 2c97 c53e f735 b7be 1c3d 323e
00000010: 1c0c 303e dcf1 d3bd ac89 a03d 384b 9cbd
00000020: c8a5 623e 7489 913e 34a7 903d 6034 d13c

linear1.weight f4 [3, 1200]
-0.01825689 -0.027650623 0.024501268 0.005167879 -0.020846147 0.020737007 -0.020508107 0.027223326
0.021529041 -0.021555804 -0.027129965 -0.02486926 -0.010929102 0.015093293 -0.011917908 0.0059042983
0.019271247 0.01022996 0.017684046 0.015227534 0.014889307 0.0054309554 0.026777301 -0.0072622746
-0.027680472 0.0122956745 -0.0050111376 0.015469573 0.019016359 0.020077866 -0.009667862 -0.016908575
-0.011627916 -0.023147205 -0.016194087 0.0052737743 -0.028309183 0.0044864602 0.018961564 -0.0008368157
0.024527524 0.012553874 -0.0068165027 -0.0071069673 0.010677762 0.013385322 -0.025225483 8.854456e-05
-0.026133673 0.019854523 -0.003674185 -0.022614744 0.01036929 0.018366404 -0.027545096 -0.002669422
0.011999376 -0.013136575 0.010265067 0.0015474521 -0.013852841 -0.020027563 -0.008666037 -0.025868678
0.0031415708 -0.00850893 -0.023246475 -0.025826382 0.018215254 -0.027806038 -0.015444011 0.0018305238
-0.012774343 -0.027042447 0.003967952 0.02874351 0.021639332 -0.014052897 -0.01737367 0.018329091
0.017813567 0.022250775 -0.0027462244 -0.007860785 0.0060358346 -0.0049077105 -0.021883491 -0.019935839
0.009090554 -0.017506503 -0.02183136 0.014173109 0.025033519 -0.0013514552 -0.0070428774 -0.002576111
0.0048524067 -0.0061498582 -0.011797024 -0.008755766 -0.028150272 -0.003101088 0.01851213 0.023272738
0.026218072 -0.010310458 0.02013171 -0.013075994 -0.008316869 -0.005761357 -0.016633254 -0.021052651
0.02754867 0.011059903 -0.02562154 0.020298835 -0.026845874 0.0067166127 0.011420399 0.00019858219
0.014518604 0.009988647 0.01914651 0.024070345 0.02075392 -0.014771008 -0.007356925 -0.0057877135
-0.004735656 -0.025356917 -0.0016581062 -0.019444805 -0.020364827 -0.01641196 -0.0028974675 0.003852658
-0.02222199 -0.023542369 -0.0004833825 -0.023752965 -0.0006618053 -0.009421453 -0.014273173 -0.011795592
-0.0049227234 0.01220078 0.028267168 0.009990945 -0.0073219165 0.020440608 -0.01963255 -0.007541353
0.00094207004 0.026293546 -0.003808463 0.015116446 -0.024266968 0.025853515 0.012922399 -0.00808779
0.010987058 0.008303385 0.02291466 -0.018067837 0.02347054 0.009725619 0.004734397 0.01868581
-0.019205894 -0.014810115 -0.0005836617 -0.0019370317 0.008621097 -0.012571704 -0.00019478239 -0.0011767987
0.0233801 0.026904259 0.012111448 -0.0018294994 -0.028092036 -0.0020627584 -0.010342555 0.026739046
-0.010478998 -0.026079584 -0.028451849 0.0061814897 -0.016568463 -0.025483731 -0.0047741774 0.002218239
-0.027648117 -0.028067915 0.013928764 0.0011720918 -0.0069355574 -0.015783455 0.027810227 0.00964551
0.019292068 -0.00048720278 0.02715978 0.024147168 -0.016056359 -0.019741982 0.026541084 -0.009675769
0.00931704 -0.014770262 -0.00018107332 -0.0048134774 -0.013722359 0.01267102 -0.0019917786 -0.02630657
0.02164954 -0.010908686 0.017824773 0.018503092 -0.023697343 -0.023830727 0.014008407 0.016102627
-0.025063792 0.02614199 -0.007846447 -0.026548857 0.016970128 -0.018504284 0.0017915461 0.003038559
0.015722323 -0.012108417 -0.008916164 0.018099934 -0.01988718 -0.022417296 0.019595228 0.024616282
-0.020477425 0.027946096 -0.026238564 -0.012027299 -0.026266063 -0.01709799 0.015118651 -0.01330839
0.02480948 0.019614335 -0.02092097 -0.018419713 0.010348324 0.0052461214 0.021603595 0.0064012893
00000000: 798f 95bc 8f83 e2bc e2b6 c83c 5057 a93b
00000010: 8ac5 aabc a8e0 a93c 9e00 a8bc 7403 df3c
00000020: ac5d b03c cc95 b0bc a93f debc 9eba cbbc
00000030: fa0f 33bc dc49 773c 5443 43bc d878 c13b
00000040: bcde 9d3c 909b 273c 22de 903c e87c 793c
00000050: 48f2 733c 28f6 b13b 125c db3c 60f8 edbb
00000060: 28c2 e2bc cc73 493c 7834 a4bb 1874 7d3c
00000070: 32c8 9b3c 567a a43c f465 1ebc da83 8abc
00000080: 0483 3ebc 359f bdbc 76a9 84bc a0cf ac3b
00000090: a9e8 e7bc 2803 933b 4855 9b3c c05d 5bba
000000a0: f2ed c83c c4ae 4d3c f85c dfbb 90e1 e8bb
000000b0: c8f1 2e3c 1c4e 5b3c aca5 cebc 00b1 b938
000000c0: 4916 d6bc f4a5 a23c 98ca 70bb 8e42 b9bc
000000d0: f4e3 293c 2475 963c 41a6 e1bc 78f1 2ebb
000000e0: 0899 443c ca3a 57bc d02e 283c e0d3 ca3a
000000f0: 07f7 62bc d810 a4bc fefb 0dbc 8dea d3bc
00000100: d0e2 4d3b 0a69 0bbc 646f bebc d991 d3bc
00000110: 2838 953c 7dc9 e3bc e108 7dbc 30ee ef3a
00000120: 7a4b 51bc 1f88 ddbc 9805 823b 8277 eb3c
00000130: f844 b13c 1f3e 66bc 3a53 8ebc e426 963c
00000140: c2ed 913c 4247 b63c 00fa 33bb 86ca 00bc
00000150: 40c8 c53b dcd0 a0bb 0245 b3bc 7c50 a3bc
00000160: 8cf0 143c cc69 8fbc aed7 b2bc 5436 683c
00000170: 1813 cd3c 5023 b1ba f0c7 e6bb f8d3 28bb
00000180: f000 9f3b c084 c9bb 4e48 41bc 5874 0fbc
00000190: 669b e6bc a03b 4bbb c0a6 973c 78a6 be3c
000001a0: 48c7 d63c 32ed 28bc 42eb a43c b23c 56bc
000001b0: 7a43 08bc c4c9 bcbb 7642 88bc 9c76 acbc
000001c0: c0ad e13c 9834 353c 44e4 d1bc be49 a63c
000001d0: e1eb dbbc 0817 dc3b a01c 3b3c 803a 5039
000001e0: 70df 6d3c 6ca7 233c 24d9 9c3c 2c2f c53c
000001f0: 2004 aa3c 1902 72bc 5c12 f1bb dca6 bdbb
00000200: 902d 9bbb 4fb9 cfbc d054 d9ba b64a 9fbc
00000210: 23d4 a6bc 6072 86bc 70e3 3dbb e07c 7c3b
00000220: e40a b6bc eddb c0bc 806e fdb9 9495 c2bc
00000230: 007d 2dba 705c 1abc 07da 69bc 4c42 41bc
00000240: cc4e a1bb c8e5 473c 8c90 e73c 10b1 233c
00000250: b0ec efbb 1073 a73c 71d4 a0bc 741d f7bb
00000260: 40f5 763a 9065 d73c 6897 79bb f8aa 773c
00000270: 85cb c6bc c0ca d33c 78b8 533c a682 04bc
00000280: 1003 343c ec0a 083c 86b7 bb3c 0003 94bc
00000290: 4a45 c03c 3458 1f3c 0023 9b3b fc12 993c
000002a0: ae55 9dbc 20a6 72bc e000 19ba 00e4 fdba
000002b0: 803f 0d3c 8cf9 4dbc 803e 4cb9 d03e 9aba
000002c0: a087 bf3c 5266 dc3c 186f 463c d0cb efba
000002d0: 4521 e6bc 582f 07bb d273 29bc d80b db3c
000002e0: 1ab0 2bbc daa4 d5bc da13 e9bc 188e ca3b
000002f0: 96ba 87bc 42c3 d0bc b470 9cbb e05f 113b
00000300: 4e7e e2bc afee e5bc 7835 643c e0a0 993a
00000310: ac43 e3bb 4e4c 81bc 46d2 e33c 3408 1e3c
00000320: 660a 9e3c 406f ffb9 307e de3c 48d0 c53c
00000330: a088 83bc f0b9 a1bc b06c d93c 1e87 1ebc
00000340: 80a6 183c f8fe 71bc 80de 3db9 60ba 9dbb
00000350: bfd3 60bc 1c9a 4f3c 8088 02bb e080 d7bc
00000360: 605a b13c 58ba 32bc 4205 923c cc93 973c
00000370: ee20 c2bc a838 c3bc 8483 653c a8e9 833c
00000380: 9552 cdbc ba27 d63c 628e 00bc fd7c d9bc
00000390: f004 8b3c 4c96 97bc 50d2 ea3a 9022 473b
000003a0: 1acc 803c 6262 46bc 1a15 12bc 5046 943c
000003b0: 70ea a2bc 7aa4 b7bc 2c86 a03c 16a8 c93c
000003c0: 46c0 a7bc 36ef e43c 42f2 d6bc 260e 45bc
000003d0: ed2b d7bc 1511 8cbc 38b4 773c 6f0b 5abc
000003e0: 403d cb3c 3eae a03c 7462 abbc f0e4 96bc
000003f0: 048c 293c a8e7 ab3b 06fa b03c e8c1 d13b

linear1.bias f4 [3]
-0.021156158 -0.009059623 -0.002480099
00000000: ae4f adbc d06e 14bc 2889 22bb

linear2.weight f4 [6, 3]
0.4934678 -0.41597927 0.48459244 0.4267516 0.0644812 -0.30690384 0.06688404 0.10896778
-0.10088375 0.04829389 -0.06416851 0.16633284 0.47816873 0.16259134 0.43197942 0.39785385
-0.07800588 -0.34928554
00000000: d0a7 fc3e 3cfb d4be 801c f83e 307f da3e
00000010: b80e 843d 8022 9dbe 80fa 883d 802a df3d
00000020: 249c cebd d0cf 453d c86a 83bd 2853 2a3e
00000030: 88d2 f43e 587e 263e 682c dd3e 80b3 cb3e
00000040: 8cc1 9fbd 8ed5 b2be

linear2.bias f4 [6]
0.3649614 -0.064424396 0.4951762 0.14192867 0.0657022 0.16057545
00000000: 38dc ba3e f0f0 83bd bc87 fd3e c055 113e
00000010: e08e 863d e46d 243e

linear3.weight f4 [12, 6]
-0.10381833 0.044765115 -0.060088694 0.38471806 -0.038682967 0.045858562 -0.306938 -0.1694226
0.21109611 0.11152291 -0.29054022 -0.29849464 -0.20221627 -0.07299045 0.18636143 0.023881972
-0.13751271 0.044115275 0.3136691 -0.40023956 -0.39817473 -0.12039858 -0.40265906 -0.14781168
-0.020529449 0.23533076 0.32657665 0.20468032 0.021770507 -0.38833454 -0.23600551 -0.25358975
0.14688021 0.032464772 -0.19022 0.033219695 -0.29291123 -0.16056769 0.033000976 0.121527195
0.05571562 -0.0024735928 -0.2967481 0.14814049 0.009522915 -0.18641014 0.17010194 0.16229016
-0.024021387 -0.03291115 0.11318982 0.206487 0.37590182 -0.19719212 -0.0005297959 -0.37161574
-0.05679807 0.1421001 0.15560442 0.3931988 -0.15323469 0.09035465 0.20702952 0.3138082
-0.05619082 0.34224772 0.2678315 0.26928008 0.1294676 -0.22529171 -0.033382148 0.15140474
00000000: b49e d4bd a05b 373d 901f 76bd c4f9 c43e
00000010: 0872 1ebd 30d6 3b3d fa26 9dbe 1e7d 2dbe
00000020: 9429 583e 2066 e43d b0c1 94be 4ad4 98be
00000030: c811 4fbe 047c 95bd 88d5 3e3e 20a4 c33c
00000040: 22d0 0cbe 38b2 343d 3c99 a03e 33ec ccbe
00000050: 8fdd cbbe 8893 f6bd 5429 cebe f25b 17be
00000060: 602d a8bc 8cfa 703e 0e35 a73e b897 513e
00000070: 1058 b23c c9d3 c6be 6eab 71be 84d6 81be
00000080: c467 163e c8f9 043d 08c9 42be 6011 083d
00000090: 76f8 95be db6b 24be 082c 073d 40e3 f83d
000000a0: 1036 643d 001c 22bb 5eef 97be 24b2 173e
000000b0: 0006 1c3c 4de2 3ebe 342f 2e3e 642f 263e
000000c0: 80c8 c4bc d8cd 06bd 10d0 e73d 5471 533e
000000d0: 3476 c03e bbec 49be 00e2 0aba 6b44 bebe
000000e0: 18a5 68bd b082 113e c456 1f3e 5a51 c93e
000000f0: 8ee9 1cbe dc0b b93d 8cff 533e 78ab a03e
00000100: 5828 66bd 183b af3e 3621 893e 14df 893e
00000110: 2893 043e dfb2 66be b8bb 08bd d809 1b3e

linear3.bias f4 [12]
0.35744107 -0.29047477 0.12220603 0.00034427643 -0.10409936 0.12528974 0.394705 -0.049846232
0.078724205 -0.0026830733 0.06836918 -0.33139354
00000000: 8402 b73e 1cb9 94be 2847 fa3d 0080 b439
00000010: 0c32 d5bd f44b 003e c616 ca3e 902b 4cbd
00000020: 283a a13d 80d6 2fbb 2405 8c3d 6aac a9be
