model/소입model.pth (torch, 552224 bytes, 18 tensors)

linear1.weight f4 [60, 120]
000000 04 fe d9 3c 40 7b 30 bb 72 1d 52 bd 00 fb 4f 3a
       0.026610382 -0.0026928931 -0.051297612 0.0007933825
000010 1c ea 3e 3d e0 4d 58 3d 46 25 fd bc da 23 85 bd
       0.046609983 0.052808642 -0.030901562 -0.06500979
000020 cd 63 46 bd 2c b4 6e bd 38 bb dc bc 5c 70 67 3d
       -0.04843502 -0.058277294 -0.026944742 0.05650364
000030 00 90 a0 b7 84 92 88 bc 90 0f 3c 3d c8 e2 3c 3d
       -1.9140542e-05 -0.016671427 0.04591328 0.046114713
000040 a8 ad 43 3c 3b 6f 02 bd dc 5b 61 3d 00 5d 23 3a
       0.011943258 -0.03184436 0.055019245 0.00062318146
000050 a0 b6 34 3d f0 e0 4d 3d ca 23 95 3d e0 78 4c 3c
       0.044119477 0.050263345 0.07282217 0.012479991
000060 b2 0f 81 3d 50 02 80 3b 92 31 a4 3d 94 db 90 3d
       0.06301822 0.0039065257 0.08017267 0.07073131
000070 85 76 86 bd 74 18 41 3d 0c bf 8b bd 78 c1 50 3d
       -0.065655746 0.04714246 -0.06823549 0.050965756
000080 7c 44 8f bd 48 0d 67 3d 7c 3f 80 3d 90 79 cd 3b
       -0.06995484 0.05640915 0.06262109 0.006270595
000090 26 8f 8f 3d 3c 9a 05 3d 35 87 4c bd dc ab 2e 3d
       0.07009725 0.032617792 -0.04993363 0.042644367
0000a0 36 d8 33 bd 38 6e 40 3c 40 96 a0 3a 0c 9a 8c bc
       -0.043907367 0.011745028 0.0012251809 -0.017163299
0000b0 99 54 b8 bd c0 a9 15 3d f8 12 4c bc fe 04 a5 bd
       -0.09000511 0.03653884 -0.012455694 -0.08057593
0000c0 be 78 ee bc fe d1 1e bd 54 79 b8 bc d7 c4 51 bd
       -0.029110309 -0.038774483 -0.022518791 -0.05121311
0000d0 d8 cd 4c 3d 88 7c cf 3c 42 4a 99 3d 19 c0 9a bd
       0.050000995 0.025327936 0.07484867 -0.07556171
0000e0 a2 f4 7d bd 3e 79 0e bd f8 a2 9c 3c 20 e8 07 3c
       -0.06200088 -0.034783594 0.019120678 0.008295089
0000f0 60 86 b6 bc 5c 8a 91 3d 04 f4 fa 3c 84 9a 0d 3d
       -0.022280872 0.07106468 0.030633934 0.034571186
000100 60 16 b1 3b d4 93 f4 bc 04 48 ba 3d 1c 80 58 3d
       0.0054042786 -0.029855646 0.09095767 0.05285655
000110 74 4a b7 3d 62 93 ab 3d 90 05 46 3c db d6 02 bd
       0.08949748 0.083777204 0.012086287 -0.031943183
000120 8e 7b b2 3d 14 52 8d bd bc 31 49 3d d0 b2 15 bd
       0.087149724 -0.06900421 0.049119696 -0.036547482
000130 e8 a3 18 bc 11 5d 94 bd 24 78 55 3d 94 4e 19 bd
       -0.009316422 -0.072443135 0.05211653 -0.037428454
000140 b0 95 c3 3b 0c a6 9f 3c ac 16 a1 bc 78 ea 28 3c
       0.005968772 0.019488357 -0.019664131 0.010309808
000150 ea 39 07 3d e9 56 ab bd bc 5c 5a 3d 1c e7 ac bd
       0.033014216 -0.08366186 0.053311095 -0.08442518
000160 e8 22 15 bc e0 6a 18 3c fd 75 ab bd 3c 0d 9b bd
       -0.009102561 0.009302825 -0.08372114 -0.07570884
000170 74 b1 b4 3d 80 0e eb ba 39 88 73 bd dc 85 7c 3d
       0.08822909 -0.0017933398 -0.059456084 0.061651096
000180 98 95 e6 bc 5c e7 5e 3d be db 51 bd 44 ab 7a bd
       -0.028147504 0.05441986 -0.051234953 -0.061198488
000190 30 df 98 bd a8 ce 21 3c f4 a3 96 3c 46 03 0c bd
       -0.07464445 0.009875931 0.018388726 -0.03418281
0001a0 c8 83 5e 3c 36 fc 56 bd 2e 37 86 3d e0 c7 3c 3d
       0.013581224 -0.05248662 0.065534934 0.046089053
0001b0 a4 e2 ff 3c 40 2b f4 3a c9 2a 01 bd 00 24 cf 39
       0.031236 0.0018628612 -0.031534944 0.0003950894
0001c0 00 84 39 3a c0 86 84 bc b8 d5 22 3d 54 68 97 3d
       0.00070768595 -0.016177535 0.0397546 0.07392946
0001d0 f4 3c 4b 3d 8c 18 c5 bc 5c 0f 55 3d f4 45 4e bd
       0.049618676 -0.024059556 0.0520166 -0.05035968
0001e0 80 60 4d 3a 74 9b 8b 3d 20 a3 24 3b 44 23 89 3d
       0.0007834509 0.0681676 0.0025121644 0.066961795
0001f0 0c f7 94 3c 02 fa 8a 3d 00 13 b7 3b 5a 69 3d bd
       0.018184207 0.067859665 0.005586982 -0.04624305
000200 34 ba a0 bc 40 f4 3f bc f0 68 91 bd 04 b1 c2 3c
       -0.019620039 -0.011715949 -0.07100093 0.023766048
000210 7d 52 97 bd 31 38 95 bd 2c b6 88 bc ee 7a 90 3d
       -0.0738878 -0.07286108 -0.016688429 0.07054697
000220 94 12 9b 3d a8 c3 af bc 54 90 a3 bd b8 2d f5 3c
       0.07571903 -0.0214556 -0.07986513 0.029929027
000230 98 19 52 3d cc 76 b2 3d dc dd 80 bd 56 3e b4 3d
       0.05129394 0.08714065 -0.06292316 0.08800952
000240 94 e1 91 3c 58 1d e3 bc 70 72 f2 3b a0 dc 4b bd
       0.01780776 -0.027723953 0.007398896 -0.04977095
000250 b0 28 3a bc 08 f4 46 3c 0a 26 82 3d d4 5c 5e bd
       -0.01136224 0.0121431425 0.063549116 -0.054287747
000260 7a 56 07 3d 5f 70 85 bd 29 5a 38 bd 48 b3 4b 3c
       0.033041455 -0.06515574 -0.04500786 0.012432881
000270 4b 01 15 bd 40 3e 62 3b dc 26 8d 3d cc fd 0e 3d
       -0.036378186 0.0034521967 0.068921775 0.03491001
000280 20 af 17 3b 00 c5 50 3c b2 66 ba 3d e7 e8 21 bd
       0.0023145154 0.012742281 0.09101619 -0.039528754
000290 d6 8d 8f 3d 60 4a 10 3b 34 04 ce 3c d4 3e bc 3c
       0.07009475 0.0022016987 0.025148489 0.022979178
0002a0 2a 23 40 bd 3c 72 b2 bc f7 ee 21 bd 3c 26 ac 3d
       -0.046908535 -0.021782987 -0.039534535 0.0840573
0002b0 6a 0f 09 bd a1 e9 46 bd 30 ff 19 3d 62 2a 26 bd
       -0.033461966 -0.04856265 0.03759688 -0.040567763
0002c0 70 9d b7 3c 18 81 2c 3d a4 33 13 3d 80 df aa 3d
       0.02241394 0.0421153 0.03593792 0.083434105
0002d0 50 a5 aa 3d 00 71 9a 3d 3d d1 0f bd 8b 6b 86 bd
       0.08332312 0.07541084 -0.035111655 -0.06563481
0002e0 30 ca a9 bc ac f3 74 3d f0 70 df bb d0 b2 32 3d
       -0.020726293 0.059802696 -0.006818883 0.04362756
0002f0 23 19 99 bd 20 5f 12 bd da 32 8d 3d 1a 38 7c bd
       -0.074754976 -0.03573525 0.06894465 -0.06157694
000300 d0 91 62 3d c4 8c 7e 3d 78 e3 23 3d 4c cf df bc
       0.05531484 0.062145963 0.040011853 -0.027320527
000310 98 e9 d2 bc ca 1b a6 3d c0 7c d6 3b 3d 07 b9 bd
       -0.025746152 0.08110769 0.006545633 -0.09034584
000320 c8 b6 56 bc 68 eb 5b bc f0 df 28 bc 90 e7 50 3d
       -0.013105102 -0.013422824 -0.010307297 0.051002085
000330 14 c9 8f 3d 18 92 b5 bd 60 67 ac 3c 68 df 9c 3c
       0.070207745 -0.08865756 0.021045387 0.019149497
000340 30 c4 a0 bd e0 64 96 3b 38 84 b6 bc 14 47 79 3d
       -0.0784992 0.004589662 -0.022279844 0.0608588
000350 a4 2b ac 3c 80 11 a2 3b 90 90 d5 3c f8 c2 b6 3d
       0.021016903 0.004945934 0.02606991 0.08923906
000360 f4 d4 af bc b0 af 55 3d 9e 55 06 3d f4 da 77 3d
       -0.021463849 0.0521695 0.032796495 0.060511544
000370 50 36 a5 3c 9c e9 40 3d 49 b4 87 bd 60 a4 0a 3b
       0.0201675 0.047097787 -0.066261835 0.0021155104
000380 f2 fc 89 3d 12 d1 a8 bd 50 b6 eb 3c 52 0c a3 3d
       0.067376986 -0.08243002 0.028773457 0.07961334
000390 66 4a af 3d 38 f0 2b 3d c6 15 77 bd 40 f7 b9 3a
       0.08559112 0.041977137 -0.0603235 0.0014188066
0003a0 a0 ca a0 3d 88 df 83 bd a2 b8 81 3d 9c 12 b8 3d
       0.07851148 -0.064391196 0.06334044 0.089879245
0003b0 d8 55 72 3d a4 5a 7a 3d c0 4b 8f 3d df 8c 3c bd
       0.0591639 0.061121598 0.0699687 -0.046032783
0003c0 e7 08 9f bd 62 74 a1 3d e3 6f 80 bd 10 a5 6a bd
       -0.0776537 0.078835264 -0.06271341 -0.057286322
0003d0 e4 c3 87 3d 30 46 e0 bb 60 4b da bc a0 23 a5 bc
       0.0662916 -0.0068443045 -0.02664727 -0.020158589
0003e0 90 84 eb 3c 29 11 9c bd 20 78 9c bb 2d 0f b3 bd
       0.028749734 -0.076204605 -0.004775062 -0.08743129
0003f0 cc 45 6e 3d 20 46 19 bd 8c b7 8e 3d 68 e8 8d bc
       0.058172032 -0.037420392 0.069686025 -0.017322734

linear1.bias f4 [60]
000000 25 8c 68 bd 54 e1 48 3d ff 40 18 bd b0 ef 45 bc
       -0.056774277 0.049043015 -0.03717136 -0.012081072
000010 16 b1 37 bd f6 7d 1d bd 10 d9 63 3d 8b eb 84 bd
       -0.044846617 -0.038450204 0.05562693 -0.06490239
000020 ac 52 17 3d c6 c9 b4 3d 26 23 91 bd 0c 5c 23 3d
       0.036944076 0.08827548 -0.07086782 0.039882705
000030 23 58 84 bd d4 b0 1e 3d 88 85 2b 3d 58 e8 2a 3c
       -0.06462123 0.038742855 0.041875392 0.010431372
000040 aa fa 29 bd c0 de f1 3b 70 5d 42 bc 7c 4b d3 bc
       -0.041498818 0.00738129 -0.011863098 -0.02579283
000050 8e 8a 7b bd f6 c1 a5 bd d7 f8 70 bd 50 2a 15 3c
       -0.061411433 -0.08093636 -0.058831062 0.009104326
000060 6c 3d 27 3d a6 45 09 3d 6c db b1 3c 90 fd cd 3b
       0.04083006 0.033513688 0.021711074 0.0062863305
000070 fd c0 9a bd 88 e1 c3 3c 88 76 ab bd 65 76 36 bd
       -0.07556341 0.023911253 -0.083722174 -0.044546504
000080 a8 56 5b bd d0 5a d5 3b 30 bc 3b 3c 60 a2 9d bb
       -0.05354944 0.00651107 0.011458442 -0.0048106164
000090 be 63 53 bd 40 78 6f 3b 90 6b 78 3c 38 71 84 bd
       -0.051608793 0.003654018 0.015162364 -0.06466907
0000a0 28 da 55 bc 08 b2 08 3c 20 fe 33 bb 9a b4 aa bd
       -0.013052501 0.008343227 -0.0027464703 -0.08335228
0000b0 d4 c0 ba 3d 40 c8 72 3d df a3 06 bd 5e ef ae 3d
       0.0911881 0.059273005 -0.032871123 0.085417494
0000c0 2b db 73 bd d0 73 b4 bb de 0c a5 bd 3c bc d5 3c
       -0.059535187 -0.00550697 -0.08059095 0.026090734
0000d0 ca 5f b4 3d 6e 40 92 3d a0 70 9a bb ba b5 90 3d
       0.08807333 0.07141195 -0.004713133 0.070659116
0000e0 20 56 00 bc e4 6a 1f 3d 3b de b8 bd 70 fd 1d 3d
       -0.007833034 0.0389203 -0.09026762 0.038571775

linear2.weight f4 [30, 60]
000000 ce 9e 90 3d 80 cd df 3b c4 e7 e3 3d e8 9d b0 3c
       0.070615396 0.0068299174 0.1112819 0.02155967
000010 a8 fb de 3c 00 5f 4a 3a 70 4f 4f 3d 68 b5 af 3d
       0.027219608 0.00077198446 0.050612867 0.08579522
000020 4c 1b 29 3d 80 d0 74 3d 00 fa fd 3b 18 5b ad 3c
       0.041285798 0.059769154 0.0077507496 0.021161601
000030 ba 64 c7 bd 7e 89 b0 3d 90 cd 03 be ae 22 a6 3d
       -0.09736009 0.086199746 -0.12871385 0.081120834
000040 80 b4 88 ba 09 06 c4 bd 8a 5d c9 3d d0 7d 57 3d
       -0.001042977 -0.095714636 0.09832294 0.05261022
000050 f4 7e 25 3d 70 10 30 bc 9c f4 86 bd e8 9a e9 3d
       0.040404275 -0.0107461065 -0.06589624 0.11406499
000060 a4 7a c7 3d f0 5d b5 3c 54 5e 40 3d 94 54 95 bc
       0.09740189 0.02213952 0.04696496 -0.018228807
000070 a8 bb b1 3d e0 3a 17 bd e3 9f 02 3e f8 fe e2 3d
       0.08678371 -0.036921382 0.12756304 0.11083788
000080 7c 64 03 3d a8 6c 5c bd 41 05 cc bd 43 a5 b8 bd
       0.03207825 -0.05381456 -0.099619396 -0.09015896
000090 b4 e2 4c bd 90 03 e3 bb f8 d3 d8 3c 52 48 a9 3d
       -0.05002089 -0.006927915 0.026468262 0.08265747
0000a0 a4 bf 3e 3d e0 f0 aa 3b 88 b1 c6 bc 80 f2 36 bb
       0.04656948 0.005216703 -0.024254575 -0.0027915537
0000b0 6a b4 93 3d 86 68 e3 3d 34 0c 30 3d d2 6b b1 bd
       0.072121456 0.11103921 0.042980388 -0.08663143
0000c0 7b 6a 9d bd 94 ba 6e 3d e0 77 69 3c 68 df 6e bd
       -0.07686325 0.058283404 0.014249772 -0.058318526
0000d0 36 90 55 bd 48 5c 33 bd a8 74 1d 3d 88 9e 8b bc
       -0.052139483 -0.043789178 0.03844133 -0.017043367
0000e0 70 e1 6a 3c 70 cc 08 3d d6 46 f7 3d 92 21 46 bd
       0.014335975 0.03339809 0.12074058 -0.04837186
0000f0 34 3d b3 bc 56 89 7b bd 90 44 b5 3c 77 44 eb bd
       -0.02187977 -0.06141027 0.02212742 -0.11487668
000100 ec c3 52 bd 30 7e d3 3c 76 29 b6 3d e8 05 d0 3d
       -0.051456377 0.025817007 0.08894627 0.101573765
000110 c8 da 88 3d 93 1f bb bd 08 51 87 bc 6e 13 72 bd
       0.06682354 -0.09136882 -0.01651813 -0.05910056
000120 cc b0 f9 bd da 13 b8 3d 23 b5 01 be e4 51 08 bd
       -0.121919245 0.089881614 -0.12666754 -0.033281222
000130 c8 1e cf 3c 00 9a 8b b9 ba e4 cb 3d 30 50 ae bc
       0.025283232 -0.00026626885 0.099557355 -0.02127847
000140 b0 22 e6 3c 7a 32 a2 3d fa d4 cf 3d 38 71 b8 bc
       0.028092712 0.07919784 0.10148044 -0.022514924
000150 7c c8 5d 3d 48 33 23 bc 1a f5 36 bd da 03 a0 3d
       0.054146275 -0.009960957 -0.04466734 0.078132346
000160 2a 69 d4 bd 60 69 03 3c d0 3b ac 3c c0 35 93 3b
       -0.10371621 0.008020729 0.021024615 0.0044924915
000170 82 7e a7 bd 9c e4 dd bd 66 e7 dd 3d ec dc cc 3d
       -0.08178426 -0.108346194 0.108351514 0.10003075
000180 ea f7 f1 bd 54 1b 52 3d a0 24 0c bd 34 f3 d7 3d
       -0.11814864 0.051295593 -0.034214616 0.10544434
000190 50 a6 be bd 3c 84 46 bd f1 30 93 bd f2 be 9c 3d
       -0.09309065 -0.048465952 -0.07187069 0.076536074
0001a0 00 c1 23 bb 60 24 97 3b bf 62 fa bd 38 5e 98 3d
       -0.0024986863 0.0046124905 -0.122258656 0.07439846
0001b0 5a b6 2c bd c0 5a 6e bb 14 9c c4 bd 20 a5 88 bd
       -0.04216609 -0.003637001 -0.09600082 -0.0667212
0001c0 44 ed 43 3d 60 b3 1d 3c aa fc eb bd e6 4f bf 3d
       0.047833696 0.009625286 -0.11522801 0.09341411
0001d0 d0 2e db bd 64 63 e9 bd f6 b4 01 be d8 c4 e9 3c
       -0.10702288 -0.113959104 -0.12666687 0.028536245
0001e0 3c 9e dd bd 18 25 61 bc 0a 3f 74 bd 02 51 c0 bd
       -0.108211964 -0.013741754 -0.05963043 -0.09390451
0001f0 1c 77 44 3d c9 56 86 bd e8 37 85 3c 61 19 80 bd
       0.047965154 -0.06559522 0.01626201 -0.06254841
000200 b2 53 65 bd 7f 1c f9 bd c0 74 d3 3d dc 31 d4 3d
       -0.05598802 -0.12163638 0.10325003 0.103610724
000210 1c 25 e7 3d c0 52 20 3d b4 9d a9 bd 7a 8d 53 bd
       0.11286375 0.039141417 -0.082820326 -0.051648594
000220 94 6d b1 3d 1a d2 d6 3d 12 f7 78 bd 0e b8 37 bd
       0.086634785 0.104892924 -0.0607825 -0.044853263
000230 34 8b 83 bc 10 ad 64 3d 50 43 d4 3c 68 17 ec 3c
       -0.016057588 0.055829108 0.025911003 0.028819755
000240 34 ca ac bd 66 d5 a3 3d 80 2b 84 ba 18 f0 79 3d
       -0.08437005 0.07999687 -0.0010083765 0.061019987
000250 a9 aa 02 3e 80 03 22 3b 4e e1 a0 bd a6 e5 fe 3d
       0.12760414 0.0024721324 -0.078554735 0.12446146
000260 70 ea bb bb 98 f3 6b 3d 4c 4e 50 bd 00 8f 40 3a
       -0.0057347342 0.057605356 -0.05085592 0.00073455274
000270 34 7d fc bd 8e 93 b7 bd d4 8a 03 be cc 9a 94 bd
       -0.12328568 -0.08963691 -0.12845927 -0.07256088
000280 36 71 e3 bd f6 53 7e bd fd a7 00 3e 58 9b 38 3d
       -0.11105578 -0.06209179 0.12564082 0.045070022
000290 ce 7e d8 3d 6e db a2 3d 88 70 5e 3d 14 ff bf 3d
       0.10571061 0.07952009 0.054306537 0.09374824
0002a0 ec 2d 6f 3d e0 41 a3 bc 64 4b 10 3d 88 e7 9e bd
       0.058393404 -0.019928873 0.035228148 -0.07759005
0002b0 c4 a9 97 3d 8a 3b 91 3d 00 4e c7 b9 b2 55 a5 bd
       0.07405427 0.07091434 -0.00038014352 -0.08072986
0002c0 a6 f9 ac 3d 90 21 84 3c 82 3b dc bd 4b b4 e6 bd
       0.08446054 0.016129285 -0.10753538 -0.11264857
0002d0 56 c0 e0 3d bc 5d e2 bc 58 bf 81 bd 2a bc 03 bd
       0.10974185 -0.027632587 -0.06335324 -0.03216187
0002e0 f0 84 b9 bc 6a 77 c9 3d c0 da a1 3c 3e 2e 61 bd
       -0.022646397 0.098372295 0.019757628 -0.05497574
0002f0 ba b7 d1 3d 34 ce f6 3d 6c c6 b7 bc 90 19 38 3d
       0.10240121 0.12051049 -0.022433482 0.044946253
000300 32 25 e4 bd f4 df 29 bd 80 8b 38 bc e0 04 ed bb
       -0.11139907 -0.041473344 -0.011263728 -0.007233247
000310 cc cb 0e bd 92 cc 06 bd 48 b8 19 bc 10 87 d7 bd
       -0.034862325 -0.032909937 -0.009382315 -0.10523808
000320 c0 78 52 3b e0 98 01 be 2e 03 b7 3d d6 59 8d 3d
       0.003211543 -0.12655973 0.08936153 0.069019005
000330 5c 47 d5 3d 7c 7c 77 3d 1e 2d b1 3d fa 10 e2 3d
       0.10414001 0.060421452 0.086511835 0.11038394
000340 1a f5 01 bd 54 e8 5f bd 32 10 b5 bd 60 28 cd 3d
       -0.031727888 -0.054664925 -0.0884098 0.100174665
000350 0e d5 d7 bd 8d 35 be bd ea 6f 8c bd df 0a f3 bd
       -0.10538684 -0.09287558 -0.068572834 -0.11867308
000360 50 04 73 3d 36 a4 cf 3d 16 48 bc 3d af af 87 bd
       0.059330285 0.101387426 0.09193437 -0.06625306
000370 cc b5 f6 bd dc 9c b0 bc 8c 38 82 bc f0 94 80 3d
       -0.12046394 -0.021559171 -0.015896104 0.062784076
000380 dc 8a 9d bd 48 e9 9b 3d 94 e0 84 3d d8 fc ab bc
       -0.07692501 0.07612854 0.064881474 -0.020994589
000390 40 02 dc 3c 81 c9 95 bd 96 d8 93 3d dc 06 1b 3d
       0.026856542 -0.073138244 0.07219045 0.03784834
0003a0 24 ff d7 3d 00 90 6d 3d 00 6d 35 ba 40 56 ef 3d
       0.10546711 0.057998657 -0.00069208443 0.11686373
0003b0 c2 3a aa 3d 48 6d 6e bd 9d 5e 81 bd 2c 62 54 3d
       0.083119884 -0.058209687 -0.06316874 0.051851436
0003c0 08 d2 d6 bd 80 13 42 bb 06 23 a0 3d 4c 3c 66 3d
       -0.10489279 -0.0029613674 0.0781918 0.056209847
0003d0 ec b4 dd bc 86 f6 a3 3d 1a 99 86 3d da 8f e4 bd
       -0.02706381 0.08006005 0.065721706 -0.1116025
0003e0 00 0c 8a 3a 41 2e 86 bd d6 3e 34 bd 86 e7 80 3d
       0.0010532141 -0.06551791 -0.044005238 0.062941596
0003f0 aa 70 9e bd 78 9d b5 3c 10 b8 34 bc c6 5f 93 bd
       -0.07736333 0.022169814 -0.011030212 -0.07196002

linear2.bias f4 [30]
000000 22 f4 af 3d 1a ea e8 3d 80 e6 2f 3d 36 16 73 bd
       0.085914865 0.11372776 0.04294443 -0.059347354
000010 60 1e 8a bc 4a d1 86 3d 58 63 1b bd 36 07 79 bd
       -0.016860187 0.065828875 -0.03793654 -0.060797893
000020 a0 f8 29 bd 58 87 09 bc 50 55 05 3d 3b f1 b1 bd
       -0.041496873 -0.008394085 0.032552063 -0.08688589
000030 f0 e9 85 bd 12 bb aa bd 7c 96 48 bd d4 12 f1 3d
       -0.06538761 -0.08336462 -0.048971638 0.11771169
000040 a8 2b c9 3d c0 c4 e4 3d 4a 91 9d 3d 6c bc a8 bd
       0.0982278 0.111703396 0.07693727 -0.082390636
000050 04 c2 ad bc 06 02 4a bd e4 ac 34 3d b8 07 88 3c
       -0.021210678 -0.049318336 0.044110194 0.016605243
000060 28 b2 bd 3d 61 ff f3 bd fc 2a 74 3d 80 2d a0 3c
       0.09262496 -0.11913944 0.059611306 0.019552946
000070 08 54 a9 3d ae 35 df 3d
       0.08267981 0.108989105

linear3.weight f4 [1200, 30]
000000 d6 59 37 3e d4 55 79 3d e8 03 8a 3c 94 e5 2b bd
       0.17905363 0.060872868 0.016847566 -0.04196699
000010 10 cd fa bd 00 1d 4f bd 06 f9 20 3e 11 12 38 be
       -0.12246144 -0.050564766 0.15719995 -0.17975642
000020 ca a4 00 be 64 f4 e3 bd f8 8a 07 3d e8 2f bb 3d
       -0.12562862 -0.11130598 0.033091515 0.09139997
000030 8e ea ab bd 90 e0 a9 3d 44 33 ea 3d 30 c5 86 3c
       -0.08394347 0.08294785 0.114355594 0.016451448
000040 5c d3 54 3d e0 32 2f 3c 32 1c c5 bd 27 ed 98 bd
       0.05195938 0.010693282 -0.096245185 -0.07467108
000050 f3 f6 e4 bd 64 c7 07 bd e0 0c 14 bd 8c 3d f0 3d
       -0.11179914 -0.033149138 -0.03614509 0.11730489
000060 58 16 c2 3c 1a 6e 75 bd a7 d1 98 bd 40 10 8e 3b
       0.023692295 -0.059919454 -0.07461863 0.0043354332
000070 c8 8d d5 3d ec 15 29 3e fb ed 92 bd 40 29 76 3b
       0.10427433 0.16512269 -0.071742974 0.0037561208
000080 8b 2f 08 be 70 7e 04 be 40 67 32 3e f8 ba 2c bd
       -0.13299386 -0.12938857 0.17422199 -0.042170495
000090 08 2d b3 3c a0 58 2f 3e 04 b4 18 bd 81 04 eb bd
       0.021872059 0.17123652 -0.03728105 -0.114754684
0000a0 84 aa 23 bd 20 83 61 3c b2 81 12 3e 52 5e 28 be
       -0.03995754 0.013764173 0.14307287 -0.1644223
0000b0 ed a7 91 bd c4 80 34 be 24 ad 07 3e 88 81 07 3e
       -0.071121074 -0.17627245 0.13249642 0.13233006
0000c0 c6 99 86 3d b8 2e ac 3d 8f 66 ac bd 7c f0 47 3d
       0.06572299 0.084073484 -0.08417999 0.04881333
0000d0 18 4a 26 3e 8f 81 2c be 5c 01 42 3d 9d f4 9a bd
       0.16239202 -0.16846298 0.047364578 -0.075661875
0000e0 a8 75 15 be 0b aa e8 bd 0f 2a 82 bd 70 27 4c 3c
       -0.14595664 -0.11360558 -0.06355678 0.0124605745
0000f0 28 cd fb bc d4 23 3b 3d 00 81 b4 ba ec 9e 1c 3e
       -0.030737475 0.045688465 -0.0013771355 0.15294999
000100 bd 7e 17 be bc ad 0d 3d 50 13 50 3d 84 e6 b9 3d
       -0.1479444 0.034589514 0.050799668 0.090771705
000110 96 b8 10 be 48 f7 35 3e 00 4b f9 3b 40 27 18 be
       -0.14132914 0.17770112 0.0076078176 -0.14858723
000120 d8 06 2a 3d f0 47 1e bc f0 d5 f6 bc 90 d4 ac 3c
       0.041510433 -0.009660706 -0.03013131 0.021097451
000130 b0 c1 ef bd 84 9a f7 3d 77 37 34 be c0 01 69 bc
       -0.11706865 0.120900184 -0.17599283 -0.014221609
000140 ab 7e b2 bd 48 f0 7c 3d c2 80 2e 3e 9f 76 ee bd
       -0.08715566 0.061752588 0.17041305 -0.11643719
000150 10 a6 63 3c f0 3d 0f bc 80 25 ab bc 00 8a 8b 3d
       0.013894573 -0.008742794 -0.020891905 0.06813431
000160 54 ee ff 3d c0 32 9e bb 5b 82 93 bd f0 52 46 3d
       0.12496629 -0.004827827 -0.07202598 0.04841894
000170 be 31 17 be 10 ee 6a bd b0 1b 1e 3c 40 71 93 bd
       -0.14765069 -0.05735594 0.009650156 -0.07199335
000180 78 cc e8 3d c9 a4 08 be 04 60 c2 3d 72 33 33 be
       0.11367124 -0.1334411 0.0949097 -0.17500094
000190 bc e7 bd 3d c8 32 19 3e cc fa 8f 3d f0 ae 1b bc
       0.092727154 0.14960778 0.070302576 -0.009502158
0001a0 ec d5 f0 3d d2 74 c4 bd 90 33 58 3c 80 c6 dd 3a
       0.11759552 -0.09592594 0.013195887 0.001692012
0001b0 9e f4 a3 bd cd e0 9a bd 28 45 f6 3d d0 e3 1a 3e
       -0.080056414 -0.075624086 0.12024909 0.15125966
0001c0 db e4 35 be 38 83 91 3c 88 b6 d0 3c 46 0f 31 3e
       -0.17763083 0.017762765 0.025477663 0.17290983
0001d0 c2 d4 74 bd 14 c5 8f 3d c9 e5 ed bd 34 ca 49 bd
       -0.059773214 0.070200115 -0.11616094 -0.0492651
0001e0 dc 03 9b 3d 11 3a 3a be 1c 8f 33 bd 20 91 14 be
       0.075690955 -0.18186213 -0.04383765 -0.14508486
0001f0 ca 7c 34 3e d0 4c b7 3c d3 c1 b7 bd 59 7a bf bd
       0.17625728 0.022375494 -0.08972516 -0.09349508
000200 57 9a 9d bd 70 45 18 3c 9a a7 73 bd 20 46 ad 3d
       -0.076954536 0.009293899 -0.05948601 0.08460641
000210 44 ee 05 bd 28 45 f1 bc 60 7d 97 3d 49 89 2b be
       -0.03269793 -0.029451922 0.0739696 -0.16751589
000220 80 ad 12 be 7c cb b5 3d e8 a0 d7 3d 84 20 18 3e
       -0.14323997 0.08876702 0.10528737 0.14856154
000230 54 38 de 3d af e9 94 bd 28 6e 39 be f8 de 2f 3e
       0.108505875 -0.07271134 -0.18108428 0.171749
000240 24 84 cb 3d 20 49 09 3d ef b7 18 be 74 81 19 3e
       0.09937313 0.033517003 -0.14913915 0.14990789
000250 78 55 18 be 10 ec aa 3c f4 cf 39 3d 70 c7 3a 3c
       -0.14876354 0.020864516 0.045364335 0.011400089
000260 f4 d0 89 bd e8 67 94 bc 3b ab b0 bd f0 b1 a4 bd
       -0.06729308 -0.018115953 -0.086264096 -0.080417514
000270 01 dc 3a be bc a1 11 3d ee a7 36 be a4 1e 91 bd
       -0.18247987 0.035554633 -0.17837498 -0.07085922
000280 e8 01 cf bc 08 1f bd bc 0c 0d b7 3d ab fa fc bd
       -0.025269464 -0.023086086 0.08938035 -0.123524986
000290 f4 98 ac 3d 7e 43 0b 3e 08 a7 8f 3d ef ba 04 be
       0.08427611 0.13599965 0.070142806 -0.12961935
0002a0 26 fe 99 bd 5f 01 1c be 30 9a 86 3c d4 af 1e 3e
       -0.07519178 -0.15234898 0.016430944 0.1549676
0002b0 20 34 ed 3b e5 d8 0f be 66 65 0b be 40 44 63 bd
       0.00723888 -0.14047582 -0.13612899 -0.05548501
0002c0 ec b6 70 3d 90 32 0b bd d6 cd 37 be 83 f0 19 be
       0.058768198 -0.033983767 -0.17949614 -0.15033154
0002d0 c0 30 72 bc ec ee 59 3d f0 c1 8a bc 34 c8 35 bd
       -0.014782131 0.05320637 -0.01693818 -0.04438038
0002e0 58 03 8f 3d 6a cd 01 3e 46 bf 34 3e f0 61 3d 3c
       0.0698306 0.12676015 0.1765109 0.011558995
0002f0 2c 62 a5 3d 04 3f 1b 3d 18 58 b5 3d 8c 74 c2 3d
       0.080753654 0.037901893 0.08854693 0.09494886
000300 25 ba ac bd 70 cb b1 3d 94 e2 e3 3d 82 30 77 bd
       -0.08433942 0.08681381 0.11127201 -0.060348995
000310 ec 00 4b bd 68 20 88 bc 80 91 f2 bb 25 1d f7 bd
       -0.049561426 -0.016617015 -0.007402599 -0.12066106
000320 58 12 ef 3d c9 13 3a be 94 3d 17 bd 2c b6 eb 3d
       0.11673421 -0.1817161 -0.03692396 0.11509356
000330 d1 43 bf bd 30 31 c0 bd 0b 3b 30 be 70 4d 1a 3d
       -0.09339107 -0.09384382 -0.17210023 0.037671506
000340 3d 0e 27 be 39 07 9b bd 0a 25 0c 3e 28 2d 44 bd
       -0.16314025 -0.07569737 0.13686004 -0.047894627
000350 4a a4 01 3e 46 6a b1 bd d8 87 8a 3c c6 17 08 be
       0.12660328 -0.08662848 0.016910478 -0.13290319
000360 ff 4a 07 be 04 77 c9 bd 08 99 20 3d 80 77 bf ba
       -0.13212202 -0.098371536 0.039208442 -0.0014607757
000370 60 1b 82 3d 55 5d 9c bd d4 fa da 3d 26 8f 22 be
       0.063528776 -0.07634989 0.10692373 -0.1587492
000380 7c c9 61 3d 48 f9 c9 bd d0 46 5a 3c 70 5b 6c bc
       0.05512379 -0.09862 0.013322547 -0.014426097
000390 9c b3 2b be 8c 7f 20 3e 32 31 0a be c0 98 3a be
       -0.16767734 0.15673655 -0.13495329 -0.18222332
0003a0 1c 1c 6b bd 2d 1f 94 bd 5a 6e cb bd 40 b3 0c bb
       -0.057399854 -0.07232509 -0.09933157 -0.0021469146
0003b0 18 fd b7 3d 68 bf bc 3d 00 b5 d0 3a a2 58 38 3e
       0.08983821 0.09216195 0.0015923083 0.1800256
0003c0 38 1c a3 3d 8b 5f d3 bd c0 19 26 3d d5 ec 90 bd
       0.07964367 -0.10320958 0.0405519 -0.07076422
0003d0 2a 0e 0a 3e 66 7e 74 bd 20 2e eb 3d 08 a7 be 3d
       0.13481966 -0.059690855 0.11483407 0.093092024
0003e0 b0 d5 50 3d 94 fd 9f 3d 10 fd 4e 3c 30 b1 02 be
       0.05098504 0.07812038 0.012633577 -0.12762904
0003f0 ef 3f 90 bd 5a ba 03 be f4 47 26 be 88 74 90 bc
       -0.07043444 -0.12864056 -0.16238385 -0.017633691

linear3.bias f4 [1200]
000000 f8 3b 8f bd 20 12 fc bb 34 d5 06 bd 98 ba 7e 3d
       -0.0699386 -0.0076925904 -0.03291817 0.06218967
000010 28 a4 82 3c ad 3d b7 bd 6c cd 46 3d 86 58 3a 3e
       0.015947416 -0.089473106 0.04853575 0.18197832
000020 20 51 79 3d 82 f5 17 be a0 f1 92 bb 1c f7 5a 3d
       0.060868382 -0.14839748 -0.0044843704 0.053458318
000030 30 4f 62 bc 4e 47 06 3e d0 b3 86 3d 43 25 b9 bd
       -0.013812825 0.13113138 0.06577265 -0.0904031
000040 12 44 ed bd ac b6 46 3d 24 ca ed 3d 0c 33 27 be
       -0.11585249 0.048514053 0.11610821 -0.16328067
000050 84 42 06 be 60 a9 b1 bb d0 91 ac 3d 4c 7b 04 3e
       -0.13111311 -0.0054218024 0.08426249 0.12937659
000060 64 38 00 bd 86 8c 83 3d 61 cb 8e bd 08 5c 9d 3d
       -0.03130378 0.06423287 -0.06972385 0.07683569
000070 52 59 01 3e 60 8a 5a bc 79 9c 34 be 48 f8 b6 bc
       0.12631729 -0.013338655 -0.17637815 -0.022335187
000080 9c 17 4d bd c6 64 80 bd 40 cc 8c 3d 0c 5f 00 3e
       -0.050071344 -0.06269221 0.06874895 0.12536258
000090 1e 75 10 be 02 f8 35 3e a8 53 9e bc 52 22 29 3e
       -0.14107177 0.17770389 -0.019327 0.16516998
0000a0 10 3f 99 bd ed 72 38 be 62 23 13 be d8 e6 13 3d
       -0.07482731 -0.1801259 -0.14368966 0.03610882
0000b0 08 33 d2 3d 48 04 bb 3d f4 11 0c bd 8a e5 26 3e
       0.1026364 0.09131676 -0.03419681 0.162985
0000c0 b4 ec 88 bd 40 d2 e1 bc c8 bb b7 3d d4 e9 25 be
       -0.066857725 -0.027566075 0.08971363 -0.1620248
0000d0 b0 c3 83 bd ca 61 f6 bd 1d 53 d6 bd 54 e3 be bd
       -0.06433809 -0.120303705 -0.10465071 -0.09320703
0000e0 d5 09 34 be b8 d9 27 bd 08 cb 1c 3e d3 79 1f be
       -0.17581876 -0.040979117 0.15311825 -0.15573816
0000f0 48 1e b4 3d 8c c5 c3 3d 8c 1b f8 3d a4 19 0f be
       0.08794838 0.095591635 0.12114629 -0.13974625
000100 d5 11 1c be 68 64 75 3d 40 b8 4a 3c b8 fa c8 bc
       -0.15241177 0.059910208 0.01237303 -0.024533615
000110 c1 83 2c be 00 f4 91 39 d4 b3 25 3d 10 69 9e 3d
       -0.16847135 0.0002783835 0.0404547 0.07734883
000120 5c 48 95 3d 72 2a ef bd 7c e4 13 3e 48 6b ec bc
       0.07289192 -0.11678018 0.14442629 -0.02885975
000130 94 92 c0 3d 6e ea 31 3e 6b 2f a4 bd 58 79 91 3c
       0.094029576 0.17374584 -0.08016857 0.017758057
000140 7e 5b 2a 3e 2a 31 89 3d 76 39 9d bd 84 c5 3f 3d
       0.16636464 0.066988304 -0.076769754 0.046819225
000150 40 76 33 be 5e d1 12 3e 80 e8 fa 3d 88 50 c3 3d
       -0.17525578 0.1433768 0.12251377 0.095368445
000160 10 ad cf bc b8 de 9d 3d e2 0a 7c bd e0 cb 27 3c
       -0.025351077 0.07708496 -0.061533816 0.010241479
000170 e8 ae e3 3d e4 14 9c 3d 40 39 c0 bc 54 cc c7 bd
       0.11117345 0.07621172 -0.023464799 -0.09755769
000180 a4 a0 2a 3d 70 19 38 be e4 be 4d bd 00 a7 80 bc
       0.041657105 -0.17978454 -0.050230876 -0.015704632
000190 ac 3d 94 3d 80 b2 a2 bd 06 3b 2f be 42 8c 2b 3e
       0.072383255 -0.079442024 -0.1711236 0.16752723
0001a0 18 d3 96 3d 12 9f b4 bd b9 05 b2 bd cc 84 16 be
       0.07364482 -0.08819403 -0.08692498 -0.14699095
0001b0 4c 3f 1a be df 4e 07 be c0 3f 12 bc 70 22 09 bd
       -0.15063208 -0.1321368 -0.008926332 -0.033480108
0001c0 d8 71 34 3d 40 23 b5 bc e0 ec ea 3b ec 02 14 3d
       0.044053882 -0.022111535 0.007169351 0.0361356
0001d0 14 d3 aa 3d cc 7f 62 bd 8a 9e 31 be 4c 9b bc 3d
       0.08341041 -0.055297658 -0.17345634 0.09209308
0001e0 8c 47 21 3e 00 83 56 bb ac bd ff 3d f9 a8 01 be
       0.15749949 -0.003273189 0.12487349 -0.12662114
0001f0 bc 2d 91 3d f8 22 67 bd e6 a5 f2 bd 0d fe 97 bd
       0.07088801 -0.056429833 -0.11848049 -0.07421503
000200 30 79 f6 3d e4 3d b5 3d 35 92 e2 bd 94 3e 00 3d
       0.120348334 0.08849695 -0.11063043 0.03130968
000210 a6 83 f0 bd 8c 52 6a bd 80 93 c9 bc f6 52 1c be
       -0.1174386 -0.05720763 -0.024606466 -0.15266022
000220 c4 ac 78 3d 48 43 16 be f9 cc c5 bd ac 34 1e be
       0.060711637 -0.14674103 -0.09658236 -0.1544978
000230 80 09 d5 bb 83 d5 db bd b8 40 7b 3d 44 71 03 3e
       -0.0065013766 -0.107340835 0.061341017 0.12836176
000240 c5 de a0 bd bc b9 01 be 80 c5 d5 ba 54 ca 0e 3e
       -0.0785499 -0.12668508 -0.001630947 0.1394437
000250 b0 66 1b bd 80 f0 a7 bd 82 70 88 3d 04 ba aa 3d
       -0.037939727 -0.082001686 0.06662084 0.08336261
000260 90 fc 55 3d e8 e5 de 3c 28 7e 7c bd da 1f 24 3e
       0.052242815 0.027209237 -0.06164375 0.16027775
000270 cc 82 24 bd 80 5c 29 3b de f8 06 3e 78 0e 9d 3d
       -0.0401638 0.0025842488 0.13180873 0.07668775
000280 ba 23 2b 3e 88 ba 36 3e 20 5c 9a bb 70 6a f6 bc
       0.16712847 0.17844594 -0.004710689 -0.03008005
000290 6e 9d fb bd 34 47 29 be 4a f8 ef bd cc 19 20 bd
       -0.12285887 -0.16531068 -0.11717279 -0.0390871
0002a0 32 d1 0e 3e 00 74 84 bb f0 0c 43 3c 7c cd e4 bd
       0.13946989 -0.0040421486 0.01190494 -0.111720055
0002b0 53 fd c3 bd 36 97 08 3e f8 f9 0f 3e 80 4f bb 3d
       -0.09569802 0.13338932 0.140602 0.09146023
0002c0 60 02 f6 3d f0 1d 14 3e d2 36 2c 3e 44 d0 09 3d
       0.12012172 0.14464545 0.16817787 0.033645883
0002d0 b3 2e 2f be 08 ed ff 3d 84 1e 4c bd 1c 58 0c bd
       -0.17107658 0.12496382 -0.04983379 -0.034263715
0002e0 60 53 09 bc f9 c4 89 bd d0 b3 0f bd 40 df 31 3e
       -0.008381695 -0.06727023 -0.035083592 0.1737032
0002f0 15 0f 11 be 70 c8 9f 3d 3c ee b9 3d 98 04 b8 3d
       -0.1416591 0.07801902 0.09078643 0.08985251
000300 58 71 84 3c be 72 92 bd 68 df e7 3d 5e ba 1f 3e
       0.016167328 -0.071507916 0.11321908 0.15598437
000310 14 a8 d8 3d 0a ff c4 bd 38 17 61 3d d0 77 de 3c
       0.10578933 -0.09618957 0.054953784 0.02715674
000320 21 3e 1e be c0 fd 8b 3c 74 6a 2f 3d 3a 56 08 3e
       -0.15453388 0.01708877 0.04282613 0.13314143
000330 cc 0a 57 bd 2e f4 89 3d 78 4e 29 bd 94 13 3a be
       -0.05250053 0.06736027 -0.0413346 -0.18171531
000340 30 df 9e 3c a4 76 b9 3d 8c 11 12 3e 78 f0 36 3d
       0.019393533 0.09055832 0.14264506 0.044662923
000350 68 f7 87 3d fc 91 06 3d fc 1d 1d 3e 4c 36 a1 3d
       0.06638986 0.032854065 0.1534347 0.078716844
000360 6c e4 8d bd f5 db c2 bd 04 f3 9b 3d f0 ae 10 bd
       -0.06928334 -0.0951461 0.07614711 -0.035323083
000370 08 aa b2 3c a3 ba 19 be 19 6b 39 be 1c 47 03 be
       0.021809593 -0.15012603 -0.18107261 -0.12820095
000380 82 79 ca bd bc eb c3 3d f4 7b 07 3e 00 32 b6 bc
       -0.09886457 0.09566447 0.13230878 -0.022240639
000390 80 8a 4e bb 53 77 08 be 8c dd 01 be 28 a3 d6 3d
       -0.0031515658 -0.13326769 -0.1268217 0.10480338
0003a0 80 df a2 3d 27 ad ce bd 2e 37 1f 3e a9 4b 04 be
       0.079527855 -0.1009162 0.15548393 -0.12919487
0003b0 e8 18 96 3d 94 fa 96 3d e0 49 31 be bf c9 3a be
       0.07328969 0.07372013 -0.17313337 -0.18241023
0003c0 c7 9f 35 be 60 e6 ea 3c 16 3c 0e be 2f 4e 07 be
       -0.17736731 0.028674304 -0.13890108 -0.13213418
0003d0 d4 f5 a3 bd c0 22 8a bb 20 3f d4 3b ba 97 eb bd
       -0.08005872 -0.0042155683 0.0064772516 -0.11503549
0003e0 60 ce 89 3d 04 2a 2a 3e 70 fd e3 3d 2e 7f 1d be
       0.06728816 0.1661759 0.11132324 -0.15380546
0003f0 24 be cb 3d 18 5a b4 bc d0 ba cb 3c 75 f1 1c be
       0.09948376 -0.022015616 0.024869353 -0.15326484

linear1.weight f4 [30, 1200]
000000 50 79 30 3c a8 b3 35 3c 86 b7 86 3c c8 97 83 3b
       0.010771111 0.011090197 0.016444933 0.0040158965
000010 70 80 59 3c 2a f6 eb 3c 36 0e e9 3c f4 1c 2a bc
       0.013275251 0.028803904 0.02844916 -0.0103828795
000020 90 2e e8 ba 6e e4 92 bc 8c fc d0 3c 6a f9 a1 3c
       -0.0017714072 -0.01793119 0.025511049 0.01977225
000030 6c 4d b6 bb 6c 24 e6 bb 40 88 92 bc 80 90 21 bb
       -0.0055634286 -0.007023385 -0.017887235 -0.002465278
000040 c0 0e 36 3c 74 4c df bb 0c 69 8a bc 8a 23 d4 3c
       0.011111915 -0.006814534 -0.016895793 0.025895853
000050 78 58 a8 3b 5a 0e e9 bc 3c be 0b 3c 1a b8 8b 3c
       0.0051374994 -0.028449226 0.008529242 0.01705556
000060 59 ae a1 bc 38 18 d1 bb a8 9e 79 bc 78 74 1e 3c
       -0.019736456 -0.006381061 -0.0152355805 0.009671323
000070 34 57 a2 bb f0 89 70 3b 51 47 aa bc 08 2d 2b 3c
       -0.004954243 0.003670331 -0.02078596 0.010447748
000080 9c e9 56 bc 3e ce 06 bc 5e c7 3f bc d5 b9 5c bc
       -0.01311722 -0.008227883 -0.011705248 -0.01347204
000090 6e e7 58 bc d0 ab 35 bc 20 9c 26 bc 80 de 35 3c
       -0.013238771 -0.011088327 -0.010169059 0.011100411
0000a0 04 c4 5e bc c8 ce 41 bb 88 72 36 3c 24 99 3b 3c
       -0.013596538 -0.0029572714 0.011135705 0.011450086
0000b0 d6 a1 98 bc d8 ac f0 3b 9a de ab 3c 76 72 4b bc
       -0.018631857 0.0073448233 0.020980168 -0.012417426
0000c0 e8 9a 0c 3b b4 24 85 bc a8 22 de 3b c0 1e cd b9
       0.0021454636 -0.016252853 0.0067790337 -0.00039123558
0000d0 ff d8 6f bc 52 32 a9 bc 10 fb 7b 3c 92 d5 ac 3c
       -0.014639138 -0.020653877 0.015379682 0.021097932
0000e0 70 2a 94 bb 0c 35 c4 3c 14 e3 d9 3c a6 dd ce bc
       -0.0045216605 0.023951076 0.026597537 -0.025252175
0000f0 1a 3e c9 bc 88 11 ec bc c0 12 e2 ba c0 82 cc bc
       -0.024565745 -0.028816953 -0.001724802 -0.02496469
000100 7e df d7 bc a2 17 41 bc 04 9f a4 bc c4 1b 2e 3c
       -0.026351687 -0.01178542 -0.020095356 0.010626737
000110 c8 ea 8c 3b 78 cf d2 bc ec 4e 3e bc 4e 58 db bc
       0.004300449 -0.025733694 -0.011615496 -0.026775505
000120 f9 7b 6a bc a5 b5 97 bc 6b 90 6d bc 34 7f 11 3c
       -0.014311784 -0.018519232 -0.014499764 0.008880425
000130 62 f2 b8 3c 55 62 ce bc 7b 67 e1 bc f6 04 8b 3c
       0.022576515 -0.025193373 -0.027515164 0.016970139
000140 4e 02 e4 bc 6c 5f ae bc b4 43 76 3c d2 97 88 3c
       -0.02783313 -0.021285735 0.01503079 0.016673956
000150 70 4e a9 bb 5c a2 5b 3c 3a f6 91 bc e2 bf 33 bc
       -0.005166821 0.013405409 -0.017817605 -0.010971041
000160 f0 81 37 3b 20 47 4c bb 53 d8 de bc 90 fc b3 bc
       0.0028001033 -0.0031170323 -0.02720276 -0.021971017
000170 88 8d 75 3c f8 f1 23 bc 0c 9d cb 3c b8 52 1e 3c
       0.014987357 -0.01000642 0.02485516 0.009663276
000180 30 bb 94 bb f0 0f 80 bb 78 48 a3 3b f0 48 89 3a
       -0.004538916 -0.00390815 0.004983004 0.0010474008
000190 b4 3d ad 3c 10 aa be bb de 9d 89 3c 68 22 dc bc
       0.021147586 -0.005818613 0.01679891 -0.026871875
0001a0 fc c2 5a 3c e3 9f ce bc 52 c5 cd 3c 92 d1 db 3c
       0.013352152 -0.025222724 0.025118504 0.02683333
0001b0 6e 6a 8f bc f6 ce 85 3c d2 03 07 bc be ea e3 bc
       -0.017506804 0.016334038 -0.008240657 -0.027821895
0001c0 aa 5f da 3c 84 19 8c 3c fc 33 38 3c 54 4c 67 3c
       0.026656944 0.01710201 0.011242863 0.014117319
0001d0 54 46 27 bc 18 48 fe 3b 7c 58 94 bc 70 96 d3 3b
       -0.010209639 0.007760059 -0.018108599 0.0064571425
0001e0 f4 d8 b5 3c e0 da 0d 3a 70 85 b8 3c 90 09 59 3b
       0.022198178 0.0005411338 0.022524565 0.0033117272
0001f0 c4 16 e6 3c b3 88 7a bc 06 c5 29 bc 2c 42 67 3c
       0.028087027 -0.015291381 -0.010361915 0.014114898
000200 50 a0 7f 3b a0 c7 5a 3b 92 2d d8 bc a4 49 5b bc
       0.0039005466 0.0033383146 -0.026388917 -0.0133842565
000210 af cf dd bc d6 5d 02 bc 14 39 5c 3c b8 ba c0 3c
       -0.02707657 -0.007956943 0.013441343 0.023526534
000220 c8 ee f5 3b 10 25 e1 bc 8c dc 3d 3c d4 5d 47 3c
       0.0075052716 -0.027483493 0.011588227 0.012168366
000230 0a 45 e8 3c 83 8c 87 bc b0 f3 56 3c b8 4d b3 bc
       0.028353233 -0.016546493 0.013119623 -0.021887645
000240 d6 59 c0 3c c0 89 45 bb 60 5e 6b 3c a1 2b b2 bc
       0.023480337 -0.003014192 0.0143657625 -0.02174932
000250 9b 64 d1 bc 0e 39 96 3c c8 8f b1 bc 14 aa 3d bc
       -0.025560668 0.018337753 -0.021675006 -0.011576194
000260 18 f0 05 3c e0 9d a9 bb 46 d4 45 bc f8 90 e8 3c
       0.008174919 -0.005176291 -0.012074536 0.028389439
000270 06 8d dc bc 80 fd cf bc 1c a5 86 3c 44 75 05 bc
       -0.026922714 -0.025389433 0.016436152 -0.008145634
000280 54 78 e8 3c e4 48 9f 3c f2 60 bb bc 38 bc 80 bb
       0.02837769 0.019443937 -0.022873376 -0.0039286874
000290 66 9f a4 bc 84 7f 72 bc ba de 89 3c 38 d8 00 bc
       -0.020095538 -0.01480091 0.016829837 -0.007864051
0002a0 5a 49 d8 3c f8 9a e3 bb 70 91 78 3b f0 7b 10 3b
       0.026402164 -0.006945964 0.0037928484 0.0022046529
0002b0 36 dd 8b 3c e8 4a d6 3c 08 f6 d1 bb e0 59 52 3a
       0.017073255 0.026158765 -0.006407503 0.00080242567
0002c0 30 0c d3 3a d8 f0 7b 3c a0 1d d7 bb 70 63 f2 3b
       0.0016101655 0.015377246 -0.006564811 0.007397108
0002d0 50 0a d4 3b ec c8 2c 3c 6a ae e7 3c 54 31 d3 3c
       0.006470956 0.01054595 0.02828141 0.025780357
0002e0 b8 a4 93 3c 44 c4 8b bb 71 d2 eb bc 10 86 d6 3b
       0.01802288 -0.00426534 -0.02878687 0.006546743
0002f0 d8 9e e0 bc 48 f0 2a 3c 00 f8 7d b9 f9 08 81 bc
       -0.027419493 0.010433264 -0.00024220347 -0.015751349
000300 ca 5a 99 3c c8 f8 f2 3b e8 ef ea bb 68 33 33 3c
       0.01872005 0.007414911 -0.0071697123 0.010937549
000310 c4 e0 c9 bc 26 96 cc bc 94 5f 29 bc e4 2e e6 3c
       -0.02464331 -0.02497394 -0.010337729 0.028098531
000320 38 b2 cd bb 78 17 05 bb fc 6c 86 3c c0 f1 b5 39
       -0.006277349 -0.0020308178 0.01640939 0.00034703128
000330 30 81 03 bb ca 0e d8 3c 82 36 bb 3c 20 cf 32 3b
       -0.0020066015 0.02637424 0.02285314 0.00272841
000340 e2 58 94 bc 80 af 8f bb f0 92 86 3c fa 85 86 3c
       -0.018108789 -0.004384935 0.016427487 0.016421307
000350 90 07 dd 3c 00 2c 31 b8 c8 a1 97 3b 60 4b 92 bc
       0.026981145 -4.2241067e-05 0.00462744 -0.017858207
000360 e7 64 b5 bc e6 e1 e5 3c 80 9b d3 3b 0d 82 ae bc
       -0.02214284 0.028061818 0.006457746 -0.021302247
000370 0a 85 d0 3c d2 02 dc bc 30 c1 d8 3c 40 83 51 bc
       0.025454063 -0.026856814 0.026459306 -0.01278764
000380 a8 1c 66 3c a4 10 dd 3c 3a b6 c0 bc 40 f7 80 3b
       0.014044918 0.026985474 -0.023524392 0.0039357245
000390 96 87 a2 bc db ed 6f bc e4 5d 95 bc 96 e6 8d 3c
       -0.019840043 -0.0146441115 -0.018233247 0.017321866
0003a0 d4 f5 81 3c 8a c6 ab 3c a8 59 d1 3c 80 f1 13 3c
       0.01586429 0.020968694 0.025555447 0.009029746
0003b0 a2 8b db bc 4e ac aa 3c 7a 41 b6 3c 10 ed 80 3a
       -0.02679998 0.020834114 0.022248019 0.0009836275
0003c0 96 63 54 bc 90 e7 91 3a 44 6a d4 3c 7c 6b 38 3c
       -0.012963196 0.0011131633 0.025929578 0.011256095
0003d0 3a f3 9b 3c 28 0d d4 3b 50 f1 74 3b c0 fc 48 3c
       0.019036878 0.006471295 0.0037375279 0.012267292
0003e0 70 fa b0 ba 3c 53 03 3c a0 0c c9 3c 20 f6 5e bb
       -0.001350237 0.00801545 0.024542153 -0.0034021214
0003f0 cc 26 10 bc b1 19 82 bc f0 56 2c 3c a8 21 4d 3c
       -0.008798312 -0.015881391 0.010518774 0.012520231

linear1.bias f4 [30]
000000 c8 f8 cb 3c ad ff 92 bc 9f 31 80 bc e0 2d 07 ba
       0.024898902 -0.017944181 -0.015648661 -0.0005156677
000010 74 79 9e bb 78 5e e0 3c 86 1d a4 bc 60 fe 99 bb
       -0.0048362557 0.027388796 -0.02003361 -0.0046995133
000020 6c fb e0 bc 77 7c 60 bc 8f bc a6 bc 58 0b 81 3c
       -0.027463637 -0.01370155 -0.020353584 0.01575248
000030 6c 64 e3 3c c0 94 65 3c 40 b3 ad bc f6 a4 e3 bc
       0.027757846 0.014012516 -0.021203637 -0.02778862
000040 88 84 19 3b 40 1a 03 bb 94 24 3f 3c f4 de 01 3c
       0.0023424942 -0.002000466 0.011666436 0.007926691
000050 1c 43 a0 bb cc 72 aa bb 90 b9 86 3c 05 e1 80 bc
       -0.0048908126 -0.005201673 0.016445905 -0.015732298
000060 45 71 d6 bc da 90 cc 3c 08 40 8a 3c 7f ef a8 bc
       -0.026177058 0.024971414 0.016876236 -0.020622013
000070 c8 72 e2 bc 76 81 a1 bc
       -0.027642623 -0.019715052

linear2.weight f4 [60, 30]
000000 ae 13 ab bd b4 4d f6 3d ac ac 2d 3e e4 16 c3 3d
       -0.08353363 0.120265394 0.169604 0.095258504
000010 84 6f d8 3d 34 93 2f 3d 61 2a ef bd 18 c3 be 3c
       0.10568145 0.042864993 -0.11678005 0.023286387
000020 d8 82 1f 3d 70 fb 69 3d 50 1a 7a 3c 48 c4 2d be
       0.03894314 0.057124555 0.015265062 -0.16969407
000030 34 29 a4 3d 25 de 1c be 44 72 1f 3d c0 c9 6c 3c
       0.08015671 -0.15319116 0.03892733 0.014452398
000040 4e 7c 04 be 72 67 2e 3e 84 41 0f be 4c 4d b5 3d
       -0.12938043 0.17031649 -0.13989836 0.08852634
000050 ce ff 29 be 4c 10 39 3e 7c 20 29 bd ca d7 12 3e
       -0.16601488 0.18072623 -0.041290745 0.1434013
000060 0e 58 0e be f5 08 9b bd 22 26 70 bd 68 f7 c0 3d
       -0.13900778 -0.07570068 -0.058630116 0.09422189
000070 30 96 32 3e 90 26 05 3e 91 4f ec bd 40 cd 1d bc
       0.17440104 0.13002992 -0.115386136 -0.009631455
000080 dc 6d 12 3e dc 64 e2 3d 20 3d b2 bc 88 70 8a 3c
       0.1429972 0.11054394 -0.021757662 0.016899362
000090 50 7e 5b bc ba 0c 26 3e f0 2d d5 bc c0 00 03 3e
       -0.013396814 0.16215792 -0.026022881 0.12793255
0000a0 d4 a1 43 3d 5c 79 8e 3d 10 fc 4e bc 0c f2 e4 3d
       0.047761753 0.06956741 -0.012633339 0.11178979
0000b0 18 06 07 3e 88 30 d8 3c 30 f5 32 bd 2c 62 de 3d
       0.13185918 0.026390329 -0.04369086 0.108585685
0000c0 e0 fe df bd ec ac 0e 3e 58 ea 94 bd 94 c0 fe 3d
       -0.109372854 0.13933152 -0.0727126 0.12439075
0000d0 88 f2 24 3e e0 75 e9 3c a8 4f a0 3d 84 21 2e 3d
       0.16108143 0.02849859 0.07827693 0.04251243
0000e0 f0 84 86 3d dd 6b b6 bd c8 92 b7 3c 48 c9 94 3d
       0.065683246 -0.08907292 0.022408858 0.07264954
0000f0 e4 5f 0f bd 3c ca 31 3e 4c 91 35 be 63 f0 80 bd
       -0.035003558 0.17362303 -0.17731208 -0.0629585
000100 78 17 bc 3c 64 20 09 3e 70 94 ca 3d 34 4f c9 bd
       0.02296041 0.13391262 0.098915935 -0.0982956
000110 d8 e7 1f be b4 3d 79 bd c4 3d bb 3d b8 21 72 bd
       -0.15615785 -0.06084986 0.0914264 -0.059114188
000120 8c b0 49 bd b4 39 a8 3d 80 19 61 bc 40 22 cb bb
       -0.049240634 0.08214131 -0.01373899 -0.0061991513
000130 50 38 34 be 2c c2 6d bd 78 5b 35 3d 70 37 e9 bc
       -0.17599607 -0.058046505 0.044276685 -0.028468817
000140 dc 4a 2f 3e 80 aa 24 3e b2 35 25 3e ce f8 14 3e
       0.171184 0.16080666 0.16133764 0.14548036
000150 ac 02 0c 3d 60 36 af 3d a4 b1 5e bd a4 e7 12 3e
       0.034182236 0.08555293 -0.05436863 0.14346176
000160 c4 eb 1a 3e 29 c0 a9 bd 80 88 e8 bc 80 79 cf bd
       0.15129 -0.08288605 -0.0283854 -0.10130596
000170 bf 7f 91 bd 00 ac 25 bc c0 c8 07 3e 9c 64 02 3d
       -0.07104444 -0.010111809 0.13260174 0.03183423
000180 d6 ce 07 3e 70 72 59 bc e9 03 38 be 64 02 10 bd
       0.13262495 -0.013271913 -0.17970242 -0.03515853
000190 78 73 8b bc e2 c6 0a 3e 10 b4 b9 3d 80 b6 eb bc
       -0.017022833 0.1355243 0.09067547 -0.028773546
0001a0 50 44 bd 3c 98 b2 83 3c 5f 03 14 be db fe 2e be
       0.023103863 0.016076371 -0.14454411 -0.17089407
0001b0 8e 8c a8 bd 81 1f c8 bd 5a fc 21 be d0 aa f1 bd
       -0.08229934 -0.09771634 -0.1581892 -0.11800158
0001c0 bf a5 d5 bd 30 69 15 3c 00 43 89 3b b0 25 38 bc
       -0.10432004 0.009119317 0.004188895 -0.011239454
0001d0 d0 5e 02 bc a8 f7 d7 bc 55 9f 83 bd 60 96 1c 3c
       -0.007957175 -0.026363209 -0.064268745 0.009557337
0001e0 54 3b 7c bd 00 a2 fa bc 0c 80 d9 3d 24 65 23 3d
       -0.061580017 -0.030594826 0.10620126 0.039891377
0001f0 ac dc 03 3e 6f e4 34 be ee d5 89 bd dc 7c 1a 3d
       0.12877148 -0.17665266 -0.06730257 0.03771673
000200 22 32 7f bd ec e1 0c be 28 db 99 3d fe aa 0e 3e
       -0.06230367 -0.13758057 0.07512504 0.13932416
000210 60 cd 78 bc b4 4b 62 3d f8 72 a5 bc 84 09 36 3e
       -0.015185684 0.055247977 -0.020196423 0.17777067
000220 40 e5 ca 3d 84 1a a2 3d 70 c6 82 bc cc e8 8c 3d
       0.09907007 0.07915214 -0.015963763 0.0688034
000230 00 54 c1 bb 4f 21 26 be 6f 6c 13 be d0 2f d7 3d
       -0.005899906 -0.16223644 -0.14396833 0.105071664
000240 50 05 6e 3c d8 ca 2a be 80 b5 5f 3b 50 c1 cf 3d
       0.014527634 -0.16678941 0.0034135282 0.10144293
000250 ac 3e 39 3e 9e 6c 72 bd 30 ff 26 be 90 8a 80 3d
       0.18090314 -0.059185617 -0.16308284 0.06276429
000260 04 3d ba 3d 20 a5 19 3d 00 6c ee bd cd 09 b3 bd
       0.09093669 0.03751099 -0.11641693 -0.08742104
000270 38 2f 2d bd 5f a7 97 bd 90 fd 17 3c b0 c8 6b bc
       -0.04228136 -0.074049704 0.009276763 -0.014391109
000280 c5 69 07 be a8 24 37 3d e7 db c3 bd e0 a5 84 3c
       -0.13223942 0.044712692 -0.095634274 0.016192377
000290 f4 5d 3f bd 70 02 27 3e 00 0e ab 3b 9d cb 9a bd
       -0.04672046 0.16309524 0.005220175 -0.075583674
0002a0 64 c1 c7 3d 08 0c 09 3d 2c 99 37 3e 6c dd 32 be
       0.09753683 0.03345874 0.17929524 -0.17467278
0002b0 08 a1 b4 bd 08 6e 19 3e 18 8f 0a be fb c1 2d be
       -0.08819777 0.1498338 -0.13531148 -0.16968529
0002c0 2e 3c 1a 3e 71 18 e9 bd 98 f2 b3 bd 88 bd 99 3c
       0.15062019 -0.11381615 -0.087865055 0.018767133
0002d0 ca 57 1a 3e c0 34 26 bc f0 a2 91 3d af b7 ad bd
       0.15072551 -0.0101444125 0.07111156 -0.084823005
0002e0 ac 4a 67 3d 30 9f 13 3c 50 20 e1 3c 18 bd 10 bd
       0.056467697 0.009010121 0.027481228 -0.035336584
0002f0 b0 0e 31 3e 5c 83 c1 3d ba 1e 03 be 64 11 39 3e
       0.17290759 0.09448883 -0.1280469 0.1807304
000300 7b 61 2e be 78 55 21 3d ce 84 22 3e 32 cf 01 3e
       -0.17029373 0.03938815 0.15870973 0.12676695
000310 a8 20 fe 3d 9b 50 09 be 54 51 e8 3d db 0f 16 be
       0.124085724 -0.13409655 0.11343637 -0.14654486
000320 01 71 d8 bd 38 d5 0c bd 7d 44 b7 bd e0 a1 01 3e
       -0.10568429 -0.03438303 -0.0894861 0.12659407
000330 20 c2 fd bc 06 6a 18 3e 40 30 a3 3d 48 a6 a8 3c
       -0.030976355 0.14884195 0.07968187 0.020587102
000340 76 8e 18 be 60 1d 2a 3d 08 a4 5c bd aa 84 1d 3e
       -0.14898095 0.04153192 -0.05386737 0.15382639
000350 a8 57 df bc 42 66 83 3d 12 65 0e 3e 00 5e fa 3c
       -0.027263477 0.064159885 0.13905743 0.0305624
000360 ac f6 8f 3d ec 9a c0 3d 2e 2e c9 bd 60 51 59 3c
       0.07029471 0.09404549 -0.09823261 0.01326403
000370 76 1a 08 3e ea 43 0b 3e d8 6d fb bd cf d5 bc bd
       0.13291344 0.13600126 -0.122768104 -0.09220468
000380 28 ed 53 bd 48 70 a5 bc ae 80 14 be b0 fb fe bc
       -0.05173984 -0.020195141 -0.14502212 -0.031125873
000390 08 f3 3a be 7a 56 13 3e 86 c8 11 3e e8 3d 08 3e
       -0.18256772 0.14388457 0.1423665 0.13304865
0003a0 8c e3 c8 3d ac 36 bf 3d b8 cd 92 3d f4 33 f7 bd
       0.09809026 0.093366 0.07168144 -0.12070456
0003b0 f2 f3 1f 3e 16 25 08 be 7e 69 c8 bd f4 4c c5 3d
       0.15620402 -0.13295397 -0.09785746 0.09633818
0003c0 80 42 79 bd a4 0d 28 3e d0 b0 34 bd c0 61 6c 3d
       -0.060854435 0.16411453 -0.044113934 0.05771041
0003d0 a0 12 ea 3c 8b e9 dd bd 69 60 97 bd 1c 76 b7 3d
       0.028573334 -0.108355604 -0.07391436 0.089580745
0003e0 00 c3 2f 3d 75 c2 3a be 8c 97 4e bd cd d7 2a be
       0.042910576 -0.18238242 -0.050437495 -0.16683884
0003f0 40 fb b5 bd 26 b6 bd bd 82 16 2c 3e 10 f6 29 bc
       -0.08885813 -0.09263258 0.16805461 -0.010373607

linear2.bias f4 [60]
000000 c6 9a 1a 3e be 65 06 3e 19 0e f5 bd 74 4a bf 3d
       0.15098104 0.13124749 -0.119655795 0.09340373
000010 04 8a ab 3d f0 24 98 3d 68 a0 28 bd 2c 63 00 bd
       0.08375934 0.0742892 -0.0411686 -0.031344578
000020 73 03 2f be f0 8f 3b 3c 40 7a 34 3b 56 80 06 3e
       -0.1709116 0.011447892 0.0027538687 0.13134894
000030 08 4f de 3c b8 8c 2b be 3a 52 0f 3e de 56 dd bd
       0.027137294 -0.16752899 0.1399621 -0.10807584
000040 76 23 a1 bd e8 1c 94 3d 6c 73 0e 3e b0 11 e9 bc
       -0.07868092 0.07232076 0.13911217 -0.028450817
000050 38 11 77 bd 18 9a f2 3d b8 f5 aa 3c 9c 9a 12 bd
       -0.060319155 0.11845797 0.020869121 -0.03579198
000060 dc 96 5e 3d cf a0 8b bd cc 83 30 be a0 6d a3 bb
       0.05434309 -0.06817781 -0.17237777 -0.0049874336
000070 32 3c 25 be 8a 1a 9e bd 5e fd 32 be 94 bd 2e be
       -0.16136244 -0.07719906 -0.17479464 -0.17064506
000080 b0 0f 11 be 40 30 0e bc 96 2d 36 3e 48 a4 8d 3c
       -0.1416614 -0.008678496 0.17790827 0.01729025
000090 42 40 27 be 28 4e 2c be 64 43 dc 3d 18 2f fe bc
       -0.16333106 -0.16826689 0.10755041 -0.031028315
0000a0 38 8a f9 bc ad 47 b8 bd 90 b0 d8 bd 94 d0 f3 3d
       -0.030461416 -0.08998046 -0.105805516 0.119050175
0000b0 38 41 ea 3c 9c e6 28 bd 03 98 8c bd 84 78 f5 bd
       0.028595552 -0.04123555 -0.068649314 -0.11985877
0000c0 90 0d 0f 3c 58 50 91 bd 20 76 a3 bb 8c 83 4b 3d
       0.008731261 -0.070954025 -0.004988447 0.049686
0000d0 b8 ab 6a bd c0 ac d7 3b c0 6c a0 3d 8c b1 81 3d
       -0.05729267 0.0065818727 0.078332424 0.063326925
0000e0 3b 6f 1c be 10 31 98 3d e0 7b 5f bd 40 bf 84 3d
       -0.15276806 0.07431233 -0.054561496 0.064817905
