model/솔트model.pth (torch, 201120 bytes, 18 tensors)

linear1.weight f4 [24, 48]
00000000: 2016 a43d 3021 9e3d d490 f9bc 7ad6 b43d
00000010: 38e8 c53d ac5f ddbd 2c5f c5bc 6c9b bdbd
00000020: f00b 003d 8ccb a63d 2c98 e63d f061 a23d
00000030: 30e8 03be 0d20 fcbd d0ef 493c 003c 0f3d
00000040: aa42 06be 5064 623d 702d 01bc c0fe b53c
00000050: 9a1f 0c3e 5c44 733d 0850 dd3d 60bf 253c
00000060: 10f3 84bc 021e c4bd 5c07 06be b8da 993c
00000070: d066 6cbc 8863 e7bd 5e5d af3d 7097 bf3d
00000080: 1aac 01be 005b 04bc ee4d a13d f627 d33d
00000090: dc15 bf3d c8de 2d3d a4f9 f73d a03c 62bc
000000a0: 6d2b 97bd c081 df3d fc42 e4bd aa59 9bbd
000000b0: 0832 61bd 6bfd 12be 10fe c8bc 3ee3 b23d
000000c0: 7c00 b73d c673 093e 6635 993d 941a d63d
000000d0: c7f5 08be 08ba 95bd b0d7 cbbc 984d 61bd
000000e0: 3683 ae3d 2817 393d 308d b13c 6880 9fbc
000000f0: 683f c13d 6067 c93c 70a8 85bd ca77 86bd
00000100: 1c38 1d3d 7012 643c 36ad cb3d 20ef 09bc
00000110: dc25 083d 9c1d ed3d ac08 323d a02e fa3d
00000120: 3574 0dbe d458 babd b670 e7bd 90c9 9fbd
00000130: 4023 a83b 34cb 033e 8ed1 75bd d829 11be
00000140: 2c5c 123d d004 423d 047d 51bd 528d 023e
00000150: a615 42bd 9035 91bd 20de 703d c1ee f2bd
00000160: 50b0 3e3d 146d c2bd d4ed 223d 1208 0abd
00000170: 803a 1f3d a10b f3bd 9ea3 0bbd c062 c73d
00000180: 2802 82bc b08c 3e3d 9185 98bd ecdd f03d
00000190: 8d0d f1bd a06f 8a3d 84c5 d83d 5625 d33d
000001a0: 249b e7bd 847f 073d e2ac c3bd c0c8 aa3b
000001b0: f6c4 b23d 24ce 70bd 3038 21bd 2a2a bfbd
000001c0: b6fc 033e 749b cebc a066 073d 5aa1 13bd
000001d0: 90a0 bebc 8ace 083e a04b 0a3c 382a b73c
000001e0: eaeb 9c3d 7bc9 05be 8c30 233d 80da b93c
000001f0: 2077 38bc f407 a93d c4e9 413d 7269 87bd
00000200: d493 df3d 689f df3d a873 0b3d 18b1 c8bc
00000210: a410 24bd ae5c 913d 1acd 97bd d01c bd3d
00000220: 1c36 debc b252 3abd 89b2 88bd bccf 7f3d
00000230: e6bd 05bd f438 ed3d 8695 40bd d06f 7d3c
00000240: 10a9 5bbc 4a20 be3d 48e3 e8bd 79c4 d9bd
00000250: ec8f 853d b087 663c 24ba 163d 9001 bfbd
00000260: 057d 00be 049b 373d 2f8e 8ebd 8c1b f13d
00000270: dcda fdbd f098 263c f005 9cbd da5c a43d
00000280: 7450 4a3d 58ec f53d d9bf 85bd 5e9c 0c3e
00000290: b2b7 0dbd 3859 843c 70c6 503d 0293 d43d
000002a0: 66c4 0ebe 640b fe3d d41c d23d dc29 003e
000002b0: 5866 b9bd bca3 8dbd 2898 8f3d 009e b03b
000002c0: ae1a bbbd d452 f53d cc5d 2a3d 64f1 c7bc
000002d0: baeb 0d3e 909c 10bc d0d4 2e3c f285 4bbd
000002e0: 0a57 9f3d bc8f 883d 5e2e 30bd f71e c5bd
000002f0: 80d3 79bb 10e0 02bc c3b3 bcbd d0d0 b43d
00000300: 9aad 0fbe f492 d23d e248 d8bd 3819 fb3d
00000310: 381f 3f3d ac04 44bd 665e 0c3e 9c4b 023e
00000320: 0030 1aba fdfe bbbd d478 f33d 60c4 d33d
00000330: 4024 bbbb bc34 00be b26d 133e 6056 fabd
00000340: 00a0 cbbd a085 c5bb d4f3 0e3d 62a1 c93d
00000350: 7674 073e 0f26 c9bd e050 a83d 2fd8 e8bd
00000360: e421 cc3d 802d 2dbc 42d9 cbbd 80d7 70bc
00000370: cc09 083e 7008 633c e03d cfbc 066b 30bd
00000380: 0051 363d a400 223d 2070 f53d 9880 ae3d
00000390: 5e33 be3d f0cb 2b3d 1421 1a3d 9080 223d
000003a0: b962 07be c6e3 59bd fc0d d43d 94db 56bd
000003b0: 409a 1b3d 70b0 c5bc ba98 5fbd 00cc 5c3b
000003c0: 32e7 03be b06a 053d 4896 883c ccdf d7bd
000003d0: 443b 9c3d ec41 babc 9cb9 c63d d459 db3d
000003e0: 7258 c4bd c038 d6bb d2e7 c7bd fa53 09bd
000003f0: e48d f43d 1881 213d 4a2d cfbd 7a97 053e
0.080120325 0.07721174 -0.030464567 0.08829971 0.09663433 -0.108092636 -0.024093233 -0.0925816
0.031261384 0.08144292 0.11259493 0.07928836 -0.12881541 -0.12310801 0.012325242 0.03496933
-0.13111368 0.055271447 -0.007884368 0.0222162 0.1368393 0.059391364 0.108062804 0.010116428
-0.016229182 -0.09576036 -0.13088745 0.018781051 -0.014428809 -0.11298281 0.0856273 0.09355056
-0.12663308 -0.008078337 0.07876192 0.10310356 0.09330341 0.04244879 0.12108162 -0.013808399
-0.0738133 0.1091342 -0.11145589 -0.075854614 -0.054979354 -0.14354484 -0.024535209 0.08734749
0.08935639 0.1342307 0.07480888 0.10454288 -0.13375007 -0.07310873 -0.024883121 -0.05500564
0.0852112 0.0451881 0.021673769 -0.019470409 0.09435922 0.024585426 -0.065262675 -0.06565817
0.03838359 0.0139204115 0.09945147 -0.008418828 0.03323923 0.11577913 0.0434653 0.12215924
-0.1381386 -0.09098974 -0.11300795 -0.07802117 0.0051311553 0.12870485 -0.0600143 -0.14176118
0.035732433 0.04736787 -0.051144615 0.12749222 -0.047383927 -0.07090294 0.058805585 -0.11861945
0.046554863 -0.09493461 0.03977759 -0.033699103 0.03887415 -0.118674524 -0.034091584 0.09735632
-0.015870169 0.04652089 -0.07447351 0.11761078 -0.11770163 0.06759572 0.10584548 0.10309856
-0.113088876 0.033080593 -0.09554459 0.0052119195 0.087289736 -0.05879034 -0.039360225 -0.09334214
0.1288937 -0.02522061 0.033056855 -0.03604255 -0.023269922 0.13360038 0.008440882 0.022358999
0.076621845 -0.1306514 0.03984122 0.022687197 -0.01125887 0.0825347 0.047342077 -0.06611909
0.10916868 0.10919076 0.034045845 -0.024498507 -0.040054932 0.07097755 -0.07412167 0.09234011
-0.02712541 -0.04548902 -0.06674678 0.06245397 -0.032651804 0.115831286 -0.047017597 0.015468553
-0.013407007 0.092835024 -0.113714755 -0.10633177 0.065215915 0.014070436 0.03679861 -0.0932647
-0.12547691 0.04482557 -0.06960713 0.11772832 -0.1239526 0.010168299 -0.0761832 0.080255225
0.049393132 0.120079696 -0.06530733 0.13731524 -0.034599014 0.016155824 0.050970495 0.10379602
-0.13942108 0.12404516 0.10259405 0.12515968 -0.09052724 -0.069159955 0.070114434 0.005389929
-0.09135948 0.11978689 0.041593358 -0.024407096 0.13859454 -0.00882639 0.010670856 -0.049688287
0.07780273 0.0666804 -0.04301297 -0.09625047 -0.0038120449 -0.007987991 -0.09213974 0.0882889
-0.14031067 0.10281935 -0.10560776 0.122606695 0.046660632 -0.047856018 0.13707885 0.12724155
-0.00058817863 -0.091794945 0.118882805 0.1034019 -0.0057111084 -0.12520117 0.14397314 -0.12223506
-0.09942627 -0.006027892 0.0349005 0.098452345 0.1322802 -0.09821712 0.08218551 -0.11369359
0.099674016 -0.01056993 -0.09953548 -0.014699817 0.13284987 0.013856992 -0.025298059 -0.043070816
0.04451084 0.039551392 0.11984277 0.08520621 0.09287141 0.041942537 0.037629202 0.039673388
-0.13221253 -0.053195737 0.1035423 -0.0524555 0.0379889 -0.024131984 -0.05458901 0.003369093
-0.12881163 0.03257245 0.016673222 -0.10540733 0.076284915 -0.022736512 0.09703371 0.10710493
-0.09587182 -0.006537527 -0.09761013 -0.033527352 0.11941126 0.039429754 -0.1011606 0.13046065

linear1.bias f4 [24]
00000000: 523f cb3d d008 943d 20e0 683c 00dd df3d
00000010: 482f fbbc a02f 843c c28c 13be 662e c5bd
00000020: 5d1e 94bd f89f 343d 307f 583c 5c1e 243d
00000030: f0a5 cdbd c0da 343b d842 80bc 9cc7 ed3d
00000040: 7044 14bc d890 1d3d 045d 12be c41b 923d
00000050: d75c c4bd 58f9 993d 703c 15bc 2808 05be
0.09924187 0.07228243 0.014213592 0.10930824 -0.030662194 0.01613599 -0.14409164 -0.096279904
-0.07232354 0.04409787 0.013213918 0.040068015 -0.10041416 0.0027596205 -0.015656874 0.11610338
-0.00904952 0.038468212 -0.14293295 0.07134202 -0.0958802 0.07518262 -0.009108648 -0.12991393

linear2.weight f4 [12, 24]
00000000: ecca af3d 5089 883d 24d7 e43d 44ad 46bd
00000010: 28b0 fe3d 46ef ccbd 987f 70bd 106d 6c3d
00000020: 74b1 c43d cc54 843d c455 9c3d a427 b23d
00000030: 6a3f 353e d49e 11be 148a 22bd 3c47 56bd
00000040: 086a 0bbd 4614 e3bd c43d c83d a63c 353e
00000050: 72f8 19be f852 9abc 3f26 b3bd d457 e63d
00000060: 2cc7 a33d 1245 453e 8c0f a03d 40dd 583c
00000070: 908f 7d3d 8e3c 2a3e 303e 94bd 0a9d 283e
00000080: ee65 08be 93ee 1cbe 20ae 3e3e 1c36 dabd
00000090: c0c4 743b dc8f 333d 2475 483e ea28 143e
000000a0: bde8 0ebe 1d52 b0bd f391 edbd 7a8a 13be
000000b0: b8a7 23be 1c15 95bd ba02 083e f6f8 3c3e
000000c0: 5da4 e2bd f875 193d 10ce 0dbc 745e 383d
000000d0: d76c 18be 40d9 813d 8187 41be d26b 18be
000000e0: e92a b9bd 14f6 9d3d f27b 38be 442a 16be
000000f0: b63e 49be 4c4a 8ebd 6bd9 16be 0080 9c38
00000100: b8e9 adbc aee9 233e 64b3 9a3d 8c67 1cbd
00000110: ee2d 4cbe 949e b7bd 3c9a 3a3e 10ff 423d
00000120: 665d 9fbd 02cb 17be f8ba 253d ee51 413e
00000130: 411d 19be b0bf 923c 34c0 85bd 8c7d ce3d
00000140: 7863 6f3d 140c e33d 3e10 263e d0dd e63c
00000150: 7fa0 b1bd f02d 493d f8f6 50be c0b4 e5bc
00000160: 009b a7bc a2b2 4cbe 1679 203e b0a3 b9bd
00000170: d9d3 07be 9a4b 043e 3037 5cbc 341d 4dbd
00000180: c979 17be 3c64 923d f70f 17be 58a5 393e
00000190: 7849 093e c050 64bd 8074 36bd 2c6f d93d
000001a0: 003c 67bb bcaf b53d c534 50be b49b 203d
000001b0: 842e 343e afbe b4bd ae8d 11be 249a 66bd
000001c0: a05a 403c 1ce3 473e 3c2d 15bd d8ca 4b3d
000001d0: 685b b4bc 5c5d e43d 1c9f 1c3e e842 d73d
000001e0: 24de 1abe a864 d7bd 6660 133e 64ec f33d
000001f0: 54d2 e7bd 6c66 62bd 9df6 fdbd d6cd 243e
00000200: 402b 223e e40c e63d 3033 5b3c 7b30 18be
00000210: 2a93 4e3e 2c27 e43d 5060 f33c 9265 3e3e
00000220: 4cad 453e 8ab8 42be de39 3cbe 0247 13be
00000230: 2220 133e 8c30 373e 1c4c 443e d889 233e
00000240: 302f 24bc a836 4b3e a083 8ebc f46c c33d
00000250: 302a 163d 1a8b 3d3e f4ae 32be 3553 3fbe
00000260: e014 9e3d bb7e 3dbe 60d0 673c a045 13bd
00000270: 20ec 9bbc cafc 223e b061 efbc e88e 9d3d
00000280: 76be 28be 16ce 98bd e612 21be 506a b73d
00000290: 78f1 513d 1276 04be 9c55 0d3e 006f 46ba
000002a0: b8a9 f63d a0d4 ac3d a687 183e 4408 80bd
000002b0: 6048 d4bc c1a8 afbd 00b6 983b c269 323e
000002c0: 1a59 3dbe e8aa 713d e4eb 08bd 7a87 453e
000002d0: f4f7 49be 6eb5 3e3e 30ba 40be e0b3 b23b
000002e0: a0b1 4c3c 8cbd 53bd 5478 fa3d 10e1 163e
000002f0: 3272 3dbe f8c1 9a3d 20de babb 1c50 15bd
00000300: e487 ed3d 5815 f53d 9bba 0cbe 2a65 1f3e
00000310: 74e9 0d3e 20e1 073c de71 b1bd 388b a9bc
00000320: 5c99 3cbe d890 6e3d 5a6d 17be 00d2 ca3b
00000330: 4037 99bb 50ca cebc f058 d83d 4258 f7bd
00000340: ecb7 fa3d 00fe de3b 2001 493d d6fc 4b3e
00000350: 48e0 1dbe 5c30 a6bd 84bb 473e 336f 33be
00000360: 1607 083e 3cc8 34bd 2695 163e fc79 103e
00000370: 00ad 903c 5518 d6bd ba3a 003e 1679 8dbd
00000380: a001 60bc 0e25 2a3e a889 2f3d d85a 953c
00000390: f0df 1c3e a011 4cbc 7e9c e2bd e0f1 c43d
000003a0: befc 05be 6a54 4f3e 6675 02be 28ef 723d
000003b0: 8e69 81bd 6615 433e 04f9 01be 7d04 35be
000003c0: 3452 8d3d 6c3f 79bd f679 413e 5025 3ebe
000003d0: be87 283e 38c3 6f3d 0807 90bd 70bb 3e3d
000003e0: 8c14 413e 0830 6cbd 5c86 46be e076 203e
000003f0: 58ba b43d 1030 333e 08d1 4fbd 7041 813d
0.08583626 0.06666815 0.11173847 -0.048505083 0.12435943 -0.10006575 -0.058715433 0.057721198
0.09604159 0.06461486 0.07633546 0.08698967 0.17699972 -0.14220744 -0.039682463 -0.05231403
-0.034036666 -0.11087851 0.09777406 0.17698917 -0.1503618 -0.01883839 -0.08747529 0.11247221
0.079969734 0.1926463 0.07815465 0.013236344 0.06190449 0.16624662 -0.07238424 0.16466156
-0.13320133 -0.15325384 0.18621111 -0.10654852 0.0037348717 0.043838367 0.19575936 0.14468732
-0.1395597 -0.08609412 -0.11600103 -0.14408293 -0.15981948 -0.07279417 0.1328229 0.18454346
-0.11066506 0.03746602 -0.008655086 0.045011953 -0.14885269 0.06340265 -0.18899347 -0.1488488
-0.090413876 0.07712951 -0.18016031 -0.1466456 -0.19652829 -0.06947765 -0.14731376 7.4625015e-05
-0.02122961 0.1600711 0.07553747 -0.038184687 -0.19939396 -0.08965793 0.18222898 0.047606528
-0.07781486 -0.14823535 0.04046151 0.1887891 -0.14952566 0.01791367 -0.065308005 0.1008254
0.05844447 0.11086288 0.16217133 0.02818194 -0.0867319 0.049116075 -0.20406711 -0.02804029
-0.020459652 -0.19990018 0.1567119 -0.09064424 -0.13264407 0.12919465 -0.013440892 -0.05007668
-0.14792551 0.071480244 -0.14752184 0.1812948 0.13406932 -0.05574107 -0.044544697 0.106169075
-0.0035283566 0.08871409 -0.2033263 0.03921099 0.1759587 -0.088254325 -0.14214203 -0.056299344
0.011740357 0.19520229 -0.036420092 0.049753994 -0.022016242 0.111506194 0.1529507 0.10510808
-0.15123802 -0.105172455 0.14392242 0.11910322 -0.11319414 -0.05527346 -0.124005534 0.16094145
0.15836811 0.112329274 0.013378903 -0.14862244 0.20173326 0.11140284 0.029709011 0.18593433
0.19304389 -0.19015709 -0.1838145 -0.14382556 0.14367726 0.17889613 0.19169658 0.15970552
-0.010021016 0.19845068 -0.017396748 0.095422655 0.036661327 0.18510094 -0.17449552 -0.18684085
0.07718825 -0.18505375 0.014148802 -0.03595507 -0.019033492 0.15916744 -0.029221386 0.07693273
-0.16478905 -0.07461183 -0.15729865 0.089558244 0.051255673 -0.12935665 0.13802189 -0.0007569641
0.1204409 0.084389925 0.14895496 -0.062515765 -0.025913417 -0.08577109 0.004660368 0.17423156
-0.18491021 0.05900088 -0.033428088 0.19289961 -0.19723493 0.18623897 -0.18821025 0.0054535717
0.012493521 -0.051694438 0.12229982 0.14734292 -0.18500593 0.07556528 -0.005702749 -0.03645335
0.11598185 0.119669616 -0.1374306 0.15565935 0.13858587 0.00829342 -0.086642966 -0.020696267
-0.18417877 0.058243603 -0.14787808 0.0061895847 -0.0046757758 -0.025242954 0.105638385 -0.12077381
0.122421116 0.0068051815 0.04907334 0.19920668 -0.15417588 -0.081146926 0.19505125 -0.17522888
0.13283953 -0.04413627 0.14705333 0.14109033 0.017660618 -0.1045386 0.12522402 -0.06907861
-0.013672262 0.16615698 0.04285589 0.018231794 0.153198 -0.012455374 -0.11065005 0.096164465
-0.13084695 0.20247045 -0.12740096 0.05931011 -0.06318961 0.19051132 -0.12692648 -0.17677493
0.069004446 -0.0608515 0.1889418 -0.18568921 0.16458032 0.058535784 -0.07032591 0.046565473
0.18855494 -0.057662994 -0.19387192 0.15670347 0.08824605 0.17498803 -0.050736457 0.06311309

linear2.bias f4 [12]
00000000: 25f5 15be f0f5 4b3d bd34 03be 58dd 41be
00000010: a041 01be 4034 373e ce78 36be 29a9 05be
00000020: c472 833d f492 e93d 8c04 0ebe 9019 4b3e
-0.14644296 0.04979509 -0.12813087 -0.18932092 -0.1262269 0.17891026 -0.17819521 -0.1305281
0.06418374 0.11404982 -0.13868922 0.1983397

linear3.weight f4 [1200, 12]
00000000: 44f5 56be 9b88 0abe e082 733e bfea 88be
00000010: dc70 7a3e 52f3 9cbd 4a0f 2fbe 9032 d7bd
00000020: 7243 68be 12c8 173e 301f 8bbe 4d61 7abe
00000030: 7a2e 893e 6e7f 153e 3820 703d b0cf e93c
00000040: 9815 2abe f008 32bd 0041 80be da2d 88bd
00000050: d048 6e3d 7f81 87be 60ba 33be 5022 0cbd
00000060: 80aa 233c a056 803e 60b8 43be daa9 203e
00000070: ac3c 843e 76f6 8abd fedb 2e3e 4468 983d
00000080: 04f4 60be 9461 6ebe a2c0 1fbe 3c9a 8f3e
00000090: d830 0d3d 2b5c 0bbe f8d2 13bd ae2f c0bd
000000a0: 482b 093e f4a0 893e 16dc 133e b25c aabd
000000b0: ea16 70be 9679 263e 08b1 d23d c2b9 dcbd
000000c0: d86d 8b3e 06a6 573e d48a dc3d fa60 fcbd
000000d0: 90f6 50bd 388d cabd 709d cbbc ec56 6d3e
000000e0: 6c83 e13d 981d 863e e0db 1a3c ce52 4cbe
000000f0: f89e f83d fcff 9dbd c021 793d e8ab 073e
00000100: a04c 76bc d846 313d 299e 0dbe 8851 f53d
00000110: fc21 a13d 6046 89be 3a03 6cbe 84c1 94bd
00000120: 40d6 63be 7869 903e 3467 61bd 742d 5e3e
00000130: 001a b2bd 4217 e7bd 4c9d 353e d2e4 203e
00000140: 6ea4 ddbd ae14 52be 7ab6 043e 7a6f 903e
00000150: dd0a 87be a07b f1bc fc0b db3d 4466 0ebe
00000160: 1407 92be 207b 8bbe 42fc 553e 20e8 5f3d
00000170: b498 1f3e 1c2a 903d ecb4 523e 1474 67bd
00000180: e00f e4bc 7cb3 2e3e 6ca3 1b3e 5f87 7fbe
00000190: f47a 5ebe 46a2 8c3e b269 12be 3416 56bd
000001a0: 35c7 85be 9668 3b3e 7864 103e bcb9 f03d
000001b0: 425b 3a3e a425 46be 309c 77bd e4d2 773e
000001c0: c02b f53b 301e 3e3d 9ccc 89be 1898 b23d
000001d0: 7b05 80be ae65 2b3e 4053 d73c 689f bb3d
000001e0: 800d 97bc 6cd7 823e ee38 393e 0029 ddba
000001f0: 81df 88be 183a 16be b445 55bd 74f0 7a3e
00000200: 749d 893e 0004 f43a 70c1 27bd 5268 4d3e
00000210: cb78 91be d02f 893e c8f6 1b3e 5071 f13d
00000220: 8809 2abe 0082 e43c 7c69 af3d 44d5 86be
00000230: 00b1 35bb f476 7cbe d0c5 413d 8c5c 6c3e
00000240: 7ed8 febd e6b0 0f3e 00c0 cb38 e478 213e
00000250: 1571 36be 1c31 78be 4c2d 413e 8243 c7bd
00000260: 5c56 4ebd 1ec1 3a3e c8f6 4f3d 14ef cb3d
00000270: 113c 20be 5c69 67be 0056 823e 0845 1c3e
00000280: 8471 db3d add1 8fbe 8c39 f63d b417 91be
00000290: 5e86 2d3e 80bd 393c e603 3b3e ce22 28be
000002a0: d4c5 893e c04c f8bb 34dc b63d 008f 7b3c
000002b0: 8033 cf3c 84a8 763e ea27 283e d78c 81be
000002c0: 78c6 d4bd eca2 c93d 84ef 8b3e 7017 383d
000002d0: df97 59be 9cde 503e 3a0c acbd a48d 813d
000002e0: f84f 7a3e dc06 82bd 0cf0 8a3e 5bb8 0bbe
000002f0: 50f1 90be fa7d b5bd 1c69 623e 1f77 93be
00000300: 087b 34bd 0cf8 cabd aa1d 4f3e a0d9 0bbe
00000310: f90f 07be 540b fcbd c088 d6bd b4b5 2d3e
00000320: 2010 11be 0095 a03d 3a4f 82bd 9836 363d
00000330: 8012 ecbb b064 5cbd 6054 7bbd 4858 6a3d
00000340: 1484 aabd 30d5 2fbd 72cb 0a3e 3688 f7bd
00000350: e69c e7bd 526b 853e a01c 923e 3684 8dbe
00000360: a0e3 2fbd 70ee e33d 582c 463d 0821 52be
00000370: 90f6 893e a863 5d3e 0052 b4bd 9ef6 863e
00000380: d096 923c a0d4 663d 1d2d 6ebe e4b1 593e
00000390: 08db 4c3e 805d 233c baef 203e d60a 41be
000003a0: b8f7 703e 2ca9 70be 0073 ffbb 3238 36be
000003b0: 26d8 1dbe 0040 3d3d 5022 2dbe cc28 5bbe
000003c0: ac18 92be 60ca c2bd b890 743d a83a 85bd
000003d0: 00ee 63bb d478 313e 80ee df3c 803a d93b
000003e0: 7647 143e c019 31bc a8f5 90be a67a 503e
000003f0: 081a 82be a579 77be ee5f 81be 26f3 0ebe
-0.20991999 -0.13528673 0.23780394 -0.26741597 0.24457115 -0.07663597 -0.17095676 -0.10507691
-0.22681978 0.14822415 -0.27172232 -0.2445118 0.2679327 0.14599392 0.058624476 0.028541416
-0.166098 -0.043465555 -0.2504959 -0.066493705 0.05817491 -0.26465985 -0.17551565 -0.03421241
0.009989381 0.2506609 -0.19113302 0.15689793 0.2582754 -0.0678529 0.17076108 0.07441762
-0.21968085 -0.2327941 -0.15600827 0.2804736 0.03447041 -0.13609378 -0.036089867 -0.09384094
0.13395417 0.2688061 0.14439425 -0.083184615 -0.23446241 0.16257319 0.10287672 -0.10777618
0.27232242 0.21059427 0.10768667 -0.12323184 -0.05101639 -0.098902166 -0.024855345 0.2317769
0.11011395 0.26194453 0.009451836 -0.19953462 0.12139696 -0.07714841 0.060823202 0.13249171
-0.015032917 0.043280452 -0.13829865 0.119784415 0.0786781 -0.26811504 -0.23048106 -0.07263473
-0.22249699 0.28205466 -0.055030063 0.21697026 -0.08696365 -0.11283733 0.17735785 0.15712288
-0.10822378 -0.20515701 0.12960234 0.2821005 -0.26375476 -0.029477894 0.10695645 -0.13906199
-0.28521025 -0.27242374 0.2089701 0.05466473 0.15585595 0.07039282 0.20576829 -0.056507185
-0.027839601 0.17060655 0.15199059 -0.24953984 -0.2172659 0.27467555 -0.14298132 -0.05226727
-0.26128545 0.18301615 0.14100826 0.11754176 0.18198875 -0.19350296 -0.060451686 0.24201542
0.007482022 0.046415508 -0.26913917 0.08720416 -0.2500418 0.16738006 0.026284814 0.09161264
-0.018439054 0.2555498 0.18088123 -0.0016873181 -0.2673302 -0.14670599 -0.052068427 0.24505788
0.2687794 0.0018616915 -0.04095596 0.20059326 -0.2841247 0.2679429 0.15230858 0.11789191
-0.16605198 0.02789402 0.085650414 -0.26334584 -0.0027723908 -0.24654752 0.04730779 0.23082179
-0.12443636 0.14032325 9.715557e-05 0.15768772 -0.17816575 -0.24237484 0.18864936 -0.09729673
-0.050375327 0.18237731 0.05077246 0.0995771 -0.15647914 -0.22598785 0.25456238 0.15260708
0.10715011 -0.28089657 0.12022695 -0.28338397 0.16945788 0.011336684 0.18263206 -0.16419527
0.26908743 -0.0075775087 0.08928719 0.015353918 0.025293112 0.24087721 0.16421476 -0.25302765
-0.103894174 0.09845528 0.27331173 0.044944227 -0.2124934 0.20397419 -0.084007695 0.06325844
0.24444568 -0.063489646 0.27136266 -0.13644545 -0.28309107 -0.08861919 0.22110409 -0.2880182
-0.044062644 -0.099105924 0.2022616 -0.13657236 -0.13189687 -0.12306848 -0.10475302 0.16963845
-0.14166307 0.078409195 -0.063627675 0.04448566 -0.007204354 -0.05380696 -0.061359763 0.057213098
-0.08325973 -0.04292792 0.1355417 -0.12086527 -0.11309223 0.2605844 0.28537464 -0.2763993
-0.04294169 0.11129463 0.048382133 -0.20520413 0.26945925 0.21620047 -0.08804703 0.2636003
0.017894179 0.05635512 -0.23259397 0.21259266 0.20005429 0.009971023 0.15716448 -0.1885179
0.23531997 -0.23502034 -0.0077956915 -0.17794874 -0.15414485 0.046203613 -0.1690762 -0.21402282
-0.28534448 -0.09511256 0.059708327 -0.065053284 -0.003477931 0.17331249 0.027335405 0.006629288
0.14480385 -0.010809362 -0.2831242 0.20359287 -0.25410485 -0.24167497 -0.252685 -0.13959941

linear3.bias f4 [1200]
00000000: 64aa b3bd 820a 8c3e d9bd 21be c00f c83d
00000010: 44b6 8fbe ec96 833e ae0b 22be aaf5 25be
00000020: 70ef 643e 603f 8cbd 3804 4b3e 4467 f93d
00000030: 54ca 973d e841 4abe 56b1 7abe c01a 0f3e
00000040: 6645 1e3e 7b04 39be b02b 683d 2000 bd3c
00000050: 4e3a 1e3e 16d2 0f3e c03a 48be 8067 7dbc
00000060: 9841 4b3d 005d 7abc 4ae1 013e 3ad6 803e
00000070: d857 4a3d ecb0 c23d 10fd e3bd 78b1 153d
00000080: 1a74 90be d62c 883e faf3 f1bd 0149 46be
00000090: 2073 84be 7a40 883e 748e 9f3d 9092 e1bc
000000a0: fcec 36bd a06c 14bc 604f a93d 8012 b9bc
000000b0: ce33 543e 15d3 15be 9886 5f3e 9c68 50bd
000000c0: f497 df3d 5062 333e 0c0e 953d 6025 ce3d
000000d0: 3e9e 01be b031 a7bc 9263 4f3e bc45 ed3d
000000e0: 4003 73be 0271 873e ad56 27be 305f 913e
000000f0: 4604 003e 74c7 6a3e 783b 1a3d 44ae 493e
00000100: 7c77 27be c0f9 b43b 1abe 6ebe 067e 4d3e
00000110: c028 56bd 20b9 6e3e 822b 49be 2c25 92be
00000120: ec51 8d3e 1c4f 30bd 4ad7 d3bd 584b 723e
00000130: b667 b5bd a4d8 213e f430 893e 54ab 653e
00000140: b6c4 863e f4b8 84bd 3ae0 febd f045 77be
00000150: 6484 723e 3ebf 44be 3cb5 65be a05d 133e
00000160: 7680 c8bd 354c 46be 6042 3e3c 7023 753e
00000170: 60fa 963d 77e4 6abe 80c2 4ebb 4aee 283e
00000180: 4033 af3c 54be 6f3e 7883 e03d 9631 463e
00000190: 6ca2 5dbe 3033 163d 7240 853e 32b3 80be
000001a0: a033 183e 60c8 b0bc a2b6 bbbd 72a7 89be
000001b0: 5010 ee3c 682b 8a3e 38ed 0ebd dc4a 25bd
000001c0: a01f 21bc 52fc 25be 60c3 eb3c eee8 e9bd
000001d0: 8604 913e 68bc 2ebe 0653 8cbd f89f 6b3d
000001e0: 80df 363e 8844 2a3e e49f 923d 60b1 2ebc
000001f0: a21e 8a3e 9a82 6bbe 1e13 92be 3696 003e
00000200: 1133 13be a864 133e f012 5e3e f060 db3c
00000210: de51 82be a8e3 01bd 825e 8d3e 305d 9d3c
00000220: 0c1d 2bbd a24c 38be 6aa5 9abd c05f 8e3c
00000230: a055 8fbe 0429 f53d b0aa f23d bea7 143e
00000240: e243 eebd 68ad 1d3e 1f67 1bbe a099 b53c
00000250: 20a4 3abc 3822 483d 4495 3cbd 040a 03be
00000260: f85c 1d3d 382b 013d c076 c43b ce64 063e
00000270: 2cbb 723e 968e fcbd f61d d5bd f055 bcbc
00000280: a02f 21bd ec11 1fbd 9856 163d 9096 3e3d
00000290: c4f5 463e 3cf6 c13d 2c0a e83d 68b5 793d
000002a0: 9eb0 64be 105d e63d e11f 91be ae5a e8bd
000002b0: 6875 ea3d f476 bc3d 78e4 6a3e 586c 933e
000002c0: 680f 4c3d 8064 673b a09b a03c 0256 093e
000002d0: 9a59 77be 599b 2abe 0d8e 05be 0096 a33b
000002e0: 342e bf3d 380b 08be 927a 30be b864 b7bd
000002f0: 4cf0 913e 3119 03be 7095 f63c 5ec1 223e
00000300: b052 0f3e e003 f43d 003f e93d f837 f63d
00000310: 7844 1c3d 8c2b dd3d 4297 4cbe 0020 6539
00000320: 2cb7 ff3d 362f 063e 4061 19bc 7c81 0e3e
00000330: 048d 99bd baa0 f0bd 74e8 f73d 00b3 613e
00000340: e0c2 9cbc 4dd8 0cbe 101c a93d 7000 313d
00000350: b41c 773e 167d 8dbe 1edc 523e 94d6 d63d
00000360: 10b6 cd3d c892 b23d b2ed 2bbe 400e d93b
00000370: 162f 223e b01f abbc 3073 243e 2a94 afbd
00000380: 585b 0d3e 22d4 c0bd 3b8f 1bbe f011 2a3d
00000390: 7471 51be a0bc 473d 9e06 28be 1870 dbbd
000003a0: 8c46 e6bd 10e6 bdbd 8097 c0bb a060 393e
000003b0: c0a6 ac3b 201c 243e fceb 973d 206d 363c
000003c0: c8bb 0f3d 88dc 203d ca36 923e d491 dbbd
000003d0: 3037 5a3e 4080 0c3d 90fe 7d3e a2b9 113e
000003e0: 2105 84be 4c5e 743e a459 8b3d c4e4 ba3d
000003f0: c0ee 09bd 9aa1 c7bd d019 0d3d bca1 d0bd
-0.08772734 0.27351767 -0.15795077 0.09768629 -0.28068745 0.25701082 -0.15824768 -0.16206995
0.22356963 -0.06848025 0.19825828 0.121778995 0.07411638 -0.19751704 -0.24481711 0.13975048
0.15456161 -0.18068115 0.05668229 0.023071349 0.15451929 0.14044985 -0.19553661 -0.015466571
0.049623102 -0.015280962 0.12683597 0.25163442 0.04940018 0.095064014 -0.11132252 0.0365462
-0.28213578 0.26596707 -0.11814113 -0.19363786 -0.25869083 0.26611692 0.07790843 -0.027535707
-0.0446596 -0.009059101 0.08267093 -0.02259183 0.20722887 -0.14631303 0.21828687 -0.050881013
0.10917655 0.17517972 0.0727807 0.100657225 -0.12658021 -0.020409435 0.20252827 0.115855664
-0.23731709 0.26453406 -0.16341658 0.28392935 0.1250163 0.22927648 0.03765437 0.19695383
-0.16354173 0.0055229366 -0.23314705 0.20067605 -0.052284956 0.23312807 -0.19645503 -0.28543985
0.27601564 -0.043044195 -0.103437975 0.23661554 -0.08857672 0.15805298 0.2679516 0.22428638
0.26321954 -0.064805895 -0.124451116 -0.24147773 0.23683316 -0.19213578 -0.22432417 0.14391184
-0.09790127 -0.19365008 0.011612505 0.239393 0.07371974 -0.22938715 -0.0031549037 0.1649715
0.021386743 0.23412448 0.10962576 0.19354853 -0.2164399 0.03666991 0.2602573 -0.25136715
0.14863443 -0.021579921 -0.09165694 -0.26885563 0.029060513 0.2698624 -0.0348942 -0.040354595
-0.0098342 -0.16209534 0.028779685 -0.11421381 0.28323764 -0.17064059 -0.06851773 0.057525605
0.17858696 0.16627705 0.07159403 -0.010662407 0.26976496 -0.2299904 -0.2853021 0.12557301
-0.14374949 0.14393866 0.21686912 0.026779622 -0.25453085 -0.03171125 0.27611166 0.019209474
-0.041775748 -0.17997983 -0.075510815 0.017379642 -0.27995014 0.11970714 0.11848962 0.14517114
-0.11634041 0.1539818 -0.15176056 0.02216798 -0.0113916695 0.04886076 -0.04604079 -0.1279679
0.03841874 0.031535357 0.0059956014 0.13124391 0.23704213 -0.123318836 -0.10406105 -0.022990197
-0.03935206 -0.03883545 0.036703676 0.046530306 0.1942969 0.094707936 0.11330065 0.060964018
-0.22332999 0.11248219 -0.28344634 -0.11345421 0.11448175 0.09202376 0.22938716 0.28793597
0.04981938 0.0035307705 0.019605458 0.13411716 -0.24155274 -0.16660823 -0.1304247 0.0049922466
0.093349844 -0.1328553 -0.17234257 -0.089547575 0.28503644 -0.12802579 0.030100554 0.15894076
0.13996387 0.119148016 0.113889694 0.12022394 0.038151234 0.107993215 -0.19979575 0.00021851063
0.12486109 0.13103947 -0.009361565 0.13916582 -0.074976 -0.11749406 0.12104884 0.2204094
-0.019135892 -0.13754387 0.082573056 0.043213308 0.24132043 -0.27634495 0.2059178 0.10490146
0.10044491 0.087194026 -0.16789892 0.006624013 0.15838274 -0.020889133 0.16059566 -0.08573182
0.13804376 -0.09415461 -0.15191357 0.041521013 -0.20453435 0.04876387 -0.16408774 -0.107147396
-0.112439245 -0.092723966 -0.005877435 0.18103266 0.0052689016 0.16026354 0.07418057 0.011134416
0.03509119 0.039272815 0.28557426 -0.10721174 0.21310115 0.034301996 0.24804139 0.1423097
-0.25785163 0.23864096 0.06804207 0.09125665 -0.033674955 -0.0974762 0.034448445 -0.101870984

linear1.weight f4 [12, 1200]
00000000: f47a 253c a081 5c3a 5d81 9dbc 489b 8dbc
00000010: 9859 8b3b f005 813c 8479 323c ab0a c4bc
00000020: ec7b 823c 0474 e33c ec29 9f3c 7087 d73c
00000030: 8a05 ea3c e0d8 a03b 10aa bf3c 90d5 babc
00000040: bcfd a03c cc4f 763c f8ed c3bb c05b 41bb
00000050: da09 12bc 56e5 b73c d83b 0a3c 5881 c0bb
00000060: 8051 7c3c 0cc5 80bb 441c d0bc 1011 99bc
00000070: fc95 d3bc 183e dcbb 9af0 dabc e243 0cbc
00000080: 80c2 2eb9 0533 cbbc bdc9 dabc d03f c4bc
00000090: 1219 943c 803f 0f39 06a1 51bc 7a65 3fbc
000000a0: 80ad 0539 9e0d d4bc 6a4f ae3c da0d 9b3c
000000b0: 909b 8d3a cb34 dbbc 20e5 c03b dc53 ae3c
000000c0: d872 c43c 00cc 8fb8 0c41 a7bb e8f1 a53c
000000d0: 3c4d 353c 4e71 863c c07e 183c 908e 2d3c
000000e0: 3ea9 bd3c 805d c43c 0ca7 3e3c 9a69 9fbc
000000f0: d2e3 adbc 0293 ccbc 8483 4e3c 58dd 293c
00000100: ec21 453c c86a da3c 82fd 9fbc f271 c53c
00000110: 0e86 bb3c 6454 80bb 2269 b5bc 9e02 cd3c
00000120: 441f 2abc f0ae ceba be3a 07bc 20d6 8d3b
00000130: 96c8 963c 3a60 c73c 0146 e0bc 0faa 60bc
00000140: e451 693c 8421 d4bc 248d 383c 6877 49bc
00000150: 26f0 e13c 58f8 e6bc de60 ddbc 1e6e 90bc
00000160: 1011 14bc 30cb 2ebb 0c48 0e3c e27f d6bc
00000170: 802d 72bc d059 55bc 7068 913a 10fd 36bc
00000180: e4e3 9abb 02a2 de3c 80ba 36b9 461b b93c
00000190: 8043 773b 4ef9 d03c c8cd 423c 78d7 a93b
000001a0: 0051 f5b9 8c63 bd3c b424 a63c e005 293b
000001b0: 12f0 b63c c8ae ad3c b058 ef3a bb14 e2bc
000001c0: 8a8a a23c 7f90 b9bc d8ec 093c 3afb 913c
000001d0: d873 bebb 7e3e 9cbc c6b1 80bc 7cb8 2b3c
000001e0: 1629 813c 10a2 113c 165e 3cbc 6253 11bc
000001f0: d553 debc 62da da3c 79af 6abc 52d6 e13c
00000200: 06ed 9a3c 7c4b fcbb 00e9 45bc fe64 b53c
00000210: 6491 323c 80df 0bb9 6011 c03b 806f b93a
00000220: 6961 94bc 1045 1a3c cc61 943c 4c14 443c
00000230: dc69 06bc 37d3 59bc def2 cf3c d014 3abc
00000240: 2b6d bcbc 12a3 d13c fe98 b93c 9856 3f3c
00000250: 4835 5d3c 035a d5bc 44d2 443c d875 a03b
00000260: 5e90 55bc e833 1cbb 703d 9e3c 04ad 7fbc
00000270: 70ea dd3a 584e 9d3c 6049 4fbc 18c1 52bc
00000280: 002f 25ba c6fb d13c c841 a83b cc80 87bc
00000290: acea 643c b81a 43bc 6017 5dbb 5c00 de3c
000002a0: 24b2 f0bb 42dc dabc 58ea 0dbb 38c5 fd3b
000002b0: a46d 553c 50e9 97bc 9052 35bb c67e be3c
000002c0: e2f9 c73c 561b 8cbc a215 70bc b4c1 43bc
000002d0: cc81 7b3c 0407 163c 7ee4 4fbc c7f0 6dbc
000002e0: 9af9 b4bc 6c58 82bc 0814 563c 828b df3c
000002f0: 2055 c53c ba05 cc3c 018d b1bc e9ed cabc
00000300: 0cae 96bc c044 a63b 54ff b93c f8ca 4fbb
00000310: dc26 54bc 6013 a0ba c02c 9139 bc60 0dbc
00000320: 9c9c 643c 26e0 b13c 08f6 88bc b0f9 cc3c
00000330: d281 a43c 5155 debc e023 423c 142f 53bc
00000340: 98b5 e53b de6f a53c 2cf0 213c 9a06 99bc
00000350: f751 8dbc 50b5 ea3b c457 763c c62a 50bc
00000360: 8038 c1ba 083b acbc 00ef 03bb d8a9 2f3c
00000370: 4804 283c 566c 95bc 70bc 00bc 50aa 113c
00000380: a81d a6bc 3277 34bc 64f2 fcbb 30f0 5dbc
00000390: 80ea ecb9 6d9b babc 10a8 c33c 8293 a53c
000003a0: 7075 1c3b 083a 4a3c a86e 373c 404c 863c
000003b0: b994 99bc 40fb a63b 78d3 5dbb 04b4 b0bc
000003c0: a053 bd3b 488e 483c 93cc a3bc b8f3 8e3b
000003d0: cc34 98bb e043 e83c 6464 a83c 64f6 6e3c
000003e0: 2a6c b83c d4fd 5e3c 40e6 1ebb a0a3 823c
000003f0: b40a 9f3c 7ce2 e9bc 8416 acbc 78b1 b6bc
0.010100115 0.00084116496 -0.019226724 -0.017285958 0.0042526238 0.015749902 0.010893229 -0.023930868
0.015928231 0.027765281 0.01942917 0.026309699 0.028567094 0.004908666 0.023396522 -0.022806913
0.01965224 0.0150336735 -0.005979296 -0.002950415 -0.008913482 0.022448223 0.008437119 -0.005874794
0.0154002905 -0.00392974 -0.025404103 -0.018684894 -0.025828354 -0.0067212693 -0.026726056 -0.008561106
-0.0001666639 -0.024804601 -0.026707524 -0.02395621 0.01807836 0.00013661198 -0.012794739 -0.011681909
0.00012748502 -0.0258854 0.021278102 0.018927503 0.0010803808 -0.026758572 0.005886689 0.021280222
0.023980543 -6.856769e-05 -0.0051041897 0.020256951 0.011065777 0.01641145 0.009307563 0.010593072
0.02315199 0.023970366 0.011636507 -0.019459534 -0.021226797 -0.024972443 0.012604598 0.010367714
0.012032013 0.026662245 -0.019530062 0.024102185 0.02289107 -0.00391631 -0.022144858 0.025025662
-0.010383431 -0.0015768688 -0.008253751 0.004328504 0.018406194 0.024337877 -0.02737713 -0.01371242
0.014240716 -0.025894888 0.011264119 -0.012296535 0.027580332 -0.028194591 -0.027023729 -0.017630633
-0.009037271 -0.0026671402 0.0086841695 -0.026184026 -0.014781356 -0.013021901 0.0011093747 -0.011168733
-0.0047268737 0.02717686 -0.00017426349 0.022596013 0.0037729442 0.025509503 0.011889882 0.0051831566
-0.0004679039 0.023118757 0.020281173 0.0025790855 0.022331271 0.021201506 0.0018260684 -0.027597776
0.019841451 -0.022651909 0.008418284 0.01781999 -0.0058121495 -0.019072767 -0.015709769 0.010480996
0.015766662 0.008888736 -0.011497041 -0.008869978 -0.027139584 0.026715461 -0.0143240625 0.027568016
0.01891185 -0.007699428 -0.012079477 0.022142883 0.010898922 -0.00013339333 0.0058614463 0.001414761
-0.018112855 0.00941588 0.01811304 0.01196773 -0.00820395 -0.013294986 0.025384363 -0.011357501
-0.023001274 0.025590453 0.02265596 0.01167836 0.013501473 -0.026043897 0.012013022 0.0048968606
-0.013034908 -0.002383465 0.019316405 -0.015605215 0.001693083 0.019202396 -0.012651771 -0.01286342
-0.0006301254 0.02563275 0.005134795 -0.016540907 0.013971966 -0.011908226 -0.0033735856 0.02709978
-0.007345455 -0.026716355 -0.0021654572 0.0077444576 0.013026629 -0.01854387 -0.002766762 0.02325381
0.024411146 -0.017102879 -0.014653595 -0.011948038 0.01535077 0.009156946 -0.012688754 -0.014522738
-0.022091676 -0.015911303 0.013066299 0.027288202 0.024088442 0.024905074 -0.021673681 -0.024771648
-0.018393539 0.0050741136 0.022704758 -0.0031706672 -0.012948718 -0.0012212805 0.00027689897 -0.00862902
0.013953354 0.021713328 -0.01671888 0.025021404 0.020081434 -0.027140291 0.011849374 -0.012889642
0.007010173 0.020194944 0.009883922 -0.018679906 -0.017250998 0.0071627274 0.015035573 -0.0127055105
-0.001474157 -0.021024242 -0.0020131469 0.010721646 0.010254927 -0.018240135 -0.007857427 0.008890703
-0.020277813 -0.0110147465 -0.007719325 -0.013546035 -0.00045188144 -0.02277919 0.02388385 0.020211939
0.002387371 0.012342937 0.011195816 0.01639378 -0.018747674 0.0050958693 -0.003384797 -0.021570213
0.005777791 0.012240954 -0.01999501 0.0043625496 -0.0046449658 0.028352678 0.020555682 0.014585111
0.022512514 0.013610322 -0.0024246126 0.015947163 0.019414283 -0.028550379 -0.02100683 -0.02230142

linear1.bias f4 [12]
00000000: b810 8b3b 8015 68bb 025f 8f3c 2869 a03c
00000010: 5e92 c7bc aa19 c03c 466b 9abc c012 4d3c
00000020: 24be 593c 18d1 873c 5457 a23c e05e 4d3c
0.0042439364 -0.0035413206 0.017501358 0.019581392 -0.024361786 0.023449738 -0.01884998 0.012516677
0.013289962 0.016579196 0.019817032 0.012534827

linear2.weight f4 [24, 12]
00000000: fc80 753e 207a 73bd 89e0 71be 546c ad3d
00000010: 944c 6bbe 11c7 7bbe 5ae4 a8bd 94ef 933d
00000020: 2804 b83d a48b 8c3e a02f 0dbc e8a3 b93d
00000030: 5801 b53d 1034 033e 18d7 65bd b005 6d3d
00000040: 20b4 6cbd 18c2 633d 8707 1bbe 321b 313e
00000050: 7c42 f53d a4f3 7ebd 4497 2dbd a614 523e
00000060: e2be 813e 6c19 543e 4a28 0ebe 6c59 2c3e
00000070: 5cbe 683e 9eb8 0dbe 1c7c a33d 40dc 5abc
00000080: a4f7 f03d 7e43 903e 10d2 06be 00ad 4c3d
00000090: 8efd 8bbe 1414 2fbe 047b 9fbd 3853 693e
000000a0: 2aea 1d3e ac14 5a3e 463c 38be 5846 97bd
000000b0: 6c5d 63bd 6e4d 3e3e 56c1 543e f266 f5bd
000000c0: a459 ec3d ace7 75be 76ee 1fbe dc1a 8e3e
000000d0: 0011 abbb 0c82 cebd 2242 023e e4f9 49be
000000e0: 6c7c 8fbe 367f 8fbd c856 583e f299 49be
000000f0: 2c77 8c3e e2fa 903e bdc7 28be 4c00 7a3e
00000100: 9b64 28be 56bc bcbd c018 5cbc 6e7f 803e
00000110: e056 83be 9249 0b3e c6af 113e 9fbf 12be
00000120: 446b 7a3e a618 87bd 00b2 0ebc c058 033c
00000130: a64e 8b3e 2ccc 50bd 8cad 2d3e abe8 1cbe
00000140: d061 dc3d 4c6c 583e 87c2 87be c8ba 743d
00000150: 8a9a 8d3e 206a da3d e336 82be ca5b 70be
00000160: e06f 75bd eafa b2bd 60d7 8ebc fc62 2dbd
00000170: 387a 583d 73c9 2fbe b200 3ebe 5cf4 3c3e
00000180: 5822 f53d a0a7 83be c00c d23c 4e37 10be
00000190: 94ab b0bd 8095 d1bc f8bf 1c3d 3ce6 433e
000001a0: fc8d 68bd 129b 1e3e c42f 87be 6e02 443e
000001b0: 0077 da3d 64ca 583e 40f1 773e cc26 77be
000001c0: a080 363e 1074 023e 0f16 4ebe e815 153d
000001d0: 28b2 523d fa4d 923e a95c 83be 72dd 0e3e
000001e0: e0e6 89bd 4848 423e bc84 77bd d81d 543d
000001f0: 560c a5bd 3576 5cbe ec24 f13d e41f 7e3e
00000200: 3a3e 60be a446 9f3d b898 203d fb71 83be
00000210: 88bb 6f3e ec61 78be 60fe 743e 9266 3d3e
00000220: b30a 3ebe 5719 8dbe fb62 8abe 2811 a03d
00000230: 2484 e0bd 2025 45bc c038 893d f204 e9bd
00000240: 1cce 673e a045 783e a81c 8e3d dc23 af3d
00000250: 40e7 3e3d 08ac 75bd 8cc9 ea3d 088c 673e
00000260: 0096 c93b e0a3 a73d 5013 c6bc 1e60 093e
00000270: 88f5 6f3e 5afb d4bd 92e5 82be dc07 b83d
00000280: fe94 9cbd 4a0c 263e 8bd3 8bbe 1039 a23c
00000290: 8819 323d 6243 3bbe 18d2 3dbe ea40 113e
000002a0: b040 e83c 807c 9f3b 4831 d33d 603e 8d3e
000002b0: f004 65bd 496e 01be 78a8 27bd 0ac4 883e
000002c0: 1023 9cbd 5eca 443e a876 163d 9cb6 a1bd
000002d0: a8a5 463d c42e cebd a8ab 1cbd 7468 23bd
000002e0: 541c 4b3e faa9 803e 9e8b 533e 6cd7 f73d
000002f0: a4a2 f03d e896 813e 3897 2fbe 2648 563e
00000300: 580f 61be d409 6abe 775b 6fbe 385f 87be
00000310: 24bd 8c3e 908d 703d 9810 78bd 8029 913b
00000320: 2781 54be a060 ebbc b8d0 6b3d ccf8 f43d
00000330: 40b6 c5bc 50f6 e93c 2db6 86be 2857 8dbd
00000340: 804f 693b 46ba 5ebe 8685 75be a06c c83d
00000350: 44da 613e f028 433d d210 053e 0066 9b3b
00000360: c09a 1dbd dcb5 52be 06a0 083e 04af e83d
00000370: b0a0 1a3d 048f 86be 0300 11be b296 44be
00000380: b48a b03d b8d0 88bd 50d7 14be 302e 7b3e
00000390: e3f1 20be ae25 a2bd 0618 403e 4876 143e
000003a0: 40e2 10bd 7044 243d 7426 9fbd aec8 a8bd
000003b0: 5ce3 48be 885f 0ebd 3a77 85bd 84a0 8b3d
000003c0: c484 173e d07c aebd f025 b13d 8380 14be
000003d0: 8a68 67be 48ab 83bd f89a d4bd 00b0 d13d
000003e0: 1453 7dbd fc0a 3fbd 7871 cebd fa26 86bd
000003f0: cb00 62be 94d9 533e cf5e 6cbe cfc2 80be
0.23974985 -0.05944264 -0.2362081 0.084679276 -0.22978431 -0.24587657 -0.082466796 0.0722343
0.08985168 0.27450287 -0.008617312 0.09064466 0.08838147 0.12812829 -0.056113333 0.057866752
-0.057788968 0.055605024 -0.1513959 0.1729553 0.119755715 -0.062244073 -0.042380586 0.20515689
0.25340945 0.20712823 -0.13882557 0.16830987 0.22728866 -0.13839957 0.07982656 -0.013358176
0.11765984 0.28176492 -0.1316607 0.049969673 -0.27341884 -0.17097503 -0.07787135 0.22785652
0.15421358 0.21296948 -0.17991742 -0.07386464 -0.055509016 0.18584225 0.20776877 -0.11982526
0.11540535 -0.24014157 -0.1561831 0.27754867 -0.0052205324 -0.10083398 0.1272054 -0.19724232
-0.28024614 -0.070066854 0.21126854 -0.19687632 0.2743467 0.28316408 -0.16482444 0.24414176
-0.16444628 -0.0921561 -0.013433635 0.2509722 -0.25652218 0.13602284 0.14227208 -0.1433091
0.24454981 -0.06596498 -0.008709431 0.008016765 0.27208441 -0.050975963 0.16960734 -0.15323131
0.10760844 0.21135062 -0.265156 0.05974844 0.27656966 0.10664773 -0.254325 -0.23472515
-0.059921145 -0.08739264 -0.017436683 -0.042330727 0.052850932 -0.1716669 -0.18554953 0.1845259
0.11969441 -0.25713825 0.025640845 -0.14083597 -0.08626476 -0.025583982 0.038269013 0.19130796
-0.05677603 0.15488842 -0.2640363 0.19141552 0.10667229 0.21170956 0.24213123 -0.24135894
0.17822504 0.12739587 -0.20125602 0.036397845 0.051439434 0.28575116 -0.25656632 0.13951662
-0.06733489 0.18972886 -0.06042932 0.051786274 -0.080589935 -0.21529467 0.117746204 0.24816853
-0.21898738 0.077771455 0.039208144 -0.25672898 0.23411381 -0.24256104 0.23925161 0.18496159
-0.18558769 -0.27558395 -0.2702864 0.07815772 -0.10962704 -0.012032777 0.06700277 -0.11377896
0.22637218 0.2424531 0.069390595 0.085517615 0.046607256 -0.059978515 0.11464223 0.22612011
0.0061519146 0.081855536 -0.02417913 0.13415572 0.23433506 -0.10399504 -0.25565773 0.08985874
-0.076456055 0.16215625 -0.27309832 0.0198026 0.04348138 -0.18287423 -0.18537176 0.14184919
0.028351158 0.0048671365 0.10312134 0.2758665 -0.055912912 -0.12639727 -0.04093215 0.26712066
-0.07623875 0.19217822 0.036734253 -0.07896158 0.048497826 -0.100675136 -0.03824964 -0.039894536
0.19835025 0.25129682 0.20658728 0.12101635 0.11749771 0.25310445 -0.17147529 0.2092596
-0.2197851 -0.22855312 -0.23374735 -0.26439834 0.27488053 0.058728755 -0.0605627 0.004429996
-0.20752393 -0.028732598 0.057572097 0.11961517 -0.024134755 0.028559834 -0.26310864 -0.06901389
0.0035600364 -0.21750745 -0.23976716 0.097863436 0.22055918 0.047646463 0.12994698 0.004742384
-0.03847766 -0.20577186 0.13342294 0.113615066 0.0377509 -0.26280987 -0.1416016 -0.1919811
0.086202055 -0.06680435 -0.1453526 0.24529338 -0.15717272 -0.07917343 0.18759164 0.14498246
-0.03537202 0.04010433 -0.07771006 -0.082414016 -0.1961798 -0.034759074 -0.06516881 0.06817725
0.1479674 -0.085199 0.08649814 -0.14502148 -0.22598472 -0.06429154 -0.103811204 0.102386475
-0.061846808 -0.046641335 -0.10080236 -0.06550403 -0.22070615 0.20688468 -0.23083042 -0.25148627

linear2.bias f4 [24]
00000000: 8025 123b 1a10 86be 60ff 333d 106b f3bc
00000010: 5e28 113e 6e80 7bbe 7e49 8f3e fef0 0e3e
00000020: f292 7bbe 0097 593b be22 0fbe 824a 86be
00000030: 80a3 293b 90ea 1e3e 284b e03d 9406 f13d
00000040: bd88 21be ed78 13be 303b fe3c 60d7 973d
00000050: 18b8 ab3d 7072 663e cc5e 873e 7093 cf3c
0.0022300184 -0.2618416 0.043944716 -0.029714137 0.14175555 -0.24560711 0.27985758 0.13959119
-0.24567774 0.0033201575 -0.13978097 -0.2622872 0.0025884807 0.15519166 0.10951835 0.11768833
-0.15774818 -0.14401598 0.031034082 0.074141264 0.083847225 0.22504592 0.26439512 0.025338858

linear3.weight f4 [48, 24]
00000000: 2c4d 223e a062 313e 0c7a 44be d6df 1b3e
00000010: d4b9 1a3e 8274 393e 52e6 00be 9c71 c13d
00000020: a0ac 70bd 58b6 073d f980 0cbe 0c4d a63d
00000030: f47e 823d 2a77 433e 760a 283e 4869 4b3d
00000040: 385b ea3d 2184 28be 3487 1f3d 4f97 2fbe
00000050: f005 293c 82f7 363e 406a 113e ef00 28be
00000060: cccd 41bd 9401 80bd 14be da3d c02f 063d
00000070: 04a1 d93d e154 1bbe c87e 933d 6c22 cb3d
00000080: e0e7 b1bc f8d6 6dbd 2c36 383e 5de1 13be
00000090: 4c05 46bd 6a48 03be 5822 093e 204d 4abc
000000a0: 30ef 48bc 30e5 463e f4c0 91bd b0bf 893d
000000b0: 945f d53d c07f 773c 342f cebd 9417 59bd
000000c0: 68f1 8cbd 2ef6 a7bd 08e9 d43c f4d4 a83d
000000d0: 1bea 2bbe 007c afb9 8ed6 9dbd c8c8 af3d
000000e0: 63fc aebd 5000 06bc 64a6 193e 3dd1 fbbd
000000f0: 620c 12be 5455 0d3e 4802 b7bc f846 f83c
00000100: 0819 00bd b8bb 563d c817 233d e8d1 1f3d
00000110: 21bc a8bd 3867 31be 1070 86bd 916d 41be
00000120: 82e1 433e 4e64 8cbd 7008 39bc 163c 27be
00000130: 3a4f 3bbe de79 4f3e a06b 37bc 5c92 eb3d
00000140: a82c d53c c872 013e 80f8 413d 6663 47be
00000150: ec99 34be b881 063e bc07 133e 59b4 d1bd
00000160: 1ca4 3a3e 30cb 6abd f809 abbd 7d49 b0bd
00000170: 30f4 96bd 3060 83bd 0ae9 49be 98a3 413d
00000180: 6037 1f3e a85e f43d c112 47be 1117 39be
00000190: e6e9 33be 08f7 fd3d 9439 13bd 5a68 42be
000001a0: 6416 9a3d 70dc cb3d 40f8 2a3e f885 073d
000001b0: 4c54 d43d d20c 80bd 5092 39be 41f2 2ebe
000001c0: 20b4 9c3c a87e c33c 8851 35bd a00e f13d
000001d0: 24d5 323e 80d5 8abc a487 893d 6c65 ba3d
000001e0: bcb9 3ebd ace6 443e 725b eebd 402c 25be
000001f0: 60c6 8abb 183a 3d3e d009 54bd 306c d1bc
00000200: e2ac f1bd d855 653d 48cd 1a3e f067 12bc
00000210: d479 3f3e 5c87 e23d aae5 eebd c606 283e
00000220: 90f8 213d 7228 1abe 72f9 283e d442 9a3d
00000230: 9c93 bb3d 20a6 c03d f2de 8cbd 4422 43be
00000240: 85a2 40be 803b 8c3a c80f 56bd 8880 243e
00000250: e8c1 483e 7ae6 253e 30e0 483e 460c d1bd
00000260: 8423 003e 32d7 0a3e 882e ef3d d140 2bbe
00000270: 7850 033e 7a34 393e 09ff 42be 3c4f cb3d
00000280: a029 c03c a8c3 433d 18d1 ff3d 5eeb 323e
00000290: d6cb 383e a84f 003e 5243 47be 481e 04be
000002a0: 5078 813c ba6c 2ebe 9830 9d3d 625b 1a3e
000002b0: 7a7e 1bbe b8b7 f53c d01f b73c 38e3 5a3d
000002c0: 3087 db3d 2063 f8bc 750f 2dbe 6888 f73c
000002d0: d857 443e 904b dcbd caa0 debd 0dd4 a8bd
000002e0: 48d3 c63d bcdc 2fbd c635 503e 1833 4a3e
000002f0: 3fda a9bd 346a 073d c7a2 a4bd 80eb 8b3d
00000300: e81d e33c bc1a 27bd 36e5 19be e4d5 363d
00000310: f712 d8bd 5cf0 2b3e bcb8 62bd 44d4 1d3d
00000320: 4071 39be 2423 14be 885e da3d 8276 40be
00000330: 4861 a3bc 1c11 0cbe d891 89bc 5681 39be
00000340: d0dd 15be c803 893d 7054 bdbd e02f ca3d
00000350: 6918 d5bd 1031 383c 6a9d 80bd 48a1 ab3d
00000360: 1c9a e53d 3810 3cbe d4bf 2ebd bc50 b93d
00000370: acb3 333e ea8f b8bd 4466 50bd c53f f0bd
00000380: 8065 033e 066e 453e ae3b a0bd f4fa 73bd
00000390: 80af 763d b06d ddbc d1c3 15be b493 283d
000003a0: a01e 7f3d 7328 cbbd 99bd 15be 94af 823d
000003b0: 6832 fbbd 7c79 013e 1842 09be dc91 4c3e
000003c0: 195a 43be b8df a23d 08cf 7a3d a0cd 56bc
000003d0: 0859 a83d 4c22 b33d 0cbd d6bd 30d1 18bd
000003e0: 223c 213e d870 79bd 4787 afbd 505f 10be
000003f0: 1c12 203e 267f 213e d46e 2fbd 7aaf abbd
0.15849751 0.17322779 -0.19187182 0.15222105 0.1510995 0.1811085 -0.1258786 0.094454974
-0.058758378 0.03313288 -0.13721074 0.08120164 0.06371871 0.19088426 0.1641024 0.04966095
0.1144318 -0.16456653 0.0389473 -0.17147563 0.010316357 0.17867854 0.14200687 -0.16406606
-0.047315404 -0.06250301 0.10680786 0.03276038 0.106264144 -0.15169097 0.07201916 0.09918675
-0.021717012 -0.05806634 0.17989415 -0.14441438 -0.048344895 -0.12820593 0.13392007 -0.01234749
-0.012264058 0.19423366 -0.07116881 0.067260146 0.10418621 0.015106142 -0.10067597 -0.053001
-0.06881982 -0.08201252 0.025990024 0.082437426 -0.16788523 -0.00033470988 -0.07706939 0.08583218
-0.08544233 -0.008178785 0.15004879 -0.122957684 -0.14262536 0.13802081 -0.022339955 0.030307278
-0.03127387 0.052425116 0.0398176 0.03901854 -0.08239008 -0.17324531 -0.06564343 -0.18889453
0.19128993 -0.06855069 -0.011293516 -0.16331515 -0.18291941 0.20261332 -0.011195093 0.11502525
0.02602227 0.12641442 0.04735613 -0.19471511 -0.17636842 0.13135421 0.14358419 -0.10239477
0.18226665 -0.05732268 -0.08351511 -0.08607767 -0.07370794 -0.06414831 -0.19717804 0.047275156
0.15548468 0.11932117 -0.19440748 -0.18075205 -0.17569694 0.12400633 -0.035943583 -0.1898512
0.07523802 0.099541545 0.16696262 0.033086747 0.10367641 -0.06252445 -0.1812222 -0.170846
0.019128859 0.023864105 -0.044267207 0.117703676 0.17464119 -0.016947508 0.067153245 0.09101376
-0.04656385 0.1922862 -0.116385356 -0.16130161 -0.004235074 0.18479192 -0.05176717 -0.025564283
-0.11800553 0.05599007 0.15117371 -0.008935913 0.18698817 0.11060974 -0.11664899 0.16408834
0.03954369 -0.15054491 0.16501406 0.07532278 0.09159014 0.09406686 -0.06878461 -0.1905604
-0.18811996 0.0010698885 -0.052261144 0.16064656 0.1960522 0.16201201 0.1961677 -0.10207419
0.12513548 0.13558653 0.11678797 -0.16723944 0.12823665 0.18086424 -0.190426 0.09927222
0.023457348 0.047794014 0.12491053 0.17472598 0.18046507 0.12530386 -0.19459274 -0.12902176
0.01580444 -0.17033663 0.07675284 0.15073922 -0.15184966 0.02999483 0.022354037 0.05343935
0.10719144 -0.030320704 -0.16900428 0.03021641 0.19174135 -0.107566 -0.10870512 -0.082435705
0.097082675 -0.042935118 0.20333013 0.19746053 -0.0829358 0.033060268 -0.0803886 0.068320274
0.027724221 -0.04079698 -0.15028843 0.044637576 -0.10550492 0.16790909 -0.055351958 0.03853251
-0.18109608 -0.1446653 0.10662562 -0.18795207 -0.019943848 -0.13678402 -0.016793177 -0.18115744
-0.14635396 0.06690174 -0.09244621 0.09872413 -0.104050465 0.011242166 -0.06280024 0.08380371
0.11211035 -0.18365562 -0.04266341 0.09048602 0.17549008 -0.090118244 -0.050878778 -0.11730913
0.12831688 0.19280252 -0.07823883 -0.0595655 0.060225964 -0.027029842 -0.1462548 0.041156486
0.062285066 -0.099198245 -0.14623107 0.06381145 -0.122654736 0.12643999 -0.13404119 0.19977516
-0.19077338 0.07952827 0.061232597 -0.013110548 0.08220106 0.08746776 -0.104852766 -0.03730887
0.15745595 -0.06089863 -0.08570724 -0.14098859 0.15631908 0.1577116 -0.042830303 -0.08383079

linear3.bias f4 [48]
00000000: 90f7 a0bd 4854 633d dc13 6abd b033 57bc
00000010: a4ab 163e 482e 41be b623 203e 9c22 483e
00000020: 3e64 19be 4028 82bb 5047 c13d 751e 13be
00000030: 703e b6bd 8ffd f3bd 30c0 6abc aa1a 0d3e
00000040: 7283 12be 0e8b 2abe d842 d0bd 0293 48be
00000050: b017 e93d 587e d13c 403c 7cbd a667 2e3e
00000060: 4c24 2b3e 5462 0cbd ca09 423e 6366 35be
00000070: f036 e93d 52f9 053e 309c 02be c0d0 dcbb
00000080: 68c3 bd3d 7e68 37be 40c9 553b 74d7 9cbd
00000090: 4284 10be a2e7 103e 5841 eb3d 5cc9 263d
000000a0: 005e f03c a4f3 41bd 6eab 0b3e 3a53 3bbe
000000b0: 198c ecbd 9e28 093e 4420 12be eaf3 3abe
-0.07859719 0.0555003 -0.057147846 -0.013134882 0.14713913 -0.18865311 0.15638623 0.19544452
-0.14979646 -0.0039720833 0.0943743 -0.14367087 -0.08898628 -0.11913597 -0.014328048 0.13779703
-0.14307955 -0.16654608 -0.101689994 -0.19587329 0.11381471 0.02557294 -0.061580896 0.17031726
0.16713065 -0.03427346 0.18949047 -0.17714839 0.113874316 0.1308339 -0.12754893 -0.006738752
0.092657864 -0.17910954 0.0032621175 -0.07658282 -0.14112952 0.14150861 0.11487073 0.040719375
0.029341698 -0.047351494 0.13639614 -0.18293467 -0.11550159 0.133944 -0.14270121 -0.18257108
