epoch_100_model/건조model.pth (torch, 201120 bytes, 18 tensors)

linear1.weight f4 [24, 48]
0.16493449 0.15856473 -0.2545679 0.15735786 0.13432391 0.11034271 -0.07000698 0.17912553
0.2336575 0.040974878 -0.025333157 0.21949272 0.0035747983 -0.12477756 0.10154494 0.02743691
0.09337694 0.28887376 -0.11864225 0.10214003 0.2769052 0.32391042 -0.25275877 0.032537885
0.06538245 0.07143481 -0.15414512 0.009448366 0.25009707 0.029762866 -0.14591224 0.06415751
0.21271825 0.11956444 0.057706326 0.14202894 0.16661803 0.2656298 -0.058626264 0.028626328
0.28190205 0.2727725 -0.025305599 0.06731663 0.27659172 0.15582965 -0.06683101 0.22214481
0.20126328 0.21767646 -0.28127077 -0.08054974 0.2557936 0.11176945 -0.16550383 -0.06682233
0.20213881 0.017749269 -0.023134427 0.18018857 -0.028694427 0.11438803 0.12070142 0.18967268
0.19783163 0.100194305 -0.13329269 0.07247949 0.20639881 0.2612614 -0.19305359 -0.104395755
0.09138196 0.08884694 -0.08075582 0.15394342 0.17826153 -0.0077839624 0.029202037 0.19205348
0.058250412 0.06086965 0.009227209 -0.06736404 0.22303213 0.30073562 -0.06357231 0.12127497
0.30253077 0.2752504 -0.010334691 -0.008471254 0.06553993 0.030363318 -0.052421786 -0.032961994
-0.120371915 0.016342979 -0.11652128 0.05139746 -0.0998091 0.10060715 0.07854005 -0.003057202
0.08922123 -0.020716326 0.08799821 -0.06263971 -0.025882315 0.08472291 -0.109077334 0.069773816
0.027924892 0.10404355 0.024998136 -0.017989798 -0.06421412 -0.091764435 -0.10604026 0.0152520025
0.023220502 0.08822827 -0.009713635 0.07340737 0.015815739 -0.10393061 -0.0027327188 -0.052323382
-0.057458926 0.071507595 0.011434681 -0.15628746 -0.15581697 -0.04146099 0.11090293 -0.06477654
0.07885242 0.013517902 -0.009078522 -0.10406978 -0.084904954 0.02295785 -0.11577746 0.032989442
0.31169668 0.1683819 -0.020427864 0.06006978 0.25120813 0.1270331 0.026444517 0.13581476
0.08269942 0.21721539 -0.06209173 -0.084649734 -0.005282716 -0.10889016 0.036574055 0.06398967
0.022081168 0.10454566 -0.05743643 0.010906495 0.17088239 0.30089104 -0.3812314 -0.025750365
0.0986686 -0.03692703 -0.12146882 -0.07060282 0.05628857 -0.0143252425 -0.036065165 0.060868863
0.12278065 0.06241589 -0.039358333 0.0495549 0.26227796 0.17188919 -0.2635107 -0.054158
0.13824466 0.1282982 -0.22741657 0.06369359 0.01855912 0.16961408 -0.04237366 0.092734784
0.14077681 0.13041349 -0.07579572 -0.17259625 0.06198931 0.20163888 -0.2252635 -0.01832102
0.17166801 -0.032957833 -0.057524275 -0.03660687 -0.03969878 -0.039773762 -0.078879975 0.15506366
0.20486802 0.18191062 -0.034631435 0.061917424 0.3929057 0.2063931 -0.22552834 -0.047393586
0.12810045 0.073123306 0.015386611 -0.106280036 -0.040606394 -0.047112327 -0.08871103 -0.051154736
-0.044777732 0.14674658 0.028883642 0.12433902 0.12749095 0.33937594 -0.16853079 -0.1532463
0.22530584 0.19692105 -0.14848979 -0.01137463 0.13112217 0.12850577 -0.14638557 -0.06731236
0.026153857 -0.06615724 -0.020671641 0.013222199 -0.07242818 -0.09532204 -0.12870169 -0.013455837
-0.13572699 -0.09250606 0.12310542 -0.13567717 -0.052318927 0.038119167 0.035401642 -0.035133194
00000000: 96e4 283e cb5e 223e b956 82be 6b22 213e
00000010: 358c 093e 5cfb e13d d25f 8fbd af6c 373e
00000020: e943 6f3e 46d5 273d 7b87 cfbc b3c2 603e
00000030: 2a47 6a3b 618b ffbd cbf6 cf3d 5fc3 e03c
00000040: 693c bf3d 43e7 933e b5fa f2bd cb2e d13d
00000050: 85c6 8d3e 96d7 a53e 9969 81be 7246 053d
00000060: 3ce7 853d 6a4c 923d 38d8 1dbe 52cd 1a3c
00000070: b90c 803e 41d1 f33c 056a 15be 0365 833d
00000080: d0d2 593e 33de f43d 785d 6c3d 0970 113e
00000090: eb9d 2a3e a100 883e 1822 70bd c381 ea3c
000000a0: 7755 903e d6a8 8b3e b04d cfbc 4ddd 893d
000000b0: 6e9d 8d3e cf91 1f3e b2de 88bd ee79 633e
000000c0: f617 4e3e 94e6 5e3e b902 90be 43f7 a4bd
000000d0: 61f7 823e 62e7 e43d d679 29be 25da 88bd
000000e0: 7afd 4e3e ea66 913c 6984 bdbc 5a83 383e
000000f0: 9310 ebbc 4544 ea3d 4e32 f73d 8e39 423e
00000100: 6094 4a3e ac32 cd3d e17d 08be 2070 943d
00000110: 365a 533e 0ec4 853e d7af 45be 71cd d5bd
00000120: 7726 bb3d 62f5 b53d 4f63 a5bd 58a3 1d3e
00000130: 318a 363e 9c10 ffbb 1c39 ef3c aba9 443e
00000140: fc97 6e3d 7452 793d b82d 173c 28f6 89bd
00000150: 8962 643e 05fa 993e 3332 82bd 035f f83d
00000160: 50e5 9a3e 9fed 8c3e d652 29bc 04cb 0abc
00000170: cc39 863d 7ebc f83c 3ab8 56bd 2803 07bd
00000180: 8d85 f6bd b6e1 853c b5a2 eebd 2586 523d
00000190: b768 ccbd 1f0b ce3d 9bd9 a03d 575b 48bb
000001a0: 9fb9 b63d 49b5 a9bc 6838 b43d 4049 80bd
000001b0: 2607 d4bc 3483 ad3d f063 dfbd 93e5 8e3d
000001c0: bec2 e43c c914 d53d e4c8 cc3c 575f 93bc
000001d0: b182 83bd feee bbbd a32b d9bd 89e3 793c
000001e0: ec38 be3c 06b1 b43d f025 1fbc 9a56 963d
000001f0: 0290 813c 92d9 d4bd 6a17 33bb 0b51 56bd
00000200: 0d5a 6bbd 9372 923d 8758 3b3c d209 20be
00000210: 7c8e 1fbe 00d3 29bd 1321 e33d 90a9 84bd
00000220: 617d a13d 317a 5d3c 15be 14bc 8922 d5bd
00000230: a6e2 adbd 1a12 bc3c bc1c edbd f01f 073d
00000240: b596 9f3e 4e6c 2c3e 5658 a7bc bb0b 763d
00000250: 5a9e 803e f714 023e 2ca2 d83c 0613 0b3e
00000260: 505e a93d b66d 5e3e e653 7ebd d75c adbd
00000270: a21a adbb ce01 dfbd adce 153d 040d 833d
00000280: 91e3 b43c 091c d63d 7642 6bbd 28b1 323c
00000290: cbfb 2e3e 640e 9a3e c330 c3be 6ef2 d2bc
000002a0: c312 ca3d cc40 17bd a5c4 f8bd 3698 90bd
000002b0: d88e 663d 6cb4 6abc 11b9 13bd a151 793d
000002c0: 6c74 fb3d cea7 7f3d 3436 21bd 14fa 4a3d
000002d0: 4c49 863e b803 303e e0ea 86be c7d4 5dbd
000002e0: 0290 0d3e 9a60 033e e4df 68be c971 823d
000002f0: 4c09 983c 50af 2d3e 0190 2dbd bceb bd3d
00000300: cc27 103e 1d8b 053e c93a 9bbd 12bd 30be
00000310: 81e8 7d3d 6c7a 4e3e 7aab 66be f715 96bc
00000320: bdc9 2f3e cbfe 06bd 939e 6bbd 16f1 15bd
00000330: 309b 22bd d0e9 22bd d38b a1bd 02c9 1e3e
00000340: ecc8 513e c746 3a3e b1d9 0dbd 209d 7d3d
00000350: f02a c93e b658 533e e7f0 66be c71f 42bd
00000360: c42c 033e acc1 953d 2018 7c3c 59a9 d9bd
00000370: e452 26bd dbf8 40bd 21ae b5bd a187 51bd
00000380: db68 37bd bc44 163e 639d ec3c 75a5 fe3d
00000390: fd8c 023e afc2 ad3e 5693 2cbe 99ec 1cbe
000003a0: 93b6 663e aca5 493e b50d 18be a85c 3abc
000003b0: e444 063e 0497 033e 19e6 15be 10db 89bd
000003c0: 9d40 d63c 727d 87bd 9357 a9bc eca1 583c
000003d0: 3a55 94bd 3438 c3bd 60ca 03be df75 5cbc
000003e0: 04fc 0abe d173 bdbd b21e fc3d f5ee 0abe
000003f0: 5f4c 56bd d822 1c3d 5001 113d d3e7 0fbd

linear1.bias f4 [24]
-0.031022945 -0.11302249 -0.019722123 0.09452948 0.09005298 0.11439544 -0.04082471 0.115394115
-0.14828278 -0.14174837 0.07023736 -0.0140559375 0.00024411082 -0.05669123 -0.09929209 0.08508973
-0.108201265 0.016205937 -0.092103146 0.03439331 -0.12791805 0.1443668 0.15243551 -0.14171372
00000000: d523 febc 5678 e7bd 4a90 a1bc ac98 c13d
00000010: b26d b83d 2848 ea3d d037 27bd c053 ec3d
00000020: 71d7 17be 7c26 11be 9bd8 8f3d e04a 66bc
00000030: 00f8 7f39 1035 68bd a759 cbbd 8643 ae3d
00000040: a098 ddbd 50c2 843c 93a0 bcbd 00e0 0c3d
00000050: f3fc 02be e4d4 133e 0e18 1c3e 671d 11be

linear2.weight f4 [12, 24]
0.13859 0.2322287 0.058103275 0.37835768 0.21335642 0.053477 0.18816721 -0.13949546
0.69067985 -0.014543176 0.60403824 -0.06277545 -0.09660088 -0.03772594 0.1614001 0.0369235
0.08083311 0.13020837 0.87510455 -0.15066332 0.25053978 0.31928924 0.38997802 -0.03329522
0.24087502 0.1641798 0.043798342 0.28122404 0.30952996 -0.08560292 -0.0716164 -0.15201193
-0.16951442 -0.124406844 0.04178869 0.08928248 -0.1056795 -0.09515346 0.2352408 -0.19594254
0.097756445 -0.064058825 -0.091010205 -0.061583128 0.07421661 -0.35508892 0.050787646 -0.0975119
0.46914297 0.31339678 0.19740829 0.31197053 0.26921472 -0.17548412 0.059716552 0.14976087
0.99877167 0.044650912 0.8633141 -0.02858013 0.05288011 -0.022796035 0.51734716 0.010742776
-0.1053233 -0.14810331 0.9591236 0.14126568 0.17609921 0.6995906 0.4837335 0.14882185
0.22808675 0.19682209 -0.1067984 0.08954863 0.28976133 0.15224084 0.05779031 -0.20208189
-0.025655003 0.15649381 0.16085702 -0.17600045 -0.021961883 0.06875163 0.23103988 0.017437816
-0.024606705 0.11721638 -0.07044511 -0.1313989 -0.1669394 -0.414655 0.051492453 0.16766238
0.09032357 -0.2109342 0.1364725 0.15039344 0.11477154 -0.19735275 0.14387733 0.1594139
0.12267116 -0.013762519 -0.16845432 -0.056982502 0.12937859 -0.009164244 -0.09305375 0.10422876
0.17920652 0.02196078 -0.10764076 -0.17915586 0.005889583 -0.0629881 -0.034642935 -0.12222308
-0.09680833 -0.12540951 -0.12508413 0.19620922 0.09668502 -0.007896602 0.127484 0.15409255
-0.018866122 0.13508534 -0.10584284 0.0049188435 0.13280058 -0.19442691 -0.12762085 0.16353628
-0.1789743 0.19479665 -0.1425029 0.15234837 -0.017685294 -0.08046021 0.00811778 -0.084483854
0.21674785 0.25378412 -0.047653764 0.21687976 0.18482701 0.045813605 0.15347332 -0.120835535
-0.021703387 0.16107213 0.012168832 0.10020143 0.17218494 0.1767084 0.11705906 -0.027954688
0.048539996 -0.1579568 -0.1036562 -0.10072417 0.17850477 -0.2353589 0.20908472 -0.060525585
-0.10200177 -0.08734519 -0.18928026 0.156982 -0.15547056 0.1178523 0.11527592 -0.010722846
-0.19629027 -0.062004983 -0.085855596 -0.17027962 -0.1324546 0.09237015 -0.029995093 0.17432958
0.05690095 -0.18405615 -0.18379718 -0.019633263 -0.12609202 0.15858084 -0.13608289 0.11106247
0.005438931 0.01552239 -0.09682888 -0.08064536 0.055758417 0.16066217 0.18370223 0.17903942
-0.19667006 -0.15173864 -0.09714987 -0.135897 -0.021590456 0.109544665 -0.1411651 -0.03803233
0.007323429 0.068603605 0.054279547 0.09018388 0.050840024 0.087619826 -0.055372987 0.005575365
-0.060870763 -0.019500928 0.17913848 -0.11974575 -0.1696878 -0.18508811 0.18476632 0.09968677
0.012800241 -0.008627027 -0.102457084 -0.20216945 -0.037219197 -0.15307352 0.14852308 -0.09865135
0.08250156 -0.17477915 -0.14173102 0.054463327 -0.21003427 0.11085226 0.062750496 -0.013909563
-0.11422921 -0.056500137 0.18029627 0.025217772 -0.0562526 -0.141758 0.03360507 -0.06478837
-0.19550109 0.114566 -0.072619006 0.1338065 0.00760825 0.018853635 0.09476775 1.1265278e-05
00000000: 89ea 0d3e 5ccd 6d3e b3fd 6d3d 19b8 c13e
00000010: 1b7a 5a3e b30a 5b3d e8ae 403e e6d7 0ebe
00000020: 65d0 303f 8046 6ebc 40a2 1a3f 6a90 80bd
00000030: afd6 c5bd 8486 1abd 1146 253e 193d 173d
00000040: d48b a53d 5855 053e da06 603f 7c47 1abe
00000050: c046 803e e179 a33e 33ab c73e 9260 08bd
00000060: f1a7 763e c01e 283e e465 333d 99fc 8f3e
00000070: b67a 9e3e 9550 afbd 9eab 92bd 04a9 1bbe
00000080: 3095 2dbe 04c9 febd 9e2a 2b3d bcd9 b63d
00000090: 7e6e d8bd d1df c2bd f7e2 703e 29a5 48be
000000a0: 8834 c83d 4631 83bd 8f63 babd 973e 7cbd
000000b0: e1fe 973d 37ce b5be b506 503d 52b4 c7bd
000000c0: 8233 f03e 8b75 a03e 6625 4a3e 9aba 9f3e
000000d0: 83d6 893e 1cb2 33be 5899 743d ea5a 193e
000000e0: 80af 7f3f e0e3 363d 2702 5d3f e020 eabc
000000f0: d098 583d c0be babc dd70 043f 7802 303c
00000100: beb3 d7bd 65a8 17be 2089 753f f3a7 103e
00000110: 5a53 343e 5f18 333f ebab f73e c164 183e
00000120: 938f 693e bb8b 493e 1fb9 dabd 4665 b73d
00000130: 995b 943e 06e5 1b3e 88b5 6c3d 8eee 4ebe
00000140: 712a d2bc ea3f 203e b4b7 243e 7639 34be
00000150: 68e9 b3bc a8cd 8c3d b895 6c3e c0d9 8e3c
00000160: 0094 c9bc 240f f03d 8745 90bd 6f8d 06be
00000170: 29f2 2abe a94d d4be c0e9 523d b0af 2b3e
00000180: 90fb b83d 23ff 57be 72bf 0b3e bd00 1a3e
00000190: 570d eb3d d716 4abe 9454 133e 663d 233e
000001a0: 043b fb3d 307c 61bc 4a7f 2cbe 7c66 69bd
000001b0: d27b 043e a025 16bc f792 bebd e375 d53d
000001c0: ea81 373e 18e7 b33c c272 dcbd a274 37be
000001d0: 67fd c03b e8ff 80bd c0e5 0dbd 1850 fabd
000001e0: 7243 c6bd 5a6b 00be 0e16 00be 12eb 483e
000001f0: cc02 c63d c060 01bc 2a8b 023e 70ca 1d3e
00000200: 208d 9abc d053 0a3e 22c4 d8bd 402e a13b
00000210: e0fc 073e d917 47be 0aaf 02be 0e76 273e
00000220: 0a45 37be c678 473e 48ec 11be 3601 1c3e
00000230: c0e0 90bc 53c8 a4bd 7000 053c df05 adbd
00000240: 26f3 5d3e feef 813e 9830 43bd ba15 5e3e
00000250: 4b43 3d3e 0ca7 3b3d 1c28 1d3e 9f78 f7bd
00000260: 4dcb b1bc 18f0 243e c85f 473c 6836 cd3d
00000270: 4051 303e 0cf3 343e a9bc ef3d 3b01 e5bc
00000280: e0d1 463d 6dbf 21be b449 d4bd 7948 cebd
00000290: f4c9 363e ec01 71be 4e1a 563e ade9 77bd
000002a0: 4ee6 d0bd 09e2 b2bd afd2 41be e4bf 203e
000002b0: ad33 1fbe 8c5c f13d c815 ec3d e0ae 2fbc
000002c0: 5100 49be f0f8 7dbd 0fd5 afbd c85d 2ebe
000002d0: 2ea2 07be 902c bd3d 45b8 f5bc 7483 323e
000002e0: f810 693d 3779 3cbe 5435 3cbe f0d5 a0bc
000002f0: 441e 01be 0463 223e 5059 0bbe b874 e33d
00000300: 0f39 b23b 9f51 7e3c 384e c6bd 6529 a5bd
00000310: f062 643d a084 243e 701c 3c3e 1c56 373e
00000320: e063 49be 6061 1bbe 83f6 c6bd 9528 0bbe
00000330: 78de b0bc f458 e03d 958d 10be cac7 1bbd
00000340: 60f9 ef3b 0c80 8c3d 3b54 5e3d 53b2 b83d
00000350: a13d 503d 0672 b33d c9ce 62bd 8db1 b63b
00000360: 9f53 79bd 69c0 9fbc 1470 373e 433d f5bd
00000370: a3c2 2dbe bd87 3dbe 6233 3d3e 9428 cc3d
00000380: 1ab8 513c 6058 0dbc 05d5 d1bd 8205 4fbe
00000390: 2873 18bd 4ebf 1cbe 6f16 183e b809 cabd
000003a0: 94f6 a83d 4ef9 32be f021 11be f014 5f3d
000003b0: 3913 57be 8206 e33d 5583 803d f0e4 63bc
000003c0: 01f1 e9bd b06c 67bd 969f 383e 8095 ce3c
000003d0: 2069 66bd 0229 11be 78a5 093d c4af 84bd
000003e0: 7031 48be 94a1 ea3d 46b9 94bd 9204 093e
000003f0: a04e f93b f072 9a3c 9815 c23d 0000 3d37

linear2.bias f4 [12]
-0.025890237 0.2001287 -0.030319441 -0.13304114 0.027437624 -0.19355358 0.13714269 0.10804792
-0.03168475 -0.20669472 -0.14605042 -0.0007893448
00000000: c317 d4bc 8aee 4c3e 7a60 f8bc f03b 08be
00000010: dec4 e03c e932 46be 226f 0c3e 3a48 dd3d
00000020: dec7 01bd c8a7 53be 3e8e 15be 08ec 4eba

linear3.weight f4 [1200, 12]
-0.0055238116 0.008158226 -0.1603494 -0.11799707 0.09091828 -0.22621411 0.005554375 -0.16697559
0.02566022 -0.16386428 0.062300086 0.2004637 -0.2154188 0.14725938 0.013909413 -0.0018484745
-0.19093189 -0.21286531 0.11913263 -0.1519469 0.18752386 0.08980143 0.018962353 0.2841321
-0.04413636 0.081661254 -0.17352 -0.027239442 -0.13182838 -0.27123213 0.22564197 0.02549979
0.008706868 -0.024921298 0.19944578 0.16555649 0.14228894 0.026142824 -0.12741952 -0.20150262
0.16422708 -0.14076975 -0.27688926 -0.21826407 0.24035038 -0.038910773 -0.12873885 0.06597495
-0.2687325 0.25870374 0.062375024 0.21156777 -0.08267496 0.0037787855 0.05000909 0.00392583
0.17200407 0.2748016 0.042168528 -0.013529135 0.097700536 -0.012278408 -0.21231677 -0.07898089
0.09547877 -0.060314998 -0.038161933 -0.1786237 0.004858285 -0.05176449 0.10939795 -0.15966931
0.008509936 -0.21768299 0.27933225 0.12250606 0.22023617 -0.10784441 0.38506708 -0.08799401
0.13098496 -0.125251 -0.015523374 -0.21999444 0.10793819 0.2128706 0.08406256 0.16464128
-0.10454244 0.14742956 0.16714673 -0.09583578 0.06866222 0.120523684 -0.15429173 -0.3387653
0.029500535 -0.29455498 0.07271884 0.07406927 -0.24098898 -0.0049760044 -0.3122389 0.28354016
0.17940451 0.0028703746 -0.141458 0.1959061 0.32088298 0.0034348255 0.012223967 0.13824998
-0.1323771 -0.20627269 0.110748954 0.08074054 -0.062424727 0.15466276 -0.17123106 0.27703464
-0.018782318 -0.2272625 0.015739739 0.15512621 -0.17592792 -0.081413224 0.013545483 0.2751342
0.2133891 0.10203475 0.070730925 0.12271619 -0.29999515 0.15874112 0.117925465 -0.06464208
0.17886217 0.07724279 0.18035917 -0.18142027 -0.21007662 0.060660876 0.19011903 -0.091681354
0.099350154 0.16366419 0.3477858 -0.18391196 -0.22000052 -0.0011085868 -0.39358783 0.25419214
-0.08196384 0.2429625 0.0886887 -0.18962592 -0.119283184 0.10239065 -0.070358574 -0.06764822
0.1973142 -0.2603203 -0.21909669 -0.21446168 0.028028607 -0.17553686 -0.03169325 0.19376048
0.121897966 0.17224967 -0.28864557 0.090106994 -0.15703987 0.09322953 -0.19125396 0.06790987
-0.10037051 -0.11594711 -0.129883 0.07707745 0.08481184 -0.4223842 0.30665594 -0.12633413
-0.06307207 -0.18416151 -0.5032148 0.23886146 -0.0911843 0.2771176 -0.009584814 -0.10267172
-0.1280416 -0.16565444 -0.2239958 -0.2194949 0.11818479 0.1660868 -0.25112796 -0.034024432
-0.15162358 -0.22429657 -0.12782384 0.17029536 0.12109188 0.30267352 -0.013069089 0.0021377783
-0.09118527 0.23326069 0.24405406 -0.10060018 -0.05934085 0.09567678 0.05891022 0.49523616
-0.11574864 0.12448334 0.011803377 -0.33636752 0.26156813 0.15428206 0.04857133 0.048032567
-0.025409326 -0.17595695 -0.17576942 0.05125416 -0.18357496 -0.16195355 -0.034783117 -0.19928505
0.037309326 0.018186837 -0.19004169 0.058603365 0.19766314 -0.065208666 -0.0246782 -0.10727689
-0.23977798 0.21393242 0.0413636 0.15531546 0.10615917 -0.20063767 -0.122902624 -0.2952037
0.045006175 -0.2547734 0.16182357 0.37351772 0.048265044 -0.14242831 0.1269427 -0.18699317
00000000: 1701 b5bb 14aa 053c a232 24be 73a8 f1bd
00000010: 5d33 ba3d aca4 67be 7901 b63b a6fb 2abe
00000020: 6235 d23c 0acc 27be 602e 7f3d 5b46 4d3e
00000030: bf96 5cbe 2acb 163e 4ee4 633c 8348 f2ba
00000040: a683 43be 5df9 59be cffb f33d f897 1bbe
00000050: 4106 403e d0e9 b73d f056 9b3c c379 913e
00000060: 54c8 34bd 043e a73d 3aaf 31be 4025 dfbc
00000070: 05fe 06be f0de 8abe b00e 673e f0e4 d03c
00000080: 40a7 0e3c c027 ccbc 843b 4c3e a487 293e
00000090: 31b4 113e 7a29 d63c 437a 02be b456 4ebe
000000a0: 252b 283e f225 10be 6ec4 8dbe 9e80 5fbe
000000b0: 691e 763e e760 1fbd 1ed4 03be e01d 873d
000000c0: 4e97 89be d174 843e f47c 7f3d 39a5 583e
000000d0: 7d51 a9bd 80a5 773b 55d6 4c3d 40a4 803b
000000e0: d621 303e ccb2 8c3e e8b8 2c3d 4ea9 5dbc
000000f0: 3817 c83d 602b 49bc 9169 59be bcc0 a1bd
00000100: 608a c33d dc0c 77bd b04f 1cbd 22e9 36be
00000110: 4032 9f3b 0007 54bd 080c e03d 5a80 23be
00000120: 426d 0b3c 4ae8 5ebe a304 8f3e 75e4 fa3d
00000130: 9785 613e 88dd dcbd 8327 c53e 3436 b4bd
00000140: ec20 063e cc41 00be c055 7ebc 3946 61be
00000150: b30e dd3d c0fa 593e fe28 ac3d b997 283e
00000160: 591a d6bd c6f7 163e 8328 2b3e 8d45 c4bd
00000170: c79e 8c3d 1fd5 f63d a7fe 1dbe a572 adbe
00000180: 1bab f13c e9cf 96be 9ded 943d a1b1 973d
00000190: d1c5 76be c00d a3bb c7dd 9fbe 2d2c 913e
000001a0: d1b5 373e e51c 3c3b 5eda 10be 9c9b 483e
000001b0: c64a a43e cf1a 613b 0947 483c 6791 0d3e
000001c0: dd8d 07be 2639 53be 59d0 e23d 4c5b a53d
000001d0: 12b1 7fbd ea5f 1e3e 3257 2fbe 7cd7 8d3e
000001e0: 60dd 99bc 80b7 68be a0f0 803c 68d9 1e3e
000001f0: 7326 34be fabb a6bd e0ed 5d3c 64de 8c3e
00000200: ac82 5a3e 98f7 d03d 60db 903d a052 fb3d
00000210: f798 99be 088d 223e e882 f13d 1163 84bd
00000220: a527 373e 7831 9e3d 13b0 383e 3cc6 39be
00000230: 531e 57be 8a77 783d 90ae 423e 6fc3 bbbd
00000240: 1878 cb3d 9697 273e fb10 b23e 6b53 3cbe
00000250: d147 61be 004e 91ba 5884 c9be 7925 823e
00000260: a8dc a7bd 29cb 783e 6ca2 b53d 4c2d 42be
00000270: be4a f4bd 30b2 d13d 2818 90bd 268b 8abd
00000280: bc0c 4a3e b448 85be e25a 60be d89b 5bbe
00000290: 409c e53c efbf 33be c8d0 01bd 2669 463e
000002a0: a4a5 f93d 3862 303e 5ac9 93be 048a b83d
000002b0: 0fcf 20be 20ef be3d 14d8 43be 5414 8b3d
000002c0: 0e8f cdbd ae75 edbd 0d00 05be c8da 9d3d
000002d0: d4b1 ad3d be42 d8be 0202 9d3e bc5d 01be
000002e0: ee2b 81bd d694 3cbe afd2 00bf 1998 743e
000002f0: d6be babd 5ce2 8d3e a009 1dbc 8d45 d2bd
00000300: 561d 03be 51a1 29be 285f 65be 45c3 60be
00000310: de0a f23d a812 2a3e d893 80be 345d 0bbd
00000320: 3643 1bbe 00ae 65be 41e4 02be e861 2e3e
00000330: 05ff f73d 06f8 9a3e bb1f 56bc f819 0c3b
00000340: 58bf babd e4db 6e3e 4fe9 793e 7807 cebd
00000350: 640f 73bd 30f2 c33d d84b 713d 988f fd3e
00000360: 9f0d edbd 1ff1 fe3d f462 413c 5d38 acbe
00000370: 42ec 853e 1efc 1d3e bbf2 463d ccbd 443d
00000380: 3827 d0bc 0f2e 34be e6fc 33be e2ef 513d
00000390: 13fb 3bbe 27d7 25be be78 0ebd 6111 4cbe
000003a0: aad1 183d 90fc 943c 4a9a 42be 150a 703d
000003b0: 3568 4a3e 1f8c 85bd f029 cabc fcb3 dbbd
000003c0: 5c88 75be 1a11 5b3e e16c 293d 040b 1f3e
000003d0: fb69 d93d f673 4dbe 5fb4 fbbd f024 97be
000003e0: 6558 383d a971 82be 14b5 253e b73d bf3e
000003f0: 91b1 453d bad8 11be 44fd 013e 237b 3fbe

linear3.bias f4 [1200]
0.1741048 0.0342515 -0.22124234 0.20989348 -0.2658261 -0.059293866 -0.27347884 -0.20260139
-0.018496435 -0.28729483 -0.1725638 0.14101581 -0.42799586 -0.026273757 -0.014411807 -0.07527554
0.15777873 -0.31252912 0.3069839 0.2406532 0.043600567 0.30579406 0.16116196 0.19549987
-0.24021335 0.08460791 -0.06747546 -0.30911168 0.0105548855 -0.2867358 0.01620883 0.2178035
0.030650211 0.24478814 -0.059823535 0.057449505 -0.0050484417 0.28569213 -0.18722752 -0.005353699
0.056377344 -0.116487876 -0.0983614 -0.0919761 -0.27145237 -0.108036 -0.025573302 -0.19227344
-0.12174138 -0.2845529 -0.12064212 -0.37222844 -0.0887613 -0.13743602 -0.25237066 -0.026096135
-0.270791 -0.38638547 0.40641612 -0.104592405 -0.031864464 -0.18557665 0.19668438 0.03091426
0.2976492 -0.084119156 -0.06333159 -0.4049429 0.18204905 -0.24053055 0.24814667 -0.0011195993
-0.17537536 0.2523819 -0.13142408 -0.08078634 0.28144857 -0.21352893 0.52954865 -0.20549996
-0.0844971 0.42941058 -0.23126327 -0.15166508 0.024399292 -0.11608343 -0.10700814 -0.10004349
-0.27963695 0.02147429 0.20370404 -0.07154563 0.15756406 -0.21832938 -0.04174713 -0.22142132
0.1864668 0.19183722 -0.33593062 0.245989 -0.2725972 0.1305925 -0.45228368 -0.1616054
-0.06826672 -0.17938536 -0.24896786 0.07135027 -0.20019582 0.079479404 0.030684918 0.27013588
-0.09070188 -0.2210194 -0.4205598 0.14537495 0.10318857 -0.15035136 -0.29507002 -0.17914432
0.022836437 -0.033483587 -0.24464095 -0.02157263 -0.13769814 -0.07172839 -0.18584964 -0.24530838
-0.2876652 -0.062252507 -0.1485012 0.5295309 0.09231672 0.13127792 0.1399759 -0.153467
0.35975364 0.026109308 -0.27930582 -0.31011027 0.0074686706 0.058918584 -0.2986236 0.033211388
-0.1015548 0.14091611 0.19233723 -0.14884368 -0.1005092 -0.25093105 -0.26330456 -0.038305927
0.54027814 0.15076521 0.24330828 0.2761429 0.17873709 -0.2770317 -0.1314489 0.014492075
-0.05392747 -0.21435331 -0.24311666 -0.17710043 -0.16371845 -0.11469968 -0.1571759 -0.21596673
0.14756398 -0.19279885 -0.116012044 0.26451975 0.14320458 0.074930206 0.50947934 -0.45729825
-0.11971241 -0.24996124 -0.31283402 0.108886026 -0.05317968 -0.08576136 0.15023139 0.11661759
-0.18422511 0.114114024 0.2815955 -0.13157298 0.08477824 0.2291728 -0.14094965 -0.2297308
0.004927036 -0.04353234 0.12598993 0.22223352 0.2090268 0.072019204 0.2750344 -0.10435696
-0.08005925 0.064183995 0.30020112 -0.124828726 -0.36366686 0.09672373 0.09375459 0.123177335
0.0736337 -0.20039998 -0.083371684 0.13382316 -0.12181996 0.116096206 0.0054614036 -0.14418718
0.121132106 0.3871355 0.015982078 -0.26921433 -0.12490248 -0.15925436 -0.198723 -0.1995465
-0.7268721 0.19360691 -0.0867486 0.09905041 -0.26946828 -0.2323208 -0.512704 0.5002103
0.07346067 0.103321485 -0.30895245 -0.15859506 -0.073438585 0.15543668 -0.109097496 -0.08774902
-0.118786365 0.25129908 -0.45484316 0.5130215 -0.009119558 0.25749594 0.19220346 -0.2662723
-0.07220821 -0.19106558 0.39231995 0.09554504 0.27597448 0.15641662 0.61459625 0.14536694
00000000: 8748 323e 4d4b 0c3d 5a8d 62be 51ee 563e
00000010: 5c1a 88be 20de 72bd 6b05 8cbe bd76 4fbe
00000020: d685 97bc 4f18 93be 91b4 30be 7366 103e
00000030: 4622 dbbe 103c d7bc 801f 6cbc 102a 9abd
00000040: bf90 213e d103 a0be fe2c 9d3e cb6d 763e
00000050: 8296 323d 0a91 9c3e a407 253e 1e31 483e
00000060: 7dfa 75be e946 ad3d 9330 8abd e343 9ebe
00000070: 66ee 2c3c 09cf 92be 61c8 843c e107 5f3e
00000080: 2716 fb3c bea9 7a3e 8609 75bd 2c50 6b3d
00000090: 666d a5bb 3d46 923e 92b8 3fbe 156e afbb
000000a0: eeeb 663d 3291 eebd b471 c9bd f75d bcbd
000000b0: cefb 8abe fa41 ddbd 1a7f d1bc 54e3 44be
000000c0: 8b53 f9bd ebb0 91be 3713 f7bd ba94 bebe
000000d0: 7cc8 b5bd 07bc 0cbe ba36 81be 90c7 d5bc
000000e0: 1ea5 8abe 51d4 c5be c615 d03e 8b34 d6bd
000000f0: 5084 02bd ce07 3ebe a167 493e e73f fd3c
00000100: 7a65 983e aa46 acbd feb3 81bd ad54 cfbe
00000110: 116b 3a3e a44d 76be 291a 7e3e 85bf 92ba
00000120: 9995 33be 3338 813e 0994 06be 4f73 a5bd
00000130: 071a 903e 54a7 5abe 8090 073f 956e 52be
00000140: d10c adbd b4db db3e 47d0 6cbe 174e 1bbe
00000150: 06e1 c73c 26bd edbd 1527 dbbd 9ae3 ccbd
00000160: 932c 8fbe daea af3c cb97 503e 8486 92bd
00000170: 7958 213e bd91 5fbe 0aff 2abd 45bc 62be
00000180: 27f1 3e3e fa70 443e 19ff abbe 8ae4 7b3e
00000190: dc91 8bbe 0aba 053e ba91 e7be e37b 25be
000001a0: 6ccf 8bbd ccb0 37be 6ef1 7ebe 1720 923d
000001b0: 2200 4dbe 19c6 a23d f05e fb3c 404f 8a3e
000001c0: e8c1 b9bd e952 62be 9d53 d7be 2cdd 143e
000001d0: 8754 d33d b5f5 19be 6b13 97be 9c71 37be
000001e0: 7b13 bb3c 1626 09bd 2883 7abe 16b9 b0bc
000001f0: be00 0dbe 56e6 92bd 5e4f 3ebe 1f32 7bbe
00000200: da48 93be 7cfc 7ebd b310 18be 568f 073f
00000210: 8c10 bd3d b86d 063e d855 0f3e 7426 1dbe
00000220: a131 b83e 30e3 d53c 2c01 8fbe c6c6 9ebe
00000230: c0bb f43b 9d54 713d 31e5 98be aa08 083d
00000240: f7fb cfbd 504c 103e 0df4 443e 7a6a 18be
00000250: c4d7 cdbd 097a 80be dbcf 86be ade6 1cbd
00000260: ab4f 0a3f 3262 1a3e ce25 793e 9a62 8d3e
00000270: db06 373e 19d7 8dbe 8a9a 06be 2b70 6d3c
00000280: 0de3 5cbd 6f7f 5bbe 93f3 78be d159 35be
00000290: cfa5 27be aae7 eabd b8f2 20be 6226 5dbe
000002a0: 031b 173e 106d 45be b997 edbd 226f 873e
000002b0: 39a4 123e 0275 993d 3d6d 023f ff22 eabe
000002c0: c82b f5bd d7f5 7fbe c82b a0be a3ff de3d
000002d0: f0d2 59bd a7a3 afbd 42d6 193e 34d5 ee3d
000002e0: 82a5 3cbe 9db4 e93d 492d 903e 11bb 06be
000002f0: 37a0 ad3d 46ac 6a3e 1b55 10be 8d3e 6bbe
00000300: f972 a13b f84e 32bd 8103 013e 2f91 633e
00000310: 1f0b 563e ce7e 933d 4fd1 8c3e 1ab9 d5bd
00000320: 1bf6 a3bd e672 833d f6b3 993e 34a6 ffbd
00000330: 8b32 babe 1717 c63d 6802 c03d 6644 fc3d
00000340: 44cd 963d a735 4dbe c6be aabd f008 093e
00000350: be7c f9bd d9c3 ed3d 93f5 b23b cea5 13be
00000360: 1c14 f83d a036 c63e d9ec 823c 76d6 89be
00000370: dfcc ffbd 9313 23be 0b7e 4bbe eb55 4cbe
00000380: 4a14 3abf e440 463e 40a9 b1bd f1da ca3d
00000390: bff7 89be 81e5 6dbe 9240 03bf c80d 003f
000003a0: 8c72 963d 379a d33d 042f 9ebe be66 22be
000003b0: f866 96bd cb2a 1f3e 826e dfbd c2b5 b3bd
000003c0: 4446 f3bd 46aa 803e 34e1 e8be 6155 033f
000003d0: 336a 15bc 82d6 833e fcd0 443e d854 88be
000003e0: e6e1 93bd b2a6 43be 29de c83e 1ead c33d
000003f0: 874c 8d3e ae2b 203e 2e56 1d3f 12db 143e

linear1.weight f4 [12, 1200]
-0.03133024 0.014076151 -0.0063824207 -0.02039148 -0.015724294 -0.01585003 0.007948972 0.017584732
0.023901269 -0.019958384 -0.00936763 0.028883457 -0.019204408 -0.02073457 -0.02013411 -0.018137645
-0.018286616 0.015620507 -0.018879188 -0.022222329 0.011329297 -0.0162114 -0.012978382 0.012696811
-0.027898775 0.012323105 0.0032370053 -0.0013656113 0.010043142 0.017402224 0.004503403 -0.0036027243
0.019988973 0.022229502 0.005049873 -0.011135815 -0.023851449 0.020158947 -0.024603236 0.014385988
0.012130529 0.02721541 0.018463802 -0.011119186 -0.01927755 -0.0082252305 -0.0343011 -0.0071083102
-0.022789598 -0.020818911 0.016277067 -0.019895347 0.004321523 0.02565568 0.014907461 -0.012346733
-0.024415165 0.015278574 0.02085867 0.0020783935 -0.008576293 -0.0106296465 -0.009712134 -0.019040361
0.007966905 -0.027696546 -0.0010943674 0.0052814484 -0.014057678 -0.0041668704 -0.011047734 0.007418657
0.01980066 -0.006080714 -0.015567712 -0.029638868 -0.014851384 -0.012893366 -0.009067687 -0.0067841783
0.011962488 -0.01736296 0.02810334 -0.016771793 0.007746417 -0.014359261 0.020044662 -0.0025262572
-0.010555012 0.016279487 -0.004319262 0.00014599971 -0.024653971 -0.018172644 0.018312007 -0.02668911
0.014625477 0.0066861296 0.01556107 -0.033679258 0.0043902993 0.01889243 0.01166347 0.014113676
0.011207253 -0.026382852 0.014288988 -0.008042377 -0.013265923 -0.011511908 0.0038558356 -0.023418467
-0.028099658 0.01711787 0.0072569177 0.009236828 -0.03276485 -0.013083205 0.0136756785 -0.01604788
-0.005296894 -0.0045220084 -0.0069899503 0.003495302 0.014944799 0.0025611608 0.008146029 0.0092333965
0.020661257 0.008954816 0.028533772 0.0009846649 -0.027195495 0.017916791 -0.011050802 0.02483577
0.008273534 -0.010820413 0.015894901 0.007842224 0.019309983 0.0043047178 0.0076323864 -0.01860784
0.02446365 -0.028441707 0.013947333 0.0058751153 -0.021424368 -0.01168726 -0.01903383 0.009113906
-0.0049097496 -0.008818577 -0.010402068 0.0011847278 -0.019094875 0.010557763 -0.008105762 -0.0068598436
0.018216021 0.0107852 0.0016273372 0.026065025 -0.0027995626 -0.021143563 -0.02802271 0.018115181
-0.014627161 -0.010598699 0.012493022 -0.022824468 -0.02810623 -0.023729745 -0.017838882 0.002838891
-0.0005948562 0.009448279 -0.028100122 0.019609235 0.0035759062 0.0034792176 0.0005390155 0.013852374
0.027853753 0.02504615 0.0013318867 0.0036698766 -0.010788732 0.006932457 -0.011017911 6.0215592e-05
0.011726062 0.011462472 -0.021496614 -0.0021778771 0.020040195 -0.012603822 -0.009387281 0.015819777
0.009923118 -0.023319334 0.0012843345 -0.0059392042 0.0084462315 0.004862175 -0.030691162 -0.021924477
0.01127683 0.008158925 0.027707778 -0.017765062 -0.0065192524 0.019045796 0.016604342 0.0032300744
-0.025249567 -0.0063373838 -0.008803291 -0.02179142 0.0053164214 -0.0015889673 -0.009426106 0.007563874
-0.02004592 -0.027920092 -0.009884749 -0.005117712 -0.009774104 -0.02303226 -0.006825069 0.010859628
-0.00063378736 0.007720583 0.0015057139 -0.0013435602 -0.0071927756 0.009287754 -0.022809058 -0.01376906
-0.02110992 -0.026076691 0.013468742 -0.0025850334 0.004181547 0.02144544 -0.0035647892 0.007238552
0.0154231265 -0.028246004 -0.022650644 0.01933149 0.013612539 0.025006518 -0.022448719 0.012188704
00000000: 2354 00bd a89f 663c a023 d1bb 080c a7bc
00000010: 3cd0 80bc ecd7 81bc 683c 023c db0d 903c
00000020: 98cc c33c c47f a3bc b07a 19bc 009d ec3c
00000030: 9052 9dbc 8cdb a9bc 4af0 a4bc 6695 94bc
00000040: d0cd 95bc 28ed 7f3c 87a8 9abc 9a0b b6bc
00000050: 849e 393c c5cd 84bc 48a3 54bc 4906 503c
00000060: f98b e4bc d9e6 493c f023 543b 50fe b2ba
00000070: fe8b 243c 1c8f 8e3c 4891 933b af1b 6cbb
00000080: eabf a33c a51a b63c 6879 a53b fe72 36bc
00000090: 1d64 c3bc 6024 a53c ba8c c9bc 35b3 6b3c
000000a0: 20bf 463c daf2 de3c 6641 973c 3f2d 36bc
000000b0: f4eb 9dbc 1ec3 06bc 4f7f 0cbd d4ec e8bb
000000c0: 40b1 babc 6c8c aabc 7c57 853c 91fb a2bc
000000d0: 909b 8d3b dc2b d23c 6c3e 743c f449 4abc
000000e0: 5002 c8bc fc52 7a3c cddf aa3c a835 083b
000000f0: 9483 0cbc f827 2ebc a41f 1fbc 88fa 9bbc
00000100: 9f87 023c dee3 e2bc e070 8fba 0010 ad3b
00000110: 2d52 66bc 3e8a 88bb 8e01 35bc 3518 f33b
00000120: fe34 a23c ba40 c7bb b70f 7fbc 36cd f2bc
00000130: 3853 73bc b23e 53bc a390 14bc d04d debb
00000140: 50fe 433c c43c 8ebc fa38 e63c 0065 89bc
00000150: a8d5 fd3b 1b43 6bbc b434 a43c 908f 25bb
00000160: eeee 2cbc 8f5c 853c 9988 8dbb 8017 1939
00000170: 20f7 c9bc ccde 94bc 1003 963c 1fa3 dabc
00000180: b29f 6f3c 5217 db3b dcf3 7e3c 43f3 09bd
00000190: 80dc 8f3b 4cc4 9a3c 2418 3f3c 0c3d 673c
000001a0: a09e 373c da20 d8bc 5c1c 6a3c 2dc4 03bc
000001b0: 5059 59bc 719c 3cbc 30b2 7c3b 16d8 bfbc
000001c0: 4131 e6bc c63a 8c3c 70cb ed3b 1156 173c
000001d0: 6f34 06bd f05a 56bc f40f 603c d876 83bc
000001e0: 9191 adbb 5b2d 94bb f40b e5bb 7011 653b
000001f0: 08db 743c 26d9 273b ec76 053c ac47 173c
00000200: cc41 a93c 38b7 123c a8bf e93c df0f 813a
00000210: 16c9 debc 3cc6 923c 6c0e 35bc 6274 cb3c
00000220: b78d 073c 1a48 31bc 0636 823c ac7c 003c
00000230: f82f 9e3c 970e 8d3b 1919 fa3b 786f 98bc
00000240: fe67 c83c 95fe e8bc 5b83 643c 0a84 c03b
00000250: 2882 afbc ec7b 3fbc d6ec 9bbc 7e52 153c
00000260: f7e1 a0bb cb7b 10bc 6f6d 2abc de48 9b3a
00000270: db6c 9cbc 78fa 2c3c 08ce 04bc 8ac8 e0bb
00000280: c439 953c 68b4 303c 604c d53a 5286 d53c
00000290: de78 37bb 4435 adbc e28f e5bc 4a66 943c
000002a0: c3a6 6fbc 2aa6 2dbc 88af 4c3c 61fa babc
000002b0: 093f e6bc e264 c2bc d922 92bc b00c 3a3b
000002c0: 20f0 1bba f4cc 1a3c 3a32 e6bc 8ca3 a03c
000002d0: c059 6a3b 9603 643b b84c 0d3a 11f5 623c
000002e0: 8e2d e43c 952d cd3c b492 ae3a 5082 703b
000002f0: 39c3 30bc aa29 e33b 7884 34bc 0090 7c38
00000300: ab1e 403c 18cd 3b3c ab19 b0bc b7ba 0ebb
00000310: 562b a43c 4380 4ebc 1ccd 19bc 7a98 813c
00000320: 9394 223c 3008 bfbc 1d57 a83a a89d c2bb
00000330: 1062 0a3c e152 9f3b 086c fbbc f69a b3bc
00000340: 74c2 383c 03ad 053c 6cfb e23c 0988 91bc
00000350: 749f d5bb ee05 9c3c d405 883c a8af 533b
00000360: 2ed8 cebc d4a9 cfbb ae3b 10bc ec83 b2bc
00000370: 6035 ae3b e544 d0ba f46f 1abc 60da f73b
00000380: 5737 a4bc adb8 e4bc a4f3 21bc 7bb2 a7bb
00000390: 9023 20bc 26ae bcbc d4a4 dfbb 95ec 313c
000003a0: c024 26ba f2fc fc3b 605b c53a 661a b0ba
000003b0: 60b1 ebbb aa2b 183c 10da babc a097 61bc
000003c0: b6ee acbc c99e d5bc 00ac 5c3c aa69 29bb
000003d0: 5c05 893b 59ae af3c 3d9f 69bb 6031 ed3b
000003e0: 48b1 7c3c 2a64 e7bc d88d b9bc 135d 9e3c
000003f0: 2007 5f3c 78da cc3c 60e6 b7bc 21b3 473c

linear1.bias f4 [12]
0.009340087 -0.016879965 -0.018137995 0.014553806 0.024416469 0.0003797419 0.000104898856 -0.029515432
-0.33302268 -0.024280895 -0.031279847 -0.011406003
00000000: 2a07 193c da47 8abc 2296 94bc 1673 6e3c
00000010: 0c05 c83c 1818 c739 25fd db38 59ca f1bc
00000020: f381 aabe bae8 c6bc 4c1f 00bd 3ee0 3abc

linear2.weight f4 [24, 12]
0.18201372 -0.25671697 0.050409906 -0.11024368 0.033527248 0.1281091 -0.1365276 -0.113984115
0.089584015 0.22303289 -0.1786159 -0.23502104 -0.10420492 0.21902898 -0.13574146 -0.03175101
-0.25933993 0.17996287 0.07432264 -0.05015127 -0.019217718 -0.13915953 -0.03237866 0.061154395
0.079599366 -0.24575625 -0.056700766 -0.14196889 0.123504885 0.028235426 -0.11365016 0.2713823
-0.07376056 0.22283116 0.21087341 0.1015819 -0.07719046 0.0882422 0.06258011 0.14864847
-0.00087922666 -0.021647424 0.25339192 -0.0737444 0.013025707 0.040339828 0.12122944 0.26162124
-0.07315044 -0.073681116 0.002002418 -0.16826458 0.076839715 -0.24165842 -0.066228315 -0.038577825
-0.20325387 -0.079404205 -0.06819986 0.06339115 0.030120408 -0.24163601 -0.15324096 0.07521537
-0.27496722 -0.13769996 -0.23555566 0.02945587 -0.26524055 0.1285955 0.03433365 0.08635801
-0.24955153 0.20329824 -0.10126659 -0.14393435 -0.11368413 0.17966828 0.0055865347 -0.015589923
-0.081613645 -0.09924893 -0.22260663 -0.016055882 0.09738609 0.2694623 -0.14288513 0.23916513
0.17156582 -0.14393446 -0.14436173 -0.0058339806 0.01410391 0.025269568 0.14939341 -0.26867077
-0.0830417 0.2664189 0.211626 -0.1505387 0.12194598 -0.15135896 -0.023082107 -0.22436509
-0.13361563 0.1701213 0.16264565 -0.052009508 -0.16934945 0.1742596 -0.20817798 -0.23660323
-0.1445957 0.060923338 0.120185554 -0.04254356 -0.1348615 -0.10188258 0.14521527 0.12240127
-0.08805661 -0.267138 0.20438461 -0.14721888 0.13094985 -0.05661249 -0.25975743 0.09306681
-0.00037128796 0.060741007 -0.14464676 0.25809082 0.12867615 -0.16113673 0.03540963 0.07949501
-0.17596774 0.15243685 -0.10676679 -0.26034817 -0.24147442 0.18242675 0.025633216 -0.23921092
0.17652236 5.5223118e-05 0.098404884 0.1418475 0.049120963 0.16176338 0.14105552 -0.22027104
-0.27371022 0.16731523 -0.23517442 0.28132886 -0.14809506 0.16171041 -0.1358096 0.052883178
-0.26902738 -0.051272124 -0.14990723 -0.013437808 -0.011480756 0.2534579 -0.043747842 -0.12199949
0.17410475 -0.094595075 0.13230595 0.1640326 0.0031095988 0.25432736 -0.22638427 -0.12699004
0.0036665783 -0.2506523 0.043131936 -0.25716385 -0.2609386 -0.25031328 -0.23061436 -0.027026713
-0.12450273 0.22632343 0.110676974 -0.15856728 -0.02463162 -0.1493546 0.27255654 -0.23961496
-0.1415892 0.25316352 -0.0068247053 -0.19920999 -0.051055785 0.26420963 -0.13321495 -0.19766752
-0.0444887 0.009760946 0.060552835 0.28309017 -0.16251095 -0.1575661 0.07773989 0.022656083
-0.2376669 0.22984606 0.15017347 -0.17884073 0.025993124 0.25672984 0.24565685 0.13189086
-0.13706471 0.13694972 0.077568956 -0.05436197 0.13333131 0.06586909 -0.10792942 0.19990861
0.005802126 -0.062352136 0.22237581 -0.21316823 -0.2417406 0.043553863 0.010396123 -0.19894221
-0.22673495 0.029267982 -0.19304524 -0.2052563 -0.10594018 0.08620121 -0.27477515 -0.08505368
-0.14036688 0.06969605 0.12033117 0.27704498 0.23606284 0.22337326 0.14614764 0.09882951
-0.20186292 -0.091807276 0.029489268 -0.2874323 0.26575613 -0.12533101 0.015252032 0.13495609
00000000: ce61 3a3e 6870 83be 9e7a 4e3d 70c7 e1bd
00000010: de53 093d 082f 033e e4cd 0bbe 8170 e9bd
00000020: d377 b73d bc62 643e 16e7 36be 5ba9 70be
00000030: 6469 d5bd 2249 603e cfff 0abe 590d 02bd
00000040: 34c8 84be 3048 383e 7836 983d 6b6b 4dbd
00000050: 7a6e 9dbc d67f 0ebe 7c9f 04bd 087d 7a3d
00000060: fe04 a33d 87a7 7bbe 103f 68bd 4b60 11be
00000070: 21f0 fc3d fb4d e73c 6ac1 e8bd 9ff2 8a3e
00000080: c70f 97bd da2d 643e 33ef 573e 2c0a d03d
00000090: 0816 9ebd 54b8 b43d 002a 803d 4e37 183e
000000a0: e77b 66ba f055 b1bc 96bc 813e 4e07 97bd
000000b0: c669 553c 603b 253d 2447 f83d 38f3 853e
000000c0: e6cf 95bd 20e6 96bd 003b 033b 8d4d 2cbe
000000d0: 245e 9d3d 4e75 77be b6a2 87bd c803 1ebd
000000e0: c821 50be ac9e a2bd 5eac 8bbd 38d3 813d
000000f0: 13bf f63c 6e6f 77be 33eb 1cbe 840a 9a3d
00000100: 81c8 8cbe 3801 0dbe 8135 71be 704d f13c
00000110: 9ccd 87be 8aae 033e 71a1 0c3d 78dc b03d
00000120: 708a 7fbe 6a2d 503e dc64 cfbd 8763 13be
00000130: 3ad3 e8bd f6fa 373e 400f b73b e06c 7fbc
00000140: 0e25 a7bd 0643 cbbd fef2 63be a087 83bc
00000150: 5c72 c73d f6f6 893e 7b50 12be b4e7 743e
00000160: f3ae 2f3e 8e63 13be 90d3 13be fa2a bfbb
00000170: 1614 673c 2002 cf3c 96fa 183e 378f 89be
00000180: c411 aabd 0f68 883e 7cb4 583e d126 1abe
00000190: d0be f93d d8fd 1abe b016 bdbc f6bf 65be
000001a0: 89d2 08be 4734 2e3e 958c 263e ec07 55bd
000001b0: f169 2dbe 1c71 323e 9c2c 55be 1e48 72be
000001c0: e510 14be c08a 793d d823 f63d 2842 2ebd
000001d0: 2219 0abe d0a7 d0bd 50b3 143e 84ad fa3d
000001e0: 0657 b4bd 50c6 88be 334a 513e 8cc0 16be
000001f0: b817 063e 80e2 67bd edfe 84be d099 be3d
00000200: 6da9 c2b9 90cb 783d 481e 14be 7b24 843e
00000210: aec3 033e 0701 25be b009 113d 48ce a23d
00000220: e330 34be 6818 1c3e 8ca8 dabd 5b4c 85be
00000230: 1245 77be 14ce 3a3e c0fc d13c b5f3 74be
00000240: 47c2 343e 5f9f 6738 8088 c93d 7940 113e
00000250: 1033 493d 4da5 253e dc70 103e bb8e 61be
00000260: bf23 8cbe af54 2b3e 90d1 70be 560a 903e
00000270: 3ba6 17be 6a97 253e ac11 0bbe 089c 583d
00000280: f5bd 89be b802 52bd 4881 19be 402a 5cbc
00000290: c819 3cbc 3cc5 813e f030 33bd deda f9bd
000002a0: 8448 323e 10bb c1bd 367b 073e 29f8 273e
000002b0: 69ca 4b3b 3237 823e 47d1 67be ad09 02be
000002c0: fa4a 703b 8055 80be 1dab 303d fbaa 83be
000002d0: bf99 85be 1029 80be 2c26 6cbe 2067 ddbc
000002e0: 4afb febd 54c1 673e 9caa e23d 765f 22be
000002f0: 40c8 c9bc 6af0 18be 888c 8b3e a05d 75be
00000300: c2fc 10be a69e 813e c7a1 dfbb b4fd 4bbe
00000310: df1f 51bd 7c46 873e 8069 08be 5b69 4abe
00000320: c839 36bd 60ec 1f3c 4006 783d 32f1 903e
00000330: 4569 26be 0259 21be 1736 9f3d 4099 b93c
00000340: f45e 73be c45c 6b3e 13c7 193e 0622 37be
00000350: 88ef d43c 1872 833e 788d 7b3e 660e 073e
00000360: b15a 0cbe 8c3c 0c3e 79dc 9e3d a8aa 5ebd
00000370: 0188 083e 60e6 863d 1a0a ddbd d8b4 4c3e
00000380: c31f be3b f464 7fbd 7cb6 633e c648 5abe
00000390: d98a 77be 8965 323d 8054 2a3c 82b7 4bbe
000003a0: 352d 68be 68c3 ef3c a7ad 45be b52e 52be
000003b0: 2af7 d8bd 438a b03d 54af 8cbe a030 aebd
000003c0: 56bc 0fbe cdbc 8e3d 3070 f63d d7d8 8d3e
000003d0: 75ba 713e f6bb 643e baa7 153e 2067 ca3d
000003e0: 27b5 4ebe 7405 bcbd 7a93 f13c 542a 93be
000003f0: 3011 883e c656 00be a9e3 793c ee31 0a3e

linear2.bias f4 [24]
0.05882666 0.0472381 0.20672727 -0.41919065 -0.12206259 0.25752962 -0.028660357 -0.08551438
0.025642194 0.018930733 -0.05274396 -0.19342007 0.14152612 -0.07398308 0.5350508 -0.10394463
0.4280801 -0.38303235 -0.20970848 0.2856602 0.0568313 -1.2294827 -0.49244344 0.16187906
00000000: 39f4 703d bd7c 413d 50b0 533e 28a0 d6be
00000010: f4fb f9bd ecda 833e 20c9 eabc 2a22 afbd
00000020: 940f d23c a014 9b3c 0d0a 58bd e90f 46be
00000030: 39ec 103e 7184 97bd 17f9 083f ece0 d4bd
00000040: 512d db3e d11c c4be d2bd 56be 0e42 923e
00000050: f0c7 683d b05f 9dbf 8c21 fcbe a0c3 253e

linear3.weight f4 [48, 24]
0.17081602 0.1633727 -0.05130855 -0.13707045 -0.12435328 -0.104419 -0.14857183 0.017497266
-0.09708593 -0.1112651 -0.12810269 -0.032011926 -0.18872434 -0.042536486 -0.19018912 -0.09894999
-0.14220004 -0.13003969 -0.1666733 0.20834963 -0.027435161 0.22666511 -0.033782676 0.08588382
-0.09261341 -0.1087121 0.031000812 0.09864988 0.07826275 0.06621223 0.0065129995 -0.19284877
-0.09691358 0.03824179 0.039830852 0.113811195 0.022559414 0.03863317 0.10255897 0.12247354
-0.11912234 0.10558482 0.070054606 -0.13620412 0.21414384 0.34585062 -0.101212636 0.1556776
0.06863807 0.11144448 0.15412907 0.09969563 -0.06497736 -0.109230265 0.046885937 -0.1812946
-0.22103758 0.18634766 0.08791736 0.18603489 0.06499345 -0.049074315 -0.09726705 0.07940182
-0.018769003 0.085535064 0.1323778 -0.012829849 0.021709416 -0.35360605 -0.19162905 -0.1032273
0.28591663 0.023895223 0.06301296 0.12123133 0.06782946 0.21267112 0.06638396 0.09713449
-0.09642362 0.17230192 0.01707198 -0.03544298 -0.11263535 0.17653233 0.21979383 0.005351767
0.0271878 -0.13656536 0.17996816 0.15067795 0.13757001 -0.7248053 -0.02610007 0.18965018
0.024018167 -0.15622047 -0.16280025 -0.11074996 -0.20151307 -0.18248306 -0.017091915 -0.036215574
-0.0010442614 -0.17974839 0.0018283888 0.17971992 -0.1146503 -0.13690823 -0.041917745 -0.18252362
-0.12668169 0.025386777 0.02810427 0.17020744 -0.042826552 0.39477488 0.14891146 -0.03953214
0.03942714 0.14198399 -0.10838585 -0.009580858 -0.20175248 -0.18864563 -0.079638004 0.020560725
-0.06879494 -0.1548559 -0.11825793 0.09781891 -0.003090702 -0.016869893 -0.016525015 0.08836931
-0.13130908 -0.041719943 0.1970795 0.058968205 0.059178587 0.33541775 0.21529968 -0.09394875
-0.2105101 -0.04602003 0.060384165 0.0027951414 -0.04844424 0.19049652 0.19809186 0.04605127
-0.0015593205 0.062104344 -0.023921948 -0.07618803 -0.09961034 -0.14102277 0.14582206 0.028627098
-0.007592976 0.14294535 0.027365176 0.05021043 -0.21126853 -0.032604903 -0.064599715 -0.13422626
0.2551564 0.10540543 0.096232764 0.084842965 -0.030265585 -0.1203181 0.19763452 0.07770698
-0.13751994 0.08202669 -0.10518086 0.059497118 -0.1812344 -0.103153355 0.23967926 0.14636502
0.023734197 0.24923779 -0.013227363 0.21522231 0.1734331 -0.6394065 -0.08314833 0.03766392
0.130482 -0.12395034 0.037741136 -0.16327848 -0.12711684 0.17009743 -0.028257146 -0.23066536
-0.090479895 0.07221651 -0.072870165 -0.057233483 0.12354387 0.044618 -0.07199437 -0.08184445
0.044573046 -0.065158196 0.09001145 0.11012657 0.0030212714 0.22417444 -0.022920376 0.0070657493
-0.0304122 0.11754872 -0.0247128 -0.11094551 -0.114370205 0.12462062 0.07064068 -0.045560554
-0.1498819 -0.07946319 -0.08072684 0.08152172 0.00068399793 0.09300199 0.14568765 -0.10848242
-0.0060471497 0.13284558 0.039262824 0.044415817 -0.15975842 0.2581234 0.08880393 -0.037938815
-0.2409242 0.080643505 -0.1679624 -0.07016675 0.086500704 0.043602508 0.14767697 -0.09096937
0.13080917 0.17787081 0.110606655 0.124824554 0.014752141 -0.19464938 -0.095156305 -0.14813964
00000000: 65ea 2e3e 2c4b 273e ea28 52bd 325c 0cbe
00000010: efac febd a1d9 d5bd 3723 18be 6d56 8f3c
00000020: fdd4 c6bd f5de e3bd 5a2d 03be f01e 03bd
00000030: f440 41be bd3a 2ebd f0c0 42be 4ba6 cabd
00000040: e39c 11be 2029 05be 68ac 2abe 9b59 553e
00000050: b4bf e0bc e61a 683e b45f 0abd dbe3 af3d
00000060: 19ac bdbd 73a4 debd 6af5 fd3c f308 ca3d
00000070: 3848 a03d 479a 873d 006b d53b 267a 45be
00000080: a17a c6bd 6ca3 1c3d ad25 233d d815 e93d
00000090: 85ce b83c d13d 1e3d 700a d23d 68d3 fa3d
000000a0: 6af6 f3bd db3c d83d ca78 8f3d 1879 0bbe
000000b0: 8648 5b3e 5513 b13e 9248 cfbd f369 1f3e
000000c0: 1e92 8c3d 013d e43d 03d4 1d3e 392d cc3d
000000d0: da12 85bd 1eb4 dfbd 780b 403d 4ba5 39be
000000e0: ad57 62be ecd1 3e3e 040e b43d ee7f 3e3e
000000f0: 491b 853d 2602 49bd f233 c7bd 6c9d a23d
00000100: 74c1 99bc 022d af3d 0c8e 073e 4934 52bc
00000110: f2d7 b13c da0b b5be 683a 44be d668 d3bd
00000120: aa63 923e eabf c33c f00c 813d 2248 f83d
00000130: 2cea 8a3d 75c6 593e 50f4 873d 73ee c63d
00000140: bf79 c5bd ea6f 303e 89da 8b3c a82c 11bd
00000150: 5dad e6bd e4c4 343e a211 613e e05d af3b
00000160: f3b8 de3c cad7 0bbe 9349 383e 524b 1a3e
00000170: 27df 0c3e d78c 39bf d0cf d5bc a833 423e
00000180: bfc1 c43c 42f8 1fbe 1cb5 26be e0d0 e2bd
00000190: 7159 4ebe d7dc 3abe 5804 8cbc c856 14bd
000001a0: 99df 88ba f60f 38be 8ca6 ef3a 8008 383e
000001b0: c7cd eabd ac31 0cbe f1b1 2bbd 79e7 3abe
000001c0: d8b8 01be eef7 cf3c ed3a e63c dc4a 2e3e
000001d0: e56a 2fbd ef1f ca3e 3f7c 183e 74ec 21bd
000001e0: 5a7e 213d 4064 113e 67f9 ddbd 08f9 1cbc
000001f0: 3498 4ebe 522c 41be 4019 a3bd f76e a83c
00000200: 5de4 8cbd 8c92 1ebe 3731 f2bd 4855 c83d
00000210: 608d 4abb bb32 8abc 785f 87bc f8fa b43d
00000220: e375 06be 88e2 2abd 35cf 493e a588 713d
00000230: 3f65 723d e0bb ab3e 8577 5c3e 3468 c0bd
00000240: f68f 57be 807f 3cbd 6355 773d b12e 373b
00000250: 786d 46bd 8511 433e 98d8 4a3e 42a0 3c3d
00000260: 1d62 ccba 2061 7e3d f6f7 c3bc 7808 9cbd
00000270: 8200 ccbd 4668 10be 6152 153e 6083 ea3c
00000280: 80ce f8bb 4460 123e ef2c e03c 74a9 4d3d
00000290: c756 58be b88c 05bd db4c 84bd 9c72 09be
000002a0: dca3 823e cdde d73d af15 c53d 26c2 ad3d
000002b0: 88ef f7bc 5669 f6bd b460 4a3e d624 9f3d
000002c0: 07d2 0cbe 9cfd a73d 1069 d7bd 40b3 733d
000002d0: 8395 39be 1142 d3bd 7b6e 753e b6e0 153e
000002e0: 386e c23c 3138 7f3e 95b7 58bc 3d63 5c3e
000002f0: 7298 313e 25b0 23bf ac49 aabd 7c45 1a3d
00000300: 139d 053e add9 fdbd 7396 1a3d 7932 27be
00000310: eb2a 02be 052e 2e3e 887b e7bc 8a33 6cbe
00000320: 864d b9bd 40e6 933d f43c 95bd a86d 6abd
00000330: 9204 fd3d 5dc1 363d c971 93bd 109e a7bd
00000340: 3a92 363d a971 85bd ec57 b83d 0a8a e13d
00000350: 8600 463b fc8d 653e 83c3 bbbc cd87 e73b
00000360: 0223 f9bc 62bd f03d 7f72 cabc 6637 e3bd
00000370: ed3a eabd 1839 ff3d 10ac 903d b49d 3abd
00000380: a47a 19be 99bd a2bd 1d54 a5bd dcf4 a63d
00000390: 534e 333a d477 be3d 252f 153e 082c debd
000003a0: 2b27 c6bb ac08 083e 0ed2 203d 5ced 353d
000003b0: b697 23be c028 843e d6de b53d bb65 1bbd
000003c0: d5b4 76be 6c28 a53d 56fe 2bbe 96b3 8fbd
000003d0: 4827 b13d 8b98 323d a238 173e 264e babd
000003e0: d7f2 053e c423 363e be85 e23d 04a4 ff3d
000003f0: f7b2 713c 2b52 47be 4fe1 c2bd ebb1 17be

linear3.bias f4 [48]
-0.3443511 -0.13703929 -0.24728525 0.3655995 -0.03740048 0.02380131 -0.008193828 0.5195684
-0.14449807 0.018949693 -0.07192929 0.30973724 -0.026458211 0.23199992 -0.21247286 0.2521379
-0.14807323 0.022247521 -0.25913095 0.39790717 -0.13495453 -0.19741046 -0.07736568 0.31137487
-0.07498816 -0.19409277 -0.25469664 0.30039412 -0.030068083 -0.036898803 -0.09415926 0.29630688
-0.0049178163 -0.013691694 -0.28530052 0.35618705 -0.18235618 -0.075077705 -0.105727114 0.38944015
-0.15082064 -0.069340035 -0.12031586 0.3214922 -0.20684606 -0.08728578 -0.20129961 0.41369134
00000000: ca4e b0be 0754 0cbe 5838 7dbe dc2f bb3e
00000010: 3f31 19bd f7fa c23c 683f 06bc 6f02 053f
00000020: 4df7 13be 633c 9b3c aa4f 93bd e195 9e3e
00000030: e4be d8bc 6391 6d3e 7c92 59be 3818 813e
00000040: 82a0 17be 6f40 b63c d0ac 84be 7dba cb3e
00000050: 8531 0abe f825 4abe e671 9ebd 876c 9f3e
00000060: 6493 99bd 41c0 46be 9967 82be 42cd 993e
00000070: 5751 f6bc 3323 17bd 92d6 c0bd 89b5 973e
00000080: a225 a1bb 2053 60bc e912 92be 265e b63e
00000090: 94bb 3abe 57c2 99bd 7587 d8bd b364 c73e
000000a0: ba70 1abe 2602 8ebd 2968 f6bd a09a a43e
000000b0: 74cf 53be e3c2 b2bd 7c21 4ebe 5acf d33e
