epoch_100_model/세정model.pth (torch, 54880 bytes, 18 tensors)

linear1.weight f4 [6, 12]
0	0x3ef168d6	0.47150296
1	0x3e26fc8e	0.1630728
2	0xbeff58b8	-0.49872375
3	0x3ef75e78	0.4831426
4	0xbc2b09bc	-0.010439333
5	0x3e218d7e	0.15776631
6	0x3f18c024	0.59668183
7	0x3e959169	0.29212502
8	0x3ee43204	0.4456941
9	0x3f0e0bcc	0.5548675
10	0x3eaf1822	0.341981
11	0x3e961db5	0.2931954
12	0x3f52a982	0.822899
13	0x3f22ded6	0.6362127
14	0xbd9ae5d2	-0.07563366
15	0x3e4dee60	0.20110464
16	0x3ec3fd40	0.38279152
17	0x3f0e1efd	0.55516034
18	0x3ee7e871	0.45294526
19	0x3f227775	0.63463527
20	0x3f229d05	0.6352084
21	0x3f20f787	0.62877697
22	0x3ecba479	0.3977392
23	0x3ed3bc1b	0.4135445
24	0xbea166d4	-0.31523764
25	0xbe27d18a	-0.16388527
26	0x3df44c00	0.11928558
27	0xbe99eb65	-0.30062404
28	0x3d61dfd1	0.05514509
29	0xbe2f92fb	-0.17145912
30	0xbde9c16b	-0.11413845
31	0xbe3303d8	-0.17481935
32	0xbd4e3672	-0.05034489
33	0x3e9b3faa	0.3032201
34	0x3e436070	0.19079757
35	0x3dd9268d	0.10603056
36	0x3d8a90ab	0.067658745
37	0x3ea042d2	0.3130098
38	0x3ec8382b	0.39105353
39	0x3eab58ee	0.33466285
40	0x3ee88d17	0.45420143
41	0xbca882db	-0.02057021
42	0xbbd97bc2	-0.0066370675
43	0xbe6f9feb	-0.23400848
44	0x3e441063	0.19146876
45	0x3b63b5ce	0.0034745815
46	0x3e4328e9	0.19058575
47	0x3df78c2b	0.12087282
48	0x3ede7491	0.43448308
49	0x3f0ec2cc	0.55765986
50	0xbdf7b4ae	-0.12095009
51	0x3ea43887	0.32074377
52	0x3e80a283	0.25123987
53	0x3ead0f18	0.33800578
54	0x3cf5980a	0.029979724
55	0x3f1b194d	0.6058548
56	0x3f11f5f0	0.57015896
57	0x3eb7803f	0.35840032
58	0x3e8ae875	0.27130476
59	0x3ecaa9e3	0.39582738
60	0x3f08785a	0.5330864
61	0x3cb3f7bf	0.02196872
62	0xbf8da35b	-1.1065477
63	0xbc4ab1dd	-0.0123715075
64	0xbb774077	-0.0037727633
65	0x3df7b786	0.12095551
66	0x3e810548	0.25199342
67	0x3eaa1aa6	0.33223456
68	0x3e902f27	0.28160974
69	0x3e1dc2ac	0.15406293
70	0xbcba7d15	-0.022764722
71	0xbe989e3b	-0.2980822

linear1.bias f4 [6]
0	0x3e08c8a1	0.13357784
1	0x3e11ccd4	0.14238292
2	0x3f1454d7	0.57941955
3	0xbe3ba56c	-0.18324822
4	0x3dbb9428	0.09159118
5	0x3eca5d9c	0.39524543

linear2.weight f4 [3, 6]
0	0x3f78334e	0.96953285
1	0x3f2a986b	0.6663882
2	0xbe060859	-0.13089122
3	0x3e329b50	0.1744206
4	0x3f3e5444	0.7434733
5	0x3f945b9d	1.1590458
6	0xbd460c8c	-0.04835181
7	0x3e83dbe7	0.2575371
8	0x3efa9bbd	0.48946944
9	0xbf46cccd	-0.7765625
10	0xbcf5f29d	-0.030022914
11	0x3fa81a26	1.313298
12	0x3c9a769c	0.018855385
13	0x3e9148a1	0.28375724
14	0xbe24e587	-0.16103183
15	0x3f91f5fc	1.1403193
16	0x3d102f56	0.035201393
17	0xbf025d30	-0.5092344

linear2.bias f4 [3]
0	0x3c9aebf6	0.018911343
1	0x3eed26ef	0.46318766
2	0xbe06fa79	-0.13181485

linear3.weight f4 [1200, 3]
0	0xbee26661	-0.44218734
1	0x3e6ecebc	0.2332105
2	0xbd29c780	-0.041450024
3	0xbeadbeae	-0.3393454
4	0x3f076f06	0.52903783
5	0xbea10583	-0.31449518
6	0x3f027c5e	0.5097102
7	0x4006f688	2.108797
8	0x3e91aa5d	0.2845029
9	0x3d999214	0.07498565
10	0x3e376afc	0.17911905
11	0x3e879134	0.2647797
12	0xbef37b2f	-0.4755492
13	0x3f047028	0.51733637
14	0xbed0379e	-0.40667433
15	0x3d7e78e3	0.062127005
16	0xbeccbab2	-0.39986187
17	0xbe8d9b72	-0.27657658
18	0x3c4cc4e2	0.012498112
19	0xbef24b15	-0.47322908
20	0x3d479619	0.04872713
21	0xbda125b0	-0.078685164
22	0x3da2c72c	0.07948145
23	0xbe864ff3	-0.2623287
24	0xbf3411f4	-0.70339894
25	0xbe272d83	-0.16325955
26	0x3e191d04	0.14952475
27	0x3e2f4019	0.17114295
28	0xbe3a0a8a	-0.18168083
29	0xbf0f5191	-0.55983835
30	0xbddaf7d9	-0.106918044
31	0xbeb232a1	-0.34804252
32	0x3db51ac0	0.08842993
33	0xbef5c4f2	-0.4800182
34	0xbc986def	-0.018607108
35	0x3e024dd1	0.12724997
36	0xbe6406fa	-0.22268286
37	0x3f97c82b	1.1857961
38	0x3d0312fa	0.03200052
39	0xbd186b66	-0.037211798
40	0xbe85de7e	-0.2614631
41	0xbe3f9e05	-0.18712623
42	0xbd2c1c70	-0.042019308
43	0xbd242ac0	-0.040079832
44	0xbdb6a880	-0.089188576
45	0xbee3517b	-0.44398102
46	0x3f1586b9	0.58408695
47	0xbe8bbfd2	-0.27294785
48	0xbe4ecc7e	-0.20195195
49	0xbecc0a25	-0.3985149
50	0x3e0f3075	0.13983329
51	0x3c252859	0.01008042
52	0xbf37a8c3	-0.71741885
53	0xbd83712c	-0.0641807
54	0xbe252bb8	-0.16129959
55	0x3f1e0beb	0.61736935
56	0xbcd8b4c5	-0.026453385
57	0xbed77e58	-0.4208858
58	0x3ea4f4b7	0.32217953
59	0xbea3248f	-0.3186383
60	0x3da8a5dd	0.08234761
61	0x3f48fd5a	0.78511584
62	0x3f823b9f	1.0174445
63	0xbf467961	-0.7752896
64	0xbcf67950	-0.030087143
65	0xbda4eabf	-0.08052587
66	0xbe181f40	-0.14855671
67	0xbeaa042a	-0.33206302
68	0xbe98d81e	-0.29852384
69	0xbe1dfb3e	-0.15427873
70	0x3d5b1bf8	0.05349347
71	0x3e06ab52	0.13151291
72	0x3ef69778	0.48162436
73	0x3ebe23a5	0.3713657
74	0x3ea80463	0.32815847
75	0x3da9843e	0.08277176
76	0xbe3c0a23	-0.18363242
77	0xbdb02746	-0.08601241
78	0xbe8e3b71	-0.27779725
79	0xbeeb649e	-0.45975202
80	0xbd895f30	-0.06707609
81	0xbeac147e	-0.33609384
82	0x3d8373d5	0.064185776
83	0xbe1d751c	-0.15376705
84	0x3e3e98af	0.18612932
85	0x3e2df484	0.16987807
86	0x3e979ed5	0.29613367
87	0xbf090774	-0.53527
88	0x3ecc43d8	0.3989551
89	0xbec25e63	-0.37962636
90	0xbebf1da0	-0.3732729
91	0xbe5f5110	-0.21808267
92	0xbeda905e	-0.42688268
93	0x3db06f74	0.08615008
94	0xbdb0604c	-0.08612117
95	0x3d23e183	0.040009987
96	0xbedc8b82	-0.43075186
97	0x3ef79f4d	0.48363724
98	0xbe3a70be	-0.1820707
99	0x3f08b3dc	0.53399444
100	0x3f9aecea	1.210355
101	0xbcb426e1	-0.021991195
102	0xbdb0bfe6	-0.08630352
103	0xbe92a570	-0.28641844
104	0xbe6d64b4	-0.23182946
105	0x3daf96ab	0.085736595
106	0xbf08d6d2	-0.5345279
107	0xbe8a2529	-0.26981476
108	0xbdfcdfe9	-0.12347395
109	0xbe135dd7	-0.14391266
110	0x3e442678	0.191553
111	0xbce178c0	-0.027523398
112	0xbe39e4de	-0.18153712
113	0xbdfeb344	-0.12436536
114	0xbe8fec7d	-0.28110114
115	0x3e08956e	0.13338253
116	0x3f2c5935	0.6732362
117	0xbe5b709d	-0.21429677
118	0x3f2f133e	0.68388736
119	0xbe84b7b4	-0.25921404
120	0xbeb47f56	-0.352534
121	0x3e4044c8	0.18776238
122	0xbdf2579c	-0.118331164
123	0x3e77426b	0.2414643
124	0xbe8e790c	-0.27826726
125	0xbe4f1ec6	-0.20226583
126	0x3c4b36f4	0.012403239
127	0x3e283011	0.16424586
128	0xbee8ec6d	-0.4549288
129	0xbea21734	-0.31658328
130	0xbef685fa	-0.4814909
131	0x3f0ae26a	0.5425173
132	0xbe3e5cce	-0.1859009
133	0x3e4eff91	0.20214678
134	0xbc3af27b	-0.011410351
135	0x3d140644	0.036138788
136	0x3f8156bd	1.0104595
137	0x3df16766	0.117873
138	0x3e1507af	0.14553712
139	0x3ecc9b1d	0.39962092
140	0xbe9a8cf1	-0.30185655
141	0x3ea46e8b	0.32115588
142	0xbe9651e8	-0.29359365
143	0xbef672d8	-0.48134494
144	0x3dd25977	0.1027097
145	0xbe12b614	-0.1432727
146	0xbf19d657	-0.6009268
147	0xbe4ae58f	-0.19814132
148	0xbee70967	-0.4512436
149	0xbd4de64d	-0.05026846
150	0xbe0bc26c	-0.13648385
151	0x3f89d90a	1.076936
152	0xbe182014	-0.14855987
153	0xbf38b9fd	-0.72158796
154	0x3e9dc415	0.3081366
155	0xbe9877d9	-0.29778937
156	0xbe84d9b2	-0.25947338
157	0x3fc92c29	1.5716602
158	0x3e4ba255	0.19886144
159	0xbdf7635d	-0.12079499
160	0x3e964ad3	0.2935396
161	0x3d68af9e	0.056808107
162	0xbebc1162	-0.36732012
163	0xbe45f77c	-0.19332689
164	0xbe589948	-0.21152222
165	0xbdef39c8	-0.11680943
166	0x3fc66a88	1.5501261
167	0xbeed83a7	-0.46389505
168	0xbe0337ee	-0.12814304
169	0x3fb3b4d6	1.4039562
170	0x3ef7de57	0.4841182
171	0x3e5b94b7	0.21443449
172	0xbf912e84	-1.134232
173	0x3db80332	0.089849845
174	0xbea6fde4	-0.32615578
175	0x3f0bb629	0.5457483
176	0xbe1e3cf4	-0.1545294
177	0xbe115ec7	-0.14196311
178	0xbec22400	-0.3791809
179	0x3e3fea64	0.18741757
180	0xbe9d9421	-0.30777076
181	0xbf729b5a	-0.947683
182	0x3e84640e	0.25857586
183	0x3e64b342	0.22334006
184	0xbebdb465	-0.37051693
185	0xbf0a31f3	-0.53982466
186	0x3d6dc3f0	0.05804819
187	0xbe873972	-0.26411015
188	0xbe9428ed	-0.28937474
189	0x3e5b691b	0.21426813
190	0xbdb3b4d7	-0.08774727
191	0xbf1a1113	-0.60182303
192	0xbe7e102a	-0.24810854
193	0xbed75220	-0.42054844
194	0xbe19440d	-0.14967366
195	0xbe068eb7	-0.13140379
196	0xbe8fb559	-0.28068045
197	0x3e14b643	0.14522652
198	0xbeade066	-0.33960265
199	0x3e84fcd0	0.2597413
200	0x3e2d2530	0.16908717
201	0x3d2c1d31	0.042020027
202	0xbd52e54f	-0.051488217
203	0xbdbc04a4	-0.09180573
204	0xbd51be61	-0.05120695
205	0xbe15edd0	-0.146415
206	0xbee466c6	-0.4460966
207	0xbda90c16	-0.08254258
208	0xbee6da27	-0.45088312
209	0xbd8ca1bb	-0.06866785
210	0x3e1dc318	0.15406454
211	0xbe77cb34	-0.2419861
212	0xbefb692b	-0.49103674
213	0xbedd4fa0	-0.43224812
214	0xbde0e5fc	-0.10981366
215	0x3e4cfd60	0.2001853
216	0xbe758e59	-0.23980083
217	0x3d02d6c6	0.031943105
218	0xbee25f33	-0.44213256
219	0xbe85f075	-0.26160017
220	0x3fbdf477	1.484023
221	0x3e278148	0.1635791
222	0x3db89c27	0.09014159
223	0xbe1ad1de	-0.1511912
224	0xbedfdaaf	-0.4372153
225	0xbe324ced	-0.17412157
226	0x3eb9beeb	0.3627847
227	0xbec16c4c	-0.37777936
228	0xbf062b95	-0.5241025
229	0x3e1367ec	0.14395112
230	0xbc7d2fc0	-0.015453279
231	0xbf0ed603	-0.55795306
232	0x3e12c4dc	0.14332908
233	0xbeab01b9	-0.33399752
234	0xbdba58e0	-0.09098983
235	0xbdcf72eb	-0.10129341
236	0x3de83683	0.11338522
237	0x3e2b9d25	0.16759165
238	0xbf382873	-0.7193672
239	0xbcbc9214	-0.023018874
240	0x3e87ce2e	0.2652449
241	0x3f0f8157	0.5605673
242	0x3e8aa434	0.27078402
243	0xbdda3a35	-0.10655633
244	0xbeab1fd9	-0.33422735
245	0x3cf50166	0.029907893
246	0x3e2b8431	0.16749646
247	0xbee543fa	-0.44778425
248	0xbe84215f	-0.2580671
249	0x3f207c93	0.62690085
250	0x3e515bd9	0.20445193
251	0x3bff7b7a	0.007796702
252	0x3d354d90	0.044263422
253	0x3d0a56ce	0.03377419
254	0xbdfe16f7	-0.12406724
255	0xbea187f9	-0.3154905

linear3.bias f4 [1200]
0	0xbe84e809	-0.2595828
1	0x3f899392	1.074816
2	0xbf19847a	-0.5996777
3	0xbf069972	-0.5257789
4	0xbeebe24f	-0.46071097
5	0x3e87b85c	0.26507843
6	0x3e028c66	0.1274887
7	0x3f3875ff	0.7205505
8	0x3e9fc222	0.312028
9	0xbec71de5	-0.38889995
10	0x3f03b89a	0.51453555
11	0xbd93572f	-0.07194363
12	0x3f065770	0.5247717
13	0x3f300fd7	0.6877417
14	0xbe028190	-0.12744737
15	0xbe3f27b8	-0.18667495
16	0x3f4259bf	0.7591819
17	0x3e85bbad	0.26119748
18	0xbf18dd91	-0.59713084
19	0x3e1ab408	0.15107739
20	0xbecc5ec8	-0.39916062
21	0x3e8e7d61	0.27830032
22	0x3d2ca410	0.04214865
23	0x3d0b3a8e	0.03399139
24	0xbf4c2453	-0.79742926
25	0x3ef256ea	0.47331935
26	0xbef16fc6	-0.4715559
27	0x3df8fe18	0.121578395
28	0x3e97e8f5	0.2966992
29	0x3e2c2af0	0.16813254
30	0xbef5a39a	-0.4797638
31	0xbf50a608	-0.81503344
32	0x3f0ef0d4	0.55836225
33	0xbed4f356	-0.415919
34	0x3e9613fd	0.29312125
35	0x3e548854	0.2075513
36	0x3d3cf398	0.046130747
37	0xbe7c4908	-0.24637234
38	0x3f1e2b7e	0.61785114
39	0xbe48f1f3	-0.19623546
40	0xbeb59104	-0.354622
41	0xbf11754c	-0.56819606
42	0xbe55b728	-0.2087065
43	0x3cb4bc17	0.022062344
44	0x3cfba2c3	0.03071726
45	0xbf2ef9b5	-0.6834977
46	0x3dad207f	0.08453464
47	0x3e6a4ba5	0.22880419
48	0x3e417484	0.18892103
49	0x3f13b055	0.57690936
50	0x3eb1c0c2	0.34717375
51	0x3eccee98	0.40025783
52	0x3c308eec	0.010776263
53	0xbcd4f8bc	-0.025997512
54	0x3ea511a6	0.32240027
55	0x3ea3f2b6	0.3202111
56	0xbf03dad6	-0.5150579
57	0xbee40b88	-0.44540048
58	0x3fa363ae	1.2764795
59	0x3edefb01	0.43550876
60	0x3cc87e58	0.024474308
61	0x3d62d623	0.055379998
62	0x3d5d9f40	0.05410695
63	0xbf3fb6b5	-0.74888164
64	0x3ed8e7ac	0.42364252
65	0x3ef402d2	0.47658402
66	0xbd532f60	-0.051558852
67	0xbe24c262	-0.16089776
68	0x3eb9dcb7	0.36301205
69	0x3f13e57e	0.5777205
70	0xbec56974	-0.38557017
71	0xbed45ff9	-0.4147947
72	0x3ed6786c	0.4188875
73	0x3eb606c0	0.35552025
74	0x3dc9e5d9	0.09858293
75	0x3ce94ae4	0.028478093
76	0xbec37808	-0.38177514
77	0x3e9cc460	0.30618572
78	0x3e1e5f90	0.15466142
79	0xbf31a0c5	-0.6938594
80	0xbf1a59d2	-0.60293305
81	0x3f02b557	0.5105795
82	0xbec5864b	-0.3857902
83	0xbd0cb256	-0.034349762
84	0xbeb0ca35	-0.34529272
85	0xbe5b99ee	-0.21445438
86	0x3e4e517b	0.2014827
87	0xbde6b578	-0.11265081
88	0xbd878c68	-0.06618577
89	0xbf094e19	-0.5363479
90	0xbf29f8c8	-0.66395235
91	0xbd6bb050	-0.05754119
92	0x3cd37677	0.025813324
93	0x3d8d79ab	0.06907972
94	0x3e135c5d	0.14390703
95	0xbf05636a	-0.5210482
96	0xbd02c150	-0.03192264
97	0xbeb63a86	-0.35591525
98	0x3e37e128	0.17956984
99	0xbe1df77f	-0.15426444
100	0xbee953ac	-0.4557165
101	0x3f4f64a4	0.8101294
102	0x3d5b31fd	0.05351447
103	0xbeb9c75a	-0.36284906
104	0x3eb021e0	0.34400845
105	0xbe5addd9	-0.2137369
106	0x3e845ec8	0.25853562
107	0x3eb049f3	0.3443142
108	0xbdbd4670	-0.092419505
109	0x3b70b4d3	0.0036728873
110	0xbe8c26bf	-0.2737331
111	0xbeae276c	-0.34014452
112	0xbe13c230	-0.14429545
113	0x3d8b30da	0.06796427
114	0x3e1e02c8	0.15430748
115	0xbde1cfec	-0.11025986
116	0xbf35fbd7	-0.710874
117	0x3edd6585	0.43241516
118	0x3f6ff72b	0.93736523
119	0x3ea70111	0.32618
120	0x3eca5b3a	0.39522725
121	0x3eaa38b9	0.332464
122	0x3eb05168	0.34437108
123	0xbed9eec1	-0.42564967
124	0x3e87f684	0.26555264
125	0xbee46b88	-0.4461329
126	0x3e9ae688	0.30254006
127	0x3d95ed52	0.07320656
128	0xbeedebbc	-0.46468914
129	0xbe6c523d	-0.23078246
130	0x3e1af0be	0.15130898
131	0x3f1b90c0	0.60767746
132	0xbdb2b20c	-0.08725366
133	0xbeaf7e6a	-0.34276134
134	0xbe9fa1f6	-0.31178254
135	0xbec00ddf	-0.37510583
136	0x3ead5f2f	0.33861682
137	0x3ec5a11d	0.38599482
138	0xbf4aee4e	-0.79269874
139	0xbe34808e	-0.17627165
140	0x3e3d40be	0.18481728
141	0xbdb9d70f	-0.09074222
142	0xbde1cca0	-0.11025357
143	0x3e8088c2	0.25104338
144	0xbe040d06	-0.12895593
145	0xbe9f4dc8	-0.3111403
146	0xbeed63a3	-0.4636508
147	0x3ec265cd	0.37968293
148	0xbf08b2ac	-0.5339763
149	0x3e23fc9d	0.16014333
150	0xbe9f27d6	-0.3108508
151	0x3f0483c6	0.5176357
152	0xbdb94ca7	-0.090478234
153	0xbe7d6088	-0.24743855
154	0xbe80b02b	-0.25134405
155	0x3e9242b8	0.28566527
156	0xbdc536ce	-0.09629594
157	0xbe9d9400	-0.30776978
158	0x3e384b4c	0.17997473
159	0x3d94f543	0.072733425
160	0x3f045616	0.51693857
161	0xbb3e8613	-0.0029071614
162	0x3f2b283a	0.66858256
163	0xbe193c61	-0.14964439
164	0xbed2f82d	-0.41204968
165	0xbe9ebef0	-0.3100505
166	0xbe2ee498	-0.17079389
167	0xbf0c4d87	-0.548058
168	0x3cdb609e	0.02677947
169	0x3ec076ef	0.3759074
170	0x3efa5b1b	0.48897633
171	0xbd83b2a4	-0.06430557
172	0x3ea4bcf0	0.32175398
173	0x3dddb4c7	0.10825496
174	0xbe19add3	-0.15007715
175	0xbbf3729f	-0.0074294354
176	0xbf006e1f	-0.5016803
177	0x3e9d0274	0.30665934
178	0xbe8f6a52	-0.28010803
179	0xbe96fe4b	-0.29490885
180	0x3e6d0b57	0.23148857
181	0x3f0f9f8e	0.56102836
182	0x3e716249	0.23572649
183	0xbe117e3a	-0.14208308
184	0xbf2ccc32	-0.6749908
185	0x3f1140b1	0.56739336
186	0xbeadba56	-0.33931226
187	0x3cd18c24	0.02557952
188	0x3d0fe2ab	0.035128277
189	0xbe9bc6ae	-0.30425018
190	0x3ed1b394	0.4095732
191	0xbeaa61c2	-0.33277708
192	0x3e818990	0.25300264
193	0x3e8e74e0	0.27823544
194	0x3efc093a	0.4922579
195	0x3e20299c	0.15640873
196	0xbef543cd	-0.4790329
197	0xbc3cd240	-0.011524737
198	0x3ec2fe63	0.38084707
199	0x3c37d811	0.011220948
200	0x3e1aeac7	0.15128623
201	0x3f02fb8f	0.511651
202	0xbf05f81d	-0.52331716
203	0x3e1a1be5	0.15049703
204	0x3e861675	0.26189008
205	0xbf6467ee	-0.89221084
206	0xbe55f1a6	-0.20892963
207	0x3f288a3c	0.6583593
208	0xbf1d3412	-0.6140758
209	0xbe587d70	-0.211416
210	0x3e02d53e	0.12776658
211	0xbf25c830	-0.64758587
212	0xbf115df4	-0.56783986
213	0x3eb326ef	0.3499064
214	0x3e2d2dec	0.16912049
215	0xbe50e258	-0.20398843
216	0xbe7644b8	-0.24049652
217	0x3ed4b35d	0.41543093
218	0xbeff9423	-0.49917707
219	0xbe422196	-0.18958125
220	0xbd9a93c8	-0.07547718
221	0xbe6b7810	-0.22995019
222	0xbf563b21	-0.83683974
223	0xbe2cda07	-0.16880046
224	0x3ecdf7f4	0.40228236
225	0x3e5add93	0.21373586
226	0xbdf94f9e	-0.12173389
227	0x3e9b93b4	0.30386126
228	0x3ea43195	0.32069078
229	0xbcbe7603	-0.023249632
230	0xbef053ce	-0.46938938
231	0xbd2630ec	-0.040574
232	0xbeee73f7	-0.4657285
233	0x3f0590e0	0.52174187
234	0x3ed25412	0.41079766
235	0x3eea998d	0.45820275
236	0xbef9b9f1	-0.48774675
237	0x3ebf3a82	0.37349325
238	0xbe1f0a82	-0.15531352
239	0x3e4688f4	0.19388181
240	0x3ee9bef9	0.45653513
241	0xbf222b49	-0.633473
242	0xbed82051	-0.42212155
243	0x3e9fcc3c	0.31210506
244	0xbe8e33a7	-0.27773783
245	0xbf163f56	-0.5869039
246	0xbd1f0330	-0.0388214
247	0x3ed77fab	0.4208959
248	0x3fcf1322	1.6177714
249	0x3cf2c8ee	0.029636826
250	0xbf7d5632	-0.9895965
251	0x3e641cfb	0.2227668
252	0xbf227afe	-0.6346892
253	0xbe2c3814	-0.16818267
254	0x3f2ef031	0.68335253
255	0x3f2a047c	0.6641309

linear1.weight f4 [3, 1200]
0	0x3c4fd7c4	0.01268572
1	0xc00ac404	-2.1682138
2	0x3e81b6ec	0.2533487
3	0xbda6841c	-0.081306666
4	0x3c0f1f18	0.008735441
5	0x3ddbc0f7	0.107301645
6	0x3e374ebf	0.17901133
7	0xbbb82fbe	-0.0056209257
8	0xbe1f0d29	-0.15532364
9	0x3d8fbd50	0.0701853
10	0x3f533f25	0.82518226
11	0xbd0a1d9e	-0.03371965
12	0x3d0a12c4	0.033709303
13	0x3f1c2967	0.61000675
14	0x3ceb4710	0.028720409
15	0xbf087277	-0.5329966
16	0x3e18d25d	0.14923997
17	0x3e9f5e3b	0.3112658
18	0x3cc1fc86	0.023679983
19	0xbd262e5c	-0.040571555
20	0x3de0e858	0.10981816
21	0xbe360df2	-0.17778757
22	0xbc0f10ec	-0.008732062
23	0xbc49003b	-0.012268121
24	0xbe299199	-0.16559447
25	0xbf1c74fe	-0.61116016
26	0x3b98bb88	0.0046610273
27	0xbd080dc0	-0.033216238
28	0x3cb4c106	0.022064697
29	0xbda52780	-0.08064175
30	0xbc16b54e	-0.0091985
31	0xbf391544	-0.72298074
32	0xbf8fa168	-1.1221132
33	0xbdbbfbeb	-0.09178909
34	0x3dab5ba0	0.083670855
35	0x3dfdb2a9	0.12387592
36	0x3d019edc	0.03164564
37	0xbcc4209a	-0.023941327
38	0xbdc76cce	-0.0973755
39	0x3d94109c	0.072297305
40	0xbba949d8	-0.0051662736
41	0xbe996c0c	-0.29965246
42	0xbcf4fa43	-0.02990449
43	0x3cd87280	0.026421785
44	0xbdb9b0ff	-0.090669625
45	0x3e6951c6	0.227851
46	0x3e0e96e3	0.13924746
47	0x3e92b152	0.2865091
48	0x3d2a1278	0.04152152
49	0x3d975edb	0.07391139
50	0x3d2169a3	0.039407384
51	0xbd9f6371	-0.07782639
52	0x3d5394a4	0.051655427
53	0xbd98b9b7	-0.07457297
54	0xbd889634	-0.06669274
55	0xbcfc9862	-0.03083438
56	0x3d906237	0.07049983
57	0x3ea87a84	0.32905972
58	0xc087fb4e	-4.249427
59	0x3e4efc41	0.20213415
60	0x3d74dbae	0.059779815
61	0x3e1f2f5e	0.15545413
62	0x3ce5c388	0.028047338
63	0x3e3dc6be	0.18532845
64	0xbd2d36b9	-0.042288516
65	0x3f11f199	0.57009274
66	0xbd6249d2	-0.05524618
67	0xbbdf52c2	-0.0068152854
68	0xb9d99bcf	-0.00041505552
69	0x3c97043d	0.018434638
70	0x3c8db478	0.017297968
71	0x3ce1552e	0.027506437
72	0xbd2e7c52	-0.04259903
73	0xbe745270	-0.23859572
74	0x3d8dd779	0.06925864
75	0x3a4fccb4	0.00079269265
76	0x396de780	0.00022688322
77	0xbdcd2220	-0.100162745
78	0x3c7feee8	0.0156209245
79	0xbdf315a7	-0.11869364
80	0xbdf45db0	-0.11931932
81	0x3ef94841	0.48687938
82	0xbc5618f9	-0.013067477
83	0xbe3c7240	-0.18402958
84	0xbd8b5ae7	-0.068044476
85	0x3c652d24	0.013987813
86	0x3d3c91d8	0.046037525
87	0xbcbc28a5	-0.0229686
88	0x3c9538f2	0.01821563
89	0x3e0681ee	0.13135502
90	0xbd9e4785	-0.07728485
91	0x3cc093a2	0.023507897
92	0x3ca202c5	0.019776711
93	0xbc845e33	-0.016158199
94	0xbcbf6e48	-0.023368016
95	0xbc884b11	-0.016637357
96	0xbce38c67	-0.02777691
97	0x3ce8bdd6	0.028410833
98	0xbc2efa6f	-0.010679825
99	0x3cb23061	0.021751584
100	0x3d6b045e	0.05737721
101	0xbfee1265	-1.8599364
102	0xbd10a605	-0.03531458
103	0x3da2dc3a	0.07952161
104	0x3f488ecd	0.78342897
105	0xbe1b91de	-0.15192363
106	0xbd26ab00	-0.040690422
107	0x3ed443df	0.41458032
108	0x3cd681f6	0.026185017
109	0x3cd50134	0.02600155
110	0x3d9d3f06	0.076780364
111	0xbbd89d74	-0.0066105668
112	0xbc314924	-0.010820661
113	0xbd8bfc05	-0.06835178
114	0xbdd272b8	-0.10275787
115	0xbc928697	-0.017886443
116	0x3d022453	0.031772923
117	0x3e24a35a	0.16077939
118	0xc029c32d	-2.6525376
119	0xbf11bcc0	-0.56928635
120	0x3e3e6af2	0.18595484
121	0xbd28234a	-0.04104928
122	0xbf047303	-0.51737994
123	0xbc31a336	-0.010842135
124	0x3c842e27	0.016135288
125	0xbca81ef0	-0.020522565
126	0xbe4425a7	-0.19154988
127	0xbd43cdab	-0.047803562
128	0xbd17ddb0	-0.037076652
129	0xbd487b89	-0.048945937
130	0xbea9002f	-0.33007953
131	0xbdd3a801	-0.103347786
132	0xbdcf05d0	-0.101085305
133	0x3cd6b9ca	0.026211638
134	0x3c43edb4	0.011958528
135	0x3d5e20b4	0.054230407
136	0xbde8f6d4	-0.11375204
137	0x3e041e12	0.12902096
138	0xbe423155	-0.18964131
139	0xbc5da602	-0.013528349
140	0x3c4f2822	0.012643846
141	0xbd81f25e	-0.06345056
142	0x3ce7a556	0.02827708
143	0xbe004a3a	-0.12528315
144	0x3c85513a	0.016274083
145	0xbdb5860b	-0.08863457
146	0x3df1334e	0.11777364
147	0x3de31251	0.11087478
148	0x3de7ead4	0.11324087
149	0x3eb790a3	0.35852537
150	0xbda810ac	-0.08206305
151	0x3ecd6748	0.4011786
152	0x3c3d3730	0.011548802
153	0xbe3b8edc	-0.18316215
154	0xbb19360b	-0.002337816
155	0xbe220b17	-0.15824543
156	0xbd8535a0	-0.06504369
157	0xbd4d3ff1	-0.050109807
158	0xbe65d160	-0.22443151
159	0xbe4c8ca7	-0.1997553
160	0x3eb4ae2a	0.35289127
161	0xbd05e889	-0.032692466
162	0x3c13bf0f	0.00901772
163	0xbdfbd3f6	-0.12296288
164	0xbca9b7bc	-0.020717494
165	0xbbec72b9	-0.0072158244
166	0xbdee2ca0	-0.11629605
167	0x3bf3e6c8	0.0074432828
168	0xbc27b3f6	-0.010235777
169	0xbde37813	-0.11106887
170	0xbdbc3e69	-0.09191591
171	0xbd9335e5	-0.07188014
172	0x3ed632e1	0.41835693
173	0x3c7b86a0	0.015351921
174	0xbe66ab78	-0.22526348
175	0xbc0ac38c	-0.008469474
176	0xbbced3d8	-0.006311875
177	0x3e8d4ad6	0.27596158
178	0xbe18408a	-0.1486837
179	0x3bcd6718	0.0062683932
180	0xbcf0111c	-0.029305033
181	0xbd38302f	-0.044967826
182	0x3d049d87	0.032376792
183	0xbd575df2	-0.052579828
184	0xbf03728d	-0.51346666
185	0xbe65a4c3	-0.22426133
186	0x3cc3aab0	0.023885101
187	0xbe05162f	-0.12996744
188	0x3db329dd	0.08748219
189	0x3d54f32f	0.05198973
190	0x3dbd7196	0.092501804
191	0xba04e140	-0.0005068965
192	0xbdec3a19	-0.11534519
193	0x3da9987f	0.082810394
194	0xbd53ebae	-0.051738434
195	0x3c0aa5d8	0.008462392
196	0x3d0a318a	0.03373865
197	0x3cae3e3e	0.021269914
198	0x3c76ee47	0.015071458
199	0xbd8727da	-0.06599398
200	0xbd1022fa	-0.035189606
201	0xbca39abe	-0.019971248
202	0xbb322750	-0.0027184077
203	0xbe2b4655	-0.16726048
204	0xbd2535a2	-0.04033435
205	0x3f04e4cc	0.51911616
206	0xbd8e9370	-0.06961715
207	0x3e667231	0.22504498
208	0x3c773ae1	0.015089721
209	0x3d412d18	0.047162145
210	0xbb8c1cec	-0.0042759087
211	0xbdc89f31	-0.09795988
212	0xbb521858	-0.0032057967
213	0x3ea92444	0.3303548
214	0x3b376cfe	0.0027988548
215	0xbc3fd97c	-0.011709567
216	0xbcce0ec6	-0.025153529
217	0x3b7bab04	0.0038401494
218	0x3d9b7f98	0.07592696
219	0xbc6e3956	-0.014540037
220	0x3c267114	0.010158796
221	0x3c321719	0.010869765
222	0xbf403868	-0.7508607
223	0xbddd04a2	-0.10791899
224	0x3bebe6c3	0.00719914
225	0x3d8414e7	0.06449299
226	0xbe69d7f0	-0.2283628
227	0xbe15e1b5	-0.14636882
228	0xbeb01220	-0.34388828
229	0xbe507d1f	-0.2036023
230	0x3d43a702	0.047766693
231	0x3e124b09	0.14286436
232	0x3d2411a7	0.040055897
233	0x3b6a02e2	0.0035707285
234	0xbe0d9350	-0.13825727
235	0xbd175288	-0.036943942
236	0xbc9a39f4	-0.018826462
237	0x3ed8e125	0.42359272
238	0xba791aa0	-0.00095025636
239	0xbdc720c5	-0.09723047
240	0x3d8a2c3b	0.067467175
241	0xbdd960f8	-0.106141984
242	0x3af974a2	0.0019031952
243	0x3f1c1fa2	0.6098577
244	0xbda63de3	-0.08117273
245	0xbda76d42	-0.08175136
246	0x3b199f20	0.0023440793
247	0xbe8a8ee0	-0.2706213
248	0xbfb70e4b	-1.4301237
249	0x3ce4b5fb	0.027918806
250	0xbe1cf49c	-0.15327686
251	0x3d4b1945	0.049584646
252	0x3dc67b61	0.096915014
253	0xbdf899ca	-0.12138708
254	0x3ca52207	0.020157827
255	0x3e2dbee5	0.16967352

linear1.bias f4 [3]
0	0xbecadfbe	-0.39623827
1	0xbca26481	-0.019823315
2	0xbcc4a8ff	-0.024006365

linear2.weight f4 [6, 3]
0	0x3e8282fe	0.25490564
1	0x3f00821d	0.5019854
2	0xbdb0bc47	-0.08629661
3	0x3deb96fd	0.11503408
4	0x3f0a2b7b	0.53972596
5	0xbe9be017	-0.30444404
6	0x3e8da8e8	0.27667928
7	0xbce0d7ed	-0.027446711
8	0xbed103a5	-0.40823093
9	0xbe0bc703	-0.13650136
10	0xbf110c6c	-0.5665958
11	0xbe8178d5	-0.252875
12	0x3ea476ff	0.32122037
13	0x3da6c9f4	0.08143988
14	0xbece36f2	-0.40276295
15	0xbd9ff365	-0.07810096
16	0xbf01d42a	-0.5071436
17	0x3ed9d876	0.4254796

linear2.bias f4 [6]
0	0xbf83bf4d	-1.0292755
1	0xbf11a973	-0.56899184
2	0xbf89b17f	-1.0757293
3	0x3f08e56e	0.5347508
4	0x3e03829c	0.12842792
5	0x3f0c3a59	0.5477653

linear3.weight f4 [12, 6]
0	0x3e9f3540	0.31095314
1	0x3ee8efb2	0.45495373
2	0x3ef8347a	0.48477536
3	0xbf119563	-0.5686857
4	0x3d72bfc6	0.05926492
5	0x3e8d3f73	0.2758747
6	0xbcaf5614	-0.02140335
7	0x3e44ecdc	0.1923098
8	0x3e81ed60	0.25376415
9	0xbe50280e	-0.2032778
10	0x3e50a702	0.20376208
11	0x3e238ca0	0.15971613
12	0xbf181593	-0.5940792
13	0xbef090a7	-0.4698536
14	0xbebf579f	-0.37371537
15	0x3f2116a0	0.6292515
16	0x3d1f4e9d	0.03889333
17	0xbf5adb72	-0.85491097
18	0xbd766c2c	-0.060161754
19	0x3e0f4f8b	0.13995187
20	0x3e3f2075	0.18664725
21	0xbf1eb1c3	-0.6198999
22	0x3e068bd2	0.13139275
23	0xbdbd63bf	-0.09247541
24	0x3e278e1e	0.16362807
25	0x3e845875	0.25848737
26	0xbe1d8154	-0.15381366
27	0x3e17623f	0.14783572
28	0x3e691d48	0.22765076
29	0x3e9851a1	0.29749778
30	0x3e8944e7	0.2681038
31	0x3d7c0ada	0.061533786
32	0x3ea0cf68	0.31408238
33	0xbf3bf49e	-0.7342013
34	0xbe02bdab	-0.12767665
35	0x3d9de058	0.07708806
36	0x3e77c564	0.24196392
37	0x3e235122	0.15948918
38	0x3e7dad29	0.24773087
39	0xbf092381	-0.535698
40	0x3d3af411	0.045642916
41	0x3e542b01	0.2071953
42	0x3e91663e	0.28398317
43	0x3e3ff56e	0.18745968
44	0x3eaee631	0.34159997
45	0xbf1c6258	-0.6108756
46	0x3cbff3b9	0.023431646
47	0x3e1cc21a	0.15308419
48	0x3e925085	0.28577057
49	0x3eb71d5c	0.35764587
50	0x3e1409c1	0.14456846
51	0xbe8c6d02	-0.27426916
52	0x3e95e40b	0.29275545
53	0x3ef957cb	0.48699793
54	0x3ea9a706	0.3313524
55	0x3ef9c91e	0.48786253
56	0x3e062b4d	0.13102455
57	0xbef74794	-0.48296797
58	0x3d82a2b1	0.06378687
59	0x3e500a64	0.20316464
60	0x3d1a2d80	0.03764105
61	0x3ecd948a	0.4015239
62	0x3e8449f8	0.25837684
63	0xbf18b1a1	-0.5964604
64	0xbd9d76d3	-0.076886795
65	0xbd579ecc	-0.052641675
66	0xbe6ace40	-0.2293024
67	0x3ea6f387	0.32607672
68	0xbd04039b	-0.03223
69	0xbd37da61	-0.044885997
70	0x3e809a82	0.2511788
71	0xbe0241f7	-0.12720476

linear3.bias f4 [12]
0	0xbc8bb35d	-0.0170533
1	0x3cecbfab	0.028899988
2	0x3f9cb20d	1.2241837
3	0x3e88c73e	0.2671451
4	0x3dda0cfe	0.10647009
5	0x3f0d1567	0.5511078
6	0x3e66fe14	0.2255786
7	0x3e4c21e1	0.19934799
8	0xbe94b580	-0.29044724
9	0x3e2f484e	0.17117426
10	0x3f114a42	0.56753933
11	0x3e5bb194	0.2145446

linear1.weight f4 [3, 1200]
0	0x3cab0e76	0.020880919
1	0x3c3165b1	0.010827468
2	0xbce3f2f5	-0.027825812
3	0x3cc9e2b2	0.02464423
4	0xbc5a3480	-0.013318181
5	0xbc1f04e2	-0.009705754
6	0x3cb8366b	0.022486886
7	0xbcb579d8	-0.022152826
8	0xbcbc6386	-0.022996675
9	0x3c80b7b2	0.015712593
10	0xbc969bcd	-0.018384838
11	0xbcea5cfc	-0.028608792
12	0xbcba3942	-0.02273238
13	0x3a65ad8a	0.0008761516
14	0x3caa9c6e	0.020826545
15	0x3c0b182c	0.00848965
16	0xbc17bfc8	-0.009262033
17	0xbce56aa9	-0.028004961
18	0xbbccfa08	-0.006255392
19	0x3c807cec	0.015684567
20	0x3c112fc8	0.00886149
21	0x3c55f623	0.013059172
22	0x3ccc1d7c	0.024916403
23	0xbc9d8a9f	-0.019231139
24	0xbca5478e	-0.020175721
25	0xbbd98ec9	-0.006639336
26	0xbb92e4a4	-0.0044828225
27	0xbc8337a9	-0.016017752
28	0x3c4ff920	0.012693673
29	0x3ca61160	0.020271957
30	0xbb271500	-0.0025494695
31	0x3c13b234	0.009014655
32	0xbc1caa01	-0.009562016
33	0x3b9b2168	0.004734207
34	0xbbfa0de0	-0.0076310486
35	0xbb444437	-0.0029947886
36	0xbce95807	-0.028484358
37	0xba177ac0	-0.0005778484
38	0x3bd75e20	0.0065725
39	0xbb7e7558	-0.0038827267
40	0x3cb7957a	0.022410143
41	0xbc578508	-0.013154276
42	0x3c47a4cc	0.012185287
43	0xb9ffa1ae	-0.0004875785
44	0xbc995d45	-0.018721232
45	0x3b674d30	0.003529381
46	0x3bcba68d	0.0062149228
47	0xbceecbeb	-0.02914997
48	0x3c11f614	0.008908767
49	0xbd01306c	-0.03154032
50	0x3ace0647	0.0015718424
51	0x3ca2bb45	0.019864688
52	0xbb50fe11	-0.0031889717
53	0x3b42dbe3	0.0029733113
54	0xbccdc38b	-0.025117656
55	0xbc9f433f	-0.019441245
56	0xbc445ef9	-0.011985534
57	0x3b1b9560	0.0023740157
58	0xbc911833	-0.017711734
59	0xbc88e5e0	-0.016711175
60	0x3c9f1e19	0.019423531
61	0x3bc4510e	0.005991108
62	0x3c83f2c6	0.016106974
63	0xbbae5808	-0.0053205527
64	0x3baf8e30	0.0053575262
65	0xbc757aa9	-0.014982858
66	0xbb0de5b7	-0.0021651813
67	0x3cc82c42	0.024435166
68	0xbcda91c3	-0.026680833
69	0x3c958eb1	0.018256517
70	0x3cc1af30	0.023643106
71	0x3cb11c7a	0.021620024
72	0xbc09bc2f	-0.008406683
73	0xbaa349e1	-0.0012457931
74	0xbcffa8c2	-0.0312084
75	0x3c8a40b4	0.016876556
76	0xbbafd76c	-0.0053662565
77	0xbba3c755	-0.0049981275
78	0x3c993aed	0.018704856
79	0x3cdbd65a	0.02683561
80	0x3ad789f0	0.0016444307
81	0x39907b8d	0.00027557873
82	0xbc1205ae	-0.008912487
83	0xbc36e79a	-0.011163617
84	0xbce5793d	-0.028011912
85	0xbc3c3e02	-0.011489393
86	0xbc8cfc81	-0.017210247
87	0xbc9950a6	-0.018715214
88	0x3c20ab30	0.009806439
89	0x3c606019	0.0136947865
90	0x3c8b7000	0.01702118
91	0xbc9d8314	-0.019227542
92	0x3c2063a2	0.009789379
93	0x3c61c118	0.013778947
94	0xbccdb6f6	-0.025111657
95	0x3c99ef96	0.018791001
96	0xbc8e1e36	-0.01734839
97	0x3c3068dc	0.010767188
98	0xbc8b4e3d	-0.01700508
99	0xbbbcf794	-0.0057668183
100	0xbb21d960	-0.0024696216
101	0xbcb21234	-0.021737196
102	0xbc07ff64	-0.008300636
103	0x3c3a1cce	0.011359407
104	0xbc27ad43	-0.01023418
105	0xbb4417a0	-0.0029921308
106	0x3cb59418	0.022165343
107	0xbc8b68ca	-0.01701774
108	0xbb904fec	-0.0044040587
109	0x3cb95468	0.022623256
110	0xbc61046e	-0.013733966
111	0xbc2905c2	-0.010316314
112	0x3c164d54	0.00917371
113	0xbc248dd2	-0.010043578
114	0x3c83e559	0.016100572
115	0xbbc61a40	-0.0060456097
116	0x3c4b7eee	0.012420399
117	0xbb83ea9c	-0.0040257704
118	0xbca2f4be	-0.019892093
119	0xbc55ce12	-0.013049619
120	0xbc95540f	-0.018228559
121	0xbd05c7df	-0.032661315
122	0x3c8c15f1	0.017100306
123	0xbc9dece1	-0.019277992
124	0xbb36a721	-0.0027870613
125	0xbcd97bb2	-0.02654824
126	0xbd0e3315	-0.034716684
127	0x3c8ace6f	0.016944138
128	0x3c4a86fc	0.012361284
129	0xbce683c2	-0.028138999
130	0xbc1cbe12	-0.009566801
131	0xbc3d5e69	-0.011558154
132	0xbc27bd25	-0.010237967
133	0x3cc663f8	0.02421759
134	0x3ca83c3e	0.020536538
135	0x3cac3e2e	0.021025743
136	0x3cb88896	0.022526067
137	0xbc95d399	-0.018289374
138	0x3cad5bea	0.021161992
139	0xbce4a7c8	-0.027912036
140	0xbd0f872a	-0.035041012
141	0x3b74b444	0.0037338892
142	0x3c0fb1ec	0.008770447
143	0x3aba5faa	0.0014219184
144	0xbccacc1d	-0.024755532
145	0x3c3de17c	0.011589404
146	0xbcbc18d6	-0.022961061
147	0x3c9bfe26	0.019042086
148	0xbc2f0044	-0.010681216
149	0x3c91e6e1	0.017810287
150	0xbb922eb6	-0.004461135
151	0xbaea6607	-0.001788319
152	0x3caaa958	0.020832703
153	0xbc3fd790	-0.011709109
154	0x3b568150	0.0032730885
155	0x3c1e12eb	0.009648065
156	0xbcd297e7	-0.025707198
157	0x3c165909	0.009176501
158	0xbca33cb6	-0.01992641
159	0xbc6f90e9	-0.014621952
160	0xbcf87293	-0.03032807
161	0x3b4a47e1	0.0030865597
162	0xbc1db2be	-0.009625135
163	0x3c3bf045	0.011470859
164	0x3cc6795a	0.024227787
165	0x3c1e13d8	0.009648286
166	0xbbcb93cc	-0.006212687
167	0xbb276df8	-0.0025547724
168	0x3b879de0	0.004138693
169	0xbca51a84	-0.020154245
170	0x3c37f8e4	0.011228774
171	0x3b5ded10	0.0033863224
172	0xbc960e51	-0.018317373
173	0xbcb2b53a	-0.021814931
174	0xbc7e57f6	-0.015523901
175	0x3c98a7bf	0.018634675
176	0xbc6519ed	-0.013983232
177	0xbc816953	-0.015797293
178	0xbd059210	-0.03261
179	0xbc859934	-0.016308405
180	0xbcd91ee5	-0.02650399
181	0xbc9fc250	-0.019501835
182	0x3aa0c14f	0.0012264642
183	0xbbe27f08	-0.006912116
184	0x3bed0498	0.0072332136
185	0xbc91cf5d	-0.017799074
186	0xbcad5098	-0.021156594
187	0xbc9a1d8b	-0.018812915
188	0xbcf0ff58	-0.029418632
189	0x3c4489a0	0.011995703
190	0xbc0c33ae	-0.008557243
191	0xbcda6cd9	-0.02666323
192	0x3c7b9de2	0.015357466
193	0xbc4b78db	-0.012418951
194	0xbcf90a4d	-0.03040042
195	0x3c1a8944	0.009432141
196	0x3c2d6234	0.0105824955
197	0xbcdf649b	-0.027269652
198	0xbbacae0a	-0.0052697705
199	0xbcc73145	-0.024315486
200	0xbac7fc17	-0.0015257624
201	0xba389962	-0.0007041899
202	0x3c1f4f8c	0.009723555
203	0xbcc68f5f	-0.024238287
204	0x3c89ccbd	0.01682126
205	0x3cec12c0	0.028817534
206	0x3c83bb0a	0.016080398
207	0xbb3fa535	-0.0029242758
208	0x3aabc390	0.0013104547
209	0x3b2911e0	0.0025798008
210	0xbcafd89d	-0.021465594
211	0x3c923e36	0.01785193
212	0x3ccddb8a	0.025129098
213	0xbcd34513	-0.025789773
214	0xbc559e99	-0.013038301
215	0x3b96f2c0	0.004606575
216	0xbcc1ec6e	-0.023672309
217	0xbc031a7e	-0.008001922
218	0x3cc09200	0.023507118
219	0x3c6c0728	0.014406003
220	0xbcea1929	-0.02857645
221	0x3cbce6d6	0.02305929
222	0x3c500c3c	0.012698229
223	0xb99dd2e4	-0.000301025
224	0xbc38136e	-0.011235101
225	0xbc8a6056	-0.01689164
226	0xbcb23a31	-0.021756263
227	0x3a7a6467	0.0009551704
228	0xbcaea9a9	-0.021321135
229	0xbc41a252	-0.011818485
230	0xbb4baf58	-0.0031079855
231	0xbc5683b6	-0.013092926
232	0x3ba1a8d8	0.004933458
233	0x3b020e7a	0.0019845054
234	0xbc847ee0	-0.01617378
235	0xbc9da1b7	-0.01924215
236	0x3cb6931a	0.02228694
237	0x3c3738cd	0.011182976
238	0xbcbbb212	-0.022912059
239	0x3ca1e45a	0.019762207
240	0xbcf75d88	-0.030195966
241	0x3c9268b0	0.017872185
242	0x3c326bd8	0.01088997
243	0xbcbd2b66	-0.023091983
244	0x3c9475e7	0.018122626
245	0xbca91d99	-0.020643996
246	0x3ba0a268	0.004902173
247	0x3c9cd34c	0.019143723
248	0xbc4cb787	-0.012494928
249	0x3b3e274d	0.0029015124
250	0xbb90afb4	-0.0044154767
251	0xbc1eb59e	-0.009686856
252	0x3c140438	0.009034209
253	0xbc2fabd3	-0.010722118
254	0x3c7e389d	0.015516427
255	0xbc2692a7	-0.010166801

linear1.bias f4 [3]
0	0x3c8c8fd1	0.01715842
1	0x3e560d76	0.20903572
2	0xbd043f07	-0.03228667

linear2.weight f4 [6, 3]
0	0x3d207050	0.03916961
1	0x3e58149a	0.21101609
2	0x3e75fed4	0.2402299
3	0x3ee2413f	0.44190404
4	0xbf420c1f	-0.75799745
5	0x3de11680	0.1099062
6	0x3d9b50c8	0.07583767
7	0x3ed7b6cb	0.42131647
8	0x3e910178	0.28321433
9	0x3f053df4	0.5204766
10	0x3db1f1e1	0.08688713
11	0xbee519e9	-0.4474633
12	0x3e814154	0.25245154
13	0x3cefa7e9	0.02925487
14	0xbe32120c	-0.17389697
15	0xbe4382b0	-0.19092822
16	0xbc8b9463	-0.01703853
17	0xbedb0552	-0.42777497

linear2.bias f4 [6]
0	0xbe1ed3c3	-0.15510468
1	0x3eae2366	0.34011382
2	0xbeba5093	-0.36389598
3	0xbf187cab	-0.5956523
4	0x3f1fecc4	0.6247065
5	0x3ec8d3eb	0.3922418

linear3.weight f4 [12, 6]
0	0xbded66c6	-0.11591868
1	0xbb354854	-0.002766152
2	0x3d104e42	0.035230882
3	0x3c8cd741	0.017192485
4	0x3e8359a0	0.25654316
5	0x3ef4dc89	0.47824505
6	0x3e994d67	0.29941866
7	0xbee34912	-0.44391686
8	0x3cc5cd5a	0.02414577
9	0x3df943f7	0.121711664
10	0x3dbd1258	0.092320144
11	0x3ec6abbf	0.38802907
12	0x3e655f2b	0.22399585
13	0xbeff06bf	-0.49809834
14	0x3e889399	0.26675108
15	0x3eace7a8	0.3377049
16	0x3bc74e25	0.0060823136
17	0xbd91276e	-0.07087599
18	0x3e580928	0.21097243
19	0xbf085791	-0.53258616
20	0x3e0401b5	0.12891276
21	0x3e5477c8	0.20748818
22	0xbdd5fab2	-0.10448207
23	0x3d8ca913	0.06868186
24	0x3de4e723	0.11176898
25	0xbeb6768b	-0.35637316
26	0x3da1ec26	0.0790637
27	0x3d952408	0.07282263
28	0x3e830cff	0.25595853
29	0x3ed3f958	0.41401172
30	0x3eda1fc8	0.42602372
31	0xbcaa2916	-0.020771544
32	0xbe6a8525	-0.22902353
33	0x3c79a109	0.015236148
34	0x3f237a7c	0.6385877
35	0x3e503333	0.20332031
36	0x3e66821a	0.22510567
37	0x3cf6f7f7	0.030147536
38	0xbe16387c	-0.14669985
39	0x3c94651a	0.018114615
40	0x3f0ee5f5	0.55819637
41	0x3e2ac638	0.16677177
42	0x3e4b6dd0	0.19866109
43	0x3e6b05ef	0.22951482
44	0xbe478e8b	-0.1948797
45	0xbbd11f77	-0.0063819247
46	0x3f2957ff	0.66149896
47	0x3f0d4525	0.5518363
48	0x3ded1ea4	0.1157811
49	0xbe58b055	-0.21161015
50	0x3ce683d2	0.028139029
51	0x3cf02b43	0.029317504
52	0xbe4a631e	-0.19764373
53	0x3e828656	0.25493115
54	0xbe81d33b	-0.2535647
55	0x3c709632	0.014684247
56	0x3dcad307	0.099035315
57	0x3986f228	0.00025738892
58	0x3eb66e09	0.35630825
59	0x3ed93ac8	0.4242766
60	0xbe19be63	-0.15014033
61	0xbe743422	-0.23848012
62	0x3e16ebc5	0.14738376
63	0x3d253fa8	0.04034391
64	0x3e00218f	0.12512802
65	0xbdcf1d2c	-0.10112986
66	0xbd21855f	-0.039433833
67	0xbee08a69	-0.438556
68	0x3e45e98b	0.19327371
69	0x3de031b7	0.10946982
70	0x3e17afb9	0.14813127
71	0x3ea1eff3	0.3162838

linear3.bias f4 [12]
0	0x3eabe2d4	0.33571494
1	0x3d34abe0	0.044109225
2	0xbe77e640	-0.24208927
3	0x3e164bea	0.14677396
4	0x3a94130d	0.0011297181
5	0x3d9bb866	0.076035306
6	0x3e4d4b0b	0.20048158
7	0x3e16bb10	0.14719796
8	0x3f05d2ef	0.52274984
9	0x3e9464e6	0.2898323
10	0x3ece5e21	0.4030619
11	0x3cda61a2	0.026657883
