epoch_100_model/소입model.pth (torch, 552224 bytes, 18 tensors)

linear1.weight f4 [60, 120]
-0.029736964 -0.035396654 -0.09229972 -0.07751776 0.2271121 0.23298883 0.022257296 0.15790007
0.20253778 0.1880207 -0.017821182 0.018941289 -0.05291119 -0.054259665 0.24012382 0.041863896
0.030842239 0.0015738932 0.070062295 0.066775694 -0.1724369 0.0016908206 0.056023028 -0.01004953
0.24369213 -0.0039005075 0.018781977 -0.054196704 -0.08223864 -0.04332891 -0.12896417 0.06416013
0.042229857 0.025821712 0.13370083 0.0038504046 0.032664966 -0.090537064 -0.1328747 -0.03138832
-0.06497674 -0.03646209 -0.10051762 -0.026103519 0.14857279 0.2569231 -0.032538623 0.0999075
0.13004048 0.116321884 -0.065482475 -0.029848162 -0.11230631 -0.041061077 0.17951663 0.05401177
0.012147199 0.102549374 0.2707282 0.07466334 -0.13055445 -0.0008951661 -0.039692096 -0.034119114
0.23104173 -0.0782145 0.014183544 -0.017749425 0.15180041 0.0354997 -0.10608658 -0.056175727
-0.0480311 -0.07836368 0.14108552 0.07725839 0.04192909 0.11738918 0.16271554 0.0642166
-0.111066006 0.04856844 -0.01603202 0.011612477 0.22413544 0.049022146 -0.01377863 0.009375454
0.13539633 0.012703975 -0.09694533 -0.057521727 -0.080384895 -0.05255229 0.16075698 0.09182723
0.011977788 0.06800223 0.27794534 0.14356437 -0.08286396 0.054605372 0.020006634 0.002407227
0.128639 -0.05176922 0.0013615839 -0.02018395 0.06427385 0.018063072 -0.17272396 0.07550294
0.043022025 0.08340137 0.21225037 -0.18747658 0.0260722 -0.11292567 -0.116626516 -0.10758889
0.004500007 0.027261771 0.09300452 0.047797415 -0.21702401 -0.34823748 0.00015240491 -0.21977317
-0.20934723 -0.10554755 0.1435113 -0.06958526 -0.02665185 0.0015222667 -0.20588836 0.13595925
0.009345892 0.08462862 0.026153598 -0.0126530845 0.01567889 0.0660841 0.032475997 0.092432834
-0.25237647 -0.14885992 0.034670584 -0.07454792 -0.087391205 -0.11747051 0.073882066 -0.029032279
-0.018564599 -0.01630452 -0.2571004 0.18038791 -0.07527388 0.111295015 0.13382715 0.13957381
0.111809604 -0.021248769 -0.03921318 -0.0609415 -0.05727419 -0.10470712 -0.0047526634 0.10896744
0.2382709 -0.00086141087 0.095200606 0.027299002 -0.0023330217 -0.05582612 -0.14154236 0.27649865
-0.06066842 -0.03890136 -0.21803132 0.08443322 -0.079647474 -0.0074400567 0.10175145 0.13251306
-0.17162687 -0.17473115 0.060537443 -0.084774695 -0.28518438 -0.12721899 0.029717518 -0.026813783
-0.025923071 -0.009390939 -0.22170787 0.042599075 0.03893477 0.04690287 -0.10135881 0.001143092
0.03679668 0.059408765 0.12038918 0.0927113 -0.23958816 -0.209824 0.032176502 -0.11534708
-0.26319948 -0.09424926 0.18123658 -0.067495994 -0.059759818 -0.07596469 -0.085541114 0.47445044
0.009720967 0.2510633 0.17839292 0.18830867 0.058878385 0.027397979 -0.026945561 -0.006299616
-0.19212916 0.28130805 -0.03781767 0.10256817 0.16683888 0.18058436 0.16209759 -0.03497905
-0.1157454 -0.12855425 -0.20399295 0.290112 -0.06238207 0.17891252 0.3698353 0.167513
0.061433207 0.009851895 0.0182966 -0.051895842 -0.03368545 0.030618561 0.04905166 -0.06675743
0.04428774 -0.030904846 0.023644673 -0.06164963 -0.0686119 -0.07792653 -0.031094976 -0.09217971
00000000: ef9a f3bc 15fc 10bd a307 bdbd a2c1 9ebd
00000010: 1390 683e a094 6e3e ef54 b63c 8eb0 213e
00000020: 1066 4f3e 8088 403e bafd 91bc c32a 9b3c
00000030: 67b9 58bd 623f 5ebd 05e3 753e 7a79 2b3d
00000040: dda8 fc3c 184b ce3a d27c 8f3d b2c1 883d
00000050: 4c93 30be 869e dd3a 6778 653d c9a6 24bc
00000060: 6e8a 793e a89f 7fbb a9dc 993c 5dfd 5dbd
00000070: bb6c a8bd a879 31bd 2f0f 04be 6366 833d
00000080: 37f9 2c3d 0e88 d33c dfe8 083e 1257 7c3b
00000090: b3cb 053d 7f6b b9bd 4e10 08be 0a91 00bd
000000a0: 8612 85bd 4659 15bd 2fdc cdbd 0cd7 d5bc
000000b0: 7723 183e 6d8b 833e 3847 05bd 4e9c cc3d
000000c0: 5529 053e 2b3a ee3d ad1b 86bd 2284 f4bc
000000d0: da00 e6bd a92f 28bd 35d3 373e 723b 5d3d
000000e0: 0c05 473c 6805 d23d e39c 8a3e 18e9 983d
000000f0: 11b0 05be 94a9 6aba 2e94 22bd 7cc0 0bbd
00000100: 3496 6c3e ec2e a0bd 1862 683c 3e67 91bc
00000110: 9171 1b3e 2268 113d ec43 d9bd 8518 66bd
00000120: 42bc 44bd 237d a0bd b978 103e a639 9e3d
00000130: d6bd 2b3d bd69 f03d e79e 263e fe83 833d
00000140: 9376 e3bd b3ef 463d 9555 83bc 4242 3e3c
00000150: c383 653e 72cb 483d c3bf 61bc 819b 193c
00000160: 56a5 0a3e 5524 503c 468b c6bd e79b 6bbd
00000170: d6a0 a4bd 1241 57bd 7a9d 243e ea0f bc3d
00000180: 7c3e 443c c144 8b3d da4e 8e3e 8a02 133e
00000190: 94b4 a9bd e2a9 5f3d f4e4 a33c 91c2 1d3b
000001a0: f1b9 033e f60b 54bd 2d77 b23a d058 a5bc
000001b0: 02a2 833d 02f9 933c 8dde 30be 49a1 9a3d
000001c0: dd37 303d 56ce aa3d 2958 593e dcf9 3fbe
000001d0: 5e95 d53c 9345 e7bd e2d9 eebd 9057 dcbd
000001e0: cb74 933b 1454 df3c 2779 be3d 39c7 433d
000001f0: 8b3b 5ebe 2f4c b2be e2ce 1f39 380c 61be
00000200: 1f5f 56be 5029 d8bd a0f4 123e b782 8ebd
00000210: fb54 dabc cb86 c73a 66d4 52be e738 0b3e
00000220: 831f 193c c551 ad3d 1240 d63c e24e 4fbc
00000230: 0471 803c 1a57 873d 8d05 053d 6d4d bd3d
00000240: 7d37 81be bc6e 18be be02 0e3d 94ac 98bd
00000250: 29fa b2bd 6194 f0bd 7b4f 973d 1ad5 edbc
00000260: c914 98bc 0f91 85bc aaa2 83be 9cb7 383e
00000270: 3129 9abd a4ee e33d fc09 093e 70ec 0e3e
00000280: 6ffc e43d e611 aebc 009e 20bd cb9d 79bd
00000290: 5798 6abd b070 d6bd 3bbc 9bbb 522a df3d
000002a0: 49fd 733e 4ed0 61ba 89f8 c23d 28a2 df3c
000002b0: 9ce5 18bb eea9 64bd 7bf0 10be 3b91 8d3e
000002c0: 737f 78bd 0857 1fbd 9a43 5fbe 53eb ac3d
000002d0: 371e a3bd b8cb f3bb 1063 d03d 81b1 073e
000002e0: f4be 2fbe b9ec 32be 1cf6 773d 5b9e adbd
000002f0: b003 92be b245 02be 2772 f33c 94a8 dbbc
00000300: 9f5c d4bc 74dc 19bc 6307 63be 5e7c 2e3d
00000310: 117a 1f3d 391d 403d 3595 cfbd ced3 953a
00000320: 1eb8 163d 9b56 733d 9a8e f63d 6cdf bd3d
00000330: 9956 75be 1adc 56be 82cb 033d 173b ecbd
00000340: 15c2 86be c205 c1bd 1596 393e 573b 8abd
00000350: b6c6 74bd 6093 9bbd 2e30 afbd 2beb f23e
00000360: b144 1f3c 5e8b 803e a2ac 363e fdd3 403e
00000370: 762a 713d ba71 e03c f0bc dcbc 026d cebb
00000380: 82bd 44be 9c07 903e b3e6 1abd 430f d23d
00000390: d0d7 2a3e 1beb 383e e9fc 253e 3146 0fbd
000003a0: ed0b edbd baa3 03be 87e3 50be 8f89 943e
000003b0: 5784 7fbd d834 373e 0d5b bd3e 8788 2b3e
000003c0: 63a1 7b3d d869 213c c0e2 953c bc90 54bd
000003d0: c1f9 09bd c7d3 fa3c 65ea 483d 1fb8 88bd
000003e0: 1067 353d 292c fdbc 79b2 c13c 5384 7cbd
000003f0: 6584 8cbd f297 9fbd e4ba febc b7c8 bcbd

linear1.bias f4 [60]
-0.062249012 -0.050712604 0.032917447 -0.032711197 -0.049466487 0.061638135 0.0446383 -0.09578907
-0.07295327 -0.028179893 0.024918681 -0.07237532 0.074756294 0.005158335 0.02053072 -0.06979715
0.03739642 -0.046946198 0.09068201 0.0026657784 -0.094652876 0.0364561 0.13805729 -0.0077411486
0.017527135 0.023046799 0.032901444 0.07464267 0.07539011 -0.06384413 -0.048052303 -0.0035025529
0.04096459 0.061073903 0.06502727 0.071254574 -0.05584453 0.18103363 0.014521207 -0.10442055
0.014914625 0.028928153 0.06584357 0.019464724 -0.01934756 -0.07475748 -0.020168018 0.031329706
-0.03248144 -0.017817043 0.029124271 -0.031741496 0.045208186 0.11907158 0.10611186 -0.081717916
0.06572914 0.05756114 -0.090373166 0.045282353
00000000: d2f8 7ebd 05b8 4fbd 72d4 063d 2dfc 05bd
00000010: 5f9d 4abd 4578 7c3d a6d6 363d 0f2d c4bd
00000020: 8668 95bd 85d9 e6bc 4322 cc3c 8339 94bd
00000030: d419 993d 4007 a93b 0a30 a83c cff1 8ebd
00000040: fd2c 193d a84a 40bd 7db7 b93d 57b4 2e3b
00000050: 5ed9 c1bd fe52 153d e45e 0d3e 76a9 fdbb
00000060: 1195 8f3c a4cc bc3c aac3 063d 42de 983d
00000070: 2166 9a3d b6c0 82bd 7ed2 44bd 168b 65bb
00000080: 7cca 273d a128 7a3d 042d 853d ebed 913d
00000090: 3cbd 64bd e160 393e 5bea 6d3c 71da d5bd
000000a0: 795c 743c bcfa ec3c fed8 863d 7c74 9f3c
000000b0: c67e 9ebc 731a 99bd 6637 a5bc 9453 003d
000000c0: 420b 05bd 0cf5 91bc 0696 ee3c 5f03 02bd
000000d0: 382c 393d cddb f33d 2d51 d93d b95b a7bd
000000e0: 009d 863d 3bc5 6b3d 9115 b9bd fd79 393d

linear2.weight f4 [30, 60]
0.06523185 0.38154155 -0.11026621 0.21928799 -0.020067632 0.04709379 0.15576138 -0.06825913
-0.114988565 -0.09467291 -0.12495663 0.0037397593 0.021247352 -0.101214014 0.051446863 0.15329786
-0.014757419 0.05341254 0.22974032 -0.016363734 -0.03991094 0.12830195 0.2830263 -0.072605185
0.1570336 -0.03489144 0.34199846 -0.1029546 0.10394506 0.04355316 0.2750987 -0.124877706
-0.103072375 0.26137364 -0.063997716 -0.08513008 -0.120142736 0.49494088 0.16735701 -0.07428732
-0.09743307 -0.04679528 -0.073344715 0.19840153 0.09941322 0.079018265 0.1603762 0.011013343
-0.026645295 0.082560815 -0.053102992 0.010256757 0.11682731 0.50238 0.3950603 0.09366117
0.20357473 0.03488426 -0.07366216 0.16902837 -0.16206759 -0.14618899 0.060202006 0.06974644
0.062014 -0.019615788 -0.050700556 0.040234953 -0.08297757 -0.06858809 -0.032512974 -0.05611956
-0.010087281 -0.04096417 0.09418033 0.107541904 -0.091959186 0.095602214 0.0025156853 0.03217137
-0.021225018 -0.15480548 0.08989542 0.0399893 -0.10387703 -0.07900318 0.105220035 0.10779868
0.047164265 0.08480703 -0.006275656 0.067627 0.019709304 -0.011884175 -0.049572565 -0.089691676
0.032093227 -0.16323297 0.1878313 -0.04197833 0.089338236 0.106990844 -0.06502097 -0.17335437
0.1110848 0.024749309 -0.22587644 -0.047264148 -0.069273315 0.10405702 0.12769413 0.018042533
0.048489705 0.015275528 0.06647303 -0.08506796 -0.04621755 -0.11111684 -0.07409741 0.02722902
-0.047358043 -0.1380642 0.008639305 0.011296157 -0.11919726 0.0082663745 -0.041024476 0.0561477
0.08865401 0.07517347 -0.012097864 0.04342489 0.10325575 0.07636787 0.07992238 -0.08893244
-0.0177298 -0.031423464 -0.07339534 -0.00307731 0.10596594 -0.033713806 -0.060187556 -0.04135986
-0.065716594 -0.11913247 -0.111702815 -0.058688127 0.074264035 -0.005033367 -0.06740184 0.012984842
0.036577538 -0.052384116 0.11028908 -0.114080876 -0.026670955 -0.14651404 -0.015107061 -0.041996166
0.06515841 0.049998745 0.09384428 0.038872052 -0.034687117 0.03401655 -0.045603275 -0.10932493
-0.07859686 0.12278335 0.12599456 -0.15695871 -0.09452519 0.08534766 -0.13559493 -0.091471925
-0.004483869 -0.040955592 0.031603448 -0.00200529 -0.068455145 0.04009949 -0.033766672 0.06755296
-0.10411291 0.06327585 0.24792072 0.0031846666 0.034566313 0.04348482 -0.024320316 0.075831205
0.039085284 -0.033518575 -0.026124377 -0.04300389 0.094425075 0.009664044 -0.10692461 0.120221004
-0.11423292 0.15910105 0.14908037 -0.008713349 0.052336685 -0.012493961 -0.021339294 0.058529153
0.078667924 0.12054461 0.08735079 -0.02124703 -0.1001211 0.064823255 0.06332207 -0.051726583
0.047796965 0.15557319 0.056313638 -0.06029267 0.15570766 -0.11220037 0.043515384 0.050660245
0.09193828 -0.1223288 0.04696578 0.12414407 -0.09620324 0.089470185 0.08688953 0.041972827
-0.07011826 0.00994962 -0.058656182 -0.08904454 0.07884763 -0.09654825 -0.010048268 0.06412569
-0.1823315 -0.14940621 -0.075408906 0.045891065 -0.12576036 -0.12027165 -0.0058576963 -0.045127884
-0.06424959 -0.06817246 -0.02426526 -0.011236623 -0.09247051 -0.099772304 0.057352304 0.032033995
00000000: 4798 853d 6a59 c33e 40d3 e1bd 088d 603e
00000010: e064 a4bc 6be5 403d e97f 1f3e 71cb 8bbd
00000020: 207f ebbd dfe3 c1bd 43e9 ffbd c016 753b
00000030: ed0e ae3c 4b49 cfbd f2b9 523d 1dfa 1c3e
00000040: 1ac9 71bc 1cc7 5a3d 0c41 6b3e 3d0d 86bc
00000050: a779 23bd 9661 033e d3e8 903e 07b2 94bd
00000060: 6bcd 203e 54ea 0ebd 6c1a af3e dcd9 d2bd
00000070: 26e1 d43d cc64 323d bdd9 8c3e e2bf ffbd
00000080: 9c17 d3bd c4d2 853e 3c11 83bd ae58 aebd
00000090: 650d f6bd e468 fd3e a35f 2b3e f323 98bd
000000a0: fd8a c7bd 68ac 3fbd c135 96bd c529 4b3e
000000b0: 2999 cb3d 54d4 a13d a939 243e 4f71 343c
000000c0: 3c47 dabc a515 a93d 8682 59bd f50b 283c
000000d0: 2843 ef3d fa9b 003f 5845 ca3e 6dd1 bf3d
000000e0: e575 503e cce2 0e3d 30dc 96bd c615 2d3e
000000f0: 0cf5 25be 91b2 15be 6196 763d 39d7 8e3d
00000100: 6402 7e3d 4ab1 a0bc 63ab 4fbd 68cd 243d
00000110: 25f0 a9bd ea77 8cbd 532c 05bd a0dd 65bd
00000120: 2045 25bc 0cca 27bd 9ee1 c03d ee3e dc3d
00000130: 1955 bcbd 18cb c33d 32de 243b 20c6 033d
00000140: 17e0 adbc 5485 1ebe 171b b83d d2cb 233d
00000150: 7bbd d4bd 6bcc a1bd 9a7d d73d 8ec5 dc3d
00000160: 512f 413d 4faf ad3d 05a4 cdbb 0680 8a3d
00000170: 6875 a13c d8b5 42bc 9a0c 4bbd 45b0 b7bd
00000180: 3074 033d 8b26 27be d956 403e 78f1 2bbd
00000190: f7f6 b63d 041e db3d b729 85bd cf83 31be
000001a0: 6d80 e33d 10bf ca3c 274c 67be 0d98 41bd
000001b0: 2bdf 8dbd d91b d53d 40c2 023e efcd 933c
000001c0: 249d 463d 3546 7a3c 0323 883d 1c38 aebd
000001d0: 9d4e 3dbd 3a91 e3bd 62c0 97bd 650f df3c
000001e0: 82fa 41bd b460 0dbe df8b 0d3c 8413 393c
000001f0: b11d f4bd b06f 073c 4809 28bd 21fb 653d
00000200: 3c90 b53d 8cf4 993d 1f36 46bc 4cde 313d
00000210: c077 d33d c266 9c3d 58ae a33d 3622 b6bd
00000220: 163e 91bc e4b5 00bd 4c50 96bd b2ac 49bb
00000230: ac04 d93d 7d17 0abd 3a87 76bd f568 29bd
00000240: 6c96 86bd b9fb f3bd 72c4 e4bd f662 70bd
00000250: be17 983d f1ee a4bb fa09 8abd 60be 543c
00000260: 54d2 153d ba90 56bd 3edf e13d 3ca3 e9bd
00000270: 0c7d dabc c707 16be 9b83 77bc 2c04 2cbd
00000280: c671 853d 7ccb 4c3d 6e31 c03d 4d38 1f3d
00000290: 1414 0ebd f054 0b3d 80ca 3abd c0e5 dfbd
000002a0: 64f7 a0bd d675 fb3d b804 013e c9b9 20be
000002b0: 6c96 c1bd c1ca ae3d 66d9 0abe a255 bbbd
000002c0: 6bed 92bb 0dc1 27bd 9e72 013d 2f6b 03bb
000002d0: 3632 8cbd 5d3f 243d ec4e 0abd 3559 8a3d
000002e0: 2639 d5bd c596 813d eede 7d3e d7b5 503b
000002f0: 6895 0d3d 231d 323d 663b c7bc 644d 9b3d
00000300: e417 203d c64a 09bd ca02 d6bc d924 30bd
00000310: ef61 c13d f055 1e3c 4afb dabd 6e36 f63d
00000320: f3f2 e9bd 63eb 223e 86a8 183e 6fc2 0ebc
00000330: fe5e 563d 78b3 4cbc becf aebc 44bc 6f3d
00000340: a61c a13d 18e0 f63d f9e4 b23d 400e aebc
00000350: 4b0c cdbd 0ec2 843d 00af 813d 41df 53bd
00000360: c0c6 433d 944e 1f3e 21a9 663d 72f5 76bd
00000370: d471 1f3e 4fc9 e5bd 303d 323d 1e81 4f3d
00000380: 234a bc3d 8687 fabd 315f 403d 3f3f fe3d
00000390: 3406 c5bd 253c b73d 23f3 b13d b3eb 2b3d
000003a0: 2a9a 8fbd bb03 233c 7741 70bd fc5c b6bd
000003b0: de7a a13d 17bb c5bd 7ea1 24bc 5454 833d
000003c0: 1cb5 3abe f1fd 18be fc6f 9abd 45f8 3b3d
000003d0: 53c7 00be fc50 f6bd ebf1 bfbb 04d8 38bd
000003e0: 4a95 83bd 019e 8bbd f0c7 c6bc d019 38bc
000003f0: 2e61 bdbd 6c55 ccbd 40ea 6a3d 1436 033d

linear2.bias f4 [30]
0.01328875 -0.17373545 0.050810628 -0.12746319 -0.046978384 0.103684865 -0.020214729 0.10444101
-0.024155144 -0.0041812044 -0.046104524 -0.027746145 0.021622032 -0.012312193 0.049212836 -0.02377505
0.049596332 0.08730299 -0.07682075 0.03980436 -0.0962059 -0.03394679 -0.20362669 -0.09575591
0.00011537905 0.09903265 -0.026750796 0.19224131 -0.06530506 -0.041114062
00000000: 0fb9 593c b5e7 31be ce1e 503d b685 02be
00000010: 686c 40bd bb58 d43d 5c99 a5bc 2be5 d53d
00000020: 02e1 c5bc 7c02 89bb 19d8 3cbd e24b e3bc
00000030: b020 b13c 15b9 49bc 6693 493d e5c3 c2bc
00000040: 8625 4b3d e9cb b23d 3354 9dbd e609 233d
00000050: 9907 c5bd ca0b 0bbd 8483 50be ad1b c4bd
00000060: a8f7 f138 a1d1 ca3d 7c24 dbbc e8da 443e
00000070: a9be 85bd 3867 28bd

linear3.weight f4 [1200, 30]
-0.12804373 -0.14177756 0.07825633 -0.123385295 -0.09970766 0.08925676 -0.123249814 -0.049733847
0.046929993 -0.036424983 -0.009217843 0.10776881 0.1088206 -7.291866e-07 -0.05454481 -0.018378513
-0.17624654 -0.13804908 -0.17374584 -0.0473713 -0.07743945 -0.1352201 0.12431858 -0.0012571812
-0.11959799 -0.13150084 0.09578875 -0.1207943 0.09716168 -0.06952196 -0.2109541 -0.18442842
0.0040333187 -0.09106488 -0.113923475 -0.052219093 -0.11452368 0.17716783 -0.16735455 -0.168402
-0.16394506 -0.103132814 0.13596527 0.045717523 -0.10461555 0.1273339 0.074861355 -0.09709154
-0.037245918 -0.18215734 -0.01726653 0.09328994 0.15230092 -0.1522424 -0.18212911 -0.15546693
0.15735312 -0.130326 -0.15048051 0.019515116 0.07374717 0.053647976 -0.013007231 -0.050585832
0.09836811 -0.27733508 -0.060771864 0.021831293 0.11584529 -0.046567615 -0.15436651 -0.1720555
-0.2597642 0.030847026 -0.015272101 0.050055612 -0.077596396 -0.13607292 0.07054679 -0.24571688
-0.16206215 0.04672587 0.07058474 0.10044968 -0.07925605 -0.03354484 -0.13768713 0.052876458
-0.12875517 0.0010575401 -0.1964387 0.015777864 0.044041786 0.09491558 -0.06926523 -0.12412327
-0.10605474 0.08584573 -0.04455198 0.1518224 -0.15137297 0.06261315 -0.39672336 -0.09075835
0.20229898 -0.045052096 0.06938015 0.14173783 -0.06292679 0.2847375 0.11177341 0.15744118
0.009861113 -0.120527945 0.05149156 -0.060877927 -0.1142774 0.016313149 0.025848161 0.0036671564
0.016448194 0.014481347 0.116334975 0.08810176 -0.08942644 -0.18279155 -0.16699316 0.008354013
-0.17525113 0.093925916 0.12391524 0.1360979 -0.07995605 0.0963319 0.09112311 -0.0034554692
-0.18854049 -0.089503236 -0.21696918 0.042957872 -0.044246923 -0.06430339 -0.16405019 0.06761196
0.11598974 -0.05209577 0.13366644 0.0899184 -0.12476573 -0.042054918 0.067746885 -0.32721916
0.05070013 0.21452667 0.08453161 -0.103370756 0.009388624 0.13575622 -0.108540766 -0.006120442
-0.061307866 0.08348339 -0.2448752 -0.08375381 0.004170574 0.09190408 -0.052848373 -0.24824038
-0.028373487 -0.12609464 -0.019000327 -0.11132249 0.031520613 -0.08280931 -0.0027246762 -0.46171534
0.060992777 0.02834017 0.17706276 -0.12578307 -0.012501418 0.049153548 0.086705506 -0.006143
-0.15972644 -0.11493697 0.035593737 -0.027327526 0.34541097 -0.019016488 0.07138435 0.06751988
-0.041828975 -0.19669765 -0.04675134 -0.012540664 0.0041634934 -0.13337982 -0.2795103 0.14658286
0.08724031 -0.1907674 -0.14949979 0.05474758 -0.37036738 -0.42388713 -0.19254866 -0.22031833
0.09795636 -0.11666287 0.1285175 0.3254197 0.029879391 0.27035165 0.033349324 -0.40554178
0.024482178 0.022697663 0.17684853 -0.13419239 -0.14016397 0.10285183 -0.26493683 -0.076056466
-0.023569588 0.16922644 -0.24240427 -0.3051307 -0.149352 -0.21468161 -0.05024337 0.00793189
0.12820105 -0.10487406 0.026839614 0.31523958 0.15665367 -0.4168592 0.0004702674 0.15823272
-0.072799765 0.210162 0.10277117 -0.02350298 -0.148446 -0.09748296 -0.090136126 0.07305733
-0.1773113 -0.050147705 -0.03008661 -0.1664813 -0.41717136 -0.06542235 -0.15584706 0.010591842
00000000: e51d 03be 232e 11be db44 a03d 6eb1 fcbd
00000010: 8833 ccbd 40cc b63d 666a fcbd b8b5 4bbd
00000020: aa39 403d 5d32 15bd 7006 17bc e5b5 dc3d
00000030: 56dd de3d 52bd 43b5 616a 5fbd 898e 96bc
00000040: f979 34be bd5c 0dbe 6eea 31be 6908 42bd
00000050: 9398 9ebd 2377 0abe bd9a fe3d 00c8 a4ba
00000060: caef f4bd 28a8 06be e42c c43d 0163 f7bd
00000070: b4fc c63d 8861 8ebd 5a04 58be ceda 3cbe
00000080: ee29 843b 3980 babd b650 e9bd b0e3 55bd
00000090: 648b eabd 7c6b 353e fe5e 2bbe 9371 2cbe
000000a0: 37e1 27be 4c37 d3bd 7b3a 0b3e 4c42 3b3d
000000b0: ad40 d6bd d163 023e e950 993d eed7 c6bd
000000c0: 2d8f 18bd 7487 3abe 8a72 8dbc cc0e bf3d
000000d0: c6f4 1b3e 6fe5 1bbe 0e80 3abe b932 1fbe
000000e0: 2d21 213e 2e74 05be 9017 1abe 2ade 9f3c
000000f0: c208 973d fbbd 5b3d 481c 55bc 1733 4fbd
00000100: 3875 c93d ddfe 8dbe ebeb 78bd 8ad7 b23c
00000110: 4c40 ed3d afbd 3ebd 4112 1ebe 512f 30be
00000120: d0ff 84be e7b2 fc3c d637 7abc 1d07 4d3d
00000130: dcea 9ebd b356 0bbe d67a 903d 359d 7bbe
00000140: 9ff3 25be a063 3f3d bb8e 903d 90b8 cd3d
00000150: ff50 a2bd 5066 09bd dbfd 0cbe fc94 583d
00000160: 65d8 03be 289d 8a3a 3a27 49be 9440 813c
00000170: 2965 343d 1963 c23d eeda 8dbd 5734 febd
00000180: 3a33 d9bd e3cf af3d 237c 36bd 5577 1b3e
00000190: 8401 1bbe 533b 803d 531f cbbe 84df b9bd
000001a0: 7727 4f3e 8c88 38bd 2e17 8e3d b923 113e
000001b0: c3df 80bd 1dc9 913e 75e9 e43d 4338 213e
000001c0: 8190 213c 5bd7 f6bd d0e8 523d 225b 79bd
000001d0: 450a eabd 27a3 853c 86bf d33c ad54 703b
000001e0: 5dbe 863c 2c43 6d3c 0841 ee3d b26e b43d
000001f0: 3625 b7bd b52d 3bbe 4100 2bbe 45df 083c
00000200: 0875 33be 3b5c c03d 46c7 fd3d 3f5d 0b3e
00000210: ffbf a3bd a949 c53d c19e ba3d 2775 62bb
00000220: c210 41be 794d b7bd 2b2d 5ebe 98f4 2f3d
00000230: 433c 35bd 7fb1 83bd c6fc 27be 2478 8a3d
00000240: 078c ed3d 6062 55bd dbdf 083e 2327 b83d
00000250: 2d85 ffbd c741 2cbd e1be 8a3d 4589 a7be
00000260: f1aa 4f3d e1ac 5b3e e91e ad3d 0cb4 d3bd
00000270: bed2 193c ae03 0b3e 9f4a debd fd8d c8bb
00000280: f51d 7bbd 57f9 aa3d 90c0 7abe 1e87 abbd
00000290: 4fa9 883b 3538 bc3d 8977 58bd ba32 7ebe
000002a0: 846f e8bc f41e 01be 93a6 9bbc 0cfd e3bd
000002b0: c21b 013d ed97 a9bd 7b90 32bb f465 ecbe
000002c0: 90d3 793d a529 e83c f14f 353e 47cd 00be
000002d0: bfd2 4cbc 3b55 493d a892 b13d 384b c9bb
000002e0: 548f 23be 1364 ebbd bdca 113d fadd dfbc
000002f0: b5d9 b03e 77c8 9bbc f531 923d dd47 8a3d
00000300: dc54 2bbd 1c6b 49be 557e 3fbd 5b77 4dbc
00000310: ea6d 883b b894 08be f91b 8fbe d119 163e
00000320: 0cab b23d 8858 43be 7916 19be 003f 603d
00000330: cba0 bdbe bc07 d9be 7a2b 45be 219b 61be
00000340: 589d c83d f1ec eebd 179a 033e 699d a63e
00000350: a0c5 f43c 886b 8a3e 4d99 083d 2ca3 cfbe
00000360: d98e c83c 73f0 b93c c817 353e bb69 09be
00000370: 2587 0fbe fba3 d23d cda5 87be 7ec3 9bbd
00000380: 0215 c1bc b249 2d3e d338 78be 173a 9cbe
00000390: bbef 18be 7fd5 5bbe fecb 4dbd c2f4 013c
000003a0: 2347 033e 36c8 d6bd c0de db3c 1567 a13e
000003b0: d269 203e 926e d5be 398e f639 c207 223e
000003c0: 0b18 95bd b534 573e b179 d23d 5289 c0bc
000003d0: 3a02 18be 25a5 c7bd 4a99 b8bd 159f 953d
000003e0: 1891 35be ae67 4dbd 3278 f6bc 137a 2abe
000003f0: 7c97 d5be 27fc 85bd 5f96 1fbe 6889 2d3c

linear3.bias f4 [1200]
-0.11141933 -0.016982371 -0.06633155 0.037449617 -0.08371259 -0.06697427 -0.056447517 -0.08353437
0.026021114 -0.111384146 -0.18214244 -0.15282583 0.023572253 -0.055869743 -0.17091537 -0.007460237
-0.10289488 -0.27424613 -0.13742504 -0.10071382 -0.25949445 -0.12989804 0.04993048 -0.12085104
-0.04555324 -0.08098156 -0.20274255 -0.039706517 -0.04896388 -0.09438539 -0.122270525 -0.17396067
0.021232033 0.0369778 0.033904575 0.003856701 -0.1944274 -0.06157496 -0.17724562 -0.44071066
0.07658467 -0.028616296 0.049518272 -0.18913877 -0.113081425 -0.011568451 -0.19544448 -0.032423727
-0.027897324 -0.19229339 -0.05974029 -0.07207662 -0.24070676 0.0021648633 -0.03505284 -0.14005828
-0.06533493 -0.11756869 0.03244601 -0.034792602 -0.09093757 -0.046738762 -0.23679142 0.023541285
0.031929165 -0.04462003 0.04555604 -0.14218448 0.024364159 -0.059219025 0.010050812 -0.19123599
-0.024659496 -0.3485852 -0.043254603 -0.08359178 -0.028775068 -0.1601864 -0.21392427 -0.088349305
-0.18762739 0.03464033 -0.09013446 -0.014096285 -0.08771727 -0.022116661 -0.16955207 -0.1693155
0.10297871 -0.057145648 0.014609167 -0.021582386 -0.06576599 -0.014411991 -0.12353459 0.11676632
-0.25585508 -0.03887494 0.0785783 0.018609244 -0.07618705 -0.17299207 0.059479654 0.018225761
-0.059203837 -0.08854083 0.08405644 -0.025297642 -0.12645398 -0.03531933 -0.10133923 -0.22536655
-0.09369874 -0.043438263 -0.023154678 -0.23172009 0.11861582 0.0015759452 -0.06868756 -0.17414604
-0.14795385 -0.15046792 -0.051000647 0.014045857 -0.22597449 0.013653485 -0.028847357 0.03369161
-0.1021912 -0.14867984 -0.08659758 0.014797304 -0.05017162 -0.08250503 -0.084302016 -0.07413489
-0.25463182 0.03331083 -0.039275225 0.05576015 -0.17153063 -0.15919587 -0.06254419 0.052000236
0.018677935 -0.028396955 -0.22696221 0.10457028 -0.08192736 -0.049562242 -0.0083689885 -0.012979193
0.01788436 0.02531901 -0.032792844 -0.07377414 -0.046695862 0.034826063 -0.060808357 -0.1782563
-0.1487597 -0.2375139 -0.08830733 -0.04088557 0.032495048 0.04857283 -0.24187747 0.014292056
-0.28415716 -0.0858881 -0.16804531 -0.07158339 -0.03105853 -0.22931917 -0.06574461 -0.06906361
0.2590984 -0.024955671 -0.037505243 -0.11038003 -0.038923442 -0.027634576 -0.14710738 0.08398051
-0.08258032 -0.20622143 -0.02103824 0.12065746 -0.07891978 -0.070922785 -0.09021967 -0.027351463
-0.16331145 -0.03563441 -0.00952721 -0.15328664 -0.06518534 0.035094127 0.017213548 -0.37645987
0.03158804 -0.21089464 -0.07406333 -0.019892683 -0.06136893 -0.17252955 -0.007955038 -0.14250575
-0.018539721 -0.0038929607 -0.13663614 0.04269067 -0.1519199 -0.040830504 -0.07019459 -0.01934043
0.0521295 -0.1278582 -0.18766418 -0.0130490735 -0.11201163 -0.04011447 -0.01823707 0.043662675
-0.0004918018 -0.0577007 0.04918822 -0.049697366 -0.054708287 -0.20132717 0.07606088 -0.037080683
-0.04767616 -0.031500135 -0.21760143 -0.077353336 -0.079774 -0.056761157 -0.17725536 -0.15712199
-0.11522992 0.0030077235 -0.22229534 -0.049009643 -0.08508384 -0.33745062 -0.045428548 -0.14496385
-0.07197243 0.02334014 -0.044169288 -0.18891 -0.22766596 0.085714266 0.054355778 -0.1872859
00000000: d12f e4bd 9d1e 8bbc d6d8 87bd c564 193d
00000010: 8271 abbd ce29 89bd 8335 67bd 1114 abbd
00000020: 3b2a d53c 5f1d e4bd 8c83 3abe 607e 1cbe
00000030: 991a c13c acd7 64bd 7004 2fbe 0175 f4bb
00000040: 8dba d2bd fd69 8cbe 26b9 0cbe 0c43 cebd
00000050: 75dc 84be fe03 05be e783 4c3d c080 f7bd
00000060: 0996 3abd a9d9 a5bd be9b 4fbe 4da3 22bd
00000070: 598e 48bd 214d c1bd f868 fabd bf22 32be
00000080: cdee ad3c 0976 173d 86df 0a3d b5c0 7c3b
00000090: fa17 47be 0636 7cbd e07f 35be d4a4 e1be
000000a0: 6cd8 9c3d b96c eabc acd3 4a3d 98ad 41be
000000b0: 3c97 e7bd 9a89 3dbc 9922 48be bece 04bd
000000c0: ee88 e4bc 8fe8 44be 3cb2 74bd e89c 93bd
000000d0: d57b 76be 61e0 0d3b 9193 0fbd 706b 0fbe
000000e0: 52ce 85bd dac7 f0bd 1be6 043d b082 0ebd
000000f0: 7a3d babd 2571 3fbd 7379 72be a7d9 c03c
00000100: 28c8 023d 7ec3 36bd f898 3a3d cf98 11be
00000110: 5897 c73c a68f 72bd 29ac 243c 5ed3 43be
00000120: b602 cabc c279 b2be bd2b 31bd 2b32 abbd
00000130: b1b9 ebbc e707 24be f70e 5bbe 7bf0 b4bd
00000140: 6521 40be 05e3 0d3d 6a98 b8bd 1bf4 66bc
00000150: 1da5 b3bd 002e b5bc 0f9f 2dbe 0b61 2dbe
00000160: 80e6 d23d 8e11 6abd 4a5b 6f3c 8bcd b0bc
00000170: 52b0 86bd 4620 6cbc b4ff fcbd 2e23 ef3d
00000180: 70ff 82be 543b 1fbd a9ed a03d 6a72 983c
00000190: f507 9cbd d524 31be f0a0 733d 314e 953c
000001a0: b97f 72bd e554 b5bd c825 ac3d 003d cfbc
000001b0: 277d 01be 00ab 10bd f18a cfbd 7dc6 66be
000001c0: 20e5 bfbd 52ec 31bd e1ae bdbc 0848 6dbe
000001d0: daec f23d f28f ce3a 10ac 8cbd 5753 32be
000001e0: 3781 17be 4314 1abe 0ee6 50bd 9820 663c
000001f0: db65 67be deb2 5f3c 4b51 ecbc 3700 0a3d
00000200: 9f49 d1bd 873f 18be 125a b1bd 6470 723c
00000210: c280 4dbd 66f8 a8bd 89a6 acbd 09d4 97bd
00000220: 1a5f 82be f070 083d 0fdf 20bd c164 643d
00000230: baa5 2fbe 3e04 23be 2b17 80bd 33fe 543d
00000240: 7802 993c bba0 e8bc c868 68be f128 d63d
00000250: 88c9 a7bd c701 4bbd 151e 09bc aea6 54bc
00000260: 3982 923c d069 cf3c ca51 06bd e516 97bd
00000270: 2944 3fbd c6a5 0e3d 2f12 79bd d288 36be
00000280: 7654 18be d836 73be 79da b4bd a177 27bd
00000290: 8719 053d 4ef4 463d baae 77be 3a29 6a3c
000002a0: 0c7d 91be 1ae6 afbd 1214 2cbe 509a 92bd
000002b0: 756e febc a5d2 6abe 1ca5 86bd 3971 8dbd
000002c0: 8ca8 843e d66f ccbc 199f 19bd ed0e e2bd
000002d0: 306e 1fbd e861 e2bc 51a3 16be f9fd ab3d
000002e0: df1f a9bd b62b 53be 6358 acbc 421b f73d
000002f0: b2a0 a1bd f73f 91bd 17c5 b8bd 2d10 e0bc
00000300: 1e3b 27be 63f5 11bd 0418 1cbc 2cf7 1cbe
00000310: e47f 85bd dcbe 0f3d 6d03 8d3c 59bf c0be
00000320: 7662 013d c4f4 57be 84ae 97bd fbf5 a2bc
00000330: fd5d 7bbd 96ab 30be d955 02bc 07ed 11be
00000340: 9de0 97bc 0b21 7fbb 58ea 0bbe 69dc 2e3d
00000350: e490 1bbe e33d 27bd 2ec2 8fbd d26f 9ebc
00000360: be85 553d 43ed 02be 0a2b 40be c8cb 55bc
00000370: 5a66 e5bd 124f 24bd e865 95bc a2d7 323d
00000380: 43ec 00ba 9257 6cbd 9679 493d 778f 4bbd
00000390: cc15 60bd b628 4ebe cfc5 9b3d eae1 17bd
000003a0: 1448 43bd 4906 01bd e9d2 5ebe 6d6b 9ebd
000003b0: 8d60 a3bd 637e 68bd 6e82 35be 96e4 20be
000003c0: aafd ebbd 3a1d 453b 64a1 63be 56be 48bd
000003d0: 7040 aebd 54c6 acbe 4913 3abd 6771 14be
000003e0: 4866 93bd d233 bf3c dbea 34bd 9f71 41be
000003f0: 4421 69be f68a af3d 2aa4 5e3d e0c7 3fbe

linear1.weight f4 [30, 1200]
-0.0019925777 0.026521191 -0.086373106 0.008191153 0.010361325 0.0032954428 0.0017888693 -0.09292661
-0.016919026 0.0046922793 0.021475054 -0.021935793 -0.025785422 0.019148173 -0.10356534 -0.061718673
-0.04194451 -0.017670257 -0.08350109 0.009741452 0.008211481 -0.012782058 -0.03221054 -0.011022251
-0.0608457 0.004218285 -0.014001364 -0.027229376 -0.052812956 -0.029089263 -0.023078715 -0.06308594
-0.04694799 -0.03380338 -0.026939292 -0.041888278 -0.11338187 -0.053371288 -0.054344 -0.027261678
-0.06395324 -0.010966936 -0.014180924 0.0007878486 0.023273794 -0.06997942 -0.0562821 0.019910794
-0.020645918 0.024242777 -0.037357688 -0.039754156 -0.00083794445 -0.03347954 -0.08200264 0.021215659
-0.034394737 0.019946687 -0.06627675 0.022965273 0.016067665 -0.015353971 0.010775972 -0.058195982
-0.014638866 0.027477294 -0.022807673 -0.017462943 -0.010742383 -0.04326947 0.0018205553 -0.0054482315
-0.053736515 -0.042121004 0.0031327638 -0.01623715 -0.026854102 -0.05803976 0.02181914 -0.07484833
-0.0041567395 -0.008801081 -0.048612 -0.048800733 -0.020268124 -0.011137765 -0.008691803 0.0077642947
-0.045436475 -0.028051836 -0.08185485 -0.1255339 -0.016792525 0.0032364873 -0.021662163 -0.139312
-0.02812468 -0.026646173 0.012393519 -0.07076556 0.023441888 0.0068433248 -0.042995557 -0.046277564
-0.018096827 -0.03177332 -0.029031109 0.0010437233 -0.010497298 -0.09101609 -0.0017856658 0.0028808378
-0.0005835239 0.016976811 -0.009563691 0.011217348 -0.07515275 -0.010586016 -0.02244234 0.022749964
-0.013699003 -0.016603135 -0.108759664 -0.03216651 -0.012523955 -0.049040236 0.014300196 -0.034461774
0.020223355 -0.09463075 -0.025902895 -8.88965e-05 -0.05912871 -0.014041843 0.01670007 -0.017662376
0.022144577 0.015127682 -0.08692784 -0.084342554 0.014318015 -0.025850354 -0.06265412 -0.0005058956
-0.011139145 -0.06957628 0.005925388 0.015593171 0.010394384 -0.03403471 -0.015873333 -0.0266179
-9.80559e-05 -0.05367317 -0.05644384 0.0032050647 0.007340149 0.004424593 -0.041408595 -0.017932666
-0.073508084 -0.022771146 0.0009724458 0.005964203 -0.056727387 0.011440594 -0.010631021 0.0064212605
-0.08837555 -0.018279836 -0.019863822 -0.014839634 -0.049795862 -0.021281717 -0.081565194 -0.017871121
0.0064753923 -0.059935622 -0.025904631 -0.014660963 -0.0035707464 0.015227771 -0.03126759 -0.045894478
-0.028516756 0.013099327 -0.013170256 -0.0120907435 0.023206683 0.0156175345 -0.07276748 -0.04319758
-0.051504493 -0.006694196 -0.008009959 -0.01148417 -0.012035105 -0.04102278 -0.0014512608 0.012076881
0.009345696 0.01011198 0.011153653 -0.014427499 -0.02009797 -0.021269793 -0.00969567 -0.050218437
0.01709542 -0.026350297 -0.01706551 -0.046713237 -0.018178705 -0.07842379 -0.01109719 0.0032460259
-0.055156514 -0.042091567 -0.022900881 -0.04193661 -0.1118581 -0.06194246 -0.017135743 -0.0667391
-0.0058515593 -0.034844335 0.02093253 -0.06015435 -0.07477096 -0.005153034 -0.02164504 -0.0020697787
-0.050332885 -0.0065273647 -0.0632709 0.0052914997 -0.028477293 -0.06600375 -0.12308255 8.91462e-05
-0.0057588518 -0.04282914 0.013769891 -0.02069544 0.00036324532 -0.051859543 -0.013597598 -0.07005417
0.017246403 -0.11691834 -0.016997885 0.016390167 -0.052311923 -0.061461315 -0.016249236 -0.036742616
00000000: e895 02bb f842 d93c 62e4 b0bd 3034 063c
00000010: 8cc2 293c 5bf8 573b 7e78 ea3a 4e50 bebd
00000020: c599 8abc b1c1 993b 74ec af3c b1b2 b3bc
00000030: f33b d3bc a1dc 9c3c 111a d4bd b8cc 7cbd
00000040: 02ce 2bbd 37c1 90bc 9f02 abbd 9c9a 1f3c
00000050: 7389 063c d66b 51bc 33ef 03bd ac96 34bc
00000060: 5739 79bd 8a39 8a3b fa65 65bc 2410 dfbc
00000070: 6652 58bd 9b4c eebc 930f bdbc 3433 81bd
00000080: 894c 40bd 6a75 0abd caaf dcbc 0b93 2bbd
00000090: c134 e8bd da9b 5abd d097 5ebd e253 dfbc
000000a0: ebf9 82bd aaae 33bc 1b57 68bc a087 4e3a
000000b0: afa8 be3c 5f51 8fbd 0f88 66bd f61b a33c
000000c0: a121 a9bc ca98 c63c 6004 19bd 41d5 22bd
000000d0: 80a9 5bba d821 09bd 00f1 a7bd 76cc ad3c
000000e0: 7fe1 0cbd 3c67 a33c 1bbc 87bd ab21 bc3c
000000f0: 56a0 833c 398f 7bbc b48d 303c e95e 6ebd
00000100: dbd7 6fbc 1018 e13c 28d7 babc 720e 8fbc
00000110: d200 30bc 543b 31bd b39f ee3a 1487 b2bb
00000120: d21a 5cbd 1387 2cbd 0e4f 4d3b c603 85bc
00000130: 22fd dbbc 19bb 6dbd 0ebe b23c 154a 99bd
00000140: 4235 88bb 6932 10bc 601d 47bd 47e3 47bd
00000150: 5609 a6bc 2c7b 36bc 1068 0ebc a06b fe3b
00000160: 991b 3abd f7cc e5bc 84a3 a7bd f58b 00be
00000170: 7a90 89bc 3f1b 543b d974 b1bc cea7 0ebe
00000180: bb65 e6bc 1349 dabc 300e 4b3c 89ed 90bd
00000190: 3409 c03c f83d e03b 1c1c 30bd 8b8d 3dbd
000001a0: cc3f 94bc be24 02bd a6d2 edbc 8bcd 883a
000001b0: dcfc 2bbc a566 babd 000d eaba 70cc 3c3b
000001c0: a0f7 18ba f412 8b3c 07b1 1cbc f8c8 373c
000001d0: afe9 99bd f870 2dbc 00d9 b7bc 225e ba3c
000001e0: c871 60bc 4c03 88bc 63bd debd 08c1 03bd
000001f0: 4631 4dbc 6ade 48bd 5f4b 6a3c ca27 0dbd
00000200: 73ab a53c c4cd c1bd 4f32 d4bc f26d bab8
00000210: f230 72bd c20f 66bc 96ce 883c b0b0 90bc
00000220: 8b68 b53c 19da 773c 3907 b2bd cabb acbd
00000230: 1c96 6a3c 1fc4 d3bc ce50 80bd 149e 04ba
00000240: f680 36bc 027e 8ebd c229 c23b 807a 7f3c
00000250: 354d 2a3c fb67 0bbd cb08 82bc c80d dabc
00000260: 5ca3 cdb8 66d8 5bbd a831 67bd 100c 523b
00000270: a285 f03b 2dfc 903b 0f9c 29bd 87e7 92bc
00000280: 688b 96bd 8e8a babc bceb 7e3a 5c6f c33b
00000290: fa5a 68bd 5471 3b3c bc2d 2ebc 7069 d23b
000002a0: 3efe b4bd 98bf 95bc 74b9 a2bc f021 73bc
000002b0: bff6 4bbd ff56 aebc a70b a7bd 7566 92bc
000002c0: 872f d43b 0e7f 75bd f335 d4bc 8934 70bc
000002d0: 2f03 6abb e77d 793c 7212 00bd d9fb 3bbd
000002e0: f99b e9bc 8f9e 563c 0fc8 57bc 4118 46bc
000002f0: f11b be3c b0e0 7f3c 1e07 95bd f2ef 30bd
00000300: 60f6 52bd fc5a dbbb 343c 03bc 1a28 3cbc
00000310: e42e 45bc 8107 28bd 3b38 beba 1cde 453c
00000320: b11e 193c b8ac 253c d0bd 363c 5161 6cbc
00000330: 7fa4 a4bc fd3d aebc 96da 1ebc d9b1 4dbd
00000340: b20b 8c3c 94dc d7bc f8cc 8bbc 6156 3fbd
00000350: 82eb 94bc a79c a0bd fdd0 35bc 47bb 543b
00000360: cceb 61bd 3568 2cbd a19a bbbc b9c5 2bbd
00000370: dc15 e5bd 60b7 7dbd 4260 8cbc 82ae 88bd
00000380: 70be bfbb efb8 0ebd b27a ab3c 6864 76bd
00000390: 8421 99bd c8da a8bb f050 b1bc 20a5 07bb
000003a0: db29 4ebd 81e3 d5bb 2c94 81bd 5164 ad3b
000003b0: 3649 e9bc f92c 87bd b412 fcbd 00f4 ba38
000003c0: c0b4 bcbb 9c6d 2fbd 1c9b 613c 7c89 a9bc
000003d0: f671 be39 ac6a 54bd 76c8 5ebc 9078 8fbd
000003e0: 5448 8d3c e272 efbd 263f 8bbc ac44 863c
000003f0: 0745 56bd dcbe 7bbd 1e1d 85bc 6d7f 16bd

linear1.bias f4 [30]
0.0095824385 -0.1009961 -0.02654715 -0.012914908 0.1071909 -0.0067133233 0.35704443 -0.024324903
0.088472985 -0.013664095 -0.03737548 0.03151309 0.32840875 -0.009914702 0.04703803 0.1531925
-0.05276892 0.32222888 -0.04246618 0.00333841 -0.33260858 0.06466902 -0.040905073 -0.025124997
-0.021905486 0.32327583 0.21658957 -0.03199151 0.010309463 0.024085356
00000000: a9ff 1c3c 0bd7 cebd 6979 d9bc 0d99 53bc
00000010: e786 db3d 70fb dbbb 87ce b63e 0545 c7bc
00000020: 5331 b53d 5edf 5fbc 0817 19bd df13 013d
00000030: 3125 a83e 4671 22bc f3aa 403d 7fde 1c3e
00000040: 3924 58bd 2ffb a43e 04f1 2dbd 3ac9 5a3b
00000050: ac4b aabe 3171 843d 148c 27bd f0d2 cdbc
00000060: 2273 b3bc 6984 a53e a8c9 5d3e 8809 03bd
00000070: 06e9 283c a74e c53c

linear2.weight f4 [60, 30]
-0.14073709 -0.13725808 -0.019043768 -0.182323 -0.39363536 0.13111483 -0.5339451 0.060002774
0.0542122 0.006443014 0.17240946 -0.31960475 -0.64683175 0.31813848 0.023288846 0.033934917
-0.020900523 0.63555014 -0.086632885 0.12880644 0.00018639414 0.30000475 -0.17565036 -0.1035924
-0.22242077 -0.11285399 -0.6831928 0.05937964 0.31337574 -0.11474355 -0.11839359 0.030864473
0.048052486 0.103674695 0.097063206 -0.09741288 0.11359847 0.1862705 0.036138512 -0.024176696
-0.092784695 -0.029406931 0.046907637 -0.3177206 0.019103833 -0.19136843 0.10935772 0.18299328
0.024316048 0.041958656 -0.23035626 -0.053369787 0.04948941 -0.09405536 0.16932358 -0.106813155
-0.21048339 0.041168228 0.07159824 -0.046135478 0.04523255 -0.15613188 0.036208034 -0.1786936
0.050329167 0.12153243 0.22438599 -0.03069435 -0.023533035 0.062528566 0.115605436 0.442411
-0.018258953 0.2672722 0.37310663 -0.106423065 -0.025366446 -0.06594509 0.15041941 -0.09990272
0.18268465 0.27653968 0.12082166 -0.05213371 0.139797 0.5909186 0.25329977 0.1037222
0.026156817 0.012230448 0.09973827 0.052603673 0.08832631 -0.18270011 0.17767951 0.11153908
0.050174702 -0.1267208 -0.15687545 0.087137714 -0.0321892 -0.20557012 0.040143494 0.05986981
-0.43340713 0.11149068 0.14592253 0.29132736 -1.01404785e-05 0.13518862 -0.36038068 -0.40440416
-0.056906227 0.07560179 -0.16965678 0.0032786923 -0.09806048 -0.14442794 0.1445313 -0.01890121
0.1546601 0.16742831 0.06057575 -0.05546764 -0.04818645 -0.012470836 0.101989955 0.0633639
0.20943566 0.04899821 0.033316147 -0.20768037 -0.101654306 -0.09694642 -0.21143769 0.08142091
0.15692137 -0.158368 0.10543841 0.17097765 -0.11183451 -0.28386933 -0.026829792 0.20987503
0.16054255 0.03256652 -0.14098203 -0.03617703 -0.010116631 0.08969017 -0.039152153 0.09842484
0.15918842 0.09509197 0.22362255 0.03653197 -0.038792476 -0.10561778 -0.27711105 -0.039431177
0.10196269 0.16847236 0.2172161 0.0516539 -0.0012842814 -0.12930289 -0.02354653 0.49311483
-0.10039602 0.15599808 -0.16406631 -0.27826893 0.13574825 0.044957902 -0.11827472 0.07007232
0.07876263 0.08823943 -0.13264565 0.0443 -0.0072853267 -0.041420937 0.02610965 0.07481578
-0.027930805 0.020862594 -0.09648363 0.1467919 -0.09545265 -0.076727875 -0.14581712 -0.09169909
-0.013666381 -0.115135364 -0.004917395 0.032622457 0.026639923 -0.14609906 -0.07420957 -0.09534331
-0.109142765 -0.13749473 -0.11714709 0.01882866 0.008347556 -0.0024767816 -0.107043356 0.09702742
-0.034289137 -0.15829068 -0.10754647 0.21486446 0.18852434 0.1265135 -0.027361264 -0.21164963
0.4725362 0.006365845 0.28141364 0.018787105 0.13422532 0.35053527 -0.03700392 0.005319897
0.012741939 -0.091249704 -0.04854351 0.018858599 0.05918289 -0.06939221 0.094155736 -0.2608916
-0.13578805 -0.20676866 0.28982443 0.633122 0.3533016 -0.041165467 0.17943896 0.020013148
-0.16534522 -0.17544943 -0.09321017 -0.1253642 -0.14360285 0.06549975 -0.13079001 0.020686999
-0.1569799 0.0016835284 -0.15921304 0.15957232 -0.14915128 -0.1146468 0.12729608 -0.19196582
00000000: 621d 10be 628d 0cbe ad01 9cbc e1b2 3abe
00000010: 938a c9be f742 063e a0b0 08bf 78c5 753d
00000020: 9d0d 5e3d eb1f d33b 1b8c 303e 3ca3 a3be
00000030: c496 25bf 0ce3 a23e 40c8 be3c 57ff 0a3d
00000040: 9337 abbc 6ab3 223f 956c b1bd d6e5 033e
00000050: cc72 4339 399a 993e b0dd 33be 4128 d4bd
00000060: 45c2 63be fe1f e7bd b9e5 2ebf 1138 733d
00000070: c972 a03e abfe eabd 5778 f2bd 7ed7 fc3c
00000080: afd2 443d 6653 d43d 13c9 c63d 6780 c7bd
00000090: 51a6 e83d b2bd 3e3e fa05 143d 350e c6bc
000000a0: e705 bebd cee6 f0bc 3922 403d 46ac a2be
000000b0: a47f 9c3c 16f6 43be f1f6 df3d 9762 3b3e
000000c0: 7332 c73c d7dc 2b3d 83e2 6bbe 479a 5abd
000000d0: 68b5 4a3d 19a0 c0bd 2963 2d3e dbc0 dabd
000000e0: f588 57be 04a0 283d 19a2 923d 8ef8 3cbd
000000f0: c445 393d 09e1 1fbe e04e 143d 75fb 36be
00000100: f525 4e3d ffe5 f83d 71c5 653e b872 fbbc
00000110: 5ac8 c0bc fa0e 803d 8bc2 ec3d b283 e23e
00000120: cd93 95bc e7d7 883e d507 bf3e 56f4 d9bd
00000130: 4bcd cfbc 380e 87bd 8c07 1a3e cc99 ccbd
00000140: af11 3b3e 9c96 8d3e 5971 f73d 288a 55bd
00000150: f226 0f3e 7146 173f 82b0 813e 4e6c d43d
00000160: d246 d63c 3862 483c 9443 cc3d f376 573d
00000170: 6de4 b43d bd15 3bbe 9ef1 353e 9a6e e43d
00000180: fd83 4d3d 19c3 01be f5a3 20be 4275 b23d
00000190: d3d8 03bd f980 52be 816d 243d 0c3a 753d
000001a0: 8ae7 ddbe 3a55 e43d b76c 153e dc28 953e
000001b0: 0621 2ab7 e36e 0a3e d183 b8be 100e cfbe
000001c0: 8116 69bd 1cd5 9a3d 82ba 2dbe 54df 563b
000001d0: efd3 c8bd ebe4 13be 0300 143e b6d6 9abc
000001e0: 385f 1e3e 5472 2b3e 471e 783d 0932 63bd
000001f0: 285f 45bd 7a52 4cbc 1ce0 d03d efc4 813d
00000200: 4d76 563e 59b2 483d 8376 083d 2aaa 54be
00000210: 2230 d0bd d88b c6bd 1f83 58be 02c0 a63d
00000220: ffaf 203e 392b 22be 18f0 d73d c414 2f3e
00000230: 7e09 e5bd 5257 91be 27ca dbbc 7be9 563e
00000240: 4465 243e 7964 053d 985d 10be 5e2e 14bd
00000250: 3ac0 25bc 7baf b73d 025e 20bd f692 c93d
00000260: 4a02 233e 94bf c23d 4ffd 643e 8ca2 153d
00000270: dce4 1ebd 224e d8bd 80e1 8dbe 9682 21bd
00000280: d1d1 d03d 0584 2c3e e66d 5e3e 0a93 533d
00000290: 5555 a8ba fa67 04be a7e4 c0bc 8c79 fc3e
000002a0: 6e9c cdbd f6bd 1f3e 0001 28be 4479 8ebe
000002b0: 9701 0b3e c725 383d 043a f2bd 1482 8f3d
000002c0: 4d4e a13d e0b6 b43d 43d4 07be eb73 353d
000002d0: c0b9 eebb 00a9 29bd e8e3 d53c 0439 993d
000002e0: 25cf e4bc 08e8 aa3c 3699 c5bd 9e50 163e
000002f0: ae7c c3bd 8123 9dbd 1551 15be bccc bbbd
00000300: f5e8 5fbc 17cc ebbd 1922 a1bb 209f 053d
00000310: f83b da3c fe9a 15be 30fb 97bd 5a43 c3bd
00000320: 3e86 dfbd 6bcb 0cbe d0ea efbd 903e 9a3c
00000330: 30c4 083c 8051 22bb 8c39 dbbd 50b6 c63d
00000340: c472 0cbd f416 22be 5341 dcbd 6e05 5c3e
00000350: 860c 413e c18c 013e bb24 e0bc aeba 58be
00000360: 44f0 f13e 9498 d03b 7315 903e 6ae7 993c
00000370: 5d72 093e 5c79 b33e 6c91 17bd 8852 ae3b
00000380: 91c3 503c 20e1 babd 8fd5 46bd 597d 9a3c
00000390: c269 723d 811d 8ebd b9d4 c03d 9593 85be
000003a0: 060c 0bbe 2abb 53be de63 943e 4914 223f
000003b0: f3e3 b43e 1f9d 28bd d9be 373e 9df2 a33c
000003c0: 4250 29be 04a9 33be f9e4 bebd 795f 00be
000003d0: a00c 13be bc24 863d d1ed 05be c877 a93c
000003e0: 57bf 20be d7a9 dc3a be08 23be ed66 233e
000003f0: 1dbb 18be f1cb eabd e759 023e b092 44be

linear2.bias f4 [60]
0.04329052 0.3312419 -0.24929231 0.2509469 0.29430383 0.058633074 -0.055556934 -0.0037368028
-0.22635151 0.3024856 0.15632425 -0.352569 0.27147824 -0.09236375 -0.20685963 0.17028654
0.16733226 -0.1944371 -0.13548684 0.15086018 0.2416167 0.31317684 -0.27076998 0.10603238
-0.1594321 -0.19777055 -0.027410222 0.40289477 -0.024089528 0.22174457 0.36808753 0.1386367
0.45498025 0.27137843 -0.12006836 0.5511702 0.037170455 0.17949161 0.25613979 -0.16096476
-0.003056901 -0.13813584 0.032382343 0.12916084 0.43855777 0.102937035 0.18343116 0.10778813
-0.0044863634 0.006655088 0.27409145 -0.2644767 -0.068642825 0.311266 -0.039655305 -0.09938884
-0.01673498 0.23115294 0.0018557063 0.41949862
00000000: 6651 313d 8a98 a93e 7c46 7fbe 1d7c 803e
00000010: feae 963e 3c29 703d ab8f 63bd 26e5 74bb
00000020: b1c8 67be 64df 9a3e 7713 203e ed83 b4be
00000030: 32ff 8a3e 3529 bdbd 03d3 53be 985f 2e3e
00000040: 2659 2b3e 851a 47be 10bd 0abe 177b 1a3e
00000050: 5e6a 773e b758 a03e 5da2 8abe 8127 d93d
00000060: 2b42 23be 5d84 4abe 678b e0bc 3948 ce3e
00000070: 6757 c5bc 0211 633e f875 bc3e c7f6 0d3e
00000080: 2cf3 e83e 1df2 8a3e 66e6 f5bd 7d19 0d3f
00000090: 0c40 183d a6cc 373e c124 833e f2d3 24be
000000a0: 4a56 48bb 7b73 0dbe 59a3 043d bd42 043e
000000b0: a58a e03e a7d0 d23d 61d5 3b3e 06c0 dc3d
000000c0: 5802 93bb ed12 da3b b755 8c3e 7d69 87be
000000d0: 9c94 8cbd 425e 9f3e 9a6d 22bd 608c cbbd
000000e0: cc17 89bc 5bb3 6c3e 2c3b f33a 86c8 d63e

linear3.weight f4 [120, 60]
0.111260235 -0.07601035 -0.28955105 -0.039620664 -0.017198635 0.10205937 -0.12859815 -0.19649704
0.13635762 0.10608162 0.6459983 -0.016131956 0.08895033 0.055602774 0.28986847 -0.27394328
-0.03905975 -0.15690476 -0.08050083 -0.20197679 0.55101204 0.36289415 -0.13873649 -0.09864947
-0.0058447854 0.1184878 0.07626067 -0.16435492 -0.068355545 0.12439496 0.037894182 0.20302036
-0.021039288 -0.13716467 -0.10976219 0.31775284 -0.05779661 0.061752293 -0.04253682 -0.11372181
0.018439712 0.13582306 -0.09206794 0.019913483 0.08053768 0.24821869 0.152951 0.15848643
-0.0076085804 -0.06004213 -0.017454278 -0.14480339 -0.057372827 0.380969 0.094724916 0.4389891
-0.08030543 -0.00866064 0.035189796 0.20239244 0.036183354 -0.010675785 -0.04869654 -0.03349287
-0.04171698 0.045374174 0.012624267 0.18694514 -0.028091146 0.016521527 -0.059544303 -0.008236124
0.029793002 0.03874974 -0.05175879 0.020438293 0.1568657 0.0984735 0.030441122 0.04398564
0.06184584 -0.15564592 0.23960349 0.027320981 0.035587266 -0.121385485 0.11583114 -0.043274797
0.047082126 -0.017543409 -0.012528539 -0.08354217 -0.06430094 0.035212543 0.17391595 -0.02632252
0.05000712 0.023040684 0.015575186 0.054294698 0.049376022 0.09756867 -0.067742 0.037455026
-0.044727042 -0.10093034 -0.014048004 -0.13694973 0.0058900528 0.12020664 -0.021426307 -0.098715164
-0.006930419 -0.069795884 0.11731059 0.009214469 -0.019176217 0.13393438 0.06151963 0.058716312
0.119645365 0.012282548 0.10727023 -0.022939658 0.05341571 0.008303568 -0.11526818 0.20630296
-0.08646945 -0.0024917033 -0.2502303 0.059685715 0.092286915 -0.11746292 -0.060277067 0.05445282
0.11200172 0.13567103 0.11383006 0.10065395 0.02760887 -0.15482554 0.2809334 0.032543935
0.06072501 -0.05823979 -0.11115197 0.015531584 0.087633945 -0.025298303 0.077084646 -0.13604511
-0.018333286 -0.018756464 0.16305514 -0.11742857 0.00056131254 -0.030200595 -0.053730592 -0.032549318
0.05845967 0.099832006 0.057281964 0.11458085 -0.036896277 -0.1222382 -0.08830206 -0.058833618
0.004268549 0.007018686 0.09820116 0.047530033 0.04182294 -0.121889874 -0.04242331 -0.081250794
0.04110526 0.060867045 -0.02157049 -0.12841645 0.047708157 -0.023684058 0.07354701 -0.078452565
-0.047991924 0.027929572 -0.05134738 0.09667815 -0.11620407 0.11556034 -0.14286168 -0.024388816
-0.087665096 -0.00934385 -0.036772594 0.0132085355 0.06458318 0.0407586 0.17614599 0.0911216
0.04011526 -0.027269349 0.15173554 0.09854051 -0.030971816 0.055553976 0.029673398 0.011279516
0.013532835 0.0021067576 0.0832984 -0.067715384 -0.022418639 -0.01725592 0.15426284 -0.17207299
0.07344191 -0.05761604 -0.042826712 -0.10371953 0.0030746881 -0.028754173 -0.047316562 0.04986462
-0.010524276 -0.08939391 -0.015951434 -0.10580862 0.037827093 0.14079215 -0.016633673 0.048542853
-0.043816533 -0.03458182 0.11696089 0.008303307 0.04403257 0.104703374 0.0246073 -0.1223489
-0.10359893 0.014671071 -0.08623341 -0.0030074834 -0.15368557 0.005581777 0.068230905 -0.030419853
0.07649717 -0.035088465 -0.18222928 -0.08915263 -0.24170269 0.11176476 0.010012512 -0.07443645
00000000: 68dc e33d 50ab 9bbd 0940 94be 4749 22bd
00000010: 27e4 8cbc 8104 d13d 3caf 03be 8536 49be
00000020: 55a1 0b3e 5241 d93d 2560 253f 2a27 84bc
00000030: 972b b63d bcbf 633d a469 943e 4b42 8cbe
00000040: 1efd 1fbd a4ab 20be 9fdd a4bd 01d3 4ebe
00000050: 200f 0d3f 43cd b93e f010 0ebe bc08 cabd
00000060: 9d85 bfbb bba9 f23d 8e2e 9c3d a84c 28be
00000070: fefd 8bbd c9c2 fe3d ee36 1b3d 92e4 4f3e
00000080: 965a acbc e574 0cbe 00cb e0bd 80b0 a23e
00000090: 23bc 6cbd f9ef 7c3d 173b 2ebd fbe6 e8bd
000000a0: e10e 973c 3315 0b3e 1e8e bcbd 9a21 a33c
000000b0: f0f0 a43d 0a2d 7e3e 309f 1c3e 444a 223e
000000c0: 6651 f9bb bdee 75bd 46fc 8ebc 5747 14be
000000d0: c5ff 6abd 5e0e c33e 23ff c13d 2ec3 e03e
000000e0: 2c77 a4bd 5be5 0dbc 2d23 103d f73f 4f3e
000000f0: ff34 143d 7de9 2ebc 0676 47bd d22f 09bd
00000100: 6ddf 2abd 45da 393d 03d6 4e3c 8c6e 3f3e
00000110: 671f e6bc 2758 873c bae4 73bd cff0 06bc
00000120: 7410 f43c 0cb8 1e3d 0601 54bd 356e a73c
00000130: 67a1 203e 79ac c93d a95f f93c 492a 343d
00000140: 1052 7d3d a561 1fbe 9e5a 753e 40d0 df3c
00000150: f4c3 113d f498 f8bd e038 ed3d ea40 31bd
00000160: 30d9 403d 32b7 8fbc 8044 4dbc 2818 abbd
00000170: 36b0 83bd 073b 103d 0617 323e 53a2 d7bc
00000180: 44d4 4c3d d1bf bc3c 112f 7f3c 1e64 5e3d
00000190: 833e 4a3d 15d2 c73d 51bc 8abd 716a 193d
000001a0: b433 37bd 91b4 cebd 9929 66bc 8d3c 0cbe
000001b0: 5801 c13b e62e f63d 3986 afbc 2d2b cabd
000001c0: 9118 e3bb 25f1 8ebd 8940 f03d 49f8 163c
000001d0: 7117 9dbc 1826 093e 02fc 7b3d 8480 703d
000001e0: a108 f53d bd3c 493c 7fb0 db3d f3eb bbbc
000001f0: 6eca 5a3d b00b 083c b911 ecbd 1541 533e
00000200: e516 b1bd d84b 23bb 301e 80be 0279 743d
00000210: ec00 bd3d 6690 f0bd 16e5 76bd ec09 5f3d
00000220: 2861 e53d 59ed 0a3e bc1f e93d a823 ce3d
00000230: ff2b e23c 968a 1ebe 81d6 8f3e ca4c 053d
00000240: caba 783d d98c 6ebd a5a3 e3bd 2f78 7e3c
00000250: 6d79 b33d 633e cfbc 8ede 9d3d 694f 0bbe
00000260: b02f 96bc 28a7 99bc edf7 263e 647e f0bd
00000270: 0c25 133a 3d67 f7bc 9c14 5cbd 6f52 05bd
00000280: 6873 6f3d b974 cc3d 7ea0 6a3d 5da9 ea3d
00000290: 8d20 17bd 0558 fabd b6d7 b4bd 85fb 70bd
000002a0: 2fdf 8b3b 01fd e53b b11d c93d daae 423d
000002b0: 884e 2b3d 66a1 f9bd 11c4 2dbd d166 a6bd
000002c0: fd5d 283d b94f 793d 99b4 b0bc 9a7f 03be
000002d0: a169 433d 1205 c2bc d19f 963d bdab a0bd
000002e0: 2e93 44bd 8fcc e43c a151 52bd 32ff c53d
000002f0: 66fc edbd e6aa ec3d 554a 12be 0ecb c7bc
00000300: c289 b3bd f316 19bc dc9e 16bd 9d68 583c
00000310: 3044 843d 7df2 263d 9d5f 343e f69d ba3d
00000320: e64f 243d f863 dfbc 9060 1b3e 9bcf c93d
00000330: 9bb8 fdbc 918c 633d a015 f33c b8cd 383c
00000340: d3b8 5d3c 8711 0a3b 5a98 aa3d 5dae 8abd
00000350: 4ba7 b7bc 4a5c 8dbc 14f7 1d3e e733 30be
00000360: b668 963d ccfe 6bbd 106b 2fbd e86a d4bd
00000370: b580 493b df8d ebbc 03cf 41bd d83e 4c3d
00000380: 036e 2cbc 2714 b7bd 95ac 82bc 31b2 d8bd
00000390: 95f0 1a3d d12b 103e 5743 88bc dfd4 463d
000003a0: f778 33bd aba5 0dbd 3189 ef3d 980a 083c
000003b0: 7f5b 343d b96e d63d 4095 c93c 0f92 fabd
000003c0: ad2b d4bd ef5e 703c 249b b0bd 3319 45bb
000003d0: c05f 1dbe 57e7 b63b a5bc 8b3d 0e33 f9bc
000003e0: 8caa 9c3d ecb8 0fbd 509a 3abe a795 b6bd
000003f0: e980 77be ece4 e43d 850b 243c 2372 98bd
