epoch_100_model/솔트model.pth (torch, 201120 bytes, 18 tensors)

linear1.weight f4 [24, 48]
-0.28357816 -0.10592393 0.06319932 0.171147 -0.41534683 -0.19118646 0.119467 0.039852567
0.27039975 0.092596225 0.05501186 0.1727447 0.52917325 0.3795688 0.033542242 0.041828427
0.42933464 0.2719973 0.1030617 0.15817012 0.05571871 -0.030762026 0.033450514 0.18591198
-0.26976508 -0.24457856 -0.061704196 0.12708409 -0.5879974 -0.2683163 0.08208082 0.09934787
0.1051742 0.095638074 0.018926801 0.0016276849 0.33016554 0.17390513 0.14154851 0.12905571
0.5761143 0.37841523 0.06272008 0.10690896 -0.24178675 -0.12175474 0.11892438 0.06762027
0.12285668 0.020054717 0.027530728 0.10488166 0.47110164 0.20852417 0.09563347 0.1371971
0.019073585 -0.041054018 -0.049620327 0.11671965 -0.18482062 -0.18677826 0.025164792 0.04483801
0.08246962 -0.025102306 0.059248593 0.086592756 0.34410158 0.24041748 0.11471783 0.17088655
-0.6333677 -0.2699391 -0.0047510494 0.003913882 0.6295895 0.41114116 0.078376286 0.15489173
-0.05502543 0.055566534 0.018039536 0.081422806 0.1678347 0.1307256 -0.041878045 -0.027240433
0.5393016 0.35497972 0.062751986 0.03140541 -0.34324858 -0.10536742 0.1610567 0.051395856
-0.15386184 -0.14555518 -0.07166462 0.008720189 -0.09994995 -0.015561377 0.11620414 -0.06650596
-0.07487682 -0.13390103 0.096992575 -0.12783742 -0.09564522 0.053093374 0.13197471 -0.06654646
-0.10107981 0.016554924 0.024600824 -0.043341305 -0.03840271 -0.03309942 0.012961247 0.03986839
-0.14326474 0.039508987 0.033341456 -0.011489968 -0.11405951 0.008235188 -0.023018623 -0.04227608
0.1298988 -0.08940423 -0.10427561 0.10220541 -0.121794604 0.06994052 -0.084118314 0.035087295
0.09998129 0.019085852 0.09344812 -0.08010147 -0.10932429 0.015485126 0.008404195 -0.042321708
-0.20883247 -0.13315587 0.14458098 0.0410947 0.069719955 0.07795005 0.18430412 0.18112367
0.25176612 0.04848273 -0.046234466 0.14163512 -0.016858734 0.031058067 0.13355128 0.022621492
-0.04068846 -0.022215256 0.11338173 0.045537997 -0.019496199 0.14340994 0.09442582 0.07918666
0.40253234 0.21000406 0.09826946 0.03318433 -0.5407992 -0.36174533 0.14865103 0.19354875
-0.19387089 0.05614573 0.06762819 0.19644237 0.0029119628 0.18363099 0.09940844 0.106286995
-0.71075857 -0.28427446 0.06978547 0.03240114 1.141999 0.60132784 0.15442747 0.20547265
0.017232422 0.10743473 -0.08119857 0.050169736 -0.15478326 0.01345222 -0.089086965 0.0016228831
-0.13441198 -0.12375798 -0.15675999 -0.06485243 -0.14974648 0.060094185 0.06811651 0.053943746
-0.16300604 0.09360768 0.10265698 0.061428234 -0.121982776 -0.04148996 -0.060611203 0.009906168
0.09906307 -0.06102881 0.049668726 -0.1544095 -0.095243685 -0.00550892 0.06331674 0.113304056
-0.09060071 -0.14567809 -0.10079697 0.07007272 0.10849331 0.09878097 -0.1060843 -0.15860121
-0.030113522 -0.15331878 -0.002622519 -0.10463059 -0.09590185 -0.14804675 0.11162715 0.00068617467
-0.120528474 -0.043145794 0.057301275 0.1342486 0.014146912 0.06026541 0.12350176 0.17988408
-0.11877234 0.056919523 0.10080521 0.11314544 -0.1119178 -0.05148377 0.11281842 0.12803264
00000000: 2831 91be a5ee d8bd a56e 813d 2941 2f3e
00000010: 57a8 d4be 62c6 43be 1dab f43d 723c 233d
00000020: d671 8a3e 17a3 bd3d 1e54 613d fde3 303e
00000030: e677 073f d756 c23e 9763 093d 4954 2b3d
00000040: c0d1 db3e 3b43 8b3e 0312 d33d 59f7 213e
00000050: 4d39 643d a500 fcbc 6803 093d b65f 3e3e
00000060: a61e 8abe cd72 7abe 8abd 7cbd 5522 023e
00000070: ff86 16bf c160 89be fd19 a83d e576 cb3d
00000080: 9265 d73d e5dd c33d 610c 9b3c 0b58 d53a
00000090: 750b a93e 3014 323e 18f2 103e 2e27 043e
000000a0: 3a7c 133f a4bf c13e 6373 803d 16f3 da3d
000000b0: f296 77be 8d5a f9bd a08e f33d 7f7c 8a3d
000000c0: 489c fb3d ca49 a43c 1f88 e13c 32cc d63d
000000d0: 3c34 f13e 5c87 553e 7bdb c33d 667d 0c3e
000000e0: 3540 9c3c 4228 28bd af3e 4bbd b60a ef3d
000000f0: 9e41 3dbe cd42 3fbe 6526 ce3c 10a8 373d
00000100: d5e5 a83d 5aa3 cdbc a7ae 723d 8b57 b13d
00000110: 152e b03e 0030 763e 2ff1 ea3d e2fc 2e3e
00000120: 6324 22bf 7535 8abe b1ae 9bbb 0640 803b
00000130: c72c 213f 1881 d23e bf83 a03d f09b 1e3e
00000140: 5862 61bd bc99 633d a6c7 933c 00c1 a63d
00000150: dcdc 2b3e efdc 053e 5088 2bbd 5427 dfbc
00000160: ab0f 0a3f e7bf b53e 1d84 803d f6a2 003d
00000170: 47be afbe e0ca d7bd 0cec 243e 7684 523d
00000180: f58d 1dbe 6b0c 15be e6c4 92bd 20df 0e3c
00000190: 8fb2 ccbd 25f5 7ebc 70fc ed3d 4734 88bd
000001a0: 0559 99bd 5a1d 09be 0ba4 c63d d0e7 02be
000001b0: a4e1 c3bd 7078 593d 6124 073e 8349 88bd
000001c0: ee02 cfbd 319e 873c ab87 c93c a786 31bd
000001d0: 294c 1dbd 4293 07bd 695b 543c 094d 233d
000001e0: feb3 12be 2dd4 213d 0d91 083d 6b40 3cbc
000001f0: 0898 e9bd e2ec 063c 8d91 bcbc af29 2dbd
00000200: 3104 053e 9119 b7bd 738e d5bd 1251 d13d
00000210: 736f f9bd fa3c 8f3d 3946 acbd b2b7 0f3d
00000220: fec2 cc3d ef59 9c3c ba61 bf3d 3d0c a4bd
00000230: 6ae5 dfbd 53b5 7d3c c0b1 093c 8759 2dbd
00000240: 2ed8 55be 035a 08be 090d 143e eb52 283d
00000250: 56c9 8e3d 47a4 9f3d 38ba 3c3e 7c78 393e
00000260: 7de7 803e d495 463d 5a60 3dbd cc08 113e
00000270: 541b 8abc 7d6d fe3c abc1 083e b550 b93c
00000280: f1a8 26bd c5fc b5bc ae34 e83d 0d86 3a3d
00000290: 7eb6 9fbc 0eda 123e 5362 c13d 9e2c a23d
000002a0: b818 ce3e 4e0b 573e 8041 c93d 4bec 073d
000002b0: d171 0abf af36 b9be fa37 183e a531 463e
000002c0: 1786 46be 11f9 653d a680 8a3d 3028 493e
000002d0: a1d6 3e3b c309 3c3e a796 cb3d ffac d93d
000002e0: 46f4 35bf 6c8c 91be afeb 8e3d 0fb7 043d
000002f0: 062d 923f 9ff0 193f 3c22 1e3e 6c67 523e
00000300: 022b 8d3c bd06 dc3d 704b a6bd c87e 4d3d
00000310: 817f 1ebe b366 5c3c 3a73 b6bd ecb6 d43a
00000320: 4ba3 09be d374 fdbd b185 20be 5ad1 84bd
00000330: 2457 19be 5225 763d ab80 8b3d 1ef4 5c3d
00000340: 0eeb 26be 62b5 bf3d d33d d23d 2c9c 7b3d
00000350: 1bd2 f9bd 60f1 29bd 7443 78bd 7b4d 223c
00000360: 94e1 ca3d 58f9 79bd 6f71 4b3d 861d 1ebe
00000370: 1f0f c3bd 2c84 b4bb 35ac 813d f50b e83d
00000380: dd8c b9bd a32c 15be a46e cebd 4982 8f3d
00000390: be31 de3d ad4d ca3d ba42 d9bd 5b68 22be
000003a0: a2b0 f6bc 99ff 1cbe 91de 2bbb 9048 d6bd
000003b0: 3068 c4bd 9199 17be c69c e43d 67e0 333a
000003c0: a2d7 f6bd a5b9 30bd beb4 6a3d 7778 093e
000003d0: 73c8 673c ddd8 763d 7eee fc3d 8833 383e
000003e0: ea3e f3bd 7224 693d f672 ce3d ccb8 e73d
000003f0: 2935 e5bd a5e0 52bd 580d e73d fd1a 033e

linear1.bias f4 [24]
0.24745099 -0.00015090266 -0.124066755 0.3334459 -0.0017217961 0.06623357 -0.086815104 0.3991758
-0.20534095 -0.0014941322 0.243715 0.2644841 0.059674215 0.048546087 0.25254124 0.18877801
0.043485194 0.4255071 0.15322995 0.06800248 0.037237763 -0.09469299 0.2981025 -0.024324201
00000000: cb63 7d3e a03b 1eb9 b616 febd 6cb9 aa3e
00000010: e4ad e1ba 77a5 873d 1ecc b1bd c560 cc3e
00000020: e644 52be c2d6 c3ba 6d90 793e 766a 873e
00000030: f36c 743d 43d8 463d 164d 813e 064f 413e
00000040: 881d 323d 11dc d93e 50e8 1c3e e244 8b3d
00000050: a086 183d 66ee c1bd e4a0 983e 8c43 c7bc

linear2.weight f4 [12, 24]
0.16090696 0.9035098 -0.06683683 -0.29859027 -0.0041374182 -0.31099156 -0.16669017 0.33430314
-0.044886433 -0.26461256 0.080900595 0.26934695 0.106228285 0.0058051944 0.5894846 -0.19551668
0.03369548 0.76706105 0.051984303 -0.30713722 0.29231152 -0.017193373 -0.119506486 -0.21384881
-0.30860105 0.08195688 -0.072944395 0.39014745 0.024581328 0.20552528 0.560415 0.10610138
0.29956684 -0.30161172 0.011982956 -0.271711 0.2099783 0.11722367 -0.45186353 0.043376964
-0.16768304 -0.20594159 0.1868897 -0.3103455 0.3295652 -0.097165905 -0.26114497 0.35954604
-0.19243746 0.08666279 -0.19026384 -0.099341564 -0.097833864 -0.1386933 0.10587069 0.09178689
0.14560199 -0.19005035 -0.1426062 0.07224728 -0.18360162 0.0061769634 0.0009107921 -0.10536527
-0.0064651445 -0.106061906 -0.18527666 -0.10989463 -0.017529627 0.13283572 0.18315758 0.076338954
0.4561325 0.21282715 0.18772975 -0.108889 -0.017279007 0.97626644 -0.35202053 -0.035586968
0.30299553 0.13495445 0.2925278 0.1194558 -0.24368002 -0.19598572 -0.44892046 -0.31057176
0.0025748995 -0.1912223 -0.08529705 0.056662194 -0.10763008 -0.14447859 -0.08332705 0.18640943
0.12417272 0.043197237 0.13324513 0.12778588 0.1344648 0.034657814 0.009349588 -0.19586022
0.07062755 -0.2198299 -0.17275591 -0.20593753 -0.050181538 -0.17691098 0.09654419 0.043173548
-0.033827666 -0.11855371 0.06971597 0.16684212 -0.071061775 0.15022655 -0.08894763 -0.089271724
0.10103876 -0.24443741 -0.07293499 0.34793943 -0.09540345 -0.38322726 -0.31557578 0.20690504
0.29880816 0.29835004 0.14110574 -0.21276252 0.6555244 -0.1533728 -0.5166821 0.15593615
0.12802058 0.26453093 0.14667605 -0.23773651 -0.072399676 -0.15347241 0.3632961 -0.25924745
0.40403274 0.34459648 -0.047507945 -0.09330166 -0.16889982 -0.79018176 0.15952913 0.40272102
0.82834804 0.80675054 0.37079227 0.39525205 0.25181967 -0.1221168 -0.13833515 0.2908676
0.7112192 -0.20661339 0.14893344 0.39614975 0.32697293 0.17395888 0.34650052 0.44161153
-0.005670226 0.07923128 0.18475872 0.11494842 -0.059108865 -0.04748693 0.12395237 -0.07078455
0.0025715115 0.0323217 0.03087336 -0.18040292 0.16623119 0.18266487 0.0057883007 -0.17156827
-0.08621281 0.038641963 -0.20553073 -0.0070803463 0.11743471 -0.13231069 -0.06621935 -0.105729595
0.03248081 -0.28975818 0.011373649 0.07156047 -0.04958426 0.601653 0.6138602 -0.09691292
-0.15319236 -0.10550266 0.06271074 0.17878218 0.079991624 -0.03655815 0.06287442 0.44111758
0.3194356 0.49971062 -0.2924287 0.15548477 -0.15489092 0.095431656 0.23901804 -0.19488116
0.7886747 -0.38076353 -0.09214529 0.60796696 -0.022965131 -0.3421054 -0.23088638 0.22838789
-0.33465087 0.22639146 0.65743077 0.5108675 -0.1569052 0.15082528 0.29611132 0.51866674
-0.050445214 -0.34614858 0.62110114 0.40243128 0.39040765 -0.1531709 0.3634675 0.36513978
-0.07494268 0.08074222 0.15784559 -0.1509285 0.068196565 -0.11413271 -0.11858067 -0.047919948
-0.031184569 0.019236395 0.09783503 -0.20422468 0.06604107 0.18932298 -0.08721889 0.095974624
00000000: cbc4 243e 6b4c 673f bfe1 88bd d3e0 98be
00000010: 2e93 87bb 493a 9fbe d4b0 2abe c829 ab3e
00000020: d6da 37bd 4c7b 87be 36af a53d d8e7 893e
00000030: 378e d93d 8039 be3b 76e8 163f 8635 48be
00000040: 4604 0a3d 1d5e 443f 7eed 543d 1741 9dbe
00000050: dba9 953e 1ed9 8cbc d1bf f4bd 2ffb 5abe
00000060: f500 9ebe 02d9 a73d df63 95bd 68c1 c73e
00000070: c85e c93c 3875 523e 5c77 0f3f ae4b d93d
00000080: d360 993e da6c 9abe 2954 443c b41d 8bbe
00000090: 8d04 573e f712 f03d a85a e7be 0bac 313d
000000a0: 1ab5 2bbe 5ae2 52be 0360 3f3e 9be5 9ebe
000000b0: c5bc a83e ebfe c6bd cbb4 85be 6b16 b83e
000000c0: 530e 45be 437c b13d 86d4 42be 9773 cbbd
000000d0: 1f5d c8bd 9e05 0ebe bbd2 d83d c4fa bb3d
000000e0: b018 153e 8f9c 42be 5c07 12be 62f6 933d
000000f0: 1002 3cbe 2068 ca3b 39c2 6e3a bfc9 d7bd
00000100: 90d9 d3bb fc36 d9bd 2ab9 3dbe 7010 e1bd
00000110: 4b9a 8fbc 1606 083e a98d 3b3e 9957 9c3d
00000120: 338a e93e 5cef 593e 3a3c 403e 3201 dfbd
00000130: b48c 8dbc 99ec 793f 093c b4be a4c3 11bd
00000140: 3b22 9b3e 8031 0a3e 34c6 953e 3ea5 f43d
00000150: 4187 79be 7bb0 48be e7d8 e5be 4303 9fbe
00000160: a5bf 283b c7cf 43be 38b0 aebd 9e16 683d
00000170: 296d dcbd 32f2 13be 5fa7 aabd 1de2 3e3e
00000180: 444e fe3d 96ef 303d 6971 083e 4dda 023e
00000190: 24b1 093e 5af5 0d3d 042f 193c 958f 48be
000001a0: 2da5 903d 171b 61be ede6 30be 4ae1 52be
000001b0: 288b 4dbd 2728 35be f6b8 c53d bfd6 303d
000001c0: e18e 0abd 4acc f2bd 3fc7 8e3d a9d8 2a3e
000001d0: d688 91bd fdd4 193e 2d2a b6bd 18d4 b6bd
000001e0: 69ed ce3d cd4d 7abe f15e 95bd 1e25 b23e
000001f0: e262 c3bd 5d36 c4be 2693 a1be eade 533e
00000200: 62fd 983e 56c1 983e 067e 103e 6bde 59be
00000210: 72d0 273f c20d 1dbe 4745 04bf baad 1f3e
00000220: d417 033e 9970 873e 3f32 163e 3371 73be
00000230: 4846 94bd df27 1dbe f201 ba3e 15bc 84be
00000240: 61dd ce3e f36e b03e b197 42bd f114 bfbd
00000250: 13f4 2cbe 5a49 4abf 9b5b 233e 7331 ce3e
00000260: 9e0e 543f 3487 4e3f 7cd8 bd3e 7a5e ca3e
00000270: 82ee 803e 5f18 fabd bba7 0dbe 99ec 943e
00000280: 7612 363f 7692 53be 0282 183e 24d4 ca3e
00000290: ff68 a73e 4722 323e 8468 b13e e81a e23e
000002a0: 4ecd b9bb 0244 a23d 6431 3d3e 146a eb3d
000002b0: 231c 72bd a881 42bd bdda fd3d 7df7 90bd
000002c0: ce86 283b c263 043d 21ea fc3c 8bbb 38be
000002d0: 8238 2a3e 800c 3b3e c9ab bd3b 98af 2fbe
000002e0: 5790 b0bd 0947 1e3d a676 52be 4002 e8bb
000002f0: 9c81 f03d 747c 07be 039e 87bd c288 d8bd
00000300: 990a 053d 2f5b 94be 8b58 3a3c 4c8e 923d
00000310: dd18 4bbd ee05 1a3f f125 1d3f 487a c6bd
00000320: 75de 1cbe c711 d8bd 7d6e 803d ad12 373e
00000330: a6d2 a33d 00be 15bd 4ec4 803d 2ada e13e
00000340: 108d a33e 12da ff3e 37b9 95be 6637 1f3e
00000350: ba9b 1ebe ac71 c33d 25c1 743e ed8e 47be
00000360: 96e6 493f 70f3 c2be abb6 bcbd b9a3 1b3f
00000370: 5f21 bcbc 7028 afbe 7b6d 6cbe 84de 693e
00000380: 5c57 abbe 2ad3 673e 624d 283f 36c8 023f
00000390: c2ab 20be f171 1a3e e79b 973e 58c7 043f
000003a0: a49f 4ebd 633a b1be 7c00 1f3f 790b ce3e
000003b0: 83e3 c73e d5d8 1cbe 6a18 ba3e 9af3 ba3e
000003c0: 8c7b 99bd 2d5c a53d 46a2 213e 008d 1abe
000003d0: a4aa 8b3d 69be e9bd 6cda f2bd b547 44bd
000003e0: c876 ffbc a595 9d3c bb5d c83d 4620 51be
000003f0: 8a40 873d e2dd 413e d19f b2bd 588e c43d

linear2.bias f4 [12]
-0.16838248 0.03983612 -0.19599979 0.090469725 0.037266184 0.13162844 0.08329707 -0.16249804
0.07081877 0.20687494 -0.19128065 -0.0884414
00000000: 756c 2cbe 332b 233d 2bb4 48be 3148 b93d
00000010: 6da4 183d 9bc9 063e a797 aa3d e365 26be
00000020: 6e09 913d 06d7 533e 13df 43be c420 b5bd

linear3.weight f4 [1200, 12]
0.4538046 0.12500407 0.070308104 -0.21344796 0.17187329 -0.4142307 0.19327058 0.016682716
-0.3170454 0.054840934 0.22779146 -0.15238239 -0.27145326 -0.121226564 0.05769357 0.03962169
0.19887406 -0.031166157 -0.10251727 -0.029790103 -0.2629132 0.07143168 -0.055544674 -0.048688635
-0.592353 -0.5977951 -0.10179151 0.09528947 -0.28763345 -0.18539433 0.04330475 0.026337758
0.65916383 0.2186095 -0.16311996 0.13667133 -0.3968011 0.22935188 0.009190497 0.7577701
0.041746654 -0.35982215 -0.081954785 -0.0039944383 0.028011287 0.012148094 0.20264816 0.11000451
-0.0051281992 -0.1436812 0.12937391 0.22411726 -0.14893298 0.046616513 -0.1664134 0.26356018
-0.2651652 -0.17349723 0.08576748 0.23870401 -0.14677517 -0.11719847 -0.07242032 0.17034557
0.006800585 0.18838595 -0.16334231 -0.26080698 0.18021446 -0.032621782 0.14343715 -0.00042593
0.022891283 -0.08541256 0.1236265 0.02761051 0.231763 -0.26543626 -0.13377096 0.21925873
-0.20099944 -0.12810992 -0.2692641 -0.13760075 0.16482864 0.102375455 0.25537384 0.20403281
0.20609249 -0.25232875 -0.009059618 -0.14256473 -0.111326955 0.1488236 0.1149657 -0.32048222
0.3599794 -0.25502643 0.10718244 0.14750129 0.16999298 0.4015986 1.0707585 -0.21284491
0.61560273 0.114526264 -0.09103289 0.63966286 0.38418514 -0.26139215 -0.036505077 0.33180612
-0.06477081 -0.34291476 -0.0025757586 -0.033500236 0.2288225 -0.37222633 0.06759064 0.27375934
0.041175112 -0.0008052479 -0.04897816 0.15791123 -0.20642675 -0.38614488 0.39254048 -0.083813734
0.063142054 0.16934651 0.089652136 0.34842032 -0.027282877 -0.3687272 0.2319979 0.21822737
0.087686926 -0.257366 0.057745345 -0.049944997 -0.137555 0.106057264 0.14578149 -0.1633192
0.3844718 -0.055110082 -0.116199546 -0.11754166 0.1844596 -0.10317946 0.44295305 -0.006984975
-0.05098733 -0.19789161 -0.051782984 0.2608728 -0.41010424 -0.31174687 0.17763272 0.2963658
0.24198835 -0.27624598 -0.114645645 -0.12084224 0.15918772 0.04877892 -0.26795578 0.2166372
-0.8437884 0.40812004 -0.048118617 -0.13082254 -0.15022342 1.6808568e-05 0.20171681 -0.230538
0.23638274 0.24031866 -0.23768716 -0.19863667 -0.615954 0.13370083 -0.120289005 -0.07845331
-0.11581534 -0.33367538 -0.18340923 0.11617956 0.17276612 0.2263517 -0.13296865 0.28804043
0.02871366 -0.16449717 -0.21893372 0.4319679 -0.047644112 -0.1450762 -0.001999331 -0.16276766
0.3430072 -0.16711512 -0.23774903 -0.052265786 -0.33336827 0.14813238 -0.14514668 -0.25414973
0.27806196 0.299516 -0.12908828 0.16104983 0.5720943 -0.29604554 -0.23528042 0.31128213
-0.054914743 -0.13067347 -0.06653418 0.01430589 -0.21523589 -0.05851835 -0.005202383 0.2192986
-0.14995472 -0.13472505 -0.04533358 -0.06403151 0.19173756 0.15875366 0.17177658 0.18448311
0.21481578 -0.4576031 0.080594875 0.030850999 0.14734992 -0.20320591 -0.026340265 0.029138857
-0.24696808 0.2982839 -0.1193198 -0.59380275 0.040328514 -0.4241357 -0.30905953 0.06971359
0.28351843 0.32195088 0.034189843 0.1287706 -0.03896489 -0.5037446 0.02368281 -0.11543064
00000000: 1459 e83e 1101 003e b2fd 8f3d 1a92 5abe
00000010: 8dff 2f3e 0c16 d4be b9e8 453e 31aa 883c
00000020: c653 a2be e3a0 603d 2a42 693e 210a 1cbe
00000030: ecfb 8abe a245 f8bd 1850 6c3d 5a4a 223d
00000040: a4a5 4b3e 2b50 ffbc 93f4 d1bd 600a f4bc
00000050: 8f9c 86be c64a 923d d082 63bd bc6d 47bd
00000060: 72a4 17bf 1a09 19bf 1178 d0bd 2027 c33d
00000070: b144 93be 03d8 3dbe 5260 313d 48c2 d73c
00000080: f6be 283f 2bdb 5f3e eb08 27be 92f3 0b3e
00000090: 8429 cbbe 38db 6a3e bd93 163c 39fd 413f
000000a0: 8afe 2a3d 9c3a b8be e9d7 a7bd c7e3 82bb
000000b0: ed77 e53c cd08 473c 0083 4f3e 0b4a e13d
000000c0: 740a a8bb 2a21 13be 987a 043e ff7e 653e
000000d0: e381 18be f5f0 3e3d 4668 2abe 5cf1 863e
000000e0: bcc3 87be 42a9 31be dca6 af3d d36e 743e
000000f0: 3b4c 16be c005 f0bd 1b51 94bd 126f 2e3e
00000100: 71d7 de3b 3fe8 403e 3543 27be 7e88 85be
00000110: 248a 383e 6b9e 05bd 30e1 123e 5b4f dfb9
00000120: 8086 bb3c c8ec aebd e42f fd3d 702f e23c
00000130: 4853 6d3e 43e7 87be 41fb 08be 5c85 603e
00000140: ccd2 4dbe 3f2f 03be fcdc 89be 36e7 0cbe
00000150: d7c8 283e 39aa d13d 5cc0 823e faed 503e
00000160: e909 533e 3c31 81be cb6e 14bc 7dfc 11be
00000170: 63ff e3bd 3765 183e 2373 eb3d 3f16 a4be
00000180: 384f b83e d392 82be 7882 db3d 940a 173e
00000190: a412 2e3e 559e cd3e 9d0e 893f 04f4 59be
000001a0: 2498 1d3f bf8c ea3d 746f babd f2c0 233f
000001b0: eab3 c43e 31d5 85be 5986 15bd 7ee2 a93e
000001c0: 8fa6 84bd 8692 afbe 0fce 28bb 8b37 09bd
000001d0: 7250 6a3e 7394 bebe f66c 8a3d 2f2a 8c3e
000001e0: 3ca7 283d 4617 53ba 539d 48bd 7bb3 213e
000001f0: 8961 53be c8b4 c5be 11fb c83e 89a6 abbd
00000200: 9f50 813d 2c69 2d3e 8a9b b73d 2664 b23e
00000210: 5780 dfbc d0c9 bcbe dc90 6d3e ff76 5f3e
00000220: 3495 b33d 7ac5 83be 6286 6c3d 2093 4cbd
00000230: 38db 0cbe 8d34 d93d be47 153e 263d 27be
00000240: 7dd9 c43e 1cbb 61bd 07fa edbd afb9 f0bd
00000250: fae2 3c3e c14f d3bd beca e23e 38e2 e4bb
00000260: 17d8 50bd 19a4 4abe 651a 54bd 1f91 853e
00000270: 2ff9 d1be 499d 9fbe 5ae5 353e 42bd 973e
00000280: cbcb 773e 1d70 8dbe 56cb eabd 237c f7bd
00000290: 1b02 233e 68cc 473d 8031 89be 24d6 5d3e
000002a0: 8402 58bf 1cf5 d03e 0718 45bd 58f6 05be
000002b0: 2bd4 19be 2000 8d37 da8e 4e3e 2712 6cbe
000002c0: 510e 723e 1816 763e 4364 73be 6967 4bbe
000002d0: 29af 1dbf dfe8 083e 155a f6bd 21ac a0bd
000002e0: 9830 edbd 80d7 aabe a1cf 3bbe 8def ed3d
000002f0: 9ae9 303e bdc8 673e ef28 08be 097a 933e
00000300: e938 eb3c f271 28be 2930 60be e62a dd3e
00000310: 7926 43bd db8e 14be 3507 03bb 91ac 26be
00000320: a49e af3e 3a20 2bbe 7b74 73be a614 56bd
00000330: 3faf aabe 04b0 173e 55a1 14be ea1f 82be
00000340: 235e 8e3e 295a 993e b82f 04be 3fea 243e
00000350: c674 123f 4893 97be 5aed 70be 5f60 9f3e
00000360: 48ee 60bd 44cf 05be 1243 88bd 4063 6a3c
00000370: cc66 5cbe f0b0 6fbd c078 aabb d08f 603e
00000380: bb8d 19be 5df5 09be b4af 39bd f422 83bd
00000390: da56 443e 5290 223e 33e6 2f3e 24e9 3c3e
000003a0: abf8 5b3e f44a eabe ed0e a53d 3cbb fc3c
000003b0: e6e2 163e 3615 50be 8ac7 d7bc 9db4 ee3c
000003c0: 33e5 7cbe abb8 983e f05d f4bd 7503 18bf
000003d0: 832f 253d 5128 d9be 0d3d 9ebe 00c6 8e3d
000003e0: 5429 913e bfd6 a43e a60a 0c3d 71dc 033e
000003f0: a699 1fbd 68f5 00bf 7402 c23c e666 ecbd

linear3.bias f4 [1200]
0.19655493 -0.093998455 0.21053116 -0.023107275 -0.27426714 -0.20813504 -0.13654256 -0.12695737
0.007450176 -0.025384428 -0.027681373 -0.0020171537 0.075350925 0.1139714 0.14466986 0.16893588
0.3488112 -0.32481855 -0.2302716 0.20150013 0.05386247 -0.06786608 -0.1684459 0.71642464
0.32265553 0.092242345 0.010835265 -0.005130888 -0.14483266 -0.16196333 -0.042113043 -0.28902307
0.24217339 0.26009777 0.1429838 0.62898004 0.18663613 0.17697582 -0.19707617 0.010915139
0.13674715 0.0012867161 -0.017808558 -0.06378003 -0.2206011 -0.25925472 0.39023206 -0.18206556
-0.20853704 -0.14442019 0.30199364 -0.28572974 -0.17631294 0.29008788 0.31642425 -0.16052093
-0.008234868 -0.04111076 0.035852555 0.16666862 -0.119145095 -0.045731414 0.1377298 -0.008222457
0.020952528 0.22199476 -0.1626298 -0.22579668 -0.007260691 0.12812315 0.12769102 -0.22028339
0.12685236 -0.37682715 0.064803615 0.11227645 0.0132751595 -0.081378005 0.05664174 -0.3305777
0.07406289 0.01971254 0.26311058 -0.17318217 0.0934765 -0.26746336 0.06453704 0.07305291
0.07335631 -0.06126515 0.23427606 -0.09454235 -0.29478794 0.17384358 -0.16818173 -0.10807389
-0.32805157 -0.3268111 0.36967736 0.09914527 0.11039606 -0.29188251 -0.2353112 0.04918949
0.013225 -0.08312181 0.1245495 -0.39852545 -0.3021664 0.06760369 0.011253516 -0.2625214
0.10687071 0.34346 0.011087732 -0.3095476 -0.15650441 0.21083456 -0.018611943 0.086427175
-0.38805854 0.05713453 -0.15369593 0.017381353 0.05915856 0.0053803716 0.15895487 -0.30292675
-0.14254779 0.021427266 -0.013237491 0.06378119 -0.053938556 -0.28754994 -0.039408926 0.035329793
-0.18997799 0.10833792 0.020079615 0.14156696 -0.32907107 0.16858104 0.085044965 -0.10875323
-0.124006435 -0.0051673274 0.20143385 -0.009477241 0.27218696 -0.22990753 0.28163412 0.47989222
-0.09987561 -0.10880598 0.030842436 -0.06938522 -0.10708083 0.16741581 0.20137732 0.27256644
0.011321024 0.23827654 0.5987668 0.074379325 -0.026587874 0.016888978 0.09512288 0.11752598
0.016169595 -0.06293215 -0.023572613 -0.044943817 0.18938947 0.21279685 0.11826908 -0.26189727
0.165682 0.013154292 -0.30868793 0.07287706 0.31180754 -0.32146838 0.23202652 0.12898108
0.25823474 -0.22652338 0.16801535 0.25913367 -0.18563291 -0.41984755 -0.29416686 -0.45212424
-0.116169706 0.18836015 0.024315124 0.057098597 -0.14286393 -0.22117774 0.07178483 -0.081636146
-0.14415361 -0.083301134 -0.08571818 0.07850974 0.053823777 0.0927873 -0.18420821 0.01923183
-0.15399738 -0.31138244 -0.22543171 0.16174303 -0.12234138 -0.3771662 0.008722525 0.08182858
0.092874646 -0.13572103 0.12950009 -0.5088394 0.18214498 -0.2402996 -0.13704771 0.045325413
0.16059165 -0.26466843 -0.20005971 0.0837729 -0.24715701 -0.14764164 0.22091614 0.18661973
-0.035412 0.16257502 0.060585614 0.04356267 0.1940722 -0.15498821 -0.09184314 -0.23088147
-0.2055758 0.30768815 -0.36589763 0.14742291 -0.2833701 0.091563344 -0.0067608207 0.22921607
0.21606281 -0.22136189 0.33144557 0.8444126 0.26706836 0.0614146 0.21757333 0.22130401
00000000: b245 493e 4382 c0bd 7b95 573e 784b bdbc
00000010: be6c 8cbe 5a21 55be d0d1 0bbe 1d01 02be
00000020: 9b20 f43b 01f3 cfbc 0cc4 e2bc 3932 04bb
00000030: 9651 9a3d d669 e93d 5624 143e 87fd 2c3e
00000040: 6297 b23e 9e4e a6be 51cc 6bbe 0d56 4e3e
00000050: e59e 5c3d 5ffd 8abd 157d 2cbe 9b67 373f
00000060: 1b33 a53e 8ee9 bc3d 6586 313c 0221 a8bb
00000070: 034f 14be b7d9 25be ba7e 2cbd d5fa 93be
00000080: 4dfc 773e 892b 853e 586a 123e d604 213f
00000090: 8b1d 3f3e 2639 353e 56ce 49be 69d5 323c
000000a0: 7207 0c3e 07a7 a83a 41e3 91bc 1b9f 82bd
000000b0: 41e5 61be 09bd 84be 7fcc c73e 656f 3abe
000000c0: bc8a 55be e3e2 13be e99e 9a3e 2b4b 92be
000000d0: 618b 34be 6686 943e 5c02 a23e 995f 24be
000000e0: 8aeb 06bc c263 28bd 21da 123d 2eab 2a3e
000000f0: 5802 f4bd dd50 3bbd 0a09 0d3e 7cb7 06bc
00000100: a3a4 ab3c 9852 633e 6d88 26be 3f37 67be
00000110: 17eb edbb b732 033e 6fc1 023e f891 61be
00000120: 96e5 013e 7def c0be c2b7 843d 32f1 e53d
00000130: 0e80 593c 83a9 a6bd 2b01 683d 7b41 a9be
00000140: 49ae 973d 317c a13c 6eb6 863e ab56 31be
00000150: 9b70 bf3d f5f0 88be ff2b 843d c49c 953d
00000160: d53b 963d 2af1 7abd 10e6 6f3e 6b9f c1bd
00000170: 72ee 96be 0d04 323e d537 2cbe d855 ddbd
00000180: 60f6 a7be c953 a7be 5a46 bd3e ad0c cb3d
00000190: 5417 e23d a071 95be 6bf5 70be eb7a 493d
000001a0: acad 583c c43b aabd cf13 ff3d 870b ccbe
000001b0: 8eb5 9abe ce73 8a3d ab60 383c 3469 86be
000001c0: 08df da3d fdd9 af3e 52a9 353c 067d 9ebe
000001d0: b142 20be 04e5 573e 1378 98bc bb00 b13d
000001e0: 9caf c6be e605 6a3d 7762 1dbe 5763 8e3c
000001f0: 3f50 723d d44d b03b 11c5 223e 3719 9bbe
00000200: 0cf8 11be 3c88 af3c 10e2 58bc b69f 823d
00000210: adee 5cbd bf39 93be 416b 21bd f9b5 103d
00000220: 9789 42be 45e0 dd3d 017e a43c eef6 103e
00000230: 017c a8be 82a0 2c3e 0e2c ae3d 03ba debd
00000240: 16f7 fdbd af52 a9bb ad44 4e3e 6e46 1bbc
00000250: 175c 8b3e e16c 6bbe 5932 903e 6fb4 f53e
00000260: 958b ccbd abd5 debd 47a9 fc3c d719 8ebd
00000270: 324d dbbd 0d6f 2b3e db35 4e3e d48d 8b3e
00000280: d17b 393c c4fe 733e c848 193f 3054 983d
00000290: d0ce d9bc c15a 8a3c c9cf c23d 76b1 f03d
000002a0: 1976 843c 92e2 80bd 5a1b c1bc 0217 38bd
000002b0: 50ef 413e 6be7 593e 0f37 f23d 6617 86be
000002c0: 8ba8 293e 1985 573c 580c 9ebe 9140 953d
000002d0: 3da5 9f3e 8197 a4be 5c98 6d3e 9e13 043e
000002e0: 5837 843e bff5 67be 370c 2c3e 2bad 843e
000002f0: 8e16 3ebe 42f6 d6be 0a9d 96be d47c e7be
00000300: 62ea edbd 7ce1 403e 8330 c73c 38e0 693d
00000310: ec4a 12be 6b7c 62be ed03 933d da30 a7bd
00000320: 019d 13be c999 aabd 038d afbd b7c9 a03d
00000330: 5276 5c3d 4507 be3d 14a1 3cbe 128c 9d3c
00000340: 7db1 1dbe 856d 9fbe 92d7 66be f79f 253e
00000350: 1e8e fabd ee1b c1be ece8 0e3c be95 a73d
00000360: 1035 be3d 74fa 0abe ac9b 043e 4d43 02bf
00000370: 3784 3a3e 1911 76be 3c56 0cbe 24a7 393d
00000380: 2372 243e 9f82 87be 74dc 4cbe 2091 ab3d
00000390: ba16 7dbe 5f2f 17be d737 623e 3e19 3f3e
000003a0: 2c0c 11bd 117a 263e 9f28 783d c56e 323d
000003b0: ddba 463e 3bb5 1ebe 4218 bcbd 316c 6cbe
000003c0: 7682 52be 4d89 9d3e ef56 bbbe 08f6 163e
000003d0: e315 91be 9085 bb3d e089 ddbb 9eb7 6a3e
000003e0: 923f 5d3e b1ac 62be 3cb3 a93e 6d2b 583f
000003f0: 2fbd 883e e08d 7b3d 8bcb 5e3e 859d 623e

linear1.weight f4 [12, 1200]
0.52658355 0.009394412 -0.33875367 0.6162144 0.036355186 -0.06457991 -0.017193137 -0.03835355
0.025279976 1.8200554 -0.12247542 0.07600721 0.14032114 0.06547262 -0.28609458 0.06406146
0.008115817 0.3236959 -0.003178442 0.17937519 0.045467645 -0.029852262 -0.08829803 -2.7685986
0.13048168 0.13212582 -0.010047095 -0.043944124 -0.01017154 0.01610099 0.022761786 -0.012990097
-0.04909184 0.11769854 -0.09657097 -0.1709519 0.17983249 -0.14616086 -0.32334462 -0.07965603
-0.10628025 0.11713606 0.00033962057 0.03055935 -0.25275972 0.010656226 0.10953158 0.08343565
-0.016476015 -0.017231982 0.116813 0.013230354 0.08907492 -0.88992417 0.017559528 -0.022541828
-0.07054706 -0.054936927 -0.06578306 -0.10673496 -0.0021285356 -0.05301478 0.42362005 -0.056728832
-0.097689286 -0.5035212 0.5109517 -0.12913033 -0.32747766 -0.18774934 0.16003525 -0.20447794
0.14080149 -0.32763916 0.008491966 0.003039407 0.045382712 -0.08147759 -0.04017422 0.19891807
-0.07138937 -0.41014275 0.017701283 -0.037017263 -0.5039835 0.02701459 0.32749525 -0.57178324
0.1521254 -0.0025977187 -0.08664423 -0.023964917 0.03743456 -0.06901378 0.015088503 0.0021131905
-0.002589617 -0.14937364 -0.009768299 -0.043170344 0.08426838 -0.030337574 -0.25596923 -0.01750202
-0.18404846 0.13402155 0.014712929 -0.06292183 -0.036700826 0.19916828 0.01157536 0.20200874
0.014723362 -0.6316105 -0.1519501 0.021534272 0.028317817 -0.05077342 -0.2933217 0.04714209
-0.27026623 -0.06083872 -0.12218759 -0.08948844 0.4629221 -0.35005835 0.036787145 0.026313469
-0.11019514 -0.38346148 -0.07719676 -0.13836277 -0.021852301 -0.34208232 -0.09253431 -0.11055968
-0.042731497 -0.1734774 -0.12968469 0.102749445 -0.0879357 0.0475709 0.19160941 0.044833902
-0.08363843 -0.08737232 -0.084287874 -0.34322798 0.33345968 0.34299052 -0.19981904 -0.0006626947
-0.12455982 -0.3290723 -0.015722675 0.06336091 -0.096592836 -0.018250512 -0.073971815 -0.39115793
0.04775059 0.057337396 -0.75460356 0.08979568 0.0050286017 0.026619446 0.014395963 -0.08356352
0.20273481 0.02523211 -0.17391832 -0.21702267 -0.28278273 -0.3192623 0.04034934 -0.06858626
0.032666367 0.7279842 -0.19874592 0.030055452 -0.15358488 -0.112096146 0.06139413 -0.09263183
0.7535569 0.09723143 -0.07915668 0.07018659 -0.13120884 0.040232044 -0.07091649 -0.21475688
-1.0921099 0.034129795 0.13612339 -0.037729148 0.32327187 -0.16132265 -0.3740875 -0.2875285
-0.07709056 0.033671234 -0.05309181 0.16388823 -0.42810336 -0.019359002 -0.016804429 0.08934194
1.652659 -0.011233421 -0.33572274 0.15491405 0.50446343 -0.43179008 -0.018160783 -0.36697072
-0.7876579 -0.0036889073 -0.018203646 -0.016544558 0.5255475 -0.11203584 -0.08187486 -0.027820626
-0.027200947 0.0031714158 -0.3897851 0.038221028 0.007538542 -0.05092073 -0.058530483 0.09394353
-0.08907059 -0.043915313 0.037797496 -0.108589664 -0.1887343 0.05112209 -0.007159557 -0.0005976898
-0.047098134 -0.103413515 -0.3378601 0.06777194 -0.04465301 -0.03651156 0.016800333 -0.039840437
-0.105542146 -0.09335214 0.0987725 -1.6077561 0.03520381 0.6534449 -0.030710593 0.020688904
00000000: 2ece 063f 05eb 193c 1f71 adbe 3ac0 1d3f
00000010: 2de9 143d 7942 84bd 9fd8 8cbc 9d18 1dbd
00000020: f417 cf3c 93f7 e83f 65d4 fabd aba9 9b3d
00000030: 58b0 0f3e 8216 863d fd7a 92be a832 833d
00000040: 34f8 043c 78bb a53e 684d 50bb 21ae 373e
00000050: 483c 3a3d bb8c f4bc 99d5 b4bd b830 31c0
00000060: fd9c 053e fe4b 073e 929c 24bc c1fe 33bd
00000070: 88a6 26bc 39e6 833c ed76 ba3c 6ad4 54bc
00000080: 8614 49bd ef0b f13d 00c7 c5bd 040e 2fbe
00000090: 0226 383e 31ab 15be 6d8d a5be b322 a3bd
000000a0: 76a9 d9bd 08e5 ef3d 1a0f b239 9a57 fa3c
000000b0: b969 81be 7497 2e3c 1852 e03d 4fe0 aa3d
000000c0: b5f8 86bc 162a 8dbc a73b ef3d 20c4 583c
000000d0: e96c b63d 12d2 63bf 00d9 8f3c a4a9 b8bc
000000e0: fa7a 90bd 8b05 61bd 45b9 86bd dc97 dabd
000000f0: e77e 0bbb 0726 59bd bae4 d83e 7e5c 68bd
00000100: 5211 c8bd c4e6 00bf bbcd 023f be3a 04be
00000110: 27ab a7be 5d41 40be 48e0 233e aa62 51be
00000120: 442e 103e 52c0 a7be e321 0b3c ca30 473b
00000130: 39e3 393d b9dd a6bd b98d 24bd 2eb1 4b3e
00000140: 9734 92bd 3bfe d1be 4802 913c 6a9f 17bd
00000150: 1005 01bf b44d dd3c 75ad a73e 6360 12bf
00000160: c3c6 1b3e 7d3e 2abb 8872 b1bd 1352 c4bc
00000170: fb54 193d 1957 8dbd c535 773c 747d 0a3b
00000180: 90b6 29bb 67f5 18be 370b 20bc 63d3 30bd
00000190: e794 ac3d 8186 f8bc 660e 83be 6560 8fbc
000001a0: 3377 3cbe f23c 093e 7f0e 713c 29dd 80bd
000001b0: 9b53 16bd c5f2 4b3e 94a6 3d3c 61db 4e3e
000001c0: 423a 713c 3ab1 21bf cf98 1bbe a468 b03c
000001d0: c4fa e73c caf7 4fbd 432e 96be 1018 413d
000001e0: 5660 8abe 0632 79bd 7d3d fabd b745 b7bd
000001f0: 2004 ed3e d93a b3be 1eae 163d 588f d73c
00000200: fdad e1bd 1055 c4be 5619 9ebd f8ae 0dbe
00000210: 9903 b3bc 6a25 afbe a182 bdbd 1d6d e2bd
00000220: 3907 2fbd 0fa4 31be 10cc 04be 4d6e d23d
00000230: a217 b4bd b4d9 423d 4235 443e c1a3 373d
00000240: a04a abbd 42f0 b2bd 1f9f acbd 94bb afbe
00000250: 3abb aa3e 749c af3e 5d9d 4cbe b0b8 2dba
00000260: 3819 ffbd 2a7c a8be d7cc 80bc 5dc3 813d
00000270: 77d2 c5bd 1982 95bc 897e 97bd da45 c8be
00000280: 1f96 433d 9eda 6a3d b32d 41bf cce6 b73d
00000290: f8c6 a43b 0611 da3c 0cdd 6b3c 5a23 abbd
000002a0: b799 4f3e 92b3 ce3c a517 32be 313b 5ebe
000002b0: e6c8 90be 5976 a3be 5945 253d f476 8cbd
000002c0: 2bcd 053d 2c5d 3a3f 0d84 4bbe da36 f63c
000002d0: 5b45 1dbe aa92 e5bd 6978 7b3d c2b5 bdbd
000002e0: 1be9 403f 4621 c73d e61c a2bd fdbd 8f3d
000002f0: 9c5b 06be 5bca 243d aa3c 91bd 3ae9 5bbe
00000300: 42ca 8bbf afcb 0b3d ee63 0b3e e189 1abd
00000310: e483 a53e c431 25be 6688 bfbe f036 93be
00000320: a8e1 9dbd d9ea 093d cc76 59bd 51d2 273e
00000330: 5d30 dbbe c596 9ebc 71a9 89bc e8f8 b63d
00000340: 558a d33f 620c 38bc dae3 abbe caa1 1e3e
00000350: 8424 013f 9713 ddbe ecc5 94bc 96e3 bbbe
00000360: f3a3 49bf 98c1 71bb d01f 95bc 7488 87bc
00000370: 488a 063f 0c73 e5bd 02ae a7bd 15e8 e3bc
00000380: 85d4 debc 87d7 4f3b ea91 c7be a78d 1c3d
00000390: e005 f73b 4192 50bd a9bd 6fbd 7765 c03d
000003a0: a46a b6bd 8be0 33bd 8cd1 1a3d 4264 debd
000003b0: 9043 41be 6665 513d b89a eabb 49ae 1cba
000003c0: f9e9 40bd 77ca d3bd 00fc acbe 04cc 8a3d
000003d0: 13e6 36bd 258d 15bd daa0 893c ba2f 23bd
000003e0: 7b26 d8bd 682f bfbd 3d49 ca3d f4ca cdbf
000003f0: df31 103d 2a48 273f c894 fbbc c77b a93c

linear1.bias f4 [12]
-0.48501468 -0.009546183 -0.016134018 -0.5370743 -0.009598541 0.014547543 -0.007259049 -0.35525137
-0.08575952 0.040524837 -0.5492979 -0.02035598
00000000: d853 f8be 9867 1cbc 7d2b 84bc b47d 09bf
00000010: 3343 1dbc d158 6e3c 51dd edbb 82e3 b5be
00000020: b0a2 afbd 5ffd 253d ca9e 0cbf 96c1 a6bc

linear2.weight f4 [24, 12]
0.022744726 -0.20009209 0.0933778 -0.09128764 0.15359458 -0.1811417 -0.07271406 0.01161881
-0.019402904 0.17166775 0.117557436 0.16746452 -0.040421516 -0.20213954 -0.2680572 0.0567204
-0.0803152 -0.28428832 0.06779613 -0.06259202 -0.200045 6.5908374e-05 0.054134775 -0.14282587
0.0072906 0.123093896 0.026555013 0.009547141 -0.0010600548 0.14292775 0.22417018 -0.21677525
-0.011428965 0.0138906455 0.012568436 -0.041908845 -0.007935459 -0.058422234 0.13120939 0.0010439729
0.09073645 0.096211284 0.016222654 -0.020311736 -0.004867357 0.12334736 -0.013745669 0.07632443
0.023119086 -0.007324568 0.039519574 -0.019765237 0.27394012 -0.15233183 -0.16912931 0.039146777
-0.08208522 0.016310008 -0.16546014 0.021144815 -0.028499102 0.060651124 -0.17845857 -0.0069520227
0.015544473 -0.0596965 0.040936712 -0.19309507 0.03418355 -0.055699382 -0.058872856 0.11066529
-0.16512692 -0.11527376 0.2720843 0.04953543 0.07905725 -0.28594917 0.0055711567 -0.009525258
-0.014670213 0.025396584 0.04972619 -0.22721261 -0.033781312 -0.22883071 0.13879815 -0.05201065
-0.17598702 -0.23853166 0.28749284 -0.03834225 -0.04653564 -0.07073814 -0.0022629353 -0.11232704
0.015020851 -0.15299954 -0.20550725 0.059696563 -0.014591154 -0.27448088 -0.21791422 -0.047829535
0.010288502 0.020662818 0.040052366 0.2293157 -0.019571487 -0.07846751 0.17705546 -0.10525353
-0.15018836 -0.012157284 -0.017542044 0.08656848 -0.014217857 0.101848654 -0.06978849 -0.21548323
0.054827657 -0.18526131 0.0733369 0.027544238 -0.24140093 -0.19756126 0.106432736 0.05245946
-0.2318372 0.25912437 0.005128676 -0.13495877 -0.24823996 -0.010928233 -0.0747592 -0.026631746
0.2007969 -0.13355288 0.13097255 0.031876273 -0.0073068603 0.12547763 -0.023368275 -0.052674998
-0.027551461 -0.1454643 0.1903181 -0.02945931 0.01919685 -0.28398666 -0.034215666 -0.021975067
-0.056541495 0.0049523883 -0.0131642455 -0.014316829 -0.24513394 -0.18934676 0.1154736 -0.07222074
0.04034546 0.2962232 -0.15283097 -0.050445378 -0.29882967 0.21461381 -0.18873706 -0.15157719
-0.18204953 0.13382718 0.13129395 -0.0077459314 0.023722857 0.15632363 0.17957562 -0.14604394
-0.26641598 -0.08970514 -0.22590843 -0.2787373 0.12689368 0.18100469 -0.27809042 -0.056521162
-0.1991209 0.05713608 -0.05015647 -0.0147968065 0.010475924 0.18462214 -0.054989103 -0.019605583
-0.11990629 0.21512273 -0.18163835 -0.052112795 -0.21148442 -0.0008420387 -0.024241246 -0.14835085
0.057120223 -0.04277973 0.02803463 -0.034434617 -0.0009844895 0.07378734 0.10156736 -0.2381144
0.021675495 0.039093826 -0.26514986 -0.019591715 -0.030023286 -0.108014055 0.051025137 0.057625555
-0.036917027 0.23595022 -0.021206224 -0.019262614 -0.1830075 0.1534975 0.15852724 -0.029320307
0.101868644 0.027025174 0.0018696161 -0.15651284 -0.06841186 0.14347708 0.022343963 0.011981648
-0.059645087 0.077389255 -0.0058372617 -0.078993335 0.061407123 0.49921733 -0.38740543 0.16146083
-0.021544026 -0.22937417 -0.0056963176 0.10784873 0.1281882 0.18504883 -0.01758546 -0.015936574
0.030700563 0.1552944 -0.18099637 0.06407019 0.00020024387 0.21414214 0.13192016 -0.001476839
00000000: 2653 ba3c f1e4 4cbe dc3c bf3d 04f5 babd
00000010: e647 1d3e 367d 39be 1ceb 94bd d25c 3e3c
00000020: d7f2 9ebc acc9 2f3e f4c1 f03d d27b 2b3e
00000030: 0891 25bd abfd 4ebe cb3e 89be a653 683d
00000040: 4c7c a4bd 3d8e 91be b3d8 8a3d 3f30 80bd
00000050: 99d8 4cbe 4a38 8a38 6dbc 5d3d f240 12be
00000060: fce5 ee3b a718 fc3d e689 d93c 9d6b 1c3c
00000070: 89f1 8aba a75b 123e de8c 653e 55fa 5dbe
00000080: 8e40 3bbc 9795 633c d7eb 4d3c 9ca8 2bbd
00000090: ba03 02bc 274c 6fbd c15b 063e ebd5 883a
000000a0: 08d4 b93d 6c0a c53d 5fe5 843c cc64 a6bc
000000b0: 5a7e 9fbb 8a9d fc3d 8435 61bc fc4f 9c3d
000000c0: 3d64 bd3c ee02 f0bb 47df 213d b5ea a1bc
000000d0: e141 8c3e e0fc 1bbe 3c30 2dbe 5f58 203d
000000e0: 4c1c a8bd 919c 853c 626e 29be e437 ad3c
000000f0: f376 e9bc 506d 783d d8bd 36be cbcd e3bb
00000100: 3fae 7e3c 5184 74bd 41ad 273d b7ba 45be
00000110: 0d04 0c3d 0925 64bd aa24 71bd 7ca4 e23d
00000120: 0817 29be a614 ecbd a24e 8b3e aae5 4a3d
00000130: c4e8 a13d ee67 92be 408e b63b d40f 1cbc
00000140: 555b 70bc 7f0c d03c b0ad 4b3d 6caa 68be
00000150: 465e 0abd 9952 6abe 1a21 0e3e 1f09 55bd
00000160: f135 34be a541 74be 4332 933e c30c 1dbd
00000170: 289c 3ebd 28df 90bd c14d 14bb b80b e6bd
00000180: 041a 763c e9ab 1cbe 7e70 52be 6284 743d
00000190: bc0f 6fbc c288 8cbe e824 5fbe e7e8 43bd
000001a0: 1b91 283c 1245 a93c f30d 243d bcd1 6a3e
000001b0: 6254 a0bc 93b3 a0bd 074e 353e 2a8f d7bd
000001c0: faca 19be 582f 47bc 55b4 8fbc d14a b13d
000001d0: 04f2 68bc 0796 d03d 45ed 8ebd a3a7 5cbe
000001e0: f792 603d 24b5 3dbe a831 963d 74a4 e13c
000001f0: ce31 77be 804d 4abe 68f9 d93d bbdf 563d
00000200: bb66 6dbe f3ab 843e 740e a83b a232 0abe
00000210: 9e32 7ebe 550c 33bc 5a1b 99bd d22a dabc
00000220: b49d 4d3e 16c2 08be ab1d 063e b290 023d
00000230: 636e efbb 357d 003e d36e bfbc bdc1 57bd
00000240: 9ab3 e1bc 98f4 14be bfe2 423e a754 f1bc
00000250: b642 9d3c b366 91be ba25 0cbd 0e05 b4bc
00000260: 0e98 67bd a547 a23b d9ae 57bc 2291 6abc
00000270: 6404 7bbe 1ee4 41be 6c7d ec3d 78e8 93bd
00000280: 4841 253d 91aa 973e b97f 1cbe d09f 4ebd
00000290: 3400 99be b9c3 5b3e 4a44 41be 0d37 1bbe
000002a0: 316b 3abe fe09 093e ec71 063e 95d1 fdbb
000002b0: 7056 c23c 4d13 203e ace2 373e 8b8c 15be
000002c0: ad67 88be 54b7 b7bd 8a54 67be a8b6 8ebe
000002d0: 6bf0 013e 4b59 393e de61 8ebe bc82 67bd
000002e0: 59e6 4bbe 8607 6a3d df70 4dbd 4e6e 72bc
000002f0: 36a3 2b3c 960d 3d3e 413c 61bd e39b a0bc
00000300: 6e91 f5bd 2249 5c3e 67ff 39be 3a74 55bd
00000310: 5f8f 58be 43bc 5cba 9495 c6bc 49e9 17be
00000320: e5f6 693d cc39 2fbd e1a8 e53c 500b 0dbd
00000330: fc09 81ba d11d 973d 8c02 d03d 43d4 73be
00000340: cf90 b13c d920 203d b9c1 87be ce7e a0bc
00000350: 65f3 f5bc 7936 ddbd bcff 503d c608 6c3d
00000360: 4f36 17bd ef9c 713e adb8 adbc a1cc 9dbc
00000370: 5166 3bbe 732e 1d3e f754 223e 2431 f0bc
00000380: 82a0 d03d e663 dd3c e80d f53a e744 20be
00000390: 841b 8cbd a8eb 123e b00a b73c ad4e 443c
000003a0: 684e 74bd 427e 9e3d 8046 bfbb 42c7 a1bd
000003b0: 0986 7b3d 6a99 ff3e 015a c6be fd55 253e
000003c0: 197d b0bc 10e1 6abe 2da8 babb ccdf dc3d
000003d0: c443 033e 717d 3d3e 620f 90bc 6b8d 82bc
000003e0: bf7f fb3c 7f05 1f3e 1d57 39be 3b37 833d
000003f0: 8ef8 5139 1448 5b3e 1416 073e 7e92 c1ba

linear2.bias f4 [24]
-0.21094742 -0.091637336 1.6282504 -0.18859304 1.2816262 -0.7603591 1.0313103 -0.4377202
-1.7021223 1.9698871 0.005342629 -0.017688265 0.47024113 -0.24203631 -0.1170734 -0.88765675
-0.6861092 0.86108124 1.0547202 0.49666113 0.32408422 -1.4292243 0.26022646 0.13362585
00000000: 9a02 58be 5bac bbbd 826a d03f 891e 41be
00000010: 540c a43f e5a6 42bf fa01 843f dd1c e0be
00000020: 25df d9bf 4325 fc3f 3811 af3b fbe6 90bc
00000030: 72c3 f03e 5ed8 77be 2ec4 efbd 793d 63bf
00000040: daa4 2fbf d26f 5c3f 1201 873f 5e4a fe3e
00000050: 5eee a53e d2f0 b6bf 673c 853e 37d5 083e

linear3.weight f4 [48, 24]
0.013604703 0.04641611 -0.013744646 -0.12144038 0.024468627 -0.06967765 -0.03270553 0.12078086
0.0514956 -0.038168162 0.04025639 -0.04512799 0.09588864 -0.068748765 -0.15125792 0.024492878
-0.01579131 0.074731566 -0.050991036 -0.04025184 -0.039886042 0.022175675 0.0020423955 0.16091156
0.005669294 0.024453456 -0.005918322 -0.16128856 0.01085957 -0.06911081 -0.016706387 -0.071501695
0.02648573 -0.017787846 0.023825167 -0.020848623 -0.0013765438 -0.076018654 0.060075615 0.0105502745
-0.0068469313 0.041998968 -0.02833347 -0.021892507 -0.02197703 0.012013915 0.00064144994 0.039893977
0.0010211081 -0.0013289343 0.0028914986 0.094016746 -0.0014394488 0.0115965735 0.0010003811 -0.0004174534
0.0008291443 0.0015954889 0.001905254 0.0026535047 0.00014003384 0.01042366 -0.18233256 0.00033814387
-0.0015621873 0.0042520557 -0.0011251731 0.0077859187 -0.0012267018 0.0011319596 0.0033524716 -0.14610462
0.0009745275 -1.255954e-05 -0.0016579314 0.011063217 0.006232646 0.014384549 0.00080936984 0.004362657
-0.00029892137 0.0032181381 2.507745e-05 0.00030436178 -0.0055611925 -0.15304232 -0.08180939 -0.00017367324
-0.0014218219 0.0027813609 -0.0012190468 -0.0038518116 -0.002538501 -0.0014055613 -0.0011380429 0.08748154
0.006197324 0.009650196 -0.010189205 0.17888384 -0.13403265 0.043876935 -0.046195917 -0.08566313
0.24193086 -0.14110477 0.0030710252 -0.048812512 -0.1022322 -0.049526416 -0.05370147 0.057890125
0.037072714 -0.13321799 -0.012530543 -0.008795189 0.032300793 0.06094702 0.047604308 0.052805066
0.0053657773 -2.655841e-05 -0.0005491877 0.07594067 -0.07341677 0.020353585 -0.025632134 -0.036521547
0.13530841 -0.06637792 0.004223613 -0.014777982 -0.014324257 0.12054086 -0.1697103 0.0330602
0.017394038 -0.0644276 -0.0035542594 0.0007178261 0.02021152 0.039310157 0.027676694 0.16676708
0.0007142422 1.2226155e-06 0.00030718354 0.02565533 -0.0034651286 0.00022149755 -0.001969668 -0.0011809937
0.008134284 0.004046359 0.00077840127 0.0026954566 0.003320681 0.036308683 -0.040443033 0.0038133995
-0.00285642 -0.00076880044 -0.0006514472 0.008800153 0.001826942 0.0014940603 -0.00042031874 -0.0095235985
0.001516579 0.0030446476 0.0018486532 0.00929348 -0.0027802673 -0.0060551795 0.0006704008 -0.017040595
0.004186274 -0.004040069 0.0014971495 -0.00524493 -0.023481846 0.06637638 0.07471025 0.0022640745
0.0039992495 -0.0016984697 -0.0018183816 -0.00077121553 0.0015760866 0.0023849104 0.003821009 0.17412382
-0.004048588 -0.019742994 -0.034969654 0.036864456 0.011467833 0.0599619 -0.0014077765 -0.095713064
-0.018471638 0.015923565 -0.006685992 -0.0025969723 0.04353804 -0.19875751 -0.15312357 0.0054849535
-0.0016479874 -0.016471474 0.0074470215 0.007711852 0.011155964 0.026664479 -0.0063990676 -0.02677656
-0.0014195764 -0.00917072 -0.018447492 0.002474998 0.004546076 0.041746154 0.0026862733 -0.032797318
-0.0071099545 0.008425987 -0.0038254894 -0.00011683768 0.009336227 -0.005456722 0.12336486 0.003148799
0.0017392978 -0.0067361295 0.0053622425 0.0051160823 0.006765799 0.014104255 -0.0003306326 -0.03913233
0.000391176 0.00016345334 -0.0002934045 -0.093741514 0.0018847835 -0.0011984697 0.0010288456 0.0064931074
0.00029474223 0.0042779725 -0.00092678686 -0.00031296437 0.0006456975 0.009996262 0.12178201 -0.0016370727
00000000: 43e6 5e3c d21e 3e3d 3931 61bc bcb5 f8bd
00000010: 6e72 c83c 28b3 8ebd 3cf6 05bd f55b f73d
00000020: 0ded 523d 3856 1cbd e2e3 243d 21d8 38bd
00000030: 4361 c43d 27cc 8cbd 5be3 1abe 4aa5 c83c
00000040: c75c 81bc dd0c 993d fadb 50bd 1ddf 24bd
00000050: 8c5f 23bd c3a9 b53c b6d9 053b 00c6 243e
00000060: 7cc5 b93b 9d52 c83c 7cee c1bb d428 25be
00000070: 56ec 313c f889 8dbd d5db 88bc 7b6f 92bd
00000080: 9af8 d83c d1b7 91bc ff2c c33c bbca aabc
00000090: 256d b4ba abaf 9bbd d911 763d 0fdb 2c3c
000000a0: 395c e0bb 1c07 2c3d 981b e8bc ea57 b3bc
000000b0: 2c09 b4bc 03d6 443c fa26 283a de67 233d
000000c0: b4d6 853a a32f aeba 4c7f 3d3b da8b c03d
000000d0: e3ab bcba 8eff 3d3c 381f 833a a6dd dab9
000000e0: ef5a 593a b91f d13a b7b9 f93a 6ce6 2d3b
000000f0: 0cd6 1239 00c8 2a3c 63b5 3abe e748 b139
00000100: 4fc2 ccba d454 8b3b 8b7a 93ba 0521 ff3b
00000110: 48c9 a0ba 435e 943a 24b5 5b3b 739c 15be
00000120: 6f77 7f3a d0b6 52b7 f24e d9ba 7f42 353c
00000130: 393b cc3b 2cad 6b3c e42b 543a 9ff4 8e3b
00000140: 8cb8 9cb9 66e7 523b 6a5d d237 bf92 9f39
00000150: aa3a b6bb 20b7 1cbe ae8b a7bd 0e1c 36b9
00000160: 6d5c baba 7e47 363b 6cc8 9fba ad6e 7cbb
00000170: fb5c 26bb d03a b8ba 622a 95ba 8629 b33d
00000180: ec12 cb3b db1b 1e3c a0f0 26bc 532d 373e
00000190: db3f 09be 4db8 333d ee37 3dbd 2770 afbd
000001a0: b9bc 773e c57d 10be 4143 493b a1ef 47bd
000001b0: 1e5f d1bd 36dc 4abd 13f6 5bbd 321e 6d3d
000001c0: 8fd9 173d 4c6a 08be e84c 4dbc b219 10bc
000001d0: d64d 043d 95a3 793d bcfc 423d 204a 583d
000001e0: 67d3 af3b c0c9 deb7 5df7 0fba c886 9b3d
000001f0: 885b 96bd 90bc a63c 7bfa d1bc 9e97 15bd
00000200: 4a8e 0a3e 26f1 87bd 3c66 8a3b 591f 72bc
00000210: 4ab0 6abc 20de f63d 89c8 2dbe 226a 073d
00000220: f17d 8e3c 9ef2 83bd 94ee 68bb 7e2c 3c3a
00000230: a192 a53c b003 213d 3cba e23c fdc4 2a3e
00000240: fc3b 3b3a c018 a435 7a0d a139 202b d23c
00000250: 3617 63bb cc41 6839 8c15 01bb 93cb 9aba
00000260: a945 053c 5297 843b a00d 4c3a 42a6 303b
00000270: c89f 593b 6ab8 143d 98a7 25bd 3aea 793b
00000280: c632 3bbb 5389 49ba e2c5 2aba 842e 103c
00000290: 0076 ef3a 58d4 c33a 3a5e dcb9 de08 1cbc
000002a0: f2c7 c63a b688 473b 824e f23a ae43 183c
000002b0: 2535 36bb 876a c6bb d6bd 2f3a b898 8bbc
000002c0: 032d 893b 8e62 84bb 003c c43a a9dd abbb
000002d0: 005d c0bc 57f0 873d b001 993d de60 143b
000002e0: 230c 833b 309f deba c356 eeba 662b 4aba
000002f0: b194 ce3a 284c 1c3b e569 7a3b 844d 323e
00000300: 05aa 84bb 0fbc a1bc 573c 0fbd 2fff 163d
00000310: 94e3 3b3c 9c9a 753d 2485 b8ba 3605 c4bd
00000320: d551 97bc 2372 823c 2a16 dbbb f731 2abb
00000330: f254 323d 1787 4bbe 6dcc 1cbe 20bb b33b
00000340: 4801 d8ba 2fef 86bc 2506 f43b b4b3 fc3b
00000350: 81c7 363c 776f da3c 45af d1bb 845a dbbc
00000360: 1411 baba ca40 16bc 321f 97bc 9333 223b
00000370: 40f7 943b 04fe 2a3d 300c 303b 7b56 06bd
00000380: 9ffa e8bb 270d 0a3c 10b5 7abb c006 f5b8
00000390: f9f6 183c 4dce b2bb b7a6 fc3d 155c 4e3b
000003a0: 26f9 e33a c0ba dcbb c0b5 af3b cfa4 a73b
000003b0: a3b3 dd3b 8815 673c c258 adb9 3949 20bd
000003c0: c116 cd39 ac64 2b39 16d4 99b9 8dfb bfbd
000003d0: d70a f73a f815 9dba 54da 863a 22c4 d43b
000003e0: a287 9a39 3c2e 8c3b 9df3 72ba 5e15 a4b9
000003f0: 0744 293a 5dc7 233c d968 f93d 0b93 d6ba

linear3.bias f4 [48]
-0.038243935 0.031248765 0.070061915 0.37730607 -0.8914955 -0.5072917 0.03639359 0.34515846
0.05075143 0.072182395 0.07994567 0.37545034 -0.9644653 -0.4726536 0.043269873 0.3594651
0.09275548 0.10530727 0.081683554 0.37323365 -0.5566574 -0.27187148 0.061426412 0.3479022
0.10456981 0.106288165 0.06955152 0.39964288 -0.53118867 -0.28754193 0.04352433 0.37821552
-1.6378131 -0.88367206 0.037132382 0.33940515 -0.6714298 -0.33894828 0.060876798 0.3548057
-0.8087457 -0.45264763 0.017534096 0.35126904 -0.76964164 -0.39159694 0.025908837 0.3808641
00000000: aca5 1cbd 69fd ff3c 9f7c 8f3d 432e c13e
00000010: 0d39 64bf dedd 01bf 7211 153d 9cb8 b03e
00000020: bbe0 4f3d 5dd4 933d 8eba a33d 073b c03e
00000030: 33e7 76bf a7ff f1be c03b 313d cf0b b83e
00000040: 96f6 bd3d 57ab d73d b549 a73d 7b18 bf3e
00000050: 1981 0ebf bd32 8bbe 439a 7b3d 3d20 b23e
00000060: b228 d63d 9cad d93d 0771 8e3d fe9d cc3e
00000070: fbfb 07bf b238 93be 9146 323d 77a5 c13e
00000080: dca3 d1bf 5538 62bf 2018 183d 83c6 ad3e
00000090: d3e2 2bbf a18a adbe f359 793d 18a9 b53e
000000a0: f509 4fbf 6ec1 e7be aaa3 8f3c 89d9 b33e
000000b0: 3c07 45bf 657f c8be c53e d43c 9f00 c33e
