model/소입/model.pth (torch, 552224 bytes, 18 tensors)

linear1.weight f4 [60, 120]
0.009919077 0.06885745 0.010957431 -0.003034278 -0.034667607 -0.080784686 -0.050709747 0.015874814
0.0687933 -0.047296025 -0.047822963 0.047559917 0.007187869 -0.0873648 -0.08409134 -0.058280695
-0.06949239 0.036081117 -0.049284488 0.04386692 0.016628085 0.0049350318 0.0333991 -0.06245961
0.077212624 0.060340956 -0.0650778 -0.024503907 0.023969758 -0.022290673 -0.026349925 -0.020106927
-0.033573862 -0.06637684 -0.034633 -0.05363807 -0.037523605 -0.07334825 -0.015357929 0.009614648
-0.08674796 -0.004309588 0.053950172 -0.03804298 0.07602641 0.025621952 0.01001813 0.04358986
-0.045195784 -0.04042683 -0.090397954 -0.043184448 0.0026895076 -0.010815525 -0.059131473 0.022175573
0.06933113 -0.01372837 -0.007480291 -0.023764558 -0.03262871 0.021660868 0.07404983 0.06815798
-0.022677312 -0.077608764 -0.01694125 -0.06101529 -0.029563673 0.015051809 -0.011854197 0.078037545
-0.025330786 0.0043081893 -0.066951394 -0.07213134 -0.035355125 0.0872068 0.04266739 0.08763612
-0.052987024 -0.0020345214 -0.02374187 -0.05630081 0.053958714 0.031966694 -0.049156155 0.06494852
0.03441848 -0.0166529 0.018696968 -0.058715727 -0.02806248 -0.003640987 0.03948147 0.080596566
-0.002288776 0.044491526 -0.046300504 0.08294674 0.042288233 -0.07720725 -0.062076967 -0.0865891
0.045821995 -0.08493654 -0.052288014 -0.058142606 -0.06863431 -0.022390367 0.07605095 0.047694918
0.08172586 0.016114587 -0.043794047 0.036397196 0.01944873 -0.04006163 0.09110889 0.007155387
0.107141025 0.0627785 -0.1054488 -0.045512374 0.20377815 0.23266695 -0.09441518 0.033351183
0.2532999 0.09039673 0.14528292 0.055215377 0.020858755 0.018660171 0.17329413 0.14566536
0.014411236 -0.008153847 0.018644521 0.09462392 0.09927199 0.074559644 -0.0038509755 0.07537769
0.1710678 0.07256676 0.073964514 0.05578823 -0.0047521084 0.022624195 0.020039713 0.03635289
0.06602372 0.05023859 0.08203451 -0.18578207 0.05220107 -0.09773993 -0.14705536 -0.02619869
0.04616902 0.009862788 0.013953272 0.07784737 0.13600896 -0.116609246 0.07032813 -0.08460838
0.026899295 -0.059394438 0.0723057 0.13000223 0.14590873 0.11776648 0.070999496 -0.17931175
0.03256743 -0.08849163 -0.16551405 0.015457306 0.08411552 0.08315819 -0.017616633 0.08024893
0.14398994 0.08148233 -0.06715348 0.13538975 0.10733183 0.06334443 0.045542836 0.13435976
0.016742252 0.041644704 0.07236457 0.17080334 -0.089733854 0.06733165 0.20181234 0.07262752
0.1261226 0.15990989 0.076428495 0.08420827 0.07700465 -0.18992127 -0.025176167 -0.08657963
-0.24348406 -0.10541207 0.048741557 0.0066476837 0.16132617 0.120655425 0.046330176 0.026807211
0.057230085 -0.05602611 -0.0067275898 -0.018632723 0.037134018 0.1816245 0.12131407 0.11302825
0.09670918 -0.24507907 0.029857183 -0.062199246 -0.16909094 -0.12698783 0.15535465 0.06488544
0.17717138 0.10878742 0.048910465 -0.0743984 -0.034895457 -0.11827851 -0.17705055 -0.0522708
0.14265038 0.13662352 0.12903357 0.058411848 -0.04236569 0.009034419 0.041976854 0.021101294
0.05952127 -0.031918738 0.04406805 0.12410196 0.28307843 0.16891463 0.07637327 -0.32488143
00000000: a083 223c 2205 8d3d cc86 333c bdda 46bb
00000010: 9fff 0dbd 7172 a5bd 06b5 4fbd e60b 823c
00000020: 80e3 8c3d 7ab9 41bd 03e2 43bd 30ce 423d
00000030: 3788 eb3b 51ec b2bd 1538 acbd bdb7 6ebd
00000040: 0752 8ebd cbc9 133d 88de 49bd cdad 333d
00000050: 9f37 883c 0cb6 a13b 7fcd 083d a6d5 7fbd
00000060: a721 9e3d 1428 773d 8247 85bd 6bbc c8bc
00000070: 3a5c c43c ee9a b6bc ccdb d7bc 48b7 a4bc
00000080: bf84 09bd 95f0 87bd 55db 0dbd 98b3 5bbd
00000090: 5ab2 19bd 9b37 96bd d39f 7bbc c286 1d3c
000000a0: eaa8 b1bd 7237 8dbb dbfa 5c3d f5d2 1bbd
000000b0: bcb3 9b3d 21e5 d13c 1523 243c 488b 323d
000000c0: 371f 39bd 9b96 25bd 9022 b9bd 2de2 30bd
000000d0: 7342 303b 9a33 31bc d833 72bd 8ca9 b53c
000000e0: 7bfd 8d3d f5ec 60bc 3b1d f5bb e4ad c2bc
000000f0: afa5 05bd 2272 b13c 70a7 973d 6996 8b3d
00000100: c5c5 b9bc 58f1 9ebd 60c8 8abc 2beb 79bd
00000110: 842f f2bc dd9b 763c 1b38 42bc 26d2 9f3d
00000120: 8282 cfbc b62b 8d3b d01d 89bd 99b9 93bd
00000130: 89d0 10bd 7b99 b23d 00c4 2e3d 917a b33d
00000140: ec08 59bd 9b55 05bb 4f7e c2bc ae9b 66bd
00000150: d003 5d3d 82ef 023d f757 49bd bb03 853d
00000160: 64fa 0c3d aa6b 88bc 622a 993c e77f 70bd
00000170: 49e3 e5bc a09d 6ebb 52b7 213d d00f a53d
00000180: 4aff 15bb bf3c 363d 99a5 3dbd fbdf a93d
00000190: 6d36 2d3d d61e 9ebd 6b44 7ebd a055 b1bd
000001a0: d8af 3b3d 35f3 adbd f52b 56bd f126 6ebd
000001b0: 2590 8cbd 016c b7bc 9ac0 9b3d bf5b 433d
000001c0: e35f a73d bd02 843c 6361 33bd 3a15 153d
000001d0: f152 9f3c aa17 24bd 4c97 ba3d bd77 ea3b
000001e0: c16c db3d 0492 803d 8af5 d7bd 2f6b 3abd
000001f0: 38ab 503e 3f40 6e3e bf5c c1bd 409b 083d
00000200: 86b0 813e ec21 b93d 0cc5 143e 8529 623d
00000210: fbdf aa3c 37dd 983c 0474 313e 4d29 153e
00000220: 1b1d 6c3c b797 05bc 65bc 983c 30ca c13d
00000230: 1d4f cb3d bab2 983d a660 7cbb 9e5f 9a3d
00000240: 662c 2f3e e29d 943d b57a 973d 3382 643d
00000250: 93b7 9bbb 6056 b93c 532a a43c c5e6 143d
00000260: 7237 873d fbc6 4d3d b601 a83d a83d 3ebe
00000270: cad0 553d df2b c8bd ae95 16be a39e d6bc
00000280: ba1b 3d3d 8897 213c 449c 643c 716e 9f3d
00000290: ef45 0b3e d4d0 eebd 3208 903d 2947 adbd
000002a0: e95b dc3c 9547 73bd 0315 943d 4e1f 053e
000002b0: 1969 153e 8d2f f13d 2f68 913d 809d 37be
000002c0: 6d65 053d 1a3b b5bd 847c 29be a440 7d3c
000002d0: c244 ac3d d74e aa3d c250 90bc 8d59 a43d
000002e0: 1972 133e 35e0 a63d c487 89bd 9ca3 0a3e
000002f0: cad0 db3d b9ba 813d 208b 3a3d 9b95 093e
00000300: 0c27 893c a393 2a3d e033 943d 12e7 2e3e
00000310: 62c6 b7bd 2de5 893d e5a7 4e3e bdbd 943d
00000320: 4826 013e 6bbf 233e 8b86 9c3d 6375 ac3d
00000330: 9db4 9d3d b97a 42be 403e cebc a950 b1bd
00000340: e353 79be 49e2 d7bd 3aa5 473d d0d4 d93b
00000350: b032 253e 311a f73d b6c4 3d3d cc9a db3c
00000360: 186a 6a3d a27b 65bd 1d73 dcbb a7a3 98bc
00000370: d719 183d c6fb 393e 8373 f83d 5b7b e73d
00000380: 760f c63d 02f6 7abe 0d97 f43c a3c4 7ebd
00000390: 2d26 2dbe 1909 02be 4a15 1f3e a8e2 843d
000003a0: 6a6c 353e f0cb de3d 5756 483d 305e 98bd
000003b0: 8aee 0ebd 013c f2bd bd4c 35be e819 56bd
000003c0: f112 123e 09e7 0b3e 6021 043e 4341 6f3d
000003d0: a587 2dbd 1a05 143c ecef 2b3d 9fdc ac3c
000003e0: 93cc 733d 39bd 02bd b380 343d 2b29 fe3d
000003f0: a8ef 903e f5f7 2c3e 9769 9c3d dc56 a6be

linear1.bias f4 [60]
0.05769059 0.051301938 0.11952703 -0.01602427 0.018107021 -0.058085084 0.0670255 0.06564196
0.16337486 0.017031021 -0.006612243 0.051627066 0.053052153 -0.030512601 -0.05722964 0.0595846
0.13375118 -0.06507404 0.050654233 -0.0149286445 0.08200468 0.044842243 -0.04846264 0.041682087
-0.034264904 0.15436736 -0.026615715 -0.027606726 -0.07439554 0.14974275 0.11894773 -0.035940517
0.11788764 0.038092393 0.010924523 -0.09091796 -0.038821667 -0.033008568 0.12494274 0.03699888
0.06394531 0.0049862633 0.06965739 0.06641273 -0.080039166 0.046030644 0.081608005 -0.06451008
-0.04706296 -0.060860712 0.03089222 0.0155092105 0.055980787 -0.013295926 0.07868572 0.0462714
-0.025710847 0.026703143 0.015595153 0.13915336
00000000: f84c 6c3d fb21 523d 96ca f43d 5445 83bc
00000010: 2d55 943c a0ea 6dbd aa44 893d 4b6f 863d
00000020: bd4b 273e a484 8b3c 84ab d8bb e776 533d
00000030: 374d 593d 90f5 f9bc a169 6abd fb0e 743d
00000040: 12f6 083e 8a45 85bd d07a 4f3d 4697 74bc
00000050: 12f2 a73d 80ac 373d c380 46bd d6ba 2a3d
00000060: 5b59 0cbd 7a12 1e3e 3309 dabc 8027 e2bc
00000070: b05c 98bd 2a56 193e de9a f33d 5d36 13bd
00000080: 136f f13d c506 1c3d c5fc 323c 3233 babd
00000090: 7803 1fbd fe33 07bd fbe1 ff3d 238c 173d
000000a0: c2f5 823d cf63 a33b 89a8 8e3d 6603 883d
000000b0: 93eb a3bd a18a 3c3d 1922 a73d dc1d 84bd
000000c0: 17c5 40bd 1549 79bd ae11 fd3c 581a 7e3c
000000d0: 1c4c 653d 28d7 59bc fb25 a13d 1487 3d3d
000000e0: 8e9f d2bc 8dc0 da3c d082 7f3c 387e 0e3e

linear2.weight f4 [30, 60]
-0.0780173 0.15860859 0.12533677 -0.47878292 -0.3167592 -0.29941836 -0.012715988 -0.367987
-0.0014018125 0.123441644 0.10755073 0.21908738 0.12531742 0.1255602 0.051822554 0.11097357
0.29146647 -0.028895713 -0.022024816 -0.4803604 -0.6354875 0.089694 0.085556164 -0.0020303882
0.11959835 0.102970585 -0.042955637 0.10390335 -0.055780154 -0.08444381 0.20923491 -0.31934273
0.00032314204 0.07500559 -0.11475585 0.059121963 -0.08941289 0.1207722 -0.3816934 0.049978696
0.34392083 -0.3196029 0.13688955 -0.27766117 -0.03830404 -0.24056178 0.25503585 -0.00070247793
-0.007831055 -0.07193849 -0.074016534 -0.09060292 0.072451115 -0.040701695 -0.35601613 0.020290539
-0.09115452 0.39704654 -0.026354693 -0.021854142 -0.035829395 -0.005224763 0.023067337 -0.17814943
-0.059525106 0.024775311 0.06661822 -0.13430552 -0.101994015 -0.08491771 -0.053280413 -0.15466565
0.033580042 0.06269339 -0.1113635 0.07600449 -0.14622337 -0.08518248 -0.026721705 0.004825652
-0.10211421 -0.1333364 0.057101876 -0.026660208 0.045055073 0.009716198 0.07509457 -0.04200413
0.07638772 0.016588664 0.04341819 -0.073300675 -0.11421156 0.04076157 -0.047052577 -0.12378879
-0.03627196 0.09902236 -0.122229606 0.0242785 0.08921787 -0.11261886 0.033387206 -0.12501803
-0.044935845 -0.16952814 -0.15684961 0.021117335 0.012197238 0.06969982 -0.09698625 -0.06473226
-0.0111523075 -0.08173946 0.050942406 0.027496874 -0.058393337 -0.025465598 -0.10455569 -0.0063034073
-0.06799072 -0.12099665 0.12870015 0.013384474 0.051694073 -0.003596737 0.056719944 0.12372678
0.08189 -0.089503616 0.024614245 0.03751232 -0.11739562 -0.08601933 -0.022341501 0.10474892
-0.099582575 -0.07846965 -0.052720092 -0.024715016 -0.090181455 -0.054197 -0.08239167 -0.08565207
-0.06071563 -0.106225334 -0.106197774 -0.12234508 -0.06666938 -0.006055234 0.08497501 0.09615507
0.096572466 -0.10369052 0.000560984 -0.10615228 -0.046367086 0.11475539 -0.07405772 -0.094955996
-0.089341864 0.081899926 -0.006767026 0.049817458 0.03373973 -0.12054752 -0.09367512 -0.046499453
0.061660096 0.008768424 -0.056418754 0.03002198 -0.115092546 -0.057065748 0.109181054 -0.093610376
0.09077154 0.020745179 0.01545234 -0.08821222 -0.06943263 -0.12509388 -0.19080698 0.0471309
0.12273625 -0.031828634 0.07606305 -0.23533559 0.13601342 0.015173149 0.04331394 0.14107095
-0.22508416 -0.010913762 0.36725056 0.09125039 -0.0087354835 -0.06662279 -0.06059681 -0.12241719
-0.007897733 -0.10100047 0.08528769 -0.3569266 -0.088822246 0.15545593 0.09842832 -0.091765314
-0.029152434 0.08247151 0.00035357717 -0.20012698 -0.03388151 -0.08913924 -0.025194919 0.10672145
-0.08042793 0.026016563 0.21485032 -0.03855605 0.0968783 0.038296748 0.123618 0.0012066461
-0.11263575 -0.0038526785 -0.04697168 -0.07173798 0.07082798 0.021764042 0.043258633 0.0080488585
-0.10450789 -0.12048564 0.027226498 0.05720593 -0.097575076 0.09594615 0.1239178 0.11634653
0.08123167 -0.041033704 0.043579563 0.092258655 -0.0903443 -0.38252756 0.020151272 -0.22185673
0.16259302 -0.0607649 0.11018305 0.17079705 0.11024598 -0.0048228167 0.099656895 0.094165385
00000000: 89c7 9fbd 4a6a 223e 4858 003e 0923 f5be
00000010: 432e a2be 5d4d 99be b856 50bc cb68 bcbe
00000020: 06bd b7ba f9ce fc3d 8f43 dc3d 7158 603e
00000030: 3653 003e da92 003e e343 543d 1c46 e33d
00000040: 183b 953e b4b6 ecbc 636d b4bc ccf1 f5be
00000050: 4faf 22bf 7db1 b73d 1238 af3d 4310 05bb
00000060: fbef f43d 3ee2 d23d 40f2 2fbd 48cb d43d
00000070: bb79 64bd e0f0 acbd ad41 563e e480 a3be
00000080: 646b a939 889c 993d 1d05 ebbd df29 723d
00000090: 1b1e b7bd 6a57 f73d 516d c3be 76b6 4c3d
000000a0: 6416 b03e fea2 a3be c62c 0c3e 9b29 8ebe
000000b0: b2e4 1cbd d455 76be 0f94 823e 7f26 38ba
000000c0: d34d 00bc 7d54 93bd fb95 97bd 068e b9bd
000000d0: 4061 943d d2b6 26bd bf47 b6be 5838 a63c
000000e0: 39af babd af49 cb3e cce5 d7bc 7507 b3bc
000000f0: d8c1 12bd 7d34 abbb b6f7 bc3c ce6c 36be
00000100: 99d0 73bd 98f5 ca3c 226f 883d 6387 09be
00000110: 3de2 d0bd 56e9 adbd 903c 5abd ac60 1ebe
00000120: 3a8b 093d 6465 803d 8c12 e4bd 3ea8 9b3d
00000130: 94bb 15be 2774 aebd 7ae7 dabc 8120 9e3b
00000140: 4121 d1bd 5689 08be a8e3 693d 8266 dabc
00000150: ab8b 383d b030 1f3c 2fcb 993d 860c 2cbd
00000160: 2a71 9c3d f3e4 873c 46d7 313d aa1e 96bd
00000170: c0e7 e9bd 9bf5 263d 34ba 40bd fa84 fdbd
00000180: e891 14bd 3ccc ca3d 8453 fabd b4e3 c63c
00000190: dcb7 b63d b8a4 e6bd 06c1 083d ba04 00be
000001a0: a60e 38bd c998 2dbe 2f9d 20be 43fe ac3c
000001b0: edd6 473c c7be 8e3d baa0 c6bd 5992 84bd
000001c0: 2bb8 36bc 0567 a7bd fca8 503d 2041 e13c
000001d0: da2d 6fbd 3b9d d0bc 4b21 d6bd d08c cebb
000001e0: b83e 8bbd 17cd f7bd f9c9 033e 8e4a 5b3c
000001f0: 2abd 533d 3cb7 6bbb 2c53 683d 7764 fd3d
00000200: f2b5 a73d ac4d b7bd d0a3 c93c 85a6 193d
00000210: 1d6d f0bd e72a b0bd 8605 b7bc 9a86 d63d
00000220: f3f1 cbbd b2b4 a0bd 06f1 57bd 2577 cabc
00000230: 0eb1 b8bd acfd 5dbd f7bc a8bd 5a6a afbd
00000240: f4b0 78bd ab8c d9bd 387e d9bd 0f90 fabd
00000250: f589 88bd fc6a c6bb 6107 ae3d f3ec c43d
00000260: c9c7 c53d b25b d4bd 000f 133a 5e66 d9bd
00000270: 6aeb 3dbd e004 eb3d 93ab 97bd 4a78 c2bd
00000280: def8 b6bd 26bb a73d eebd ddbb 640d 4c3d
00000290: ac32 0a3d 9ee1 f6bd bed8 bfbd 3676 3ebd
000002a0: 4c8f 7c3d 70a9 0f3c 5a17 67bd a8f0 f53c
000002b0: a4b5 ebbd c6bd 69bd 519a df3d ccb6 bfbd
000002c0: 6ee6 b93d cbf1 a93c d02b 7d3c 9ca8 b4bd
000002d0: b232 8ebd 9c18 00be e862 43be 550c 413d
000002e0: 255d fb3d be5e 02bd f2c6 9b3d d0fb 70be
000002f0: 1a47 0b3e cd98 783c f569 313d e774 103e
00000300: 767c 66be a3cf 32bc 4408 bc3e 7ce1 ba3d
00000310: 461f 0fbc 8871 88bd 5c34 78bd ddb5 fabd
00000320: 7e65 01bc 56d9 cebd 50ab ae3d 15bf b6be
00000330: 70e8 b5bd d72f 1f3e c994 c93d 74ef bbbd
00000340: 16d1 eebc d3e6 a83d 5360 b939 16ee 4cbe
00000350: 57c7 0abd a28e b6bd 9365 cebc c790 da3d
00000360: 66b7 a4bd b020 d53c b901 5c3e f3ec 1dbd
00000370: 2168 c63d 0ddd 1c3d 6f2b fd3d 5328 9e3a
00000380: 92ad e6bd 387d 7cbb 6065 40bd 5deb 92bd
00000390: 430e 913d 814a b23c f72f 313d 5cdf 033c
000003a0: 3c08 d6bd 2dc1 f6bd 1b0a df3c c450 6a3d
000003b0: 71d5 c7bd 6a7f c43d 9ec8 fd3d 1747 ee3d
000003c0: ca5c a63d f512 28bd 7c80 323d 1bf2 bc3d
000003d0: 6f06 b9bd a7da c3be 4814 a53c 692e 63be
000003e0: c97e 263e 9ee4 78bd a7a7 e13d 6ce5 2e3e
000003f0: a5c8 e13d b808 9ebb ea18 cc3d c8d9 c03d

linear2.bias f4 [30]
0.3129172 0.042197127 -0.014650204 -0.040208843 0.1603348 -0.08605016 -0.17864162 -0.088652745
-0.13638847 -0.07136244 0.17331904 -0.019495865 -0.13185103 -0.089591816 0.119472995 -0.061595444
0.08119914 -0.027267005 0.060921982 0.14720254 0.085824706 0.100939274 0.018391898 -0.0056157825
0.097162895 0.0449289 -0.057678435 -0.063536786 0.087398425 -0.06268937
00000000: af36 a03e e5d6 2c3d 6907 70bc 07b2 24bd
00000010: ce2e 243e 113b b0bd d4ed 36be 928f b5bd
00000020: 6ba9 0bbe 7926 92bd 8c7a 313e cbb5 9fbc
00000030: f503 07be ea7b b7bd 42ae f43d 814b 7cbd
00000040: bc4b a63d 0e5f dfbc 5489 793d 43bc 163e
00000050: ddc4 af3d 40b9 ce3d 9baa 963c 9904 b8bb
00000060: 57fd c63d 5e07 383d 3940 6cbd 931f 82bd
00000070: f2fd b23d 4963 80bd

linear3.weight f4 [1200, 30]
-0.06778356 0.186832 -0.17940676 0.27906728 0.10552367 0.08436248 -0.047940545 -0.06194958
0.02816035 0.031740535 -0.21961556 -0.10552122 -0.056808468 0.16031946 -0.1714144 0.12519221
-0.17332411 -0.13597685 -0.07589881 -0.2701364 0.13401219 -0.084087364 -0.2113302 0.20064719
-0.20264177 0.14061414 -0.0650123 0.17509899 -0.118358664 -0.03460612 0.0023013428 0.03978118
0.03197302 0.04796847 0.095714256 -0.17750353 -0.11366966 -0.03391378 0.16696817 -0.19934916
-0.018289741 0.13433704 -0.23552975 0.0968671 -0.07368662 -0.0922654 -0.14377846 -0.010124147
0.024832351 0.1086208 0.08353916 -0.18384755 0.06578596 -0.05590391 -0.21197814 -0.037958145
-0.09535445 0.11196306 -0.10551573 0.021509035 0.0102237435 0.027110815 -0.1175085 0.16575196
-0.019149058 0.07138001 0.045176044 -0.1654538 0.13913542 -0.07506673 0.11262738 0.032200303
-0.15484802 0.06614256 0.0030297434 0.08276368 -0.07173853 0.08224725 -0.16557002 -0.0069549647
-0.18077601 0.08422347 -0.23740484 -0.18191178 -0.10384349 -0.043055095 0.1177461 -0.03637732
-0.12884764 -0.17719974 0.07363366 -0.05931268 0.08405439 0.17855923 -0.0910761 -0.16675545
0.1713007 0.07311885 0.052586444 0.11118886 -0.15009288 -0.1626375 0.112750344 -0.13058683
0.039003357 -0.13812034 0.048121016 0.074833475 -0.34745827 -0.04465936 -0.13817729 0.1273221
-0.002001371 -0.03473421 -0.100091346 -0.08573686 0.05103535 -0.03975642 -0.19741516 -0.24801615
0.0031752773 0.16041595 0.07637503 0.039664768 0.04877395 0.19189115 -0.16276671 0.19215454
0.1534235 0.09159787 -0.012392745 -0.08699245 0.10109202 0.13961682 -0.07077526 0.09233068
0.15531066 0.06382736 -0.15554339 0.13306107 -0.16668756 0.087517954 -0.096562296 -0.2088756
0.035144318 0.0037889867 -0.1378123 0.11063888 0.048638277 -0.056519616 0.20480937 -0.15501606
-0.17739603 0.15944044 -0.3401151 -0.0990283 -0.3242979 -0.15508416 -0.09899611 0.42503184
0.14630339 0.3625653 -0.033992935 -0.045459174 -0.15227236 0.10373655 -0.07308638 -0.18341692
0.06373533 -0.13033997 0.03005768 -0.17792413 -0.17598832 -0.075471014 0.04038822 -0.011114247
0.05787139 0.15680066 0.13488956 0.056523565 -0.0050119497 0.05282592 0.058535915 -0.03935761
0.037394043 -0.035869777 -0.06790203 0.109203786 -0.089270025 -0.28594682 0.057708576 0.010797609
-0.020382866 -0.0038383172 0.14640996 -0.040175587 -0.07128983 0.07858934 0.106246546 -0.03177059
0.16085228 -0.014996085 0.24419072 -0.52602875 0.041783176 0.09841808 0.17248036 0.07861933
0.025232565 -0.01962593 -0.16553286 0.14662209 0.022927748 -0.12940963 -0.0065006632 -0.003479346
-0.20684144 -0.18147191 0.16568324 -0.05254897 -0.08625543 0.0576929 0.06376748 0.09618901
0.020127391 0.029743377 -0.051867187 0.042145405 0.16503197 -0.12539159 -0.112711646 0.032665025
-0.053123172 -0.14135468 -0.017443884 -0.092839174 0.048597954 0.100113384 0.08424666 -0.26379287
-0.081718355 0.06349419 -0.035233203 -0.16180162 0.17150114 -0.027732983 0.020045087 -0.1400748
0.17936443 0.014843424 0.017012205 0.07847251 0.065279156 0.01974222 -0.023798628 0.14618966
00000000: 1bd2 8abd e350 3f3e 68b6 37be e8e1 8e3e
00000010: cb1c d83d 3cc6 ac3d 4e5d 44bd d8be 7dbd
00000020: 89b0 e63c 5d02 023d e7e2 60be 821b d8bd
00000030: ffaf 68bd c92a 243e 4287 2fbe 6332 003e
00000040: e07b 31be 843d 0bbe d670 9bbd 514f 8abe
00000050: 7e3a 093e ff35 acbd f266 58be 7576 4d3e
00000060: 5381 4fbe 27fd 0f3e 2b25 85bd 264d 333e
00000070: 0766 f2bd 26bf 0dbd 20d2 163b 97f1 223d
00000080: 24f6 023d 967a 443d d605 c43d 7cc3 35be
00000090: a4cb e8bd 2de9 0abd b4f9 2a3e 3022 4cbe
000000a0: 5ed4 95bc a68f 093e b62e 71be 4262 c63d
000000b0: 03e9 96bd a4f5 bcbd a93a 13be c0df 25bc
000000c0: 376d cb3c 9574 de3d 9416 ab3d 8842 3cbe
000000d0: caba 863d 80fb 64bd cc10 59be 007a 1bbd
000000e0: 3249 c3bd e44c e53d a218 d8bd b733 b03c
000000f0: 7d81 273c 8017 de3c 4ca8 f0bd e2ba 293e
00000100: 7cde 9cbc af2f 923d 840a 393d b96c 29be
00000110: 8479 0e3e 96bc 99bd 2fa9 e63d 77e4 033d
00000120: 7b90 1ebe c075 873d a98e 463b 0180 a93d
00000130: a7eb 92bd 3f71 a83d 308b 29be 79e6 e3bb
00000140: 591d 39be 5b7d ac3d 411a 73be 1547 3abe
00000150: e5ab d4bd 8a5a 30bd de24 f13d 6200 15bd
00000160: a3f0 03be d973 35be 3fcd 963d daf1 72bd
00000170: b524 ac3d 3bd8 363e 1b86 babd f1c1 2abe
00000180: 7369 2f3e 56bf 953d e264 573d fcb6 e33d
00000190: f3b1 19be 728a 26be a7e9 e63d 8eb8 05be
000001a0: fcc1 1f3d 6b6f 0dbe 8b1a 453d 4b42 993d
000001b0: 0de6 b1be bcec 36bd 597e 0dbe b960 023e
000001c0: 6f29 03bb 7645 0ebd b1fc ccbd cf96 afbd
000001d0: 710a 513d a1d7 22bd 3327 4abe f2f7 7dbe
000001e0: 5018 503b 1444 243e 836a 9c3d 8677 223d
000001f0: 32c7 473d 1d7f 443e 51ac 26be 29c4 443e
00000200: 0d1b 1d3e aa97 bb3d f10a 4bbc 1929 b2bd
00000210: 5509 cf3d b6f7 0e3e 9ff2 90bd de17 bd3d
00000220: c209 1f3e ebb7 823d c446 1fbe 2941 083e
00000230: 25b0 2abe 9d3c b33d 74c2 c5bd 7ce3 55be
00000240: 7df3 0f3d a650 783b ab1e 0dbe a396 e23d
00000250: ee38 473d 1d81 67bd 8cb9 513e 88bc 1ebe
00000260: 4ea7 35be 5b44 233e 9123 aebe 59cf cabd
00000270: 600a a6be 62ce 1ebe 79be cabd c69d d93e
00000280: 8ed0 153e 29a2 b93e 2d3c 0bbd 6633 3abd
00000290: 49ed 1bbe d473 d43d 50ae 95bd a5d1 3bbe
000002a0: ab87 823d d777 05be 863b f63c be31 36be
000002b0: 4836 34be 8c90 9abd 1e6e 253d 8818 36bc
000002c0: 8d0a 6d3d 5a90 203e 7d20 0a3e 4185 673d
000002d0: 483b a4bb fe5f 583d 5bc3 6f3d 7235 21bd
000002e0: 7f2a 193d 30ec 12bd 3810 8bbd 3ca6 df3d
000002f0: 34d3 b6bd 9f67 92be d45f 6c3d 74e8 303c
00000300: f8f9 a6bc 478c 7bbb 7eec 153e 288f 24bd
00000310: 6700 92bd 73f3 a03d ca97 d93d e121 02bd
00000320: 76b6 243e 24b2 75bc 220d 7a3e d2a9 06bf
00000330: d624 2b3d 6b8f c93d b19e 303e 2c03 a13d
00000340: 86b4 ce3c 8fc6 a0bc 7281 29be 1a24 163e
00000350: f9d2 bb3c f583 04be 8403 d5bb bd05 64bb
00000360: 3ece 53be c6d3 39be dea8 293e 973d 57bd
00000370: b0a6 b0bd 644f 6c3d 8698 823d befe c43d
00000380: 33e2 a43c 62a8 f33c b072 54bd a9a0 2c3d
00000390: 24fe 283e a766 00be 5dd5 e6bd c3cb 053d
000003a0: af97 59bd 48bf 10be 7ae6 8ebc 7722 bebd
000003b0: a60e 473d 3f08 cd3d 8389 ac3d dc0f 87be
000003c0: f45b a7bd 3e09 823d b150 10bd 53af 25be
000003d0: ff9d 2f3e 4830 e3bc 9835 a43c c56f 0fbe
000003e0: 4fab 373e d531 733c 2e5d 8b3c 32b6 a03d
000003f0: 14b1 853d 70ba a13c 57f5 c2bc beb2 153e

linear3.bias f4 [1200]
-0.22056183 -0.16760728 0.04586297 0.062331267 0.07506647 0.16849713 -0.23614006 0.03149672
-0.25097647 -0.07830595 0.119913764 -0.025683636 -0.19470593 -0.16325046 0.019700002 -0.13355981
0.056257337 -0.17934084 0.048841797 -0.08317858 -0.053075347 -0.07013965 0.021650847 -0.020507937
-0.07556469 -0.03729858 -0.00034425978 0.061217826 -0.25397888 -0.20677394 0.023253484 -0.2655522
-0.17348701 0.12484104 -0.2279718 -0.0858391 -0.047140084 -0.07382418 -0.22889088 -0.026489362
-0.16593358 -0.1858465 -0.058242768 -0.05919142 -0.014453114 0.058981944 -0.14717141 -0.025160758
0.02588799 0.0076917983 -0.249344 0.15094732 -0.04086529 0.08967208 -0.04395337 -0.22487132
-0.26619542 -0.08265462 -0.16130756 -0.10338813 -0.09088638 -0.17630333 -0.017842311 0.2523821
-0.0022963136 0.091263905 -0.04648265 -0.10808418 -0.069834575 0.13265598 0.5308442 0.5725024
0.014532879 0.0123459445 -0.071856916 -0.07205769 -0.22442159 -0.17979833 -0.2620922 -0.1911169
-0.10934823 0.052736532 0.0042081713 -0.0062331874 -0.057273824 0.072228156 -0.100730754 0.04591764
-0.07266309 0.042389486 0.14692862 -0.23182897 -0.01940899 -0.27429324 0.006143374 0.12258472
-0.17257705 -0.22748703 0.06038785 -0.110182144 -0.20839828 0.015713457 -0.3178327 -0.009840157
-0.048450638 0.07491709 -0.082089186 -0.18564938 0.032774348 -0.11969362 -0.021519234 0.047643818
-0.097615406 0.14830579 0.047517613 -0.015086121 0.06889291 -0.060485166 -0.11775457 -0.2060194
-0.14319313 -0.11911818 -0.08784633 0.0748319 -0.1848007 -0.18988973 0.092273965 -0.1711326
-0.10197458 -0.17319243 -0.14370781 0.032860767 -0.014927498 0.14216983 -0.14635654 0.038166482
-0.22358528 -0.14392859 -0.08088773 -0.021895524 -0.08456965 -0.18851842 -0.11745489 -0.04191983
0.010931659 -0.07226497 -0.009011442 -0.07660037 -0.039020162 0.03267443 -0.0038177432 0.113545425
-0.10786737 0.22059649 -0.17477095 -0.07302894 -0.0024004227 -0.12110941 -0.013846387 0.19052583
-0.14227997 -0.15742907 -0.11499943 -0.16018015 -0.15091218 0.17353512 -0.08218865 -0.25452623
-0.014765231 0.08103015 -0.19597203 0.09141237 -0.15717737 0.026337884 -0.22482184 0.0691002
-0.08175476 -0.033213172 -0.18288164 -0.1778429 -0.07209506 0.023885326 -0.17886381 -0.06635573
0.07251262 0.071345665 0.10185148 0.0047373716 -0.1523113 -0.15074104 0.024981976 0.024398252
-0.09199473 -0.029773613 0.06890597 -0.05259688 -0.06834 0.011324781 -0.13163815 -0.10932145
-0.19090484 0.044884514 -0.0584288 0.17469633 0.07293776 -0.08050693 -0.02394018 -0.20097917
0.04763944 0.04696535 -0.15236783 -0.078989975 -0.13789713 0.13572617 0.03182445 -0.11565564
-0.28036883 0.050499707 -0.020163452 0.11319312 0.09832483 0.12658459 -0.10143973 -0.19883151
-0.1990876 -0.1871673 -0.21904805 0.14871614 0.008293691 -0.16401365 -0.15904003 -0.12699644
-0.12879929 0.026636576 0.021034112 0.0006098505 -0.02916262 0.13393132 -0.10484484 0.08999951
-0.1673984 0.058178198 -0.15499958 -0.16630074 0.031862285 0.09304054 -0.16192147 -0.08725244
-0.06667542 0.016956262 -0.101064965 -0.019729137 -0.19558766 -0.0502346 -0.060217567 0.1609541
00000000: f6da 61be 3ea1 2bbe cfda 3b3d 124f 7f3d
00000010: 73bc 993d 838a 2c3e b3ce 71be b402 013d
00000020: fd7f 80be df5e a0bd 5995 f53d 7d66 d2bc
00000030: fe60 47be 212b 27be e661 a13c e7c3 08be
00000040: 186e 663d 20a5 37be 560e 483d 8859 aabd
00000050: 8965 59bd 60a5 8fbd 1e5d b13c 4300 a8bc
00000060: a9c1 9abd 65c6 18bd c47d b4b9 8bbf 7a3d
00000070: 8509 82be 8cbc 53be 177e be3c 75f6 87be
00000080: 94a6 31be a9ac ff3d 7171 69be 69cc afbd
00000090: f615 41bd 2231 97bd 5f62 6abe 3800 d9bc
000000a0: 7eea 29be 8b4e 3ebe f88f 6ebd b472 72bd
000000b0: c1cc 6cbc 0d97 713d 1ab4 16be ef1d cebc
000000c0: 0d13 d43c 7b0b fc3b 0954 7fbe ef91 1a3e
000000d0: 5d62 27bd ffa5 b73d 7308 34bd ab44 66be
000000e0: c44a 88be d346 a9bd cf2d 25be 28bd d3bd
000000f0: a322 babd dc88 34be 0a2a 92bc 3a38 813e
00000100: c07d 16bb 92e8 ba3d 9764 3ebd 3d5b ddbd
00000110: 6e05 8fbd f8d6 073e 68e5 073f 848f 123f
00000120: 501b 6e3c a546 4a3c b829 93bd fb92 93bd
00000130: c6ce 65be 0e1d 38be f330 86be 26b4 43be
00000140: f7f1 dfbd 4302 583d b3e4 893b c43f ccbb
00000150: f597 6abd 5bec 933d ed4b cebd 2314 3c3d
00000160: 63d0 94bd 99a0 2d3d 7574 163e 9364 6dbe
00000170: 9aff 9ebc 2a70 8cbe 5b4e c93b b30d fb3d
00000180: 0ab8 30be 5cf2 68be 4059 773d 2da7 e1bd
00000190: 5c66 55be 82b9 803c f8ba a2be 9c38 21bc
000001a0: 2d74 46bd 226e 993d 601e a8bd df1a 3ebe
000001b0: 653e 063d ee21 f5bd 1b49 b0bc 2a26 433d
000001c0: 96ea c7bd 79dd 173e d4a1 423d c72b 77bc
000001d0: ba17 8d3d 4bbf 77bd 4f29 f1bd c0f6 52be
000001e0: 38a1 12be 3bf4 f3bd c7e8 b3bd 7841 993d
000001f0: 653c 3dbe 7472 42be 22fa bc3d 623d 2fbe
00000200: 0cd8 d0bd 5b59 31be 2428 13be 0399 063d
00000210: 7792 74bc f894 113e 7dde 15be 7554 1c3d
00000220: 8af3 64be 0462 13be 77a8 a5bd 3e5e b3bc
00000230: da32 adbd f90a 41be 308c f0bd 21b4 2bbd
00000240: b31a 333c a8ff 93bd baa4 13bc a8e0 9cbd
00000250: 9bd3 1fbd a0d5 053d 1a33 7abb 818a e83d
00000260: 91e9 dcbd 0ce4 613e 28f7 32be 3290 95bd
00000270: 6950 1dbb 3608 f8bd f5db 62bc 3419 433e
00000280: d7b1 11be 1635 21be d284 ebbd 4406 24be
00000290: b988 1abe 31b3 313e 8652 a8bd 4351 82be
000002a0: dee9 71bc 23f3 a53d e4ac 48be 6936 bb3d
000002b0: 1bf3 20be 8cc2 d73c b237 66be 6884 8d3d
000002c0: 0a6f a7bd 890a 08bd 5345 3bbe 731c 36be
000002d0: 93a6 93bd 29ab c33c 1328 37be 83e5 87bd
000002e0: 7f81 943d ad1d 923d 8297 d03d f43b 9b3b
000002f0: 7ef7 1bbe dc5b 1abe 00a7 cc3c d8de c73c
00000300: bc67 bcbd cbe7 f3bc 931e 8d3d d36f 57bd
00000310: d8f5 8bbd 938b 393c 27cc 06be ede3 dfbd
00000320: 8f7c 43be d3d8 373d 0a53 6fbd 98e3 323e
00000330: 6460 953d d1e0 a4bd 321e c4bc 7ccd 4dbe
00000340: 9321 433d bd5e 403d 5006 1cbe 7fc5 a1bd
00000350: e834 0dbe cdfb 0a3e 5b5a 023d dddc ecbd
00000360: 818c 8fbe c8d8 4e3d d32d a5bc cbd1 e73d
00000370: 875e c93d 649f 013e a2bf cfbd 7d9a 4bbe
00000380: 9fdd 4bbe c9a8 3fbe 224e 60be 0b49 183e
00000390: 43e2 073c 32f3 27be 64db 22be 5b0b 02be
000003a0: f6e3 03be f334 da3c bb4f ac3c 60de 1f3a
000003b0: 72e6 eebc 4b25 093e e4b8 d6bd aa51 b83d
000003c0: 7c6a 2bbe 434c 6e3d 36b8 1ebe be4a 2abe
000003d0: 0782 023d 0a8c be3d bece 25be 68b1 b2bd
000003e0: 1f8d 88bd dce7 8a3c 26fb cebd 009f a1bc
000003f0: 2248 48be ccc2 4dbd b2a6 76bd 27d1 243e

linear1.weight f4 [30, 1200]
-0.01363937 0.008353453 0.003233131 0.015074197 -0.016134752 0.010861515 -0.01920092 -0.02649805
-0.008849388 0.025914343 0.0031248205 -0.009923946 0.01980047 -0.024452578 -0.00833169 0.002765341
-0.026398385 -0.024927737 0.03697738 0.004027543 -0.013347314 -0.04370896 -0.011806111 0.009957708
-0.015489078 -0.01098243 0.023272416 -0.012303496 -0.0038074716 -0.005229838 0.0103093665 0.014351375
0.010557752 -0.00657256 -0.025678962 -0.0072609987 0.00652712 -0.02130583 0.0064512566 -1.7691404e-05
-0.007392321 -0.0065298937 0.007207075 0.0008070813 0.0025330596 -0.003890087 0.012915352 0.0035119522
0.008105714 -0.011862582 0.00026466884 -0.0035254117 -0.0042651966 -0.008673114 -0.0064787283 -0.0206532
-0.019171376 -0.0036338847 -0.009105064 0.012394537 0.020662265 -0.014300638 -0.027099796 -0.002185078
0.00083890744 -0.007551297 -0.03347759 -0.025923623 0.025114272 -0.015279052 0.0014133982 -0.033840094
-0.016951144 0.009981436 0.021368982 0.0029792115 -0.0022331513 0.0009228159 0.005009027 -0.00059021264
-0.0024689017 -0.024003942 0.0023752018 -0.012607319 -0.00955265 0.02732045 0.052036323 -0.023224378
-0.005473476 -0.028944412 -0.02186188 -0.02253509 -0.0023286464 0.0050289175 -0.0045294287 0.018897466
-0.007802997 -0.0022793976 0.02623631 -0.02830536 -0.026710592 -0.004983911 -0.03132784 0.026339771
-0.013611473 0.024896717 0.00011249901 0.01170607 -0.0014638436 -0.016374987 -0.020553652 -0.027181422
-0.009599551 -0.03869259 -0.010809522 0.007628726 0.015945103 0.02562197 -0.016322218 0.002560672
-0.0021961704 -0.012086231 -0.026562575 0.012743904 -0.021983996 0.0283322 0.015486028 -0.010052476
0.019978354 0.0350414 0.023475416 -0.0025101528 -0.010762752 0.0406786 -0.0017169833 -0.004529497
-0.025907818 0.006965462 0.02956532 0.02065 -0.012130686 -0.01777332 -0.024573639 -0.0007184217
-0.025881708 0.014540455 -0.027973628 0.012580676 0.0035732538 -0.019043636 -0.0049860077 -0.03287871
-0.0070350985 0.017751921 -0.019098544 0.029429121 -0.013689266 -0.0028278716 0.025671165 -0.03390888
0.018377068 0.011156969 -0.026018113 0.010839887 -0.013360507 -0.052403096 0.023808798 0.009706818
0.037270464 -0.021998834 0.019994855 0.029799353 -0.008268481 -0.019083168 -0.00923048 0.0011123195
0.023264978 0.0014778394 0.0046696924 0.0065256804 -0.0113914 -0.019235983 -0.028357595 -0.010265468
0.017412487 -0.026545793 -0.015876193 -0.019406734 0.0037025225 -0.02022062 -0.032811526 -0.028771058
-0.026799457 0.018073566 0.014681019 -0.013379704 -0.035466652 -0.013227338 0.008256178 -0.028468356
-0.0011026096 0.01460686 -0.021242121 -0.013502666 0.0051590856 0.003321962 0.0029396284 -0.024135718
-0.019066794 0.0656633 -0.004494099 -0.035166793 0.008773353 -3.451016e-05 -0.012830621 0.023001436
0.016960211 0.029039837 0.0047962186 -0.0037538186 -0.008304896 0.022741437 0.001477357 0.0031171606
0.01296398 -0.0061190254 0.028429946 0.004899875 0.03629349 -0.004868459 0.027611282 -0.021572327
0.008379381 0.012668636 0.00979639 -0.021890754 0.016751338 -0.0055137435 0.003246723 -0.002776308
-0.028418716 0.025789786 0.009718363 -0.0007473789 0.0056554996 0.006433693 -0.01996445 -0.00016298666
-0.020969324 0.025512027 -0.022373136 -0.0014791779 -0.00631365 0.013368122 -0.03109959 -0.012281634
00000000: aa77 5fbc ecdc 083c f0e2 533b c4f9 763c
00000010: 072d 84bc 7ff4 313c 3f4b 9dbc 7012 d9bc
00000020: 06fd 10bc 514a d43c cac9 4c3b 0c98 22bc
00000030: 9834 a23c c650 c8bc a481 08bc b93a 353b
00000040: 6d41 d8bc 4135 ccbc 9875 173d 7bf9 833b
00000050: b1ae 5abc 2b08 33bd 6b6e 41bc a825 233c
00000060: e7c5 7dbc a6ef 33bc cba5 be3c 9a94 49bc
00000070: c686 79bb 105f abbb 9ee8 283c 0822 6b3c
00000080: 6cfa 2c3c a15e d7bb b05c d2bc aced edbb
00000090: 73e1 d53b 9089 aebc 1065 d33b 0068 94b7
000000a0: 483b f2bb b8f8 d5bb 5429 ec3b 4f92 533a
000000b0: b001 263b d4f0 7ebb ea9a 533c c828 663b
000000c0: d4cd 043c 465b 42bc 40c3 8a39 980a 67bb
000000d0: 10c3 8bbb ad19 0ebc 834b d4bb e630 a9bc
000000e0: 4a0d 9dbc 7826 6ebb 682d 15bc 7512 4b3c
000000f0: e943 a93c 394d 6abc 6400 debc 8733 0fbb
00000100: 20ea 5b3a df70 f7bb cc1f 09bd c75d d4bc
00000110: 72bc cd3c fd54 7abc c641 b93a e99b 0abd
00000120: 20dd 8abc 2d89 233c 010e af3c e03e 433b
00000130: 105a 12bb 20e9 713a c422 a43b 80b8 1aba
00000140: 4ccd 21bb eaa3 c4bc 46a9 1b3b ee8e 4ebc
00000150: b882 1cbc 23cf df3c 0a24 553d 0d41 bebc
00000160: d85a b3bb d51c edbc af17 b3bc 829b b8bc
00000170: 349c 18bb 9ec9 a43b 9a6b 94bb dcce 9a3c
00000180: 48b0 ffbb f261 15bb 88ed d63c a4e0 e7bc
00000190: 2cd0 dabc 1350 a3bb 9f51 00bd 81c6 d73c
000001a0: a802 5fbc 33f4 cb3c 72ed eb38 d1ca 3f3c
000001b0: 71de bfba d624 86bc 2260 a8bc 93ab debc
000001c0: 6f47 1dbc 1f7c 1ebd 6c1a 31bc 64fa f93b
000001d0: 4e9f 823c 2ae5 d13c 2cb6 85bc f2d0 273b
000001e0: a0ed 0fbb 5405 46bc c299 d9bc cfcb 503c
000001f0: c817 b4bc ee18 e83c 1cb9 7d3c 24b3 24bc
00000200: a5a9 a33c 9287 0f3d 844f c03c 6081 24bb
00000210: 4156 30bc 9b9e 263d 660c e1ba 2d6c 94bb
00000220: a23c d4bc 883e e43b f832 f23c 302a a93c
00000230: c9bf 46bc 5b99 91bc a84e c9bc 7754 3cba
00000240: e005 d4bc 173b 6e3c f328 e5bc 2e1f 4e3c
00000250: 402d 6a3b 6601 9cbc aa61 a3bb d4ab 06bd
00000260: af86 e6bb 7a6c 913c 8d74 9cbc 5715 f13c
00000270: f148 60bc d053 39bb 564c d23c 0ae4 0abd
00000280: 818b 963c b8cb 363c f023 d5bc c899 313c
00000290: 07e6 5abc a1a4 56bd ab0a c33c 5809 1f3c
000002a0: eaa8 183d e636 b4bc 40cc a33c c61d f43c
000002b0: 8678 07bc 4e54 9cbc 703b 17bc 40cb 913a
000002c0: 3296 be3c 10b4 c13a 3804 993b 60d5 d53b
000002d0: ffa2 3abc c894 9dbc 304e e8bc 7e30 28bc
000002e0: a2a4 8e3c 9076 d9bc ca0e 82bc dffa 9ebc
000002f0: 05a6 723b b7a5 a5bc 6165 06bd 48b1 ebbc
00000300: 898a dbbc 040f 943c a888 703c 8c36 5bbc
00000310: 7b45 11bd 7ab7 58bc ec44 073c 7836 e9bc
00000320: 7085 90ba 9c51 6f3c f503 aebc 493a 5dbc
00000330: 8c0d a93b 46b5 593b c8a6 403b 45b8 c5bc
00000340: f731 9cbc 7b7a 863d 3c43 93bb 0e0b 10bd
00000350: 1cbe 0f3c 01bf 10b8 8637 52bc 826d bc3c
00000360: 24f0 8a3c f4e4 ed3c 9929 9d3b a002 76bb
00000370: 4211 08bc 404c ba3c e0a3 c13a 4749 4c3b
00000380: e066 543c 1b82 c8bb ebe5 e83c 218f a03b
00000390: 7ca8 143d 9887 9fbb 0e31 e23c 73b8 b0bc
000003a0: ac49 093c 1c90 4f3c 0a81 203c 3d54 b3bc
000003b0: 1a3a 893c a2ac b4bb f9c6 543b b8f2 35bb
000003c0: 5ece e8bc 1a45 d33c c539 1f3c c0eb 43ba
000003d0: c551 b93b bbd1 d23b 7c8c a3bc 66e7 2ab9
000003e0: dcc7 abbc 99fe d03c de47 b7bc f9e0 c1ba
000003f0: bce2 cebb f805 5b3c 91c4 febc e838 49bc

linear1.bias f4 [30]
-0.03653203 -0.20607895 -0.08307799 -0.0073849647 0.008317017 -0.046699792 -0.018923072 0.0074042776
0.044757593 0.18344437 -0.014334334 0.01530259 -0.020904785 0.0115345 -0.049391396 -0.03227161
-0.009040204 0.21907912 -0.044270597 -0.056546412 -0.04525393 -0.0025288402 -0.014527836 -0.0222329
0.0075913686 -0.008687679 0.007586772 -0.017804692 0.09032942 -0.04966277
00000000: 9ca2 15bd 5c06 53be cb24 aabd 93fd f1bb
00000010: 1944 083c 4848 3fbd 8f04 9bbc 959f f23b
00000020: bd53 373d d7d8 3b3e 8eda 6abc b7b7 7a3c
00000030: 8340 abbc 33fb 3c3c a24e 4abd 3c2f 04bd
00000040: 5d1d 14bc 4756 603e 1655 35bd 369d 67bd
00000050: 2f5c 39bd e6ba 25bb 2906 6ebc c521 b6bc
00000060: 04c1 f83b c456 0ebc 759a f83b 25db 91bc
00000070: a2fe b83d 306b 4bbd

linear2.weight f4 [60, 30]
0.085549384 -0.19171034 -0.16293176 -0.07400472 -0.0914322 0.059360012 -0.039133053 0.0888711
-0.14346792 -0.17368978 -0.07266265 0.110360384 -0.09145444 0.13455999 -0.0379979 0.12879625
-0.07079149 0.029203696 -0.16391318 -0.16190152 -0.0028443635 -0.16428688 0.09756827 0.041859582
-0.081220806 0.062971115 -0.18395172 -0.073147945 -0.13222921 -0.10863913 -0.052179605 -0.026900236
0.074923396 0.1642066 -0.09520843 0.009626016 -0.017035376 0.15807034 -0.024877986 -0.1695728
0.017572248 0.16231039 -0.16262189 0.07215937 0.07917282 0.117765665 0.073139764 -0.050553385
0.004526793 -0.028362056 0.05923347 0.017539421 0.089279056 0.055500455 -0.060822092 0.080904946
-0.23143095 -0.0805977 0.028816141 0.09988603 -0.06609632 -0.04911203 -0.0044972855 -0.12353507
-0.04589419 0.1419616 0.011212076 0.08719577 0.02529988 0.18667592 0.09243239 -0.062453452
-0.17729975 -0.07939568 -0.031119427 -0.03290327 0.09084177 -0.09356027 0.16599576 0.057670027
0.13137776 0.16874439 -0.17751126 0.16112575 0.16991241 0.15177275 -0.043654557 0.06321109
-0.03108739 0.014643419 -0.14649372 -0.06478651 0.28544912 0.028997676 -0.054675788 0.04216652
0.09072386 -0.07575863 -0.09771842 0.06969389 -0.04757367 0.14858311 0.017562225 0.032562654
-0.11535018 -0.03668667 -0.13349026 -0.135784 -0.07717704 -0.0017590923 -0.03880745 0.06780333
-0.12515193 0.049842395 -0.08797273 0.09343423 -0.0833227 -0.09026764 0.0033818213 0.121502414
-0.17708036 0.028618857 0.14773965 -0.1338655 0.021558274 -0.033715535 0.18854941 0.032632608
-0.058770932 0.026955305 -0.09832377 0.020380862 -0.009061123 -0.013248681 0.15409154 -0.137096
-0.07468325 -0.11504803 -0.106714986 -0.07389282 -0.14243682 -0.06268842 -0.038313836 0.14353105
-0.16598733 0.07843354 0.02211979 -0.104675785 0.0032582753 -0.06668236 -0.18711223 -0.2015308
-0.10808935 0.06890886 -0.1204567 0.14305818 -0.07078301 0.07504454 -0.106362425 -0.094771914
0.07116415 -0.064426854 -0.07925286 0.09161364 -0.019489849 0.10359876 -0.0008419623 0.04082836
0.005103448 -0.11852877 -0.0048833946 0.1339455 0.1457884 0.020641351 -0.17119576 -0.15934764
0.02899378 0.0916107 -0.10414758 0.10195929 -0.18042536 0.088510275 0.1432196 -0.14145876
-0.029183278 0.015940515 0.2025817 0.18316433 -0.065596715 0.031165693 -0.026549123 0.057359364
0.01698637 -0.0434743 0.06345172 0.018872654 0.10295569 0.13583577 -0.076466896 -0.122764654
-0.19623992 -0.1298441 -0.12542592 -0.012250183 -0.14321892 -0.04569301 0.093339644 0.024329625
0.13930549 0.21034908 -0.035994977 -0.1166579 -0.061438333 0.115270495 -0.14488587 -0.1296905
-0.035403285 -0.048484188 -0.06644016 -0.039441526 -0.068596035 0.063666664 0.13273177 -0.14916094
-0.14947024 -0.17515297 -0.14343885 0.01758793 0.09832287 -0.14741717 -0.03817466 0.024410672
-0.109005235 0.052418564 0.03973052 -0.04672125 -0.1370828 -0.08838938 -0.10819045 -0.14837685
0.09760507 0.05082126 0.32582784 -0.17940289 0.13767895 -0.016888086 0.03390808 0.056399908
-0.05516529 0.17463794 0.077342115 -0.040224772 -0.11593356 0.0059041693 0.12436468 -0.13267198
00000000: 8434 af3d b74f 44be 95d7 26be c98f 97bd
00000010: ce40 bbbd 7c23 733d fb49 20bd 0d02 b63d
00000020: 41e9 12be bcdb 31be 28d0 94bd a004 e23d
00000030: 774c bbbd 18ca 093e b0a3 1bbd 2ae3 033e
00000040: 21fb 90bd 973c ef3c dbd8 27be 83c9 25be
00000050: 8068 3abb d23a 28be e0d1 c73d f474 2b3d
00000060: 1857 a6bd 00f7 803d d75d 3cbe 97ce 95bd
00000070: 1867 07be 317e debd 48ba 55bd e25d dcbc
00000080: 7071 993d c625 283e a3fc c2bd 70b6 1d3c
00000090: c68d 8bbc 31dd 213e ebcc cbbc 7ea4 2dbe
000000a0: adf3 8f3c b234 263e 5a86 26be 4bc8 933d
000000b0: 5c25 a23d 202f f13d 4dca 953d 1111 4fbd
000000c0: 7e55 943b 8b57 e8bc cc9e 723d d5ae 8f3c
000000d0: f0d7 b63d 7254 633d 9620 79bd 7eb1 a53d
000000e0: 3cfc 6cbe 6810 a5bd d40f ec3c 0c91 cc3d
000000f0: 825d 87bd b229 49bd f75d 93bb f4ff fcbd
00000100: 8cfb 3bbd 625e 113e dbb2 373c b293 b23d
00000110: b241 cf3c f927 3f3e 314d bd3d 31cf 7fbd
00000120: 118e 35be 349a a2bd 2bee febc 94c5 06bd
00000130: 400b ba3d 879c bfbd cbfa 293e 6837 6c3d
00000140: e487 063e 54cb 2c3e 83c5 35be 26fe 243e
00000150: 85fd 2d3e 516a 1b3e 1fcf 32bd d174 813d
00000160: fbaa febc f3ea 6f3c 7302 16be caae 84bd
00000170: 6326 923e 898c ed3c b8f3 5fbd cdb6 2c3d
00000180: 6ecd b93d 5727 9bbd 9820 c8bd acbb 8e3d
00000190: 9cdc 42bd 2c26 183e a8de 8f3c 6b60 053d
000001a0: b73c ecbd c344 16bd acb1 08be f60a 0bbe
000001b0: ff0e 9ebd 5891 e6ba 90f4 1ebd 79dc 8a3d
000001c0: d427 00be 8a27 4c3d 0c2b b4bd 725a bf3d
000001d0: 17a5 aabd 3ede b8bd 8ca1 5d3b 42d6 f83d
000001e0: 8e54 35be 1872 ea3c 1049 173e 0a14 09be
000001f0: fa9a b03c 4d19 0abd 1913 413e c5a9 053d
00000200: cab9 70bd 5fd1 dc3c f95d c9bd c4f5 a63c
00000210: 1b75 14bc ff10 59bc 2cca 1d3e e562 0cbe
00000220: 88f3 98bd 4d9e ebbd 638d dabd 1e55 97bd
00000230: f5da 11be c962 80bd f8ee 1cbd cef9 123e
00000240: 95f8 29be c4a1 a03d 9034 b53c 4260 d6bd
00000250: ca88 553b c390 88bd 599a 3fbe 175e 4ebe
00000260: f35d ddbd 1720 8d3d 01b2 f6bd d87d 123e
00000270: aff6 90bd f4b0 993d 8bd4 d9bd c717 c2bd
00000280: 83be 913d 3af2 83bd 534f a2bd ef9f bb3d
00000290: 2da9 9fbc 962b d43d 22b7 5cba a33b 273d
000002a0: d33a a73b 36bf f2bd e204 a0bb 0229 093e
000002b0: 8e49 153e 0d18 a93c f14d 2fbe 072c 23be
000002c0: 5d84 ed3c 649e bb3d 544b d5bd 08d0 d03d
000002d0: 6dc1 38be e044 b53d 29a8 123e 91da 10be
000002e0: c511 efbc af95 823c 9471 4f3e 6e8f 3b3e
000002f0: 9257 86bd 324f ff3c 8c7d d9bc a7f1 6a3d
00000300: 0027 8b3c 1c12 32bd faf2 813d d39a 9a3c
00000310: 6fda d23d 8818 0b3e ad9a 9cbd 096c fbbd
00000320: 1ef3 48be daf5 04be a76f 00be feb4 48bc
00000330: fba7 12be 9828 3bbd db28 bf3d ec4e c73c
00000340: 19a6 0e3e c065 573e 786f 13bd 56ea eebd
00000350: c3a6 7bbd f012 ec3d f65c 14be 96cd 04be
00000360: 0903 11bd 5b97 46bd c711 88bd 708d 21bd
00000370: 147c 8cbd ab63 823d d6ea 073e a5bd 18be
00000380: ba0e 19be 4d5b 33be a2e1 12be 9014 903c
00000390: 805d c93d 87f4 16be 085d 1cbd e4f8 c73c
000003a0: 233e dfbd d9b4 563d 78bc 223d c85e 3fbd
000003b0: 6f5f 0cbe 7e05 b5bd f492 ddbd 1af0 17be
000003c0: 2be5 c73d f429 503d e8d2 a63e 64b5 37be
000003d0: b6fb 0c3e e258 8abc 33e3 0a3d 9703 673d
000003e0: 00f5 61bd 4ad4 323e 8b65 9e3d bbc2 24bd
000003f0: 936e edbd c377 c13b e9b2 fe3d 2adb 07be

linear2.bias f4 [60]
0.1094515 0.09869836 0.48913634 0.20302458 0.52203435 0.18586609 0.39872137 0.044224013
0.26490438 -0.09132138 -0.08651836 0.34282735 0.67481565 0.27962112 0.36777046 0.13532548
0.01657599 0.4241453 -0.22529362 0.034774642 0.59466344 -0.04348719 0.099192314 0.008347702
-0.07464151 0.3960126 0.2815707 0.35573378 0.6812112 0.08876883 0.46145153 -0.12112914
0.13071437 0.19004281 0.12644517 0.24277875 0.042404164 -0.584602 -0.21700345 -0.036990248
-0.13328177 0.3118352 -0.095840715 -0.14809595 -0.10303107 -0.23502928 -0.046799757 -0.12936257
0.2728618 0.538099 0.20227157 0.56722295 -0.3193847 0.55836236 0.1791758 -0.2372074
-0.0010486263 -0.24148872 0.2190153 0.4418879
00000000: 1c28 e03d 5e22 ca3d 1470 fa3e ade5 4f3e
00000010: 0ba4 053f ae53 3e3e 3525 cc3e 3d24 353d
00000020: 8ca1 873e b406 bbbd 8a30 b1bd 1187 af3e
00000030: b8c0 2c3f 802a 8f3e 694c bc3e c392 0a3e
00000040: 5fca 873c 9329 d93e 5fb3 66be db6f 0e3d
00000050: dd3b 183f a01f 32bd 5725 cb3d cdc4 083c
00000060: a6dd 98bd 2ac2 ca3e 092a 903e bd22 b63e
00000070: db63 2e3f 6fcc b53d 6043 ec3e 8e12 f8bd
00000080: fdd9 053e 959a 423e d87a 013e fe9a 783e
00000090: fdaf 2d3d 7aa8 15bf 2736 5ebe 1683 17bd
000000a0: 047b 08be dda8 9f3e 2348 c4bd 77a6 17be
000000b0: f401 d3bd 84ab 70be 1ab1 3fbd 9f77 04be
000000c0: 8bb4 8b3e dbc0 093f 4720 4f3e 8635 113f
000000d0: 6486 a3be d6f0 0e3f dc79 373e 7fe6 72be
000000e0: 0f72 89ba d248 77be 8c45 603e 213f e23e

linear3.weight f4 [120, 60]
0.040457267 0.06717454 0.043860618 0.011171226 0.18415578 -0.0079365615 0.19918892 -0.07851956
-0.0051076007 0.010177436 -0.10493358 0.036991272 0.16863061 0.056234658 0.04262957 -0.017897887
0.042377695 0.035603944 -0.14217317 -0.13541621 0.13610421 0.008656244 0.1853629 -0.060759462
0.120229624 -0.024840746 0.16754822 0.03619135 0.15041995 0.097450584 0.15879017 -0.05455593
-0.09308445 0.0020248333 0.057333276 0.26220456 -0.06683763 -0.13382713 -0.10025678 0.122429416
0.032674704 -0.08629596 -0.03244389 0.08502209 0.0013336181 0.06942329 0.061521646 -0.04704839
0.12756607 0.20823848 -0.05467577 0.08140738 0.10703626 0.08464618 0.12861285 -0.028467879
0.0423989 -0.013287795 -0.033614945 0.2136984 0.013710222 -0.0291948 0.052512042 0.050108265
-0.042718694 -0.023168983 0.03404686 0.10845361 -0.00041932848 0.020309698 0.032289285 0.10889496
-0.021533035 -0.085274376 -0.039037816 -0.028745793 -0.0144754825 0.070298456 0.074355125 0.057353873
0.084561124 -0.014907506 0.004984572 -0.029482158 0.1043008 -0.07538305 -0.0020305798 -0.012364908
0.019629627 0.11535152 0.01206742 0.0839563 0.014486477 0.025149375 -0.027050683 0.039226856
0.13566776 0.0433341 0.025764726 0.0032912802 -0.027956117 -0.026793716 0.043316953 0.020645661
-0.07678641 0.06847591 -0.037361134 0.017580792 0.076114684 0.02302412 -0.022631371 0.046779048
-0.078079924 0.07065762 -0.07923255 -0.035324797 0.039385494 0.05342759 0.0015333883 0.06962011
0.05798293 -0.028004123 0.061141543 0.057114866 -0.06490881 -0.037361044 -0.06601789 0.0014531192
0.076486595 0.094624706 -0.028235389 -0.08389686 -0.03498256 -0.028178148 -0.005824835 0.0999716
-0.031506877 0.0064002173 0.05933626 0.076547965 -0.048073705 -0.07531632 -0.037893746 0.05299206
-0.095940255 0.004043866 -0.09089917 -0.05899565 0.029227046 0.073245004 0.080348216 0.09932162
0.00043451108 0.02513021 -0.0016474819 -0.13918056 0.080820546 -0.00781453 -0.086046346 -0.02083045
-0.021773068 0.0416025 0.09227088 0.14624284 -0.02268329 0.025650369 -0.009504218 -0.061448436
0.05438538 -0.007180874 -0.042258635 -0.035079487 0.049778663 0.027426407 -0.033970598 -0.025565233
-0.082738556 0.060036387 -0.0008825289 0.023506321 0.10208566 0.046531223 0.08731273 -0.01663969
-0.0039617526 -0.062438466 0.0080232825 -0.025459627 0.10690114 0.07864922 0.014979063 0.011998647
-0.12179243 -0.10821856 0.075669736 -0.026860494 -0.014414165 -0.028617514 -0.06663481 0.074548
0.04882469 -0.015976366 -0.04186211 0.009122845 -0.027149385 -0.010507548 0.096613854 -0.035202794
0.008071051 0.04355627 0.025545796 0.012221833 0.025009187 0.029168956 -0.030631274 -0.020760115
0.030491715 6.823626e-05 0.011335756 0.03771151 -0.014617863 -0.01281228 0.039150357 0.13249132
0.046163242 -0.096136995 0.009096154 0.0029676338 -0.013154371 -0.026570162 -0.039564654 -0.024607735
0.029396188 0.048606142 0.00445086 -0.030454498 -0.010186062 0.11164829 -0.01156464 -0.0034731717
0.06440261 0.0692964 -0.1662758 0.038376175 -0.22566915 -0.0034266221 -0.20604812 -0.10006157
-0.017756717 0.07223635 0.06438234 -0.16964833 -0.19337036 -0.024119988 -0.07863965 -0.11300112
00000000: 85b6 253d ce92 893d 31a7 333d 8507 373c
00000010: 5593 3c3e 5a08 02bc 2ef8 4b3e ddce a0bd
00000020: a95d a7bb 43bf 263c 6be7 d6bd 2984 173d
00000030: 81ad 2c3e 5056 663d 589c 2e3d 979e 92bc
00000040: 3c94 2d3d 71d5 113d d895 11be 8caa 0abe
00000050: e75e 0b3e ebd2 0d3c c6cf 3d3e eade 78bd
00000060: f33a f63d d27e cbbc c391 2b3e 623d 143d
00000070: b007 1a3e 2c94 c73d e499 223e 0a76 5fbd
00000080: 0fa3 bebd 11b3 043b 4cd6 6a3d ad3f 863e
00000090: 2be2 88bd fb09 09be 6d53 cdbd 46bc fa3d
000000a0: e9d5 053d f0bb b0bd e2e3 04bd 1020 ae3d
000000b0: cccc ae3a cc2d 8e3d 1ffe 7b3d d0b5 40bd
000000c0: aea0 023e 783c 553e b3f3 5fbd eab8 a63d
000000d0: d435 db3d fa5a ad3d 16b3 033e 7835 e9bc
000000e0: 78aa 2d3d 0db5 59bc d3af 09bd c1d3 5a3e
000000f0: d7a0 603c ef29 efbc de16 573d 533e 4d3d
00000100: ccf9 2ebd e1cc bdbc b874 0b3d ed1c de3d
00000110: 51d9 dbb9 8660 a63c c541 043d 5204 df3d
00000120: 0c66 b0bc 55a4 aebd 1ee6 1fbd 4c7c ebbc
00000130: 932a 6dbc a3f8 8f3d 8047 983d e5eb 6a3d
00000140: 622e ad3d 9d3e 74bc 9f55 a33b 9184 f1bc
00000150: a89b d53d 6e62 9abd 7a13 05bb 2f96 4abc
00000160: 50ce a03c 6b3d ec3d 6eb6 453c 48f1 ab3d
00000170: b058 6d3c 1006 ce3c 6599 ddbc 57ac 203d
00000180: 7dec 0a3e 197f 313d 8c10 d33c 85b2 573b
00000190: 3a04 e5bc 7f7e dbbc 1e6d 313d 1721 a93c
000001a0: 3142 9dbd 193d 8c3d fd07 19bd 9805 903c
000001b0: 04e2 9b3d 149d bc3c 6d65 b9bc 639b 3f3d
000001c0: 5ee8 9fbd f1b4 903d ad44 a2bd bcb0 10bd
000001d0: af52 213d e3d6 5a3d f9fb c83a fd94 8e3d
000001e0: 827f 6d3d e768 e5bc 8e6f 7a3d 47f1 693d
000001f0: e9ee 84bd e507 19bd 6334 87bd 9776 be3a
00000200: 01a5 9c3d 99ca c13d e74d e7bc 1ed2 abbd
00000210: df49 0fbd dcd5 e6bc 42de bebb e9bd cc3d
00000220: 5b0d 01bd eab8 d13b 940a 733d 2ec5 9c3d
00000230: efe8 44bd 713f 9abd 7936 1bbd 340e 593d
00000240: 537c c4bd 6882 843b 5829 babd 6ca5 71bd
00000250: 8f6d ef3c 7a01 963d 9b8d a43d 2269 cb3d
00000260: 17cf e339 dfdd cd3c 52f0 d7ba 5985 0ebe
00000270: 3e85 a53d 8408 00bc 1139 b0bd 9fa4 aabc
00000280: 6f5d b2bc 6267 2a3d 84f8 bc3d afc0 153e
00000290: 4fd2 b9bc b920 d23c 94b7 1bbc 5bb1 7bbd
000002a0: 34c3 5e3d 894d ebbb 6417 2dbd 82af 0fbd
000002b0: b6e4 4b3d 58ad e03c c124 0bbd 2e6e d1bc
000002c0: d572 a9bd b7e8 753d 8359 67ba 5490 c03c
000002d0: 4912 d13d 8697 3e3d 04d1 b23d f64f 88bc
000002e0: 97d1 81bb 7abf 7fbd 1674 033c b590 d0bc
000002f0: fcee da3d d812 a13d be6a 753c f995 443c
00000300: 4f6e f9bd b1a1 ddbd bcf8 9a3d 8a0a dcbc
00000310: 6429 6cbc 476f eabc d577 88bd 9fac 983d
00000320: 66fc 473d dee0 82bc 9b77 2bbd fc77 153c
00000330: 6368 debc da27 2cbc 7cdd c53d ce30 10bd
00000340: 713c 043c 0f68 323d 6b45 d13c 153e 483c
00000350: 11e0 cc3c bcf3 ee3c 70ee fabc 1e11 aabc
00000360: c3c9 f93c 101a 8f38 9bb9 393c 6277 1a3d
00000370: c37f 6fbc 99ea 51bc 205c 203d ceab 073e
00000380: ab15 3d3d 79e3 c4bd 0908 153c a27c 423b
00000390: 6e85 57bc aba9 d9bc 8c0e 22bd 2996 c9bc
000003a0: 46d0 f03c 3c17 473d 85d8 913b b67b f9bc
000003b0: 71e3 26bc dca7 e43d 9e79 3dbc 279e 63bb
000003c0: 84e5 833d 45eb 8d3d 3444 2abe 5630 1d3d
000003d0: d015 67be 2e91 60bb 47fe 52be 15ed ccbd
000003e0: 8976 91bc a7f0 933d e3da 833d 4bb8 2dbe
000003f0: e102 46be 4897 c5bc d30d a1bd 226d e7bd
