epoch_60_model/솔트/model.pth (torch, 201120 bytes, 18 tensors)

linear1.weight f4 [24, 48]
0.028356805 -0.056477956 0.077018514 0.014725773 0.5074244 0.39100525 0.057982717 0.057496797
0.421506 0.17846881 0.067471705 -0.03947019 0.03632558 0.08571523 0.037549607 -0.013402525
0.10660197 0.06741539 0.013811213 0.042851813 -0.34018326 -0.13936019 0.095688015 -0.0011181091
0.33277097 0.2612195 -0.0027329393 0.041500475 0.13499047 -0.042822514 -0.013066724 0.0005643213
0.27007747 0.22738507 0.0103024095 0.07140633 0.11093793 0.06716967 0.15417413 -0.06535655
-0.14024356 -0.16206688 -0.07251642 -0.04518557 -0.3638983 -0.10643954 0.038425762 -0.060142476
-0.011853404 -0.08143354 0.011270143 0.16343184 0.17796758 0.23751415 0.08290042 0.09290724
0.2220638 0.3061912 0.1711286 0.124333374 0.44125116 0.4153451 0.15451618 0.1310561
0.32843843 0.29131028 0.10301917 0.20068383 0.3088506 0.26757678 0.26637617 0.28563493
0.027378306 0.21236289 0.10104675 0.05480507 -0.12984063 -0.033096336 0.12012859 0.12946661
0.44678435 0.25918353 0.014804815 0.07408836 0.7694426 0.6025853 0.08148755 0.13154621
0.5949206 0.50556624 0.110841304 0.16837789 -0.14620258 -0.07979215 0.11546619 0.26110667
0.050269715 0.04805987 0.110919096 0.045273103 0.027584078 0.060161505 -0.030862773 0.12590265
0.009095121 -0.011783845 -0.02633203 0.06310545 -0.096657045 -0.030932238 -0.14201587 -0.13510509
-0.052110743 -0.056835707 -0.12272937 -0.12005572 -0.045387194 0.12007868 -0.028593171 0.01294428
0.040613454 -0.006574163 -0.032608803 -0.008560545 0.046258446 0.0710731 -0.0058069536 0.014042509
-0.061001506 -0.1192497 0.09179378 -0.14705187 -0.07465438 -0.12317629 -0.09157146 -0.064110525
0.08033241 -0.13860373 0.072641596 -0.12731682 -0.035758145 0.098509826 -0.10347844 -0.14551276
0.11348858 -0.030896673 0.0080314735 0.14149871 -0.09038913 -0.0713193 0.1696129 0.16052315
0.17709008 0.031829953 0.024635185 -0.03174012 -0.17877388 -0.0074225785 0.04619789 0.052626293
0.19602193 0.16530266 0.045151696 0.0484649 0.41257754 0.30591866 0.20063081 0.12895238
0.27228153 0.08305165 -0.0114907 -0.034443192 -0.47790638 -0.13728142 0.10729343 0.05540847
0.24078897 0.23526706 -0.03865205 0.109355696 -0.3942184 -0.21519223 0.06867677 0.06476257
0.25651664 0.17786878 0.19843781 0.05517599 0.08275141 -0.026201157 0.1372269 -0.0037051043
0.12112091 0.07861299 0.036241174 0.10995199 -0.16606241 -0.111196525 0.12821989 -0.030173117
0.069454305 -0.17272183 0.11686473 -0.056085248 -0.14166488 -0.10487499 0.07614485 -0.008197501
-0.048518218 0.12896103 0.04595001 -0.04167274 0.12487876 -0.028054016 0.052367605 -0.022309687
-0.0893835 0.08303292 -0.004218226 0.032825775 -0.08476072 0.060358394 0.016907496 -0.098024674
-0.032225043 0.07331516 0.09998796 0.03698984 -0.04413741 -0.06008564 0.1426677 0.04978461
-0.2551976 -0.10038432 -0.024565855 0.1677557 0.77780473 0.43854305 -0.019496659 -0.037080742
-0.053899992 0.021811606 -0.018733546 0.03693225 -0.10187979 0.027513731 -0.057585414 -0.011671537
0.16961399 0.20113054 -0.022458043 0.051643286 -0.13531733 -0.007606988 -0.014941258 0.0037407822
00000000: 884c e83c 6e55 67bd e2bb 9d3d 5e44 713c
00000010: 91e6 013f d731 c83e 497f 6d3d c381 6b3d
00000020: a2cf d73e 87c0 363e 9b2e 8a3d 7eab 21bd
00000030: 22ca 143d 778b af3d 9ecd 193d 4496 5bbc
00000040: 2252 da3d 1411 8a3d 6d48 623c 6285 2f3d
00000050: 802c aebe 70b4 0ebe 14f8 c33d 848d 92ba
00000060: f560 aa3e 90be 853e 1d1b 33bb 67fc 293d
00000070: f13a 0a3e a966 2fbd d015 56bc f6ee 133a
00000080: 9847 8a3e a2d7 683e 70cb 283c 7b3d 923d
00000090: 6d33 e33d 4090 893d d3df 1d3e a8d9 85bd
000000a0: 029c 0fbe dcf4 25be 7d83 94bd 8114 39bd
000000b0: e150 babe f9fc d9bd 5564 1d3d f557 76bd
000000c0: c834 42bc a1c6 a6bd 68a6 383c ad5a 273e
000000d0: 223d 363e e936 733e b2c7 a93d 2746 be3d
000000e0: b164 633e 18c5 9c3e 563c 2f3e 7fa2 fe3d
000000f0: aceb e13e 1da8 d43e 7d39 1e3e 9233 063e
00000100: 1529 a83e 9f26 953e b7fb d23d 1080 4d3e
00000110: aa21 9e3e d3ff 883e 7562 883e be3e 923e
00000120: 7848 e03c a875 593e 99f1 ce3d 487b 603d
00000130: f1f4 04be 0690 07bd fa05 f63d e592 043e
00000140: ebc0 e43e b4b3 843e e58f 723c a3bb 973d
00000150: 31fa 443f 0843 1a3f f2e2 a63d 0db4 063e
00000160: b74c 183f ca6c 013f c400 e33d 416b 2c3e
00000170: 21b6 15be 116a a3bd 8a79 ec3d c6af 853e
00000180: 9ee7 4d3d 6dda 443d 8d29 e33d 4a70 393d
00000190: 01f8 e13c e96b 763d edd3 fcbc a0ec 003e
000001a0: b403 153c 0711 41bc 45b6 d7bc 6e3d 813d
000001b0: 21f4 c5bd 9b65 fdbc 9c6c 11be fd58 0abe
000001c0: 1372 55bd 8fcc 68bd 8959 fbbd c6df f5bd
000001d0: ece7 39bd d0eb f53d 3a3c eabc 3f14 543c
000001e0: 4b5a 263d 146c d7bb cf90 05bd 8741 0cbc
000001f0: 7f79 3d3d c68e 913d 4248 bebb 8d12 663c
00000200: b7dc 79bd 3039 f4bd 61fe bb3d c494 16be
00000210: 65e4 98bd da43 fcbd d189 bbbd 614c 83bd
00000220: 5285 a43d 23ee 0dbe 1ec5 943d 575f 02be
00000230: 2277 12bd 85bf c93d 81ec d3bd 4c01 15be
00000240: b36c e83d 051b fdbc 7196 033c 0ae5 103e
00000250: f01d b9bd da0f 92bd 01af 2d3e 2e60 243e
00000260: 1a57 353e 2060 023d bacf c93c ee01 02bd
00000270: 8010 37be 1a39 f3bb 003a 3d3d ab8e 573d
00000280: f9b9 483e 1a45 293e fcf0 383d 2283 463d
00000290: 5d3d d33e 5fa1 9c3e 2a72 4d3e 180c 043e
000002a0: 7c68 8b3e fc16 aa3d 7d43 3cbc 4e14 0dbd
000002b0: 25b0 f4be 8093 0cbe a8bc db3d fef3 623d
000002c0: 6291 763e d9e9 703e 9d51 1ebd e1f5 df3d
000002d0: fed6 c9be 5a5b 5cbe 68a6 8c3d 3da2 843d
000002e0: 2656 833e 3c23 363e 4833 4b3e 3800 623d
000002f0: 9279 a93d cfa3 d6bc 3585 0c3e 56d1 72bb
00000300: 3d0e f83d d9ff a03d a071 143d 822e e13d
00000310: 440c 2abe 01bb e3bd 134c 033e 9d2d f7bc
00000320: 0f3e 8e3d fedd 30be c756 ef3d a5b9 65bd
00000330: 9910 11be b3c8 d6bd d5f1 9b3d d04e 06bc
00000340: 0abb 46bd 5c0e 043e 1436 3c3d 09b1 2abd
00000350: 6fc0 ff3d 89d1 e5bc 6a7f 563d cec2 b6bc
00000360: b20e b7bd 2a0d aa3d 0b39 8abb 5274 063d
00000370: 0797 adbd 5d3a 773d 9781 8a3c 29c1 c8bd
00000380: 68fe 03bd 4226 963d 7dc6 cc3d a982 173d
00000390: 6ec9 34bd 5c1c 76bd 7b17 123e f2ea 4b3d
000003a0: 43a9 82be 4b96 cdbd 553e c9bc 26c8 2b3e
000003b0: 361e 473f b788 e03e 75b7 9fbc fae1 17bd
000003c0: 3dc6 5cbd 41ae b23c 1877 99bc 4546 173d
000003d0: 5aa6 d0bd 7a64 e13c afde 6bbd f939 3fbc
000003e0: 4aaf 2d3e 2af5 4d3e eef9 b7bc e987 533d
000003f0: a090 0abe 0a44 f9bb 2ecc 74bc e927 753b

linear1.bias f4 [24]
-0.088406704 0.21430103 -0.13704734 0.10364233 -0.07537886 -0.10700112 -0.0020583854 0.20669529
0.073732786 0.012625029 -0.10489526 -0.0820022 -0.10860876 0.025247 -0.13310422 0.12431848
0.21368735 0.25053227 0.30246818 0.12887636 -0.090790056 0.00787759 -0.07017558 -0.07909959
00000000: 930e b5bd bb71 5b3e 2356 0cbe 6e42 d43d
00000010: 3b60 9abd 6723 dbbd fae5 06bb eea7 533e
00000020: 3701 973d 36d9 4e3c 53d3 d6bd c5f0 a7bd
00000030: 456e debd ccd2 ce3c 794c 08be b09a fe3d
00000040: dbd0 5a3e c445 803e 1cdd 9a3e 2af8 033e
00000050: 23f0 b9bd 0211 013c 37b8 8fbd f7fe a1bd

linear2.weight f4 [12, 24]
0.20440839 0.036240287 -0.1331438 0.22614434 -0.19455846 -0.09739984 -0.24505821 -0.035322465
-0.00029904518 0.10798252 0.019101765 0.06327019 -0.39337263 0.2915696 -0.17809 -0.24010037
-0.148683 -0.008217009 0.43790156 0.13518257 0.2930205 -0.1910064 -0.16989861 0.19877522
0.13624606 0.08613106 0.13570583 -0.07378394 -0.09254966 -0.23003732 0.21112192 0.60175014
-0.1669065 0.117329344 -0.14760847 0.1970542 -0.0055218944 0.3593792 -0.06348001 0.20539846
0.7407566 0.44831043 0.5237624 -0.036289383 0.0113250995 -0.06503218 -0.13614966 -0.0018554392
-0.310432 0.07506969 0.028493088 -0.084498234 0.0162369 0.22790787 0.067224644 -0.32856482
-0.083142556 -0.0384552 0.20402038 0.076802015 0.17987439 0.07274161 0.19456412 -0.16788483
0.1391564 -0.21543036 -0.4143752 -0.2661289 0.077913545 0.056631275 0.30044606 -0.06914474
0.1600695 -0.049231116 0.14672752 0.24514051 0.3704581 0.42162672 0.34457785 0.28062958
-0.052396297 0.31953824 0.2819453 0.1908024 0.3192917 -0.2497781 -0.036578123 0.33178815
-0.27924392 0.064133026 0.28046906 0.012312473 0.13949169 -0.16716275 0.021522146 0.17186046
0.0011745492 -0.13757908 0.052437454 -0.04430844 0.1492713 -0.0595585 -0.09770033 -0.048235536
0.11012332 0.024691278 -0.032018688 0.107251555 -0.1085167 -0.14986612 -0.022004321 0.14512767
0.0022702082 -0.04112947 -0.2025868 -0.18204874 -0.054698177 -0.10406207 0.08610777 0.05828171
0.18928123 0.2278407 0.039024044 0.21259652 -0.2998647 0.1396141 -0.2748612 0.26253855
0.26056886 0.30433458 0.022075772 -0.16323334 -0.1869764 -0.019805105 0.18892702 -0.14904237
0.23146516 -0.082241826 0.08662302 0.3909428 -0.04716426 -0.0030988152 -0.23814923 -0.043978274
0.07194055 0.32607844 -0.07928397 0.3872146 -0.026379742 0.5243879 -0.19996956 0.05306091
0.4699912 0.23056619 -0.011258327 0.14495447 0.3141643 -0.18986186 0.040529087 0.18662687
-0.10026781 0.0644035 -0.24999301 0.38627848 0.22302349 -0.19370991 0.15224873 0.08354938
0.13743423 0.48084182 0.12687248 0.31501815 -0.02808303 0.3935407 -0.040472366 -0.517703
0.40041754 0.11984553 0.3111847 -0.12496882 -0.019821262 0.045823082 -0.03243092 -0.029331516
-0.1313712 -0.24266593 -0.5525803 0.045603786 0.00052158814 0.11563641 0.34215635 -0.023382803
0.24662389 -0.0051587275 0.04461369 0.086882025 -0.09111937 -0.011518046 0.18286966 -0.25735575
-0.2254004 0.21817984 0.255857 -0.10276418 -0.36426824 0.59099185 0.0006002796 -0.35736358
0.18514884 -0.31490654 -0.2531939 -0.0055486476 0.1333612 -0.08876035 0.3712938 -0.005771068
0.39267334 0.11758674 0.1436331 -0.25873247 0.03855294 -0.0804485 -0.033651866 0.100382596
0.0662525 -0.082016505 0.13856949 -0.1639214 0.21712299 0.059542026 0.021226004 0.2505932
0.13502055 0.3487111 -0.373899 0.0123533495 0.3446695 -0.034913383 0.0868361 0.03147703
0.53661776 0.23627658 -0.11517337 -0.18898292 -0.16871421 -0.1412704 0.39081627 -0.15545607
0.37457696 0.07919493 0.10688816 -0.10945739 0.09878998 -0.050376724 -0.07987056 0.19482267
00000000: 6f50 513e b270 143d d956 08be 6292 673e
00000010: 553a 47be 9179 c7bd 8af0 7abe 4aae 10bd
00000020: 2ac9 9cb9 f025 dd3d 4e7b 9c3c cd93 813d
00000030: 2368 c9be 9c48 953e 3a5d 36be dfdc 75be
00000040: 5b40 18be a2a0 06bc a234 e03e 4d6d 0a3e
00000050: c806 963e 2f97 43be e7f9 2dbe bb8b 4b3e
00000060: 1684 0b3e 7b65 b03d 78f6 0a3e 091c 97bd
00000070: ad8a bdbd e78e 6bbe 5830 583e 4c0c 1a3f
00000080: 8ae9 2abe 5e4a f03d ad26 17be 94c8 493e
00000090: 02f1 b4bb 8d00 b83e cf01 82bd f953 523e
000000a0: 39a2 3d3f f288 e53e 4b15 063f 2da4 14bd
000000b0: e98c 393c 972f 85bd d16a 0bbe 3532 f3ba
000000c0: f1f0 9ebe 23be 993d 566a e93c 690d adbd
000000d0: 3f03 853c ae60 693e 13ad 893d a639 a8be
000000e0: a546 aabd 3383 1dbd b8ea 503e 604a 9d3d
000000f0: fe30 383e 8ef9 943d d13b 473e 00ea 2bbe
00000100: 047f 0e3e c799 5cbe fc28 d4be 0c42 88be
00000110: 2391 9f3d 32f6 673d 11d4 993e c29b 8dbd
00000120: 42e9 233e 91a6 49bd bd3f 163e 1d06 7b3e
00000130: afac bd3e 75df d73e 826c b03e aeae 8f3e
00000140: 809d 56bd 849a a33e 225b 903e b461 433e
00000150: 347a a33e d5c5 7fbe f1d2 15bd 23e0 a93e
00000160: 0ff9 8ebe 2d58 833d a499 8f3e 41ba 493c
00000170: e9d6 0e3e b62c 2bbe 364f b03c 30fc 2f3e
00000180: 55f3 993a 88e1 0cbe a8c8 563d c47c 35bd
00000190: 93da 183e 9df3 73bd 1c17 c8bd a092 45bd
000001a0: 5688 e13d 5d45 ca3c 0726 03bd b4a6 db3d
000001b0: 013e debd 8176 19be 6842 b4bc 599c 143e
000001c0: c6c7 143b 6077 28bd ea72 4fbe fc6a 3abe
000001d0: 320b 60bd 7f1e d5bd 4559 b03d cdb8 6e3d
000001e0: f0d2 413e 134f 693e add7 1f3d e7b2 593e
000001f0: de87 99be 00f7 0e3e 9bba 8cbe 746b 863e
00000200: 4869 853e bed1 9b3e 40d8 b43c a426 27be
00000210: be76 3fbe 513e a2bc 1676 413e 909e 18be
00000220: 3405 6d3e 676e a8bd 6967 b13d a829 c83e
00000230: 502f 41bd 7e15 4bbb 64dd 73be 9022 34bd
00000240: 9155 933d c1f3 a63e a25f a2bd fe40 c63e
00000250: 541a d8bc 493e 063f d2c4 4cbe 6656 593d
00000260: b0a2 f03e 8b19 6c3e d974 38bc f26e 143e
00000270: 25da a03e 266b 42be d401 263d 1d1b 3f3e
00000280: 3659 cdbd fbe5 833d 2bfe 7fbe 4bc6 c53e
00000290: 4560 643e e45b 46be 17e7 1b3e f01b ab3d
000002a0: 8fbb 0c3e e630 f63e dcea 013e 0f4a a13e
000002b0: 620e e6bc 2b7e c93e 5ac6 25bd 2f88 04bf
000002c0: 8703 cd3e 9371 f53d 9a53 9f3e a7ef ffbd
000002d0: 3360 a2bc fcb0 3b3d 49d6 04bd a648 f0bc
000002e0: 2c86 06be 6b7d 78be e775 0dbf 09cb 3a3d
000002f0: 30bb 083a c8d2 ec3d 1e2f af3e 4b8d bfbc
00000300: f98a 7c3e 8b0a a9bb d8bc 363d 34ef b13d
00000310: cb9c babd 30b6 3cbc 2f42 3b3e 22c4 83be
00000320: 5dcf 66be 896a 5f3e b0ff 823e 0776 d2bd
00000330: 5e81 babe 3e4b 173f 155c 1d3a 5cf8 b6be
00000340: a897 3d3e 6e3b a1be a2a2 81be 6ed1 b5bb
00000350: d78f 083e fdc7 b5bd 391a be3e 3a1b bdbb
00000360: 7b0c c93e 51d1 f03d 8e14 133e 9578 84be
00000370: b0e9 1d3d 2fc2 a4bd 8ad6 09bd 6495 cd3d
00000380: 64af 873d 45f8 a7bd 29e5 0d3e 03db 27be
00000390: 7d55 5e3e 57e2 733d 28e2 ad3c c04d 803e
000003a0: d442 0a3e 438a b23e b16f bfbe b465 4a3c
000003b0: 8578 b03e 5601 0fbd 20d7 b13d 0fee 003d
000003c0: c85f 093f 7df2 713e 04e0 ebbd bd84 41be
000003d0: 6bc3 2cbe 30a9 10be 1219 c83e e02f 1fbe
000003e0: 8dc8 bf3e f430 a23d 2ee8 da3d 322b e0bd
000003f0: 6752 ca3d d357 4ebd 2d93 a3bd 987f 473e

linear2.bias f4 [12]
0.052290976 0.23387344 0.08704178 0.102947526 0.009024315 0.1370616 0.000318758 0.16454707
0.12773563 0.0676276 0.10281465 -0.083423994
00000000: 102f 563d 857c 6f3e f642 b23d 27d6 d23d
00000010: b8da 133c e059 0c3e f91e a739 077f 283e
00000020: 21cd 023e 5780 8a3d 7d90 d23d 33da aabd

linear3.weight f4 [1200, 12]
0.0949044 0.051906154 -0.16005152 -0.3561296 -0.033029895 0.37290388 -0.03970529 0.25065875
-0.35119018 -0.056556836 -0.24684478 -0.052516438 0.30096924 0.07999762 -0.16273539 -0.17786002
-0.24231441 0.15136364 -0.24838775 0.11546962 0.11203754 -0.29825294 0.3065315 -0.19094768
0.15756974 0.15066265 -0.23057453 0.03783117 0.0013059819 0.27972543 -0.089492 -0.258406
-0.046344135 0.16284356 -0.28238842 -0.16464655 -0.1906794 0.1428294 -0.13315772 0.27265897
-0.08417972 -0.06723311 0.21810257 -0.08602193 -0.24912776 -0.15097143 -0.2390078 0.32576945
-0.2475157 0.14371786 0.028782833 -0.18391596 -0.12846778 0.39148015 0.0014489531 -0.09933935
-0.31105375 0.2370086 -0.15637396 -0.12788124 0.18220466 -0.2033108 -0.21842097 0.35633004
0.12773104 0.13110219 0.2423292 0.42195782 -0.19019239 -0.11641026 0.10087128 -0.11944979
-0.0196445 0.087051444 -0.13416061 -0.12673913 -0.011870243 -0.19616278 -0.28596982 0.0069134017
0.28572395 -0.20758697 -0.23103493 0.23947875 0.31959745 -0.22260806 0.1827839 0.08918569
0.24589571 0.35585517 -0.0018251714 -0.074329704 0.32324642 0.032380547 -0.03901733 -0.105399825
0.058476496 0.14831403 -0.118774444 0.017478498 0.108129226 -0.052307624 -0.115551725 -0.18183963
-0.20464642 -0.15841445 0.2212997 -0.0134112295 -0.081113435 0.13485783 -0.25457647 -0.008974395
0.25519198 0.14033943 0.15843184 -0.21564533 -0.17613553 -0.0123493085 0.18807158 -0.2713048
-0.12090438 0.15315224 0.08237056 0.30739027 -0.089657955 0.27158415 -0.22189814 -0.04264447
-0.09211763 -0.12932278 -0.16063298 0.074827954 -0.19527999 0.27952942 -0.16643842 0.095364645
-0.033963498 0.10620548 -0.27003795 -0.28936937 -0.103990585 0.0065029566 0.0103920195 0.113470405
0.2786208 -0.35582185 0.10735206 0.34699017 -0.12801632 -0.31896454 0.035794985 0.13774988
-0.29491177 0.17016613 -0.010144917 0.1513035 -0.03715148 0.06432446 -0.17356089 -0.3818038
-0.18703605 0.23362398 -0.11885439 0.16592145 -0.05374264 0.036296755 -0.120379195 -0.2515091
-0.016203472 -0.34319746 -0.17943062 -0.19113505 -0.15071511 -0.12101748 0.1278811 0.055154745
-0.03771222 -0.00090330944 -0.15385655 -0.21852951 0.21780026 -0.49257135 0.22783569 0.3623085
0.018608352 0.123412594 -0.063609466 -0.09943131 -0.058699608 -0.040451787 -0.09027064 0.3704095
0.06672761 0.14217483 -0.037370853 -0.25561994 -0.08798108 -0.337644 0.23364183 -0.023280248
-0.1339413 0.1816768 0.11305495 0.07019531 -0.08480819 0.10420834 0.17103769 0.103538066
-0.032207385 -0.0045767655 0.06454468 -0.12212013 0.13683161 0.017485619 -0.35456982 -0.0011631324
0.038021352 -0.22662084 -0.103138044 0.25396708 -0.22230074 -0.12967208 0.09439206 0.16824548
0.17511997 -0.5614996 -0.109815486 -0.06445105 0.16892521 -0.5601771 0.26831523 0.032941986
-0.042558014 -0.24068072 0.30575886 -0.043130025 0.34938887 0.48087075 0.47228014 0.35223162
-0.23378913 0.27522558 0.19541676 -0.22775944 0.15961578 0.31677857 0.112654015 -0.17578787
-0.06911592 -0.039699025 -0.31631702 -0.08434378 -0.23049282 -0.03591121 -0.2546555 -0.2954836
00000000: 3d5d c23d 8c9b 543d 8ce4 23be 9e56 b6be
00000010: 5b4a 07bd 42ed be3e 04a2 22bd 5856 803e
00000020: 33cf b3be 24a8 67bd e1c4 7cbe 7a1b 57bd
00000030: a418 9a3e cbd5 a33d 1ba4 26be f020 36be
00000040: 4521 78be 12ff 1a3e 5c59 7ebe 567b ec3d
00000050: f073 e53d 9cb4 98be b2f1 9c3e ca87 43be
00000060: f659 213e 4f47 1a3e bb1b 6cbe dbf4 1a3d
00000070: 7b2d ab3a 2c38 8f3e 9547 b7bd cb4d 84be
00000080: 59d3 3dbd 76c0 263e 3795 90be 1b99 28be
00000090: 7641 43be df41 123e 7f5a 08be f599 8b3e
000000a0: 6b66 acbd 83b1 89bd 4856 5f3e 442c b0bd
000000b0: 591b 7fbe 4198 1abe 76be 74be 41cb a63e
000000c0: c174 7dbe c62a 133e fac9 eb3c 7754 3cbe
000000d0: 0f8d 03be 1670 c83e ccea bd3a 6e72 cbbd
000000e0: 7042 9fbe 62b2 723e 7f20 20be 4df3 02be
000000f0: dc93 3a3e b530 50be bfa9 5fbe e470 b63e
00000100: edcb 023e a73f 063e 2525 783e db0a d83e
00000110: cbc1 42be 8168 eebd 9a95 ce3d 17a2 f4bd
00000120: 81ed a0bc 0748 b23d 6661 09be e7c7 01be
00000130: 687b 42bc e5de 48be a36a 92be d189 e23b
00000140: 694a 923e ae91 54be 6c94 6cbe eb39 753e
00000150: 47a2 a33e 5ef3 63be b42b 3b3e fda6 b63d
00000160: 16cc 7b3e a632 b63e 973a efba 2c3a 98bd
00000170: 8e80 a53e 77a1 043d a3d0 1fbd dddb d7bd
00000180: 0d85 6f3d a2df 173e 0440 f3bd 112f 8f3c
00000190: db72 dd3d 8540 56bd 62a6 ecbd 2b34 3abe
000001a0: d58e 51be 6637 22be 639c 623e c6ba 5bbc
000001b0: cd1e a6bd 2c18 0a3e d957 82be 5709 13bc
000001c0: 86a8 823e 24b5 0f3e f53b 223e 21d2 5cbe
000001d0: df5c 34be c154 4abc d695 403e 76e8 8abe
000001e0: b79c f7bd f1d3 1c3e e5b1 a83d 4262 9d3e
000001f0: 979e b7bd 140d 8b3e 4439 63be f8ab 2ebd
00000200: 2ba8 bcbd 316d 04be f97c 24be 663f 993d
00000210: 7af7 47be 7b1e 8f3e d56e 2abe 8a4e c33d
00000220: 4f1d 0bbd 4282 d93d 6a42 8abe 3928 94be
00000230: 04f9 d4bd c116 d53b 4a43 2a3c 2c63 e83d
00000240: 63a7 8e3e 482e b6be 66db db3d b2a8 b13e
00000250: b616 03be 524f a3be c39d 123d 4e0e 0d3e
00000260: adfe 96be 0840 2e3e de36 26bc 4eef 1a3e
00000270: 262c 18bd 8bbc 833d f2b9 31be ca7b c3be
00000280: 6186 3fbe 203b 6f3e ee69 f3bd 50e7 293e
00000290: 3e21 5cbd e8ab 143d 5e89 f6bd cdc5 80be
000002a0: 25bd 84bc 94b7 afbe a9bc 37be e8b8 43be
000002b0: 1055 1abe 03d8 f7bd 43f3 023e f1e9 613d
000002c0: 2178 1abd 12cc 6cba 928c 1dbe 33c6 5fbe
000002d0: 0807 5f3e 5032 fcbe c24d 693e 8080 b93e
000002e0: 8b70 983c bebf fc3d ae45 82bd a5a2 cbbd
000002f0: 006f 70bd c6b0 25bd d0df b8bd 50a6 bd3e
00000300: 7ca8 883d 4796 113e 2e12 19bd 9ee0 82be
00000310: 6d2f b4bd addf acbe ce3f 6f3e 38b6 bebc
00000320: e827 09be 7c09 3a3e 5b89 e73d 8fc2 8f3d
00000330: ebaf adbd 2f6b d53d 8124 2f3e c40b d43d
00000340: e4eb 03bd b1f8 95bb 0030 843d 1e1a fabd
00000350: 961d 0c3e 003e 8f3c 2d8a b5be 3f74 98ba
00000360: 47bc 1b3d 4b0f 68be 0a3a d3bd f907 823e
00000370: cea2 63be c2c8 04be a050 c13d 8b48 2c3e
00000380: a652 333e 70be 0fbf f1e6 e0bd e9fe 83bd
00000390: bbfa 2c3e c467 0fbf 9d60 893e 2dee 063d
000003a0: 5051 2ebd 0275 76be 6d8c 9c3e 1ca9 30bd
000003b0: 19e3 b23e b134 f63e b4ce f13e b457 b43e
000003c0: 6b66 6fbe 5eea 8c3e 551b 483e c539 69be
000003d0: 5272 233e cd30 a23e 26b7 e63d bc01 34be
000003e0: a68c 8dbd 729b 22bd 4ef4 a1be 6fbc acbd
000003f0: 4f06 6cbe a217 13bd 3562 82be a049 97be

linear3.bias f4 [1200]
0.21273728 0.02678282 0.27741602 0.14371093 0.20346463 0.19084485 0.22270264 0.14045891
0.1938666 0.21086492 -0.014055411 0.1378158 0.18424214 0.17226118 -0.117305726 -0.3126832
-0.26284847 0.114805296 -0.15394337 -0.24555492 -0.13348345 -0.12499336 0.11488907 0.016455892
0.013760347 -0.33086857 -0.0147078745 0.08269463 0.32042047 0.19284652 0.34409314 0.064613655
0.19423915 0.17517972 0.2424647 -0.16748941 -0.07077589 -0.005319999 0.31533366 0.27666312
0.061883688 0.018752333 0.21511187 -0.09743104 -0.042257 0.28777045 -0.20391786 -0.2676653
0.26371375 -0.1683439 -0.19781305 0.2839934 -0.013752813 -0.18118453 0.30734658 0.10419963
-0.31763336 -0.35347995 0.094116166 -0.26536232 -0.018119503 0.21161549 0.09353963 0.22932
-0.29047328 0.1381202 0.118165486 0.106403075 0.21955897 0.4008902 -0.18823507 0.124716505
0.12701324 0.17463902 -0.02116837 -0.25213292 -0.060420733 -0.29180956 -0.31660378 0.0940632
0.07752702 -0.114699565 -0.16626485 -0.12670884 0.11574509 0.11719966 0.17977884 -0.07526702
0.03163367 -0.08507751 0.2333569 -0.19302623 -0.2593551 -0.11668755 -0.2703256 0.2474421
0.06194913 -0.05274959 0.22355819 0.31151322 -0.19940773 0.15990742 0.21607934 0.30013245
0.050998997 0.110344104 0.12079213 0.084381804 0.20262039 -0.2511397 0.01777494 0.25526237
0.16374506 0.17901002 -0.032036435 0.2505732 -0.29123372 0.29883403 -0.05416841 0.067813635
-0.32203022 -0.024551505 -0.085119575 0.30541468 -0.0054042866 0.09321271 0.2533794 -0.088391475
0.16240183 0.24758117 -0.082614906 0.0999686 -0.30253708 -0.36762315 -0.35657874 0.06381059
0.05917306 -0.20273374 -0.040092103 -0.03748192 0.123011366 -0.20408969 -0.006607839 -0.23699763
-0.32001224 0.11659865 0.20707656 -0.019921875 0.21972321 -0.13016886 -0.17310992 0.07802336
0.19284645 0.042106383 -0.057924904 -0.16526413 0.095053315 -0.09990561 0.06961289 0.06982951
-0.3390302 0.05460656 -0.22785884 -0.2850371 -0.2750531 -0.079629354 -0.016542763 -0.12144812
-0.1624616 0.46757007 -0.13444969 0.025228422 -0.21852773 0.17495121 0.42450818 -0.07921673
-0.23442496 0.018827712 -0.21651044 -0.118625976 0.27962434 -0.28953454 -0.19616838 -0.15012449
-0.3937787 -0.27096403 0.0101740835 0.26493022 0.05628645 -0.23790747 -0.23426357 -0.24354011
0.20297423 -0.0745998 0.2498359 -0.22791924 0.20282218 -0.2548377 0.28872558 0.16974403
-0.13069955 0.06936531 -0.030632578 0.08815373 -0.14882486 -0.225318 -0.4124771 -0.2558913
0.26361614 0.26214153 0.14860947 0.20710993 0.17836118 0.121632956 0.10864817 0.23643982
0.3184914 0.16271558 -0.046927415 0.06320156 -0.09343186 0.27782673 -0.092274494 0.00282536
0.3137017 0.088901244 -0.09064692 0.18857522 -0.17107582 0.30526865 0.09040375 -0.17060502
-0.07767944 -0.39566925 -0.13246375 0.019053513 0.23686215 0.16677175 0.30235153 -0.22733168
0.24574336 -0.3055386 -0.21752708 0.102976814 0.5614737 -0.21035016 -0.044941153 0.07164755
-0.13785309 -0.15576737 -0.08632482 0.3660439 0.3667028 -0.07959601 -0.1502293 0.19809633
00000000: cdd7 593e a567 db3c 7909 8e3e f528 133e
00000010: 0859 503e d56c 433e 290c 643e 76d4 0f3e
00000020: f784 463e f9ec 573e ab48 66bc 961f 0d3e
00000030: f9a9 3c3e 3c65 303e fc3d f0bd 0318 a0be
00000040: 1394 86be 0a1f eb3d 55a3 1dbe c072 7bbe
00000050: e3af 08be 85fc ffbd f64a eb3d 82ce 863c
00000060: 1473 613c 9b67 a9be 4cf9 70bc cd5b a93d
00000070: 270e a43e 8f79 453e fa2c b03e 2a54 843d
00000080: a1e6 463e 5062 333e ab48 783e 5882 2bbe
00000090: f3f2 90bd 6353 aebb 6a73 a13e caa6 8d3e
000000a0: c079 7d3d 7e9e 993c 4946 5c3e ed89 c7bd
000000b0: ad15 2dbd a656 933e d8cf 50be 6d0b 89be
000000c0: 7d05 873e 5862 2cbe 818f 4abe 9567 913e
000000d0: 7b53 61bc 7088 39be 885c 9d3e 9e66 d53d
000000e0: d7a0 a2be 53fb b4be fabf c03d 92dd 87be
000000f0: 5a6f 94bc bbb1 583e b591 bf3d ddd2 6a3e
00000100: eab8 94be 626f 0d3e bf00 f23d dbe9 d93d
00000110: 11d4 603e 7b41 cd3e b2c0 40be 5e6b ff3d
00000120: c20f 023e 92d4 323e 4a69 adbc 9117 81be
00000130: bb7b 77bd 1068 95be e419 a2be 35a4 c03d
00000140: 7cc6 9e3d 9be7 eabd 5541 2abe f6bf 01be
00000150: c30b ed3d 6006 f03d f217 383e 9825 9abd
00000160: 4f92 013d 1e3d aebd 1cf5 6e3e aba8 45be
00000170: 31ca 84be e2f9 eebd 1e68 8abe 7661 7d3e
00000180: 5fbe 7d3d f40f 58bd 70ec 643e a97e 9f3e
00000190: 8a31 4cbe c5be 233e e743 5d3e f6aa 993e
000001a0: 53e4 503d 17fc e13d dd61 f73d 5ed0 ac3d
000001b0: b87b 4f3e 6295 80be c09c 913c c0b1 823e
000001c0: c9ac 273e 674e 373e a338 03bd 214b 803e
000001d0: 961c 95be c600 993e b2df 5dbd e0e1 8a3d
000001e0: 25e1 a4be 3d20 c9bc 2c53 aebd 505f 9c3e
000001f0: 7116 b1bb 4ee6 be3d f2ba 813e 9706 b5bd
00000200: aa4c 263e eb85 7d3e 0132 a9bd 56bc cc3d
00000210: 24e6 9abe 1a39 bcbe 7d91 b6be 20af 823d
00000220: 735f 723d 6f99 4fbe 9e37 24bd a486 19bd
00000230: 62ed fb3d e3fc 50be 9286 d8bb 82af 72be
00000240: a5d8 a3be 46cb ee3d e10b 543e 3333 a3bc
00000250: 1fff 603e fc4a 05be ba43 31be b6ca 9f3d
00000260: 8a79 453e be77 2c3d aa42 6dbd 003b 29be
00000270: 50ab c23d 509b ccbd 3491 8e3d c602 8f3d
00000280: 5e95 adbe 21ab 5f3d d453 69be 62f0 91be
00000290: c3d3 8cbe b714 a3bd b084 87bc cbb9 f8bd
000002a0: 555c 26be 5865 ef3e 2ead 09be d6ab ce3c
000002b0: bcc5 5fbe 6926 333e 2359 d93e 623c a2bd
000002c0: 190d 70be 933c 9a3c eab4 5dbe 2df2 f2bd
000002d0: ec2a 8f3e df3d 94be 5de0 48be 3cba 19be
000002e0: 5d9d c9be ccbb 8abe 33b1 263c efa4 873e
000002f0: 9f8c 663d 049e 73be cae2 6fbe 9462 79be
00000300: 7ad8 4f3e c8c7 98bd fbd4 7f3e a963 69be
00000310: 9eb0 4f3e 167a 82be d7d3 933e 61d1 2d3e
00000320: 1ad6 05be 660f 8e3d 2cf1 fabc f189 b43d
00000330: 8b65 18be c3b9 66be 3330 d3be 2f04 83be
00000340: b2f8 863e 6a37 863e 152d 183e a014 543e
00000350: 50a4 363e b31a f93d ef82 de3d 481d 723e
00000360: 4e11 a33e ea9e 263e f636 40bd d26f 813d
00000370: 3459 bfbd 4e3f 8e3e 69fa bcbd ad29 393b
00000380: 829d a03e db11 b63d 18a5 b9bd dd19 413e
00000390: 802e 2fbe 2c4c 9c3e 9a25 b93d 15b3 2ebe
000003a0: 6616 9fbd 2995 cabe 94a4 07be 1d16 9c3c
000003b0: fe8b 723e 37c6 2a3e d2cd 9a3e a3c9 68be
000003c0: 26a4 7b3e 8e6f 9cbe 6bbf 5ebe 82e5 d23d
000003d0: bebc 0f3f 0866 57be 3714 38bd f3bb 923d
000003e0: 5c29 0dbe 7b81 1fbe 11cb b0bd 1b6a bb3e
000003f0: 78c0 bb3e 3c03 a3bd b6d5 19be c4d9 4a3e

linear1.weight f4 [12, 1200]
0.09036465 0.08939336 -0.067320935 -0.16066435 -0.057281338 0.018988831 0.22481185 0.100551374
-0.10772311 -0.008925175 -0.080075584 -0.036075555 -0.10349806 0.07321036 0.046874482 -0.093269035
0.11280474 0.013650605 0.030420717 0.16957499 0.084226675 0.055873837 -0.116307184 0.06707474
-0.17574377 -0.007154841 0.292123 -0.018545335 0.082919344 -0.039645184 0.016219063 0.11490244
0.13406147 0.012486278 0.028948894 -0.0021914244 0.20516944 0.12255507 0.007190083 -0.09323078
0.14045916 -0.028467653 0.07643817 -0.41742375 0.26735663 0.09717234 -0.25710064 0.028881352
-0.14190431 0.20773555 0.07143728 0.21748698 0.25313392 0.13109007 -0.03690553 0.25732774
0.17171727 -0.033776276 -0.004321677 0.019471195 -0.0163553 0.22803362 0.01231087 -0.0305253
-0.039311785 0.083398245 0.02062825 -0.105684444 0.023984173 -0.18863636 0.11996167 0.12602371
-0.026853533 -0.07134815 0.1295833 -0.027614482 -0.43426743 0.022464959 0.0678249 0.25364676
-0.043796185 0.051016204 0.020565426 0.022405677 -0.042479876 -0.04351534 0.20115577 -0.0779665
0.048482247 0.11513852 0.035771515 0.1485628 -0.013502696 0.1322217 0.08830805 -0.13096601
0.011617319 -0.0035292767 0.03159665 0.0038460123 0.085122466 0.1274428 0.011815727 0.11449785
-0.22306645 0.027793325 -0.007960781 -0.018591002 -0.29715005 -0.0015881117 -0.04301657 -0.011145334
0.14151677 -0.26334432 0.17112558 0.025890935 0.15535307 0.008417734 0.024386134 0.3990006
0.016315043 0.06953744 0.025004134 0.067816935 -0.009614605 0.01688314 0.007447011 0.04620129
-0.028796256 0.07081565 0.3849877 -0.21682069 -0.06281158 0.07158938 -0.0030499585 -0.04119425
0.08842044 -0.22675645 0.14079499 0.1525579 0.038845576 0.0447823 0.01984042 0.23006053
-0.06751609 -0.27722925 0.1905872 -0.10695263 -0.40427855 -0.0057660793 -0.09141479 0.19303575
-0.041675095 -0.07080678 0.18073262 0.1491144 0.10502361 0.03739688 -0.10499035 0.20757054
-0.033832278 0.2183107 -0.060522936 -0.00638571 0.0032714643 -0.10193332 -0.08810328 0.06742303
0.049767546 -0.13210015 -0.14293459 -0.45830038 -0.37423247 -1.063941 -0.10749649 -0.002561528
-0.026551897 -0.032677848 0.007812638 0.012756963 -0.0069741746 0.007291792 0.0041373 0.18908384
0.09744552 0.19625059 0.09986969 -0.7185127 0.15536796 0.006361142 0.017538749 -0.023247771
0.05710679 0.20718001 -0.007523329 0.0061559216 0.18011214 0.2368845 -0.0649821 0.060867514
-0.032341063 -0.10794442 0.11093413 0.15115292 -0.018182592 0.055076472 0.08263866 -0.005242333
0.09685619 0.21183734 -0.062338013 0.23470524 0.011932024 -0.040353917 -0.24852602 0.062203754
0.037050992 -0.030166693 -0.24555416 0.025397172 0.061951254 0.112681195 0.16919678 -0.20271601
-0.013738537 0.1477774 0.21051578 0.08482516 -0.16151996 0.06138865 0.08849771 0.09685975
0.015376064 0.0063225934 -0.7209864 0.09976791 -0.18936728 0.21932064 0.016413853 -0.038101036
-0.024475891 0.134421 0.109609656 0.20391332 0.02948166 -0.007230915 0.1809084 0.06034525
-0.013478176 0.022139141 0.058484126 -0.13179623 -0.15396342 -0.017983258 -0.004003253 0.09802156
00000000: 1a11 b93d de13 b73d 8fdf 89bd 3285 24be
00000010: d69f 6abd 778e 9b3c 1435 663e e1ed cd3d
00000020: ef9d dcbd e63a 12bc abfe a3bd f6c3 13bd
00000030: caf6 d3bd 50ef 953d 75ff 3f3d d603 bfbd
00000040: 2c06 e73d caa6 5f3c de34 f93c 11a5 2d3e
00000050: 097f ac3d f7db 643d 7632 eebd 7b5e 893d
00000060: 2df6 33be 2873 eabb 2591 953e 63ec 97bc
00000070: 9ed1 a93d fd62 22bd d7dd 843c f851 eb3d
00000080: 6947 093e 3f93 4c3c 3b26 ed3c 009e 0fbb
00000090: f017 523e 27fe fa3d ca9a eb3b c7ef bebd
000000a0: 87d4 0f3e ff34 e9bc 9e8b 9c3d 91b8 d5be
000000b0: f8e2 883e 4b02 c73d b2a2 83be 9698 ec3c
000000c0: 5d4f 11be a1b8 543e b54d 923d e8b4 5e3e
000000d0: c59a 813e 7a3c 063e 412a 17bd 76c0 833e
000000e0: a7d6 2f3e fe58 0abd db9c 8dbb 0e82 9f3c
000000f0: 8dfb 85bc a581 693e 88b3 493c 3210 fabc
00000100: 6505 21bd b3cc aa3d 93fc a83c 1671 d8bd
00000110: 757a c43c e429 41be 77ae f53d 5c0c 013e
00000120: f1fb dbbc fb1e 92bd 7cb1 043e c437 e2bc
00000130: 4d58 debe 6f08 b83c c8e7 8a3d fddd 813e
00000140: a163 33bd 5ef6 503d d378 a83c 1c8c b73c
00000150: 61ff 2dbd 243d 32bd c7fb 4d3e e6ac 9fbd
00000160: 5295 463d bfcd eb3d 2785 123d d920 183e
00000170: 693a 5dbc 2065 073e dada b43d f41b 06be
00000180: 9156 3e3c 704b 67bb 7d6b 013d 610d 7c3b
00000190: b054 ae3d 5e80 023e c096 413c d97d ea3d
000001a0: 886b 64be d4ae e33c f06d 02bc 284c 98bc
000001b0: 0d24 98be 3028 d0ba 2532 30bd eb9a 36bc
000001c0: c6e9 103e 11d5 86be 8b3b 2f3e 3a19 d43c
000001d0: e014 1f3e 89ea 093c 6ec5 c73c cf49 cc3e
000001e0: 20a7 853c a569 8e3d 78d5 cc3c 9be3 8a3d
000001f0: 9486 1dbc 834e 8a3c 0e06 f43b 903d 3d3d
00000200: 20e6 ebbc cc07 913d 1c1d c53e 3e06 5ebe
00000210: 5ca3 80bd 749d 923d d0e1 47bb 4dbb 28bd
00000220: c715 b53d d832 68be 902c 103e 2338 1c3e
00000230: 8a1c 1f3d a56d 373d 6088 a23c fd94 6b3e
00000240: e045 8abd fef0 8dbe 4a29 433e fb09 dbbd
00000250: 99fd cebe 61f1 bcbb ad37 bbbd 2aab 453e
00000260: 81b3 2abd 2503 91bd f911 393e 72b1 183e
00000270: 9e16 d73d 792d 193d 2e05 d7bd 5f8d 543e
00000280: b793 0abd d78c 5f3e e6e6 77bd 383f d1bb
00000290: 1066 563b 6bc2 d0bd 7e6f b4bd 1615 8a3d
000002a0: 0ed9 4b3d 4345 07be 725d 12be 59a6 eabe
000002b0: 669b bfbe 382f 88bf 1f27 dcbd 4fdf 27bb
000002c0: 5d83 d9bc 35d9 05bd 9400 003c 9502 513c
000002d0: 9e87 e4bb fcef ee3b 3092 873b 329f 413e
000002e0: 8491 c73d eaf5 483e 7b88 cc3d 73f0 37bf
000002f0: c718 1f3e 2071 d03b 6cad 8f3c 1c72 bebc
00000300: cfe8 693d ff26 543e 4286 f6bb 9db7 c93b
00000310: 516f 383e da91 723e 5615 85bd 3750 793d
00000320: 1078 04bd f711 ddbd 6f31 e33d d5c7 1a3e
00000330: a9f3 94bc de97 613d 753e a93d e0c7 abbb
00000340: 8a5c c63d e3eb 583e 2556 7fbd 9256 703e
00000350: 897e 433c 264a 25bd 9b7d 7ebe 5dc9 7e3d
00000360: c8c2 173d 2420 f7bc 8d72 7bbe bb0d d03c
00000370: 99c0 7d3d 66c5 e63d ec41 2d3e c994 4fbe
00000380: 9a17 61bc f552 173e 7391 573e d0b8 ad3d
00000390: 7d65 25be aa72 7b3d 4a3e b53d 685e c63d
000003a0: e3eb 7b3c c22d cf3b 9192 38bf 1e53 cc3d
000003b0: 7fe9 41be 9795 603e 5876 863c d50f 1cbd
000003c0: aa81 c8bc a9a5 093e 077b e03d a7ce 503e
000003d0: 8683 f13c 50f1 ecbb 0d40 393e 952c 773d
000003e0: 91d3 5cbc 255d b53c 0d8d 6f3d 97f5 06be
000003f0: 96a8 1dbe a051 93bc b82d 83bb 87bf c83d

linear1.bias f4 [12]
0.10986482 -0.00768652 0.002563741 -0.011891027 -0.4531124 -0.05053052 -0.0107549485 0.015853096
-0.023486273 -0.43072936 0.018920086 -0.1539344
00000000: cf00 e13d 34df fbbb 7004 283b 95d2 42bc
00000010: 59fe e7be 17f9 4ebd 8635 30bc 5ade 813c
00000020: 4966 c0bc 8f88 dcbe 4cfe 9a3c fba0 1dbe

linear2.weight f4 [24, 12]
-0.033620954 0.15137714 -0.05666226 -0.041851833 -0.13870628 -0.20325306 0.0016857982 0.044955827
-0.08563257 -0.31087828 -0.018515706 -0.100789085 0.08830223 -0.03786999 0.22409338 0.1841284
0.0018666728 -0.004751797 0.013340563 0.012065349 0.11300093 0.015778426 -0.09379083 0.011540416
-0.07043887 -0.092759505 0.14167315 0.10971751 0.1590718 -0.012137145 -0.15148196 -0.08707837
-0.17326698 0.022854906 0.2676826 -0.008753626 0.026161717 -0.19183618 0.2582413 -0.20862874
-0.00042089663 0.1704899 0.17859244 0.008968577 0.05308965 0.012293694 0.012937397 -0.7077079
-0.007315376 -0.24024877 -0.009078532 0.12140642 -0.06767908 -0.13088633 0.20560041 -0.168323
0.21996906 0.18516426 0.23584175 0.013536442 0.02334928 0.019798279 0.036062777 -0.033028334
-0.01729442 0.07381675 0.102957636 -0.11913804 -0.007978326 0.1996323 0.19360542 0.047273576
0.01873703 -0.20619811 0.13413951 -0.111182526 -0.042685837 0.037862234 0.11401191 -0.13071972
0.009101024 -0.19268522 -0.049980193 0.08670958 0.09870633 0.28204015 -0.18334419 -0.28564316
-0.049298633 -0.06893109 0.066216715 0.06920265 0.08092123 -0.05156996 -0.17306174 -0.0006121985
-0.020654999 0.20823312 0.086901516 -0.10827459 -0.04480683 0.057807107 -0.26887682 0.055673357
-0.11224077 0.060539573 0.11637297 0.006788129 0.082119 0.10664864 -0.14422813 -0.0068630558
-0.08692939 -0.04834337 -0.21725336 0.05806691 0.063034944 -0.12538174 0.28829974 -0.0114341965
-0.060798667 0.2649364 -0.28247815 -0.12707628 -0.12840514 -0.08731898 0.021434277 -0.07093883
-0.09818256 -0.07340377 0.07256346 0.19964756 -0.027277226 0.21010092 0.20501375 -0.013410383
0.037330434 -0.21058862 -0.17326531 0.14502163 -0.018752893 -0.26452985 -0.25440583 -0.06049803
-0.20034246 0.024483413 0.033790886 -0.18291104 0.0028760745 0.19333422 -0.18451239 -0.04109046
0.23380528 -0.06739481 -0.16515982 -0.013822999 -0.011441423 -0.001088053 -0.13725084 0.07238877
-0.06711571 -0.020051343 0.13630602 0.0732557 0.15085989 0.12553307 0.22514194 0.022442166
-0.007260974 0.19792768 -0.12670897 -0.0805737 0.010753767 -0.035061896 0.12424639 -0.012467951
0.10921418 -0.054951273 0.060247824 -0.010051995 0.02118757 0.122609526 -0.25679174 -0.14611718
-0.19665687 0.23963532 -0.13820353 -0.116978355 0.05551591 0.22118908 0.17289172 -0.08474686
0.12773661 -0.051861126 -0.25651354 -0.1271202 0.037525434 -0.19337158 0.20996298 -0.030778443
-0.100428894 -0.06808921 0.23554572 -0.006634074 -0.17902365 -0.1844246 -0.06736036 0.28680784
-0.02669186 0.08695361 0.25458106 -0.04049666 -0.21136941 -0.14718856 0.14636211 -0.21639629
0.010428527 0.024856687 0.10202989 0.2660886 -0.19666791 -0.18296148 -0.19055066 0.015822789
0.2129957 0.17938069 0.24000412 0.036947384 -0.0009770115 0.21888906 -0.08107859 -0.015603474
0.031984262 0.10683423 -0.06814751 -0.045281164 0.23596966 -0.036822382 -0.27637643 -0.011825173
-0.0626105 0.11659677 0.025652826 -0.04097628 -0.017517144 -0.08836095 0.24762394 -0.19135587
-0.22316974 -0.23318112 -0.24716212 -0.029970968 0.054198656 0.28028297 0.20138249 -0.024116911
00000000: 20b6 09bd 9c02 1b3e b016 68bd d46c 2bbd
00000010: 0509 0ebe 9221 50be 00f6 dc3a 9a23 383d
00000020: 2160 afbd 702b 9fbe 40ae 97bc 826a cebd
00000030: cdd7 b43d 901d 1bbd bc78 653e 288c 3c3e
00000040: 25ab f43a f6b4 9bbb 6092 5a3c bead 453c
00000050: 086d e73d c241 813c 6815 c0bd 0314 3d3c
00000060: 4142 90bd b2f8 bdbd c412 113e 93b3 e03d
00000070: b8e3 223e e0da 46bc 161e 1bbe 2556 b2bd
00000080: e66c 31be 363a bb3c b20d 893e 5e6b 0fbc
00000090: 1951 d63c b470 44be 3438 843e c6a2 55be
000000a0: caab dcb9 e894 2e3e f0e0 363e f0f0 123c
000000b0: 8874 593d 7d6b 493c 60f7 533c 582c 35bf
000000c0: d2b5 efbb c603 76be 20be 14bc eea3 f83d
000000d0: 549b 8abd 1107 06be ea88 523e dd5c 2cbe
000000e0: 923f 613e b39b 3d3e 8080 713e f4c7 5d3c
000000f0: fd46 bf3c 0030 a23c 90b6 133d b848 07bd
00000100: 07ad 8dbc 3c2d 973d 74db d23d a5fe f3bd
00000110: 86b7 02bc 696c 4c3e 8040 463e f0a1 413d
00000120: 667e 993c 9925 53be de5b 093e aab3 e3bd
00000130: 58d7 2ebd 6e15 1b3d 147f e93d 64db 05be
00000140: 761c 153c 464f 45be 08b8 4cbd cb94 b13d
00000150: 8b26 ca3d 9167 903e 94be 3bbe d23f 92be
00000160: 5ded 49bd be2b 8dbd a19c 873d 1eba 8d3d
00000170: 08ba a53d 063b 53bd 1937 31be f27b 20ba
00000180: ac34 a9bc 103b 553e 6cf9 b13d 11bf ddbd
00000190: 5e87 37bd 25c7 6c3d 39aa 89be bf09 643d
000001a0: 7dde e5bd 58f8 773d f454 ee3d f46e de3b
000001b0: 022e a83d 9a6a da3d 8ab0 13be 7ce3 e0bb
000001c0: 0908 b2bd b303 46bd aa77 5ebe 91d7 6d3d
000001d0: 7718 813d 1264 00be 069c 933e 7f56 3bbc
000001e0: 0608 79bd bea5 873e faa0 90be 4920 02be
000001f0: a37c 03be 4bd4 b2bd f096 af3c 6148 91bd
00000200: f013 c9bd b754 96bd 279c 943d 6970 4c3e
00000210: 7d74 dfbc b224 573e 20ef 513e 39b7 5bbc
00000220: cce7 183d 8ba4 57be 766c 31be 8d80 143e
00000230: ab9f 99bc 7570 87be 7b41 82be c8cc 77bd
00000240: 9326 4dbe 7091 c83c 5068 0a3d 084d 3bbe
00000250: 867c 3c3b 68f9 453e d1f0 3cbe 784e 28bd
00000260: a76a 6f3e 4a06 8abd a81f 29be dc79 62bc
00000270: ce74 3bbc 009d 8eba 7c8b 0cbe 9040 943d
00000280: f673 89bd b742 a4bc ce93 0b3e 1607 963d
00000290: 047b 1a3e be8b 003e 9c8b 663e a2d8 b73c
000002a0: 77ed edbb 8ead 4a3e ffbf 01be d303 a5bd
000002b0: 9130 303c 109d 0fbd e474 fe3d 6046 4cbc
000002c0: afab df3d 9614 61bd 6cc6 763d 1fb1 24bc
000002d0: 8e91 ad3c b41a fb3d 357a 83be be9f 15be
000002e0: 6b60 49be f662 753e 3a85 0dbe 5992 efbd
000002f0: a764 633d 647f 623e 870a 313e c38f adbd
00000300: 63cd 023e 556c 54bd be55 83be cc2b 02be
00000310: 45b4 193d 3303 46be 8900 573e 1323 fcbc
00000320: aaad cdbd 5b72 8bbd e632 713e a562 d9bb
00000330: fa51 37be cdd9 3cbe 3af4 89bd 7ad8 923e
00000340: e3a8 dabc bc14 b23d 7358 823e d3df 25bd
00000350: 3971 58be 99b8 16be f3df 153e fd96 5dbe
00000360: 6adc 2a3c 40a0 cb3c 0cf5 d03d c43c 883e
00000370: 5063 49be 415a 3bbe b61f 43be cb9e 813c
00000380: 8b1b 5a3e 92af 373e a4c3 753e 2456 173d
00000390: 110f 80ba 7424 603e 880c a6bd b7a5 7fbc
000003a0: ee01 033d e8cb da3d ec90 8bbd be78 39bd
000003b0: 08a2 713e 11d3 16bd 3681 8dbe 5fbe 41bc
000003c0: ef39 80bd 4aca ee3d e025 d23c bed6 27bd
000003d0: 1d80 8fbc 96f6 b4bd 2191 7d3e cbf2 43be
000003e0: 9c86 64be 08c7 6ebe 1118 7dbe ad85 f5bc
000003f0: 69ff 5d3d 4081 8f3e 3637 4e3e d490 c5bc

linear2.bias f4 [24]
-0.31440422 -0.8780379 0.24848579 0.47408468 -0.04270393 -0.6244502 -0.18489547 0.15259431
1.21763 0.53175396 0.7863304 0.47830036 -0.121891156 0.042435694 1.2443587 0.16431801
0.9779689 0.04530705 -0.15774272 -0.08016298 0.1440793 -0.536216 0.8058824 -1.2445403
00000000: 97f9 a0be 18c7 60bf 0f73 7e3e 3abb f23e
00000010: 51ea 2ebd f8db 1fbf 3d55 3dbe af41 1c3e
00000020: 4ddb 9b3f 0721 083f f34c 493f c9e3 f43e
00000030: 12a2 f9bd 0dd1 2d3d 2547 9f3f fb42 283e
00000040: 2b5c 7a3f e393 393d 4f87 21be 7d2c a4bd
00000050: 8689 133e 7445 09bf 4f4e 4e3f 194d 9fbf

linear3.weight f4 [48, 24]
0.0992158 0.10324785 -0.048999906 -0.06732722 0.0027861393 0.017766695 -0.014134758 -0.03209986
0.09218112 0.099466726 0.027680121 -0.03821281 -0.15729158 0.017739695 -0.044251822 0.062630735
-0.058437306 -0.09247987 0.1335844 0.13295986 0.06741785 0.0015659896 0.0104776565 -0.00451255
0.010841053 -0.1298381 -0.07437544 -0.03734505 0.014624002 0.063285604 0.0191687 0.06858133
0.03069754 0.03438195 -0.01490725 -0.06907208 0.12826428 -0.03073097 -0.05617005 0.022996139
-0.010296084 0.01615983 0.11010916 0.063528314 0.12546377 0.024422454 -0.033974405 0.035089463
-0.11399404 -0.0036431244 0.003911472 0.00615429 0.00070755323 0.0027699023 -0.0011585577 0.0021687157
0.029703103 -0.004268718 -7.762191e-05 -0.0027065286 -0.025082476 -0.0010632953 0.02411724 0.005807081
0.004911095 0.13703868 0.004199817 -0.0075728255 0.18312414 -0.0026257099 -0.0066020912 -0.0014738927
-0.13014664 -0.027609779 -0.00010389296 0.007571093 -0.0051567466 0.021764634 -0.0007430031 0.0076642167
0.027660675 -0.005746283 -0.00254671 -0.013051964 -0.095568195 0.012484392 0.09041377 0.006354691
0.010413691 -0.034368668 -0.0061083366 -0.03413334 0.19454168 0.007024881 0.0037074 0.008561216
-0.08088477 0.07893222 0.020711128 0.096073 0.06549089 0.21546337 -0.013981058 -0.005429218
-0.37939283 -0.23418352 -0.28770778 -0.1481614 0.09405834 0.15879205 -0.4665995 -0.1504413
-0.29353 0.06736161 0.0021196273 0.028801998 -0.006460758 0.23602821 -0.21451755 0.32899484
0.09102602 -0.009801682 -0.03541196 0.04407752 0.009821135 0.15536188 0.0069954623 -0.006243585
-0.23473613 -0.081942126 -0.18098965 -0.11260849 0.2092966 0.07383779 -0.20298621 -0.11827868
-0.15396303 -0.0069240658 0.027824707 -0.08078859 -0.09264489 0.15960771 -0.076299205 0.22408436
0.14932428 -0.052610368 0.009766898 0.010120173 -5.5654007e-05 0.015263142 0.01732977 0.009168081
0.070456035 -0.013889017 -0.0070482558 -0.010269655 -0.08557733 -0.018971976 -0.0018867092 -0.0060130325
0.03076859 0.018717969 0.0066671036 -0.00065307075 -0.10782009 0.0062677646 -0.0015414087 0.00888613
0.06305818 -0.054446973 -0.0017096238 0.015632585 -0.0027558608 0.02986214 -0.016702302 0.016523432
0.02409007 -0.025918186 -0.012104246 -0.016423512 -0.0101325 0.010942803 0.07741486 -0.010421836
0.018648643 0.113594785 -0.0015435877 -0.030428773 0.08397639 0.012184687 -0.005199136 0.018495558
0.104552336 0.49639168 -0.06180875 -0.2511194 0.03331684 0.28091696 -0.033263084 -0.07044507
-0.4134589 0.11252949 -0.18437678 -0.23281991 0.0559712 0.10969336 -0.50006175 -0.15565541
-0.40966448 0.007993313 0.112888 -0.01321721 -0.26193896 0.2801927 -0.18139052 0.44524777
0.101056084 0.25686455 0.042370383 -0.10672563 0.013143702 0.105936565 -0.008156153 -0.0033608854
-0.20589726 0.025110034 -0.074828155 -0.08441197 0.27502206 0.10258259 -0.36523136 -0.06655099
-0.18669881 0.10584291 0.044349454 -0.14268444 -0.26737195 0.12116911 -0.07072243 0.19498318
0.1545079 -0.011916684 0.004689747 -0.00082752557 -0.0031705373 0.024791218 -0.0048486446 0.0021776238
0.06197747 -0.004724458 -0.0014953222 -0.013969203 0.0736948 0.0010048734 0.099638455 -0.002410677
00000000: a731 cb3d 9c73 d33d 20b4 48bd dbe2 89bd
00000010: a997 363b 768b 913c 7995 67bc 257b 03bd
00000020: 74c9 bc3d 36b5 cb3d 6cc1 e23c 0985 1cbd
00000030: 0b11 21be d652 913c 6641 35bd 8b44 803d
00000040: f55b 6fbd 1666 bdbd 59ca 083e a126 083e
00000050: 5f12 8a3d e441 cd3a 7aaa 2b3c 03de 93bb
00000060: ac9e 313c 47f4 04be 2752 98bd 20f7 18bd
00000070: 8399 6f3c e29b 813d ad07 9d3c 5e74 8c3d
00000080: 6879 fb3c 16d4 0c3d 8a3d 74bc aa75 8dbd
00000090: b657 033e 84bf fbbc 9112 66bd 6662 bc3c
000000a0: e8b0 28bc 9f61 843c e980 e13d 221b 823d
000000b0: 9379 003e 9911 c83c bf28 0bbd f8b9 0f3d
000000c0: b575 e9bd 7cc1 6ebb ce2b 803b eda9 c93b
000000d0: 187b 393a 4087 353b bfda 97ba 0321 0e3b
000000e0: ec53 f33c 9ae0 8bbb f2c8 a2b8 0460 31bb
000000f0: c479 cdbc 455e 8bba 8591 c53c 5349 be3b
00000100: 40ed a03b de53 0c3e 9e9e 893b 7725 f8bb
00000110: e584 3b3e 1a14 2cbb 5b56 d8bb a22f c1ba
00000120: 2945 05be e72d e2bc 1ce1 d9b8 ee16 f83b
00000130: edf9 a8bb bf4b b23c 18c6 42ba 1c24 fb3b
00000140: a498 e23c 514b bcbb b4e6 26bb e8d7 55bc
00000150: 42b9 c3bd 568b 4c3c db2a b93d 033b d03b
00000160: 309e 2a3c 29c6 0cbd 7128 c8bb 67cf 0bbd
00000170: ef35 473e f930 e63b daf7 723b 5844 0c3c
00000180: eaa6 a5bd 37a7 a13d 62aa a93c ecc1 c43d
00000190: 1620 863d 6ea2 5c3e cf10 65bc 95e7 b1bb
000001a0: c73f c2be cecd 6fbe 6f4e 93be 9fb7 17be
000001b0: a9a1 c03d 629a 223e 21e6 eebe 490d 1abe
000001c0: 9049 96be e2f4 893d 72e9 0a3b 2bf2 eb3c
000001d0: c4b4 d3bb 61b1 713e 7daa 5bbe 0372 a83e
000001e0: da6b ba3d 3c97 20bc 220c 11bd a18a 343d
000001f0: d3e8 203c 2f17 1f3e 313a e53b fd96 ccbb
00000200: ab5e 70be 46d1 a7bd 5a55 39be 489f e6bd
00000210: d951 563e 4438 973d 9edb 4fbe 183c f2bd
00000220: 7ca8 1dbe 46e3 e2bb a4f0 e33c 7d74 a5bd
00000230: 9bbc bdbd 3470 233e c242 9cbd 5f76 653e
00000240: 77e8 183e f87d 57bd 5705 203c 15cf 253c
00000250: 096e 69b8 4212 7a3c 29f7 8d3c b835 163c
00000260: 414b 903d c28e 63bc 0ef5 e6bb 0e42 28bc
00000270: 2b43 afbd 1e6b 9bbc 754b f7ba f908 c5bb
00000280: 690e fc3c 6d56 993c b877 da3b d632 2bba
00000290: c8d0 dcbd d261 cd3b 1809 caba 2197 113c
000002a0: a624 813d ca03 5fbd 7515 e0ba e80f 803c
000002b0: ac9b 34bb 72a1 f43c 44d3 88bc 265c 873c
000002c0: 8a58 c53c 6052 d4bc e350 46bc 9a8a 86bc
000002d0: c902 26bc 7149 333c af8b 9e3d 59c0 2abc
000002e0: 0ac5 983c 62a4 e83d 3552 caba c345 f9bc
000002f0: d0fb ab3d 48a2 473c 845d aabb ff83 973c
00000300: 891f d63d 0d27 fe3e 2c2b 7dbd b992 80be
00000310: 3d77 083d 59d4 8f3e df3e 08bd 8145 90bd
00000320: e3b0 d3be dc75 e63d 44cd 3cbe 5868 6ebe
00000330: 0f42 653d eaa6 e03d 0c04 00bf 2264 1fbe
00000340: 8bbf d1be 62f6 023c d331 e73d ff8c 58bc
00000350: dd1c 86be 6b75 8f3e 70be 39be 84f7 e33e
00000360: 7ef6 ce3d c083 833e 918c 2d3d f892 dabd
00000370: af58 573c 45f5 d83d 63a1 05bc 4d42 5cbb
00000380: bbd6 52be 8fb3 cd3c 813f 99bd 2fe0 acbd
00000390: b1cf 8c3e d216 d23d 9bff babe e34b 88bd
000003a0: f92d 3fbe 2bc4 d83d c6a7 353d df1b 12be
000003b0: fae4 88be 8327 f83d ecd6 90bd aca9 473e
000003c0: 5237 1e3e 323e 43bc 73ac 993b 4dee 58ba
000003d0: cac8 4fbb f416 cb3c 61e1 9ebb 77b6 0e3b
000003e0: 16dc 7d3d a0cf 9abb b0fe c3ba 16df 64bc
000003f0: 4ded 963d f5b5 833a 3f0f cc3d 73fc 1dbb

linear3.bias f4 [48]
0.19492418 0.2941941 0.014848312 0.22379495 -0.23231743 -0.087409 -0.091218255 0.2123194
-0.7571083 -0.4716155 -0.16715208 0.081220925 -0.49620605 -0.3495662 -0.03867413 0.23540266
-0.5333596 -0.35083154 -0.030588418 0.2461782 -0.13210768 -0.10646579 -0.1087677 0.28335428
-0.16611299 -0.050859444 0.04178968 0.10728412 0.17622419 0.1782878 0.058562037 0.30902454
-0.15797088 -0.19208504 0.05095254 0.11596624 -0.751438 -0.57142854 0.014041669 0.18812832
-0.09313123 -0.17632885 -0.034434564 0.24854083 -0.36152083 -0.024322016 0.021731883 0.2312975
00000000: 349a 473e 9ca0 963e 5646 733c 812a 653e
00000010: 9fe4 6dbe 7d03 b3bd a3d0 babd 426a 593e
00000020: d9d1 41bf 9677 f1be ea29 2bbe 2857 a63d
00000030: b80e febe 57fa b2be c468 1ebd 650d 713e
00000040: 418a 08bf 31a0 b3be 9094 fabc 2316 7c3e
00000050: 3c47 07be bc0a dabd 9ac1 debd d013 913e
00000060: 8619 2abe fe51 50bd a82b 2b3d c7b7 db3d
00000070: 1d74 343e 1491 363e bfde 6f3d 7738 9e3e
00000080: 1ec3 21be f1b1 44be 9cb3 503d b57f ed3d
00000090: 3e5e 40bf 2449 12bf 070f 663c b6a4 403e
000000a0: 96bb bebd 8d8f 34be 420b 0dbd 7d81 7e3e
000000b0: 4219 b9be f73e c7bc 1007 b23c 40d9 6c3e
