epoch_20_model/세정/model.pth (torch, 54880 bytes, 18 tensors)

linear1.weight f4 [6, 12]
0	0xbe364570	-0.17799926
1	0xbe221190	-0.15827012
2	0x3e04155e	0.12898776
3	0x3d643cc0	0.055722
4	0x3d5e96d0	0.054343045
5	0xbb852880	-0.004063666
6	0xbe83e291	-0.25758794
7	0x3d7f3940	0.062310457
8	0xbe460378	-0.1933726
9	0xbda78ccc	-0.08181152
10	0xbd846050	-0.06463683
11	0xbe5b2f31	-0.21404721
12	0xbd4ae421	-0.049533967
13	0xbe618059	-0.22021617
14	0x3e01fe31	0.12694623
15	0xbe74381a	-0.23849526
16	0xbe891709	-0.26775387
17	0x3e933c5a	0.28756982
18	0x3e8ac98a	0.27106887
19	0x3dce421b	0.10071202
20	0x3db00ebb	0.085965596
21	0x3e95ab2e	0.29232162
22	0xbe3d43f7	-0.18482958
23	0x3c9eb549	0.019373553
24	0xbd6ab4d9	-0.057301376
25	0x3dcabfe0	0.098998785
26	0xbcea34d4	-0.028589644
27	0xbe2976ea	-0.16549268
28	0x3dc9ea67	0.09859162
29	0x3d4b965a	0.049703933
30	0xbe399638	-0.1812371
31	0x3e195f6a	0.14977804
32	0xbe855936	-0.26044625
33	0x3d3c9a04	0.04604532
34	0xbdb11c13	-0.08647933
35	0xbdb3c5d1	-0.08777965
36	0x3e72ca01	0.23709871
37	0xbe2c339f	-0.16816567
38	0x3dc56a6d	0.0963944
39	0x3e10a7e3	0.14126544
40	0xbd6fd4df	-0.05855262
41	0x3ded91b9	0.1160006
42	0xbdffd763	-0.12492254
43	0xbe6f2350	-0.23353314
44	0x3d9530d4	0.07284704
45	0xbdf6d4b8	-0.12052292
46	0x3e81d503	0.25357828
47	0xbe36477c	-0.17800707
48	0x3a3eefdb	0.0007283666
49	0x3e87d3bb	0.26528725
50	0xbe351ee1	-0.1768756
51	0x3dad0194	0.08447567
52	0xbe239801	-0.15975954
53	0xbde58e1b	-0.11208745
54	0x3e8b1e59	0.2717159
55	0xbdd722e2	-0.105047
56	0xbe36c187	-0.17847262
57	0x3e059707	0.13045894
58	0xbd96b18b	-0.073580824
59	0xbe01087f	-0.12600897
60	0x3e951ad5	0.29122034
61	0xbe4efde5	-0.2021404
62	0x3e97cb93	0.29647502
63	0xbe6debab	-0.23234431
64	0x3df18913	0.11793723
65	0x3e5b5f28	0.21423018
66	0xbe200a02	-0.15628818
67	0x3e952624	0.2913066
68	0x3e540aca	0.2070724
69	0x3e8bf583	0.27335748
70	0x3dbbd9ac	0.09172377
71	0xbe483281	-0.19550516

linear1.bias f4 [6]
0	0x3e69e510	0.22841287
1	0x3e92c068	0.2866242
2	0x3dc1f748	0.09470993
3	0x3b4d604f	0.0031337922
4	0xbe6a0356	-0.22852835
5	0xbe383259	-0.17987956

linear2.weight f4 [3, 6]
0	0xbe008fe4	-0.1255489
1	0xbebc89f4	-0.36824
2	0xbeaa8386	-0.3330347
3	0xbe8b2a5d	-0.27180758
4	0xbde7bef8	-0.11315721
5	0xbdb4b9e8	-0.08824521
6	0xbccd1ac0	-0.02503717
7	0x3cc47c30	0.023984998
8	0xbe69aff7	-0.22821032
9	0xbd400b30	-0.04688567
10	0x3eac6078	0.3366735
11	0xbea0579d	-0.31316844
12	0xbe9c0c48	-0.3047812
13	0xbe950dda	-0.2911213
14	0xbcdd376b	-0.027003964
15	0x3e9dc910	0.3081746
16	0xbe9f6980	-0.31135178
17	0xbeb77264	-0.3582946

linear2.bias f4 [3]
0	0xbd3400a0	-0.04394591
1	0xbe8312b0	-0.25600195
2	0xbac279d0	-0.0014837328

linear3.weight f4 [1200, 3]
0	0x3e987a00	0.2978058
1	0xbdfab124	-0.12240818
2	0xbea323b0	-0.31863165
3	0xbe038fe0	-0.12847853
4	0xbe9a8646	-0.30180568
5	0x3e8eb08e	0.27869076
6	0xbdf1c638	-0.11805385
7	0x3dbd3f90	0.09240639
8	0x3e98c806	0.29840106
9	0xbe24ef5c	-0.16106933
10	0x3d440f90	0.047866404
11	0x3de5ea30	0.11226308
12	0x3f0fb4d8	0.5613532
13	0xbe50ea88	-0.20401967
14	0xbd8b2e65	-0.067959584
15	0xbebf45d8	-0.37357974
16	0x3eb50cd4	0.3536135
17	0x3f036de9	0.51339585
18	0x3e7c70e8	0.24652445
19	0xbdc04a38	-0.09389156
20	0xbe87382e	-0.2641005
21	0xbe3d7d38	-0.18504798
22	0xbd0dea40	-0.034647226
23	0xbe70b435	-0.23506244
24	0x3e3bbc78	0.18333614
25	0x3cd19880	0.025585413
26	0xbf0a3f14	-0.540025
27	0xbf0f92c1	-0.56083304
28	0xbe55f476	-0.20894036
29	0x3eed39dc	0.46333206
30	0x3ef571fc	0.47938526
31	0x3f007d76	0.5019144
32	0x3efea3fd	0.49734488
33	0xbebd5022	-0.369752
34	0xbf018af0	-0.50602627
35	0x3f127dd1	0.5722323
36	0x3e49ca14	0.19705993
37	0x3f0b9998	0.5453124
38	0xbec6edb6	-0.38853234
39	0x3e48eb48	0.19621003
40	0xbeb7838a	-0.35842544
41	0xbe537cbb	-0.2065305
42	0xbe7961f2	-0.2435377
43	0xbe098180	-0.13428307
44	0x3eebc1f4	0.46046412
45	0x3f0f021c	0.55862594
46	0x3e858bce	0.26083225
47	0xbdf34a50	-0.11879408
48	0x3e8f2c88	0.27963662
49	0x3e8a1ffa	0.2697752
50	0x3f0f43ae	0.55962646
51	0xbdb3d3ec	-0.08780655
52	0xbd6fb520	-0.058522344
53	0x3e586a40	0.21134281
54	0xbb499600	-0.0030759573
55	0x3e05ee6c	0.13079232
56	0x3e87ca15	0.26521364
57	0x3de7a5a8	0.11310893
58	0x3dd651c8	0.10464817
59	0xbf06bbae	-0.52630126
60	0x3f00c87e	0.50305927
61	0x3e41d9c0	0.18930721
62	0x3eedf532	0.46476132
63	0x3e97db3a	0.29659444
64	0xbe143c26	-0.1447607
65	0xbe17c6fa	-0.14821997
66	0x3e95bce2	0.2924567
67	0xbe3ea3cc	-0.18617171
68	0x3ec9d84a	0.39422828
69	0xbe5d04c2	-0.21583846
70	0x3e150240	0.1455164
71	0x3e0bfd8b	0.13670938
72	0x3e8025d8	0.25028872
73	0x3dd74010	0.10510266
74	0x3ebeae14	0.37242186
75	0x3ef06b10	0.46956682
76	0x3ef06494	0.46951735
77	0x3e91c38c	0.28469503
78	0x3e5c2074	0.21496755
79	0x3dc0f848	0.09422356
80	0x3e873290	0.26405764
81	0x3ebf2c1e	0.37338346
82	0xbe715a66	-0.2356964
83	0x3d10cd30	0.035351932
84	0x3f085ec2	0.5326959
85	0x3e783530	0.2423904
86	0x3e76dda6	0.2410799
87	0x3f0f367e	0.55942523
88	0xbde9f1e8	-0.11423093
89	0xbe2cf49c	-0.16890186
90	0xbef772ae	-0.4832968
91	0xbeff8c6a	-0.49911815
92	0xbeb1c3e7	-0.34719774
93	0x3eb9365a	0.3617428
94	0x3edcddc4	0.43137944
95	0x3eef7d3e	0.4677524
96	0x3eab3998	0.33442378
97	0x3f0ce0f4	0.5503075
98	0x3e0154a9	0.12629952
99	0xbf0fcc08	-0.561707
100	0xbf09d1c2	-0.5383569
101	0xbe3c4a56	-0.18387732
102	0xbe4f160e	-0.20223257
103	0xbc5242c0	-0.012833297
104	0x3f012d9f	0.5046024
105	0x3ec6a712	0.3879934
106	0xbdcf69ec	-0.10127625
107	0x3e2cd178	0.16876781
108	0xbf135809	-0.57556206
109	0xbe738f72	-0.23785189
110	0xbe75f094	-0.24017555
111	0x3dd38068	0.10327226
112	0xbf0b2443	-0.54352206
113	0xbe327132	-0.17425993
114	0xbe50c400	-0.20387268
115	0x3d469200	0.04847908
116	0x3ee83b1f	0.45357606
117	0x3f00cf28	0.50316095
118	0xbe2de686	-0.16982469
119	0x3ec84f8c	0.3912319
120	0x3de01610	0.10941708
121	0xbb136500	-0.002249062
122	0x3ddfc738	0.1092667
123	0xbebc8820	-0.36822605
124	0xbe228f36	-0.15874943
125	0x3ee69490	0.4503522
126	0xbed0e403	-0.4079896
127	0x3f059e0c	0.52194285
128	0xbebaf609	-0.36515835
129	0x3e84dfb0	0.2595191
130	0xbee71f00	-0.4514084
131	0xbeddcbda	-0.4331959
132	0xbe9ec1c2	-0.310072
133	0xbef59225	-0.47963062
134	0x3e897168	0.26844335
135	0x3ded8be8	0.115989506
136	0x3d7b17f0	0.061302125
137	0x3e5d22ac	0.21595258
138	0x3e9c0466	0.30472106
139	0x3ee46884	0.4461099
140	0xbde3717c	-0.1110563
141	0x3ef89e28	0.48558164
142	0xbe84dfe8	-0.25952077
143	0x3e888aba	0.2666834
144	0x3ed2f302	0.41201025
145	0x3ef2b794	0.47405684
146	0xbebd2bf8	-0.36947608
147	0x3e608230	0.21924663
148	0xbefa7381	-0.48916247
149	0xbf0532e4	-0.5203078
150	0x3d4ee2e0	0.050509334
151	0xbe8b7767	-0.27239534
152	0xbed49572	-0.41520268
153	0xbee6b396	-0.45058888
154	0x3e1572cc	0.14594573
155	0x3e2c5e85	0.16832931
156	0x3e07f4e8	0.13277018
157	0xbeaf9c00	-0.34298706
158	0xbf10bed2	-0.5654117
159	0xbe67cd72	-0.22636965
160	0xbe422a2e	-0.18961403
161	0x3eb39cbc	0.35080516
162	0x3d15aa30	0.036539257
163	0x3e9ab8f4	0.30219233
164	0xbe2429ac	-0.16031522
165	0xbe7b2e3a	-0.24529353
166	0x3e3a1090	0.1817038
167	0xbec96fb9	-0.3934305
168	0xbe1c1272	-0.15241411
169	0xbe2bb4e2	-0.1676822
170	0xbee32fd6	-0.44372433
171	0xbe2ab7d8	-0.16671693
172	0x3e9d9800	0.3078003
173	0xbecf2af4	-0.40462458
174	0x3cdee080	0.02720666
175	0x3f0f18e4	0.55897355
176	0x3e947de6	0.29002303
177	0x3e8edf90	0.2790494
178	0x3e1558d0	0.1458466
179	0x3e940d52	0.28916413
180	0x3d47a9e0	0.04874599
181	0x3d939d50	0.07207739
182	0xbe354fd7	-0.17706238
183	0x3e24bb1c	0.16087002
184	0xbe814073	-0.25244483
185	0xbeab8d51	-0.33506253
186	0xbec870bc	-0.3914851
187	0xbe6d1506	-0.23152551
188	0xbea55895	-0.32294145
189	0x3f0edfb2	0.5581008
190	0x3e2c24cc	0.16810912
191	0xbf1020a8	-0.5629983
192	0x3eb1bc0a	0.34713775
193	0x3ed63432	0.41836697
194	0x3eea6080	0.4577675
195	0x3e8c3e44	0.27391255
196	0xbe251f70	-0.16125274
197	0xbe5dc879	-0.21658505
198	0xbeca3c91	-0.39499334
199	0xbf0ab159	-0.5417686
200	0x3e248a07	0.16068278
201	0xbe848b74	-0.25887644
202	0xbd141400	-0.036151886
203	0xbf0fd1f3	-0.5617973
204	0x3d5383f0	0.051639497
205	0xbdcaeb04	-0.09908107
206	0xbe0a5c14	-0.13511688
207	0x3d9c3930	0.07628095
208	0xbf075884	-0.5286944
209	0x3e34d3a6	0.17658862
210	0xbedc4146	-0.4301855
211	0x3f10e22e	0.5659512
212	0xbe1adc02	-0.15122989
213	0x3eb5e492	0.35525948
214	0x3ee62b88	0.44955087
215	0xbe610912	-0.21976116
216	0xbe0a7150	-0.13519788
217	0xbecdb7cc	-0.40179288
218	0x3eac3341	0.33632854
219	0x3e873bb8	0.2641275
220	0x3ea832de	0.3285131
221	0x3ea6bea6	0.32567328
222	0x3e623b7c	0.22093004
223	0xbc20db00	-0.009817839
224	0xbf103cc1	-0.56342703
225	0x3eb0566e	0.3444094
226	0xbea1344d	-0.31485215
227	0xbcb56060	-0.022140682
228	0xbe932574	-0.28739512
229	0x3e144ba4	0.1448198
230	0xbea74800	-0.3267212
231	0xbacdda00	-0.0015705228
232	0x3e175eac	0.14782208
233	0x3eb50e19	0.35362318
234	0xbdd66a64	-0.10469511
235	0x3f00b676	0.50278413
236	0x3e9c4994	0.30524886
237	0x3ec6fd40	0.3886509
238	0x3edc91e4	0.43080056
239	0x3f001eb7	0.5004687
240	0x3ebea1f0	0.37232924
241	0xbe312c9a	-0.1730217
242	0xbf048dd4	-0.5177891
243	0x3f03e062	0.51514256
244	0x3e76f7cc	0.24117965
245	0xbe92746e	-0.28604454
246	0x3f070476	0.5274118
247	0xbe8618d7	-0.26190826
248	0xbf0e4109	-0.55567986
249	0xbf129d35	-0.5727113
250	0x3d96d0b0	0.07364023
251	0xbf115b21	-0.56779677
252	0xbc599000	-0.013278961
253	0x3f0a8edc	0.54124236
254	0x3de27b65	0.11058692
255	0x3d8b44e8	0.06800252

linear3.bias f4 [1200]
0	0xbea698e6	-0.32538527
1	0xbec3f382	-0.3827172
2	0xbdc21758	-0.09477109
3	0xbecbe0ae	-0.39819854
4	0x3e39eb6b	0.18156211
5	0xbd963ad7	-0.073354416
6	0xbea468fa	-0.3211134
7	0xba440139	-0.0007476989
8	0xbeaf3519	-0.34220198
9	0x3e95899d	0.29206553
10	0x3e9ff0f9	0.31238535
11	0x3e4502e4	0.19239384
12	0x3e8f2efa	0.27965528
13	0x3e503244	0.20331675
14	0xbe8df4a7	-0.27725717
15	0xbdc6cea8	-0.09707385
16	0x3e8f0f82	0.2794152
17	0x3e7bfc13	0.24607877
18	0x3f17124c	0.59012294
19	0xbef46f53	-0.47741184
20	0x3ee26eaf	0.4422507
21	0x3f09e3d7	0.5386328
22	0xbe6ad86c	-0.22934121
23	0x3da85432	0.08219184
24	0x3eb814a7	0.35953256
25	0xbebcdef9	-0.36888865
26	0xbe2c2e5e	-0.16814563
27	0xbec2f2d5	-0.3807589
28	0x3ea05a9a	0.31319124
29	0xbef44ded	-0.47715703
30	0xbe9587af	-0.2920508
31	0xbbd46974	-0.0064822976
32	0x3ef08488	0.46976113
33	0x3e1f6165	0.15564497
34	0x3f083cc4	0.5321772
35	0x3e3cd2d7	0.18439804
36	0x3ee778ce	0.45209354
37	0xbed50e7a	-0.41612607
38	0x3eb2638a	0.34841567
39	0xbdafc9ec	-0.085834354
40	0xbe602082	-0.21887401
41	0xbe92eb21	-0.28695014
42	0x3df2c74c	0.11854419
43	0x3edd4818	0.43219066
44	0xb80d4f83	-3.369107e-05
45	0xbe3b6bd8	-0.18302858
46	0xbcb01ee0	-0.021499097
47	0xbe184126	-0.14868602
48	0xbf0fe0e7	-0.5620255
49	0xbee139c2	-0.43989378
50	0x3ed76f56	0.4207713
51	0x3e7b1b8e	0.2452223
52	0xbef9269e	-0.48662275
53	0x3e7bf3c0	0.24604702
54	0xbead4375	-0.33840528
55	0x3ebef35f	0.37295052
56	0x3e3b5ed1	0.18297888
57	0xbf0a0e28	-0.5392785
58	0xbed35664	-0.41276848
59	0xbdd90a2c	-0.10597643
60	0x3df3d093	0.11905017
61	0x3e1444ce	0.14479372
62	0x3ec3aecb	0.38219294
63	0x3ef98601	0.4873505
64	0xbefd8e0e	-0.49522442
65	0x3e7db47a	0.24775878
66	0x3d9b2d1d	0.07576964
67	0x3db91f7e	0.0903921
68	0xbe81dc63	-0.25363454
69	0x3ec7da2c	0.3903364
70	0xbe14110c	-0.14459628
71	0xbe1ca164	-0.1529594
72	0x3f0c484a	0.54797804
73	0x3e9af7cd	0.30267182
74	0x3dc622e9	0.09674627
75	0xbd801f50	-0.062559724
76	0xbf00ce13	-0.50314444
77	0x3dc948dc	0.0982835
78	0xbea07803	-0.31341562
79	0x3ee13d8b	0.43992266
80	0xbeab2c1a	-0.33432084
81	0x3ed0dce7	0.40793535
82	0xbe9c0350	-0.30471277
83	0xbea745d1	-0.32670453
84	0x3d1315a9	0.03590933
85	0x3e5cf6ac	0.21578473
86	0x3e1fad93	0.15593557
87	0xbf0fdb3f	-0.5619392
88	0x3e6df47c	0.23237795
89	0x3ebd3a40	0.36958504
90	0x3e94bf16	0.29052037
91	0x3d6c3a42	0.057672746
92	0x3ecda02d	0.40161267
93	0x3e218e16	0.15776858
94	0x3ea44f46	0.3209173
95	0x3f04c0c9	0.51856667
96	0x3d874f9c	0.06606981
97	0xbed14406	-0.4087221
98	0x3f365d91	0.7123652
99	0xbee908cd	-0.45514527
100	0xbeb8f062	-0.36120898
101	0xbee4889c	-0.44635475
102	0xbd918d80	-0.07107067
103	0xbea7b018	-0.32751536
104	0xbeb90fe6	-0.36144942
105	0xbe782f28	-0.24236739
106	0x3d694ac3	0.056956064
107	0x3da10694	0.07862583
108	0x3e8f2b58	0.27962756
109	0xbe25f75e	-0.16207644
110	0x3eb33383	0.35000238
111	0x3dc7e030	0.09759557
112	0xbe704880	-0.23465157
113	0xbdaf3d84	-0.08556655
114	0xbef8685a	-0.48517114
115	0x3ea888ab	0.3291677
116	0xbefd00de	-0.49414724
117	0xbf122216	-0.5708326
118	0x3f090ba6	0.535334
119	0x3eb6de15	0.3571631
120	0x3d85ea75	0.0653886
121	0xbdb47c00	-0.088127136
122	0xbeee932e	-0.46596664
123	0x3e7b4446	0.24537763
124	0x3ba57e16	0.005050431
125	0x3e7ff48d	0.24995632
126	0xbd9b7cb8	-0.075921476
127	0x3ebae441	0.3650227
128	0xbe9657db	-0.29363903
129	0xbec01468	-0.3751557
130	0x3ddab3b8	0.1067881
131	0x3e33030c	0.17481631
132	0xbe57872a	-0.21047655
133	0xbecebbd2	-0.4037767
134	0xbe17c410	-0.14820886
135	0x3e14b917	0.14523731
136	0x3e70a0e9	0.23498882
137	0x3e237c68	0.15965426
138	0xbec2846f	-0.37991664
139	0xbdbca2a8	-0.09210712
140	0x3ef3076b	0.47466597
141	0xbd49fe90	-0.049315035
142	0x3eecfa5c	0.4628476
143	0xbbf18580	-0.007370651
144	0xbf01c330	-0.5068846
145	0xbee3bb8e	-0.4447903
146	0xbdd23f1c	-0.102659434
147	0xba94c2a0	-0.0011349507
148	0x3e9d9b3f	0.30782506
149	0xbdee7894	-0.11644092
150	0xbee40696	-0.44536275
151	0xbe41a952	-0.18912247
152	0xbede90f2	-0.4346996
153	0xbe993c7f	-0.29928967
154	0x3daf80da	0.08569498
155	0x3ee6a1fe	0.45045465
156	0x3e8d2c76	0.27572984
157	0xbcba47e9	-0.022739368
158	0x396f9ff5	0.00022852405
159	0x3e94622f	0.28981158
160	0x3ecba849	0.3977683
161	0xbe8a609d	-0.27026835
162	0x3e4de674	0.20107442
163	0xbe9fb147	-0.3118994
164	0xbeca6d3c	-0.39536464
165	0x3e7e6f27	0.24847089
166	0x3f18b898	0.5965667
167	0xbc96cd65	-0.018408487
168	0xbe78a28a	-0.24280754
169	0x3f05563d	0.52084714
170	0x3ef86e7b	0.4852179
171	0xbd030050	-0.03198272
172	0x3e81466b	0.25249037
173	0x3ef962aa	0.48708087
174	0x3f18388d	0.5946129
175	0xbf132bf5	-0.5748895
176	0xbed9810e	-0.42481273
177	0x3e9694bc	0.2941035
178	0xbe8ccb0a	-0.27498657
179	0x3eca8369	0.39553383
180	0x3e9aaa3a	0.30207998
181	0xbdfebd04	-0.124383956
182	0x3dfe33ed	0.12412248
183	0x3ec4d709	0.3844531
184	0x3ee0eb29	0.43929413
185	0xbe2adab4	-0.16684991
186	0x3e648ef7	0.22320162
187	0xbdcf8850	-0.101334214
188	0xbee38e7a	-0.44444638
189	0xbe0598dc	-0.13046592
190	0xbf11e5e1	-0.5699139
191	0xbecf2a2e	-0.40461868
192	0xbee3de0e	-0.44505352
193	0x3ee18b6b	0.4405168
194	0xbf07805e	-0.5293025
195	0xbed5b5e8	-0.41740346
196	0xbf03f3df	-0.5154399
197	0xbd23f3f0	-0.04002756
198	0xbd223300	-0.03959942
199	0xbee47695	-0.4462172
200	0x3d2e3b59	0.042537067
201	0xbf076299	-0.52884823
202	0x3e9dba50	0.30806208
203	0x3edf53ba	0.43618566
204	0xbeffb546	-0.49942988
205	0x3ee3c4f8	0.44486213
206	0xbec41805	-0.38299575
207	0x3e4f67a8	0.20254385
208	0x3ecb8139	0.39747027
209	0x3d2a98d5	0.04164966
210	0x3f15bc30	0.58490276
211	0x3d1ee82d	0.03879564
212	0x3df64c52	0.12026276
213	0x3f090af2	0.53532326
214	0x3df9c1ca	0.121951655
215	0x3eb7cdbc	0.3589915
216	0x3ef1b7ed	0.47210637
217	0x3ce32569	0.0277278
218	0x3ee20516	0.44144505
219	0x3f06d7f2	0.52673256
220	0x3ea72b95	0.32650438
221	0xbebbd660	-0.36686993
222	0x3e71b0ae	0.23602554
223	0xbe9a9580	-0.30192184
224	0xbf08ebdb	-0.53484887
225	0x3dd21578	0.10258001
226	0x3ee7396b	0.45160994
227	0x3ed1e455	0.40994516
228	0xba9f33fc	-0.001214623
229	0x3eac4651	0.33647397
230	0x3e36ac6a	0.17839208
231	0xbee899f5	-0.4542996
232	0x3ee4f5f9	0.44718912
233	0xbeb14c80	-0.34628677
234	0xbf0a00ab	-0.5390727
235	0xbd760600	-0.060064316
236	0xbee6e8e8	-0.45099568
237	0xbe581588	-0.21101964
238	0x3dc303cb	0.09522208
239	0x3e935a7a	0.28779966
240	0x3e08e54d	0.13368721
241	0x3e89e8d9	0.2693546
242	0x3ee7b65b	0.45256314
243	0x3eb409bd	0.3516368
244	0x3ecb017b	0.39649567
245	0x3d4e9d94	0.050443247
246	0xbd8e7e40	-0.06957674
247	0xbe94797c	-0.28998935
248	0x3ebb85d2	0.36625534
249	0xbebfd8f0	-0.37470198
250	0x3e91008d	0.28320733
251	0x3e6968fc	0.22793955
252	0x3ea8d021	0.3297129
253	0xbd499d50	-0.04922229
254	0x3e7c81f4	0.24658948
255	0x3eab0929	0.33405426

linear1.weight f4 [3, 1200]
0	0xbca0043e	-0.019533273
1	0xbb4241d8	-0.0029641297
2	0x3c972be8	0.018453553
3	0xbc122d04	-0.008921865
4	0x3cedd6fd	0.029033178
5	0xbcdec20b	-0.027192136
6	0x3c01eab8	0.0079294965
7	0x3c062cf6	0.00818943
8	0xbb8557a8	-0.0040692873
9	0x3cf88f7e	0.03034186
10	0x3b11e6b2	0.002226275
11	0x3badda1e	0.0053055426
12	0x3c8903e6	0.016725492
13	0x3cc8a1e2	0.024491254
14	0x3c9ced0e	0.019156005
15	0xbc072e3e	-0.008250771
16	0x3c9a0dcc	0.018805407
17	0x3c78eed1	0.015193657
18	0x3cd85230	0.026406378
19	0xbc64888c	-0.013948571
20	0xbc50bfa3	-0.012741002
21	0x3cd2e793	0.025745189
22	0xbca9806d	-0.020691121
23	0xba9d1cc3	-0.0011986721
24	0x3cfe21c7	0.031021966
25	0xbc627725	-0.013822352
26	0xbc7b0b53	-0.015322524
27	0x3c9040ee	0.017609086
28	0xbc486506	-0.012231117
29	0xbcaff140	-0.021477342
30	0xbbbbdf98	-0.0057334416
31	0xbcbef791	-0.023311408
32	0x3c6bb266	0.014385795
33	0x3d234d41	0.039868597
34	0x3d2799f3	0.0409183
35	0xbc0d65ef	-0.00863026
36	0x3c8d446c	0.01724454
37	0xbbacc1d8	-0.0052721314
38	0x3ca9ac46	0.02071203
39	0xbbc223b4	-0.0059246663
40	0xbc955d84	-0.018233068
41	0x3c11c674	0.008897413
42	0xbb84835e	-0.0040439805
43	0x3b88be67	0.0041730884
44	0xbb1e4322	-0.00241489
45	0x3cb1dde2	0.021712247
46	0x3b97b1d8	0.004629355
47	0x3c5dff54	0.0135496445
48	0xbc80fb9c	-0.015744977
49	0xbca8f94e	-0.02062669
50	0x3c763f17	0.01502969
51	0x3d20ddc3	0.03927399
52	0xb91f5d00	-0.00015198067
53	0x3ce864d4	0.028368391
54	0x3c9d676c	0.019214354
55	0x3c45aea6	0.012065565
56	0x3c77cb26	0.015124118
57	0xb9dd3540	-0.0004219208
58	0x3ca5f3d0	0.02025786
59	0x3c9f20fa	0.019424904
60	0x3d1c555f	0.038167354
61	0x3d17d0bd	0.037064303
62	0x3c0aef78	0.008479945
63	0x3cf66a92	0.030080114
64	0xbc8ce4b8	-0.017198905
65	0x3c15b2bc	0.009136852
66	0x3bcb8a85	0.006211581
67	0x3cb54b2b	0.02213057
68	0x3c913ad6	0.01772825
69	0x3d25747d	0.040394295
70	0x3b87c768	0.004143644
71	0xbc2b9bc0	-0.010474145
72	0x3cbc998d	0.023022437
73	0x3ca57c4a	0.020200867
74	0x3bea8a17	0.007157575
75	0x3c2daa84	0.010599736
76	0xbc906e7a	-0.017630804
77	0x3c7874dd	0.015164581
78	0x3c40c46c	0.011765581
79	0xbbeb060e	-0.0071723526
80	0xbcb68c4c	-0.022283696
81	0x3b1616b5	0.0022901718
82	0xbcb581e2	-0.02215666
83	0xbc7f0cba	-0.015566999
84	0x3c821092	0.015877042
85	0xbbcc1f66	-0.006229329
86	0xbbe16536	-0.0068785204
87	0x3c4b4120	0.012405664
88	0x3bff4cdb	0.0077911443
89	0x3c2be53d	0.010491666
90	0xbbd6df4c	-0.006557381
91	0x3c9f33a6	0.019433808
92	0x3c139e37	0.009009889
93	0xbbb1af1d	-0.0054224865
94	0xbc25a563	-0.010110232
95	0xbc36fd4f	-0.011168792
96	0xbc2b73fc	-0.010464665
97	0xbc1130c8	-0.008861728
98	0x3d30f2ed	0.043200422
99	0xbc9970de	-0.018730577
100	0xbcc683ab	-0.024232706
101	0x3c7a3dfc	0.015273567
102	0xbc9cac08	-0.019125
103	0x3c84da9e	0.016217526
104	0xbca82245	-0.020524153
105	0xbbeda5c4	-0.007252427
106	0x3cb634f6	0.02224205
107	0x3aee0160	0.0018158369
108	0x3ca14410	0.019685775
109	0x3c4eb5a0	0.012616545
110	0x3d20840e	0.039188437
111	0xbbeb5143	-0.007181318
112	0x3cc42ef2	0.023948167
113	0xbcb7abfc	-0.022420876
114	0xbcb5c9aa	-0.022190887
115	0x3b08571c	0.0020803874
116	0x3cb94ac8	0.022618666
117	0xbcc4c50a	-0.024019737
118	0x3cf8263e	0.030291673
119	0x3cbd4790	0.023105413
120	0x3d537469	0.05162469
121	0xbc860778	-0.016360983
122	0xbcc14cb8	-0.023596153
123	0x3d09fe1a	0.033689596
124	0x3c567797	0.013090036
125	0x3cac0071	0.020996304
126	0xbcc3bc81	-0.023893597
127	0x3b8807c7	0.0041513178
128	0x3b1c9240	0.0023890883
129	0xbc349aea	-0.0110232625
130	0x3d2383ef	0.039920744
131	0x3d1843b9	0.03717396
132	0x3bed0730	0.007233523
133	0xbc274c04	-0.010210995
134	0xb7f54800	-2.9239804e-05
135	0x3d189a93	0.03725679
136	0x3d2e3e74	0.04254003
137	0xbc58a16c	-0.01322208
138	0xbca5141e	-0.020151194
139	0x3c457698	0.012052201
140	0x3c032ef7	0.008006803
141	0xbc67115e	-0.014103262
142	0xbbdd0b64	-0.0067457426
143	0x3c7821fc	0.015144821
144	0x3c97096e	0.018437114
145	0xbbeeb234	-0.007284427
146	0x3c81ba0a	0.01583578
147	0x3c3a2b90	0.011362925
148	0x3d13e241	0.036104444
149	0xbc98a8a1	-0.018635096
150	0x3c80bade	0.015714105
151	0x3ad52430	0.0016261395
152	0xbc64f98d	-0.013975513
153	0x3cc038c0	0.02346456
154	0xbb94bf8b	-0.0045394353
155	0xbbde4546	-0.0067831604
156	0x3ce33397	0.02773456
157	0x3beef39c	0.007292224
158	0xbb9e4c0f	-0.0048308442
159	0xbb7a7741	-0.0038218054
160	0xbc3147dc	-0.010820355
161	0x3b8cad10	0.0042930916
162	0xbc19efe7	-0.009395576
163	0x3c3542a8	0.011063255
164	0xbc507cde	-0.012725083
165	0x3c9c7bd7	0.01910202
166	0x3cebff39	0.028808223
167	0x3cc16cfb	0.023611536
168	0x3c48c8d8	0.012254916
169	0xbc5b293b	-0.013376529
170	0x3cd0cf4d	0.025489474
171	0xbc2eae60	-0.010661691
172	0x3cfe856f	0.031069485
173	0x3b35a0da	0.0027714283
174	0x3cc90072	0.024536345
175	0xbc41cf46	-0.011829203
176	0xbccf7ac8	-0.025327101
177	0x3cf27c29	0.02960022
178	0x3c76b844	0.015058581
179	0x3c8c9286	0.017159712
180	0x3c370b80	0.011172175
181	0xbc225b50	-0.009909466
182	0xbbd61288	-0.006532971
183	0x3c8f1f50	0.017470986
184	0x3cfdc364	0.030976959
185	0xbc6309f4	-0.0138573535
186	0x3cc9185b	0.024547746
187	0xbc8fa75f	-0.017535863
188	0x39f4ed40	0.00046716072
189	0x3cb272e6	0.021783303
190	0x3ce4f9b8	0.027951106
191	0x3cda0622	0.026614252
192	0x3c957370	0.018243521
193	0x3d18285f	0.037147876
194	0x3c0394ac	0.008031052
195	0x3cc92820	0.024555266
196	0x3cd8dc4e	0.026472237
197	0xbcb4d674	-0.022074915
198	0xbb2f6e78	-0.0026768725
199	0xbcc2f030	-0.023796171
200	0x3d442b00	0.04789257
201	0xbab4b7c0	-0.0013787672
202	0x3c77012a	0.015075961
203	0x3bbc6959	0.005749863
204	0x3ca2731c	0.019830279
205	0x3d2ee840	0.04270196
206	0x3c2d47b8	0.010576181
207	0x3cfbfb50	0.030759484
208	0x3c8689e9	0.016423183
209	0x3ca7fc93	0.020506179
210	0x3ba153ee	0.0049233353
211	0xbc0c5647	-0.008565492
212	0x3d1a8a42	0.03772951
213	0x3c1d97f0	0.009618744
214	0x3d1e9973	0.03872056
215	0x3bc3c767	0.0059746983
216	0x3d28214b	0.041047376
217	0x3c09dc61	0.008414359
218	0xbc50bf01	-0.012740851
219	0x3bd1f034	0.0064068083
220	0x39c48415	0.00037482442
221	0x3bc6f020	0.0060711056
222	0x3cdf0cea	0.027227838
223	0x3cbf7578	0.023371443
224	0x3c83b946	0.016079556
225	0x3c9971d2	0.018731032
226	0x3cc2bb03	0.023770815
227	0x3c03586d	0.008016688
228	0x3c7d2494	0.015450615
229	0x3ca9c952	0.02072588
230	0xbafd4f72	-0.0019326045
231	0x3c3fc810	0.011705413
232	0x3ca8c2a8	0.020600632
233	0xbb660168	-0.0035096053
234	0xbcb1da72	-0.021710608
235	0x3ca07eda	0.019591738
236	0x3bd70ae0	0.0065625757
237	0x3c06cff0	0.008228287
238	0x3c5d62e1	0.013512344
239	0xbc12c694	-0.0089584775
240	0x3d3891ea	0.04506103
241	0x3d16d045	0.036819715
242	0x3d100177	0.035157647
243	0xbbbd063a	-0.0057685645
244	0x3cf5b7c0	0.029994845
245	0x3c70e597	0.014703176
246	0xbc5c31e5	-0.01343963
247	0x3bc65720	0.0060528666
248	0x3d23bef1	0.039977018
249	0xbbd0c044	-0.006370576
250	0x3d16d6bb	0.036825877
251	0x3ca7594e	0.020428326
252	0x3c4c6c73	0.012477028
253	0xbc727f57	-0.014800868
254	0x3c1fe444	0.009759013
255	0x3c9c2228	0.019059256

linear1.bias f4 [3]
0	0x3d267515	0.040639002
1	0xbb2a3b28	-0.0025975201
2	0xbadf7899	-0.0017049491

linear2.weight f4 [6, 3]
0	0x3db385ca	0.087657526
1	0xbc57d6c0	-0.013173759
2	0x3d9a6fc8	0.07540852
3	0x3c0d99f5	0.008642663
4	0x3ee91ca0	0.45529652
5	0xbed2e1ac	-0.411878
6	0x3f1a6d79	0.6032329
7	0xbe8189c8	-0.2530043
8	0xbeb75278	-0.35805106
9	0x3e43b9d5	0.19113858
10	0x3e61637c	0.22010607
11	0xbeb83d87	-0.35984442
12	0x3ed4be67	0.41551515
13	0xbea8e85c	-0.32989776
14	0x3ef64850	0.48102045
15	0x3e40c12d	0.1882369
16	0x3ee335e4	0.44377053
17	0x3dff5624	0.12467602

linear2.bias f4 [6]
0	0xbe7957e0	-0.24349928
1	0x3f140405	0.57818633
2	0x3eb98f4b	0.36242136
3	0x3ed3d5e2	0.41374117
4	0xbec030f4	-0.37537348
5	0x3eb69bb0	0.35665655

linear3.weight f4 [12, 6]
0	0xbe776e20	-0.24163103
1	0x3dd47b07	0.10375028
2	0x3e8253a3	0.25454435
3	0xbd35cd68	-0.044385344
4	0x3de4ba8a	0.11168392
5	0xbd31e30d	-0.043429423
6	0xbeb90097	-0.36133263
7	0x3e16ecac	0.1473872
8	0x3daa7a0e	0.08324061
9	0x3ee6cde2	0.4507895
10	0xbeb24c0a	-0.34823638
11	0x3edccc15	0.43124452
12	0xbe8a11c1	-0.2696667
13	0x3cd1be36	0.025603395
14	0x3ed0fcd6	0.408179
15	0x3d9c72a1	0.07639051
16	0xbe9ba4b7	-0.30399105
17	0xbe816a56	-0.2527644
18	0xbe0bc492	-0.13649204
19	0x3ec6773f	0.38762853
20	0x3e08e3e7	0.13368188
21	0xbda19160	-0.07889056
22	0x3db5fa5c	0.08885643
23	0x3e9713d0	0.29507303
24	0xbed539da	-0.416457
25	0x3ea8e129	0.32984284
26	0x3e881af9	0.26583079
27	0xbe2805eb	-0.16408508
28	0xbe6e8049	-0.23291124
29	0x3ee31d55	0.44358316
30	0xbc9bed68	-0.019034103
31	0x3e9b0f08	0.30284905
32	0x3e85eb20	0.2615595
33	0x3e336a5a	0.17521039
34	0xbe405e26	-0.18785915
35	0xbe4d0bd6	-0.20024046
36	0xbeaef993	-0.34174785
37	0x3d94a834	0.07258645
38	0x3e97d268	0.29652715
39	0x3e944a2b	0.28962836
40	0xbe99972a	-0.29998142
41	0xbd9472e9	-0.0724848
42	0xbdc8819c	-0.09790346
43	0x3e9e6119	0.30933455
44	0xbe159c2f	-0.1461036
45	0xbd023bfc	-0.031795487
46	0x3d89f291	0.06735719
47	0x3e7b81bf	0.24561213
48	0xbe6efde9	-0.23339047
49	0x3e81fe45	0.25389305
50	0x3e65ae12	0.22429684
51	0xbcfa52b0	-0.030557007
52	0x3db74e37	0.08950465
53	0x3c83379f	0.016017733
54	0x3e846c4b	0.2586387
55	0xbdcd9036	-0.10037272
56	0x3ef8c374	0.4858662
57	0x3e8677d5	0.262633
58	0xbee0d7d1	-0.43914655
59	0xbe752d3a	-0.23943034
60	0x3b3271a6	0.0027228384
61	0xbc45ef25	-0.012080942
62	0x3dac490c	0.0841237
63	0x3cd90ce9	0.026495414
64	0x3ec78234	0.38966525
65	0x3df871fc	0.12131116
66	0x3ce6213e	0.028092023
67	0x3e363a77	0.1779574
68	0xbda2db5e	-0.07951997
69	0x3eb0a6da	0.34502298
70	0x3cf01438	0.029306516
71	0x3e4d052f	0.20021509

linear3.bias f4 [12]
0	0xbcf4d035	-0.029884437
1	0xbe351c52	-0.17686585
2	0x3e13777d	0.1440105
3	0xbe47e114	-0.19519454
4	0xbe4a8528	-0.19777358
5	0x3d27863b	0.040899497
6	0xbcaa883b	-0.020816913
7	0x3f0494ca	0.51789534
8	0xbdcf2fb8	-0.101165235
9	0xbd6595bb	-0.056050997
10	0xbd9eb4f5	-0.077493586
11	0x3e054eb9	0.13018312

linear1.weight f4 [3, 1200]
0	0x3ce95a0a	0.028485317
1	0xb99d38c0	-0.00029987656
2	0xbc1219ee	-0.008917315
3	0xbbc43100	-0.0059872866
4	0x3b853212	0.0040648067
5	0x3c67e39c	0.014153387
6	0xbce4fa26	-0.027951311
7	0xb8b216a4	-8.4919186e-05
8	0xbca6baa4	-0.020352669
9	0x3cfe2d8a	0.031027574
10	0x3cb30769	0.02185412
11	0x3b1c33df	0.0023834629
12	0x3d5284d8	0.05139622
13	0x3bbeff7c	0.005828796
14	0xbcd153fc	-0.025552742
15	0xbca5b6d1	-0.020228775
16	0x3d0ebe6b	0.034849565
17	0x3c96fb4d	0.018430376
18	0x3d72f8d1	0.05931932
19	0xbbbbcdb8	-0.0057313107
20	0x3d4c055c	0.0498098
21	0x3c3ce56c	0.011529308
22	0x3bd9e288	0.006649319
23	0x3c9f261e	0.019427355
24	0x3d37fb01	0.04491711
25	0xbbc15a94	-0.0059006903
26	0x3cceb7fa	0.025234211
27	0xbb5a1300	-0.0033275485
28	0x3bc06c17	0.0058722603
29	0xbca6b16c	-0.020348273
30	0xbcca6587	-0.024706615
31	0x3c8d7a97	0.01727037
32	0x3d562d72	0.052289434
33	0x3cccd570	0.025004119
34	0x3c7e5b07	0.015524632
35	0x3cc10a11	0.02356437
36	0x3d1ec737	0.038764205
37	0xbcc1a731	-0.023639293
38	0x3c98ffa0	0.018676579
39	0x3ca52f62	0.020164195
40	0xbc30400a	-0.010757456
41	0xbcd514dc	-0.026010923
42	0x3cbe2d6b	0.023215016
43	0x3d361829	0.044456635
44	0xb7f9c057	-2.9772678e-05
45	0xbce9e658	-0.02855222
46	0x3cdb7f82	0.026794199
47	0xbc794c57	-0.015215955
48	0x3cb61c58	0.022230312
49	0x3ccb80b6	0.024841648
50	0x3cd4a7eb	0.025958976
51	0x3d526698	0.051367372
52	0x3c0b0fc4	0.008487646
53	0x3d328183	0.043580543
54	0xbc87b5cc	-0.01656618
55	0x3ca78e9c	0.020453744
56	0x3b208dfa	0.0024498687
57	0xbc848b4b	-0.016179701
58	0x3b05b870	0.0020404123
59	0x3bb49640	0.0055110753
60	0x3d047645	0.032339353
61	0x3bf4bd52	0.007468858
62	0x3d4191dc	0.047258243
63	0x3cea5772	0.02860615
64	0xbcc5320b	-0.024071714
65	0x3d25179d	0.040305723
66	0x3a7211fb	0.00092342467
67	0x3ae29ca1	0.0017289111
68	0xbb8f1614	-0.0043666456
69	0x3d550310	0.052004874
70	0x3caaa366	0.020829868
71	0x3aeccdb0	0.0018066671
72	0x3d568e48	0.052381784
73	0x3cce3087	0.025169624
74	0x3d06f7b6	0.03295108
75	0x3ce53eb4	0.027984
76	0xbbd00f1c	-0.0063494574
77	0x3aa9aef9	0.0012945823
78	0xbbe50f28	-0.006990332
79	0x3d7aa880	0.06119585
80	0x3cdfc63e	0.027316209
81	0x3d4436e3	0.047903907
82	0x3c0e7fbc	0.008697446
83	0xbbb687bc	-0.00557038
84	0x3a214bff	0.0006152987
85	0x3d10f1f3	0.03538699
86	0x3c17be39	0.009261661
87	0xbc445f0a	-0.01198555
88	0x3bbd46ad	0.0057762475
89	0x3cfbef13	0.030753648
90	0x3baac401	0.005211354
91	0x3c3f63c9	0.0116815055
92	0x3c00bb1b	0.007857109
93	0x3c63ba25	0.013899361
94	0x3d6c4350	0.05768138
95	0x3ca5a51f	0.020220337
96	0x3c4f74f2	0.012662159
97	0x3b053240	0.002032414
98	0x3c2ee964	0.010675762
99	0xbce78206	-0.028260242
100	0xbce483b8	-0.02789484
101	0xbcc42fd6	-0.023948591
102	0xbce47be5	-0.027891109
103	0xbbd085a8	-0.0063635893
104	0x3c8784ba	0.016542781
105	0xbc7b6ad9	-0.015345299
106	0x3c36aaec	0.011149149
107	0x3c58b335	0.01322632
108	0x3c319cdf	0.010840624
109	0xbccb7c79	-0.024839627
110	0x3cf1e889	0.029529827
111	0x3b22fbc9	0.0024869314
112	0xbcae7fb0	-0.02130112
113	0xbb0d6940	-0.0021577626
114	0x3ce6f038	0.028190717
115	0x3bbdffc4	0.005798312
116	0xb9ab7500	-0.00032702833
117	0x3cadf4a0	0.02123481
118	0x3ca8410f	0.020538835
119	0x3d7461db	0.059663635
120	0x3c6fc1af	0.01463358
121	0xbbef10b8	-0.007295694
122	0x3c9a2bf2	0.018819783
123	0x3ce8a854	0.028400578
124	0x394290e8	0.00018555264
125	0x3cf1c61a	0.029513407
126	0xbc395c84	-0.011313561
127	0x3c002e6f	0.007823571
128	0xbc7270d6	-0.01479741
129	0xbc985dee	-0.018599477
130	0x3c2f383d	0.010694561
131	0x3d2848b7	0.04108497
132	0x3ce16546	0.027514111
133	0x3cb0e0d8	0.021591589
134	0x3c1393dc	0.00900742
135	0x3cfecc8a	0.031103391
136	0x3cf51918	0.029919192
137	0x3ca4c12c	0.020111643
138	0x3b9a0798	0.0047006123
139	0x3caa7c14	0.020811118
140	0x3cc3cac4	0.023900397
141	0xbc7c9b94	-0.015417952
142	0x3cc4362b	0.02395161
143	0xbc11f53e	-0.008908568
144	0xbba51acc	-0.005038595
145	0x3b41aa90	0.0029551126
146	0x3bc9a4f8	0.006153699
147	0xb88734a3	-6.447106e-05
148	0x3ce8887a	0.02838539
149	0xbbe6f474	-0.007048184
150	0x3c78abcc	0.015177678
151	0x3b533890	0.0032229759
152	0x3b7141a0	0.0036812797
153	0xbc020584	-0.007935885
154	0x3b758ffa	0.003746985
155	0x3d4e7148	0.050401002
156	0x3d4db759	0.050223682
157	0xbc5a1430	-0.013310477
158	0x382ae523	4.074456e-05
159	0x3c28a0c8	0.0102922395
160	0x3d2bac36	0.04191228
161	0xbc7a225d	-0.015266982
162	0x3ca1e274	0.019761302
163	0x3c492b08	0.012278326
164	0xbc30d53a	-0.010793025
165	0x3be7798e	0.007064051
166	0x3d7d94af	0.061909374
167	0xbc29588a	-0.010336051
168	0x3c073fa4	0.008254919
169	0x3c96205b	0.018325975
170	0x3d8078e5	0.06273059
171	0xbc9dc494	-0.019258775
172	0x3cb5b191	0.022179397
173	0x3d36c261	0.044618968
174	0x3d26b30a	0.04069809
175	0xbcd255cb	-0.025675675
176	0xbcea1cbb	-0.028578153
177	0x3c0c9f5e	0.008582918
178	0x3c704e9c	0.014667179
179	0x3d3691aa	0.04457251
180	0x3d00c22f	0.031435188
181	0x3ccc4b90	0.024938375
182	0x3b7cdb3a	0.0038582818
183	0x3c17bac8	0.009260841
184	0x3c178809	0.009248742
185	0x3cdeed28	0.027212694
186	0x3d21d58c	0.039510295
187	0xba7699c0	-0.0009407066
188	0x3bee5938	0.0072738193
189	0xb87e0c00	-6.0569495e-05
190	0x3c388038	0.0112610385
191	0x3bcf8288	0.006332699
192	0xbcd41a84	-0.02589155
193	0x3c6c0834	0.014406253
194	0xbbd1b5d8	-0.0063998513
195	0x3cb2a670	0.02180788
196	0xbc1aee24	-0.009456191
197	0xbc11ae42	-0.008891644
198	0x3cb86f8c	0.022514127
199	0x3bd1ed38	0.0064064525
200	0x3c669cd8	0.01407548
201	0x3ca73a1c	0.02041345
202	0x3cf700dd	0.030151779
203	0x3d32e135	0.043671805
204	0xbc7e38f1	-0.015516506
205	0x3d36cf2c	0.04463117
206	0xba82a7a0	-0.0009968169
207	0x3ca233bf	0.019800065
208	0x3d5030bc	0.050827727
209	0x3bb98ffd	0.0056629167
210	0x3d0be162	0.03415049
211	0x3baf0b0b	0.0053418926
212	0x3cff736f	0.031182973
213	0x3ca4093e	0.020023938
214	0x3c36a9cd	0.011148882
215	0x3cca2fa6	0.024680924
216	0x3d69f803	0.057121288
217	0x3b4d6b76	0.003134457
218	0x3d7042d8	0.058657497
219	0x3d4613bc	0.048358664
220	0x3d0ff0db	0.035141807
221	0xbbfdfa38	-0.0077507757
222	0x3d627e69	0.055296335
223	0xbbfa9aac	-0.007647833
224	0xbae260d0	-0.0017271284
225	0x3a9a3dc2	0.0011767673
226	0x3ce3613a	0.027756322
227	0x3cd2190b	0.025646707
228	0xb861ca91	-5.3832835e-05
229	0x3d4746e5	0.048651595
230	0x3d51efca	0.05125407
231	0x3c924eb0	0.017859787
232	0x3d411618	0.04714021
233	0xbae3c010	-0.0017375965
234	0xbcc1f414	-0.023675956
235	0xbb2423c8	-0.0025045741
236	0xbca9f967	-0.020748807
237	0x3b56a830	0.0032754056
238	0x3b67e801	0.0035386088
239	0x3d2cd7e2	0.04219807
240	0x3d39bd7c	0.045346722
241	0x3c221180	0.009891868
242	0x3d2985d2	0.041387387
243	0x3d6fb069	0.058517847
244	0x3d0112bc	0.031512007
245	0x3b4b309f	0.0031004322
246	0x3c6f9120	0.014622003
247	0xbb8e57b8	-0.004343953
248	0x3cd773da	0.02630036
249	0xbc1ad748	-0.009450741
250	0x3c9d288d	0.019184375
251	0x3bd7146e	0.0065637147
252	0x3d054bcc	0.03254299
253	0x3c6ec298	0.014572762
254	0x3cab254f	0.020891814
255	0x3d2ebe6f	0.04266208

linear1.bias f4 [3]
0	0x3d82eb36	0.06392519
1	0xbc57bb67	-0.013167239
2	0xbcbe34ab	-0.023218473

linear2.weight f4 [6, 3]
0	0x3eb5af55	0.3548533
1	0xbe90e99c	-0.2830323
2	0x3de14ee8	0.11001378
3	0xbf10814a	-0.5644728
4	0x3e8eceaa	0.27892047
5	0x3d8f91a8	0.070102036
6	0x3e0a85db	0.13527624
7	0xbe7b2d4b	-0.24528997
8	0xbefed73e	-0.49773592
9	0xbe0ba292	-0.13636234
10	0x3d5b9500	0.053608894
11	0xbe535c06	-0.20640573
12	0xbdfc65ff	-0.12324142
13	0x3ef7c4ae	0.48392242
14	0xbe85a576	-0.261028
15	0x3f015a7c	0.50528693
16	0x3e684e55	0.22686131
17	0x3d976a28	0.073932946

linear2.bias f4 [6]
0	0x3e07b2df	0.13251828
1	0xbeb88bbe	-0.36044115
2	0x3df21ea4	0.118222505
3	0xbd3522c0	-0.044222593
4	0x3d8dbc4e	0.06920682
5	0xbdb398bd	-0.08769367

linear3.weight f4 [12, 6]
0	0x3e3715f5	0.1787947
1	0x3ecd86b0	0.4014182
2	0x3e5aa21c	0.21350902
3	0x3ebfd098	0.37463832
4	0x3e801d4a	0.25022346
5	0xbe2aeb78	-0.16691387
6	0x3d79ce4b	0.060987752
7	0x3ec76cbe	0.3895015
8	0x3e369cdd	0.17833276
9	0x3e9cb888	0.30609536
10	0x3eca6c3e	0.39535707
11	0x3e307fb2	0.17236212
12	0xbd3b2431	-0.04568881
13	0xbe946aee	-0.2898783
14	0x3ee8e335	0.45485845
15	0xbe38f3fa	-0.1806182
16	0xbea4fabd	-0.32222548
17	0xbb430d54	-0.0029762583
18	0x3e412fac	0.18865842
19	0xbe1e4670	-0.15456557
20	0x3e568d65	0.20952375
21	0xbe989bae	-0.29806274
22	0xbcf079bf	-0.029354928
23	0xbd82bf78	-0.06384176
24	0x3e719ebd	0.2359571
25	0x3ccf4d80	0.02530551
26	0x3e00037e	0.12501332
27	0x3dacfd58	0.08446759
28	0xbdf71802	-0.12065126
29	0xbd4b40b3	-0.04962225
30	0x3e442ec1	0.1915846
31	0x3d632d68	0.055463225
32	0x3e16a23e	0.14710328
33	0xbea147d2	-0.31500107
34	0xbe03c53b	-0.12868206
35	0x3e3292f6	0.17438874
36	0x3e9d6991	0.30744603
37	0xbe6a4def	-0.22881292
38	0x3e48524b	0.19562642
39	0xbdd7798c	-0.1052123
40	0xbeade67d	-0.3396491
41	0xbc5fe065	-0.01366434
42	0x3ece5162	0.40296465
43	0x3dfdd538	0.12394184
44	0x3db4b7f6	0.0882415
45	0xbeb35eec	-0.35033357
46	0x3e33255d	0.17494722
47	0xbe00db7a	-0.12583724
48	0xbe37e45e	-0.17958209
49	0xbece961e	-0.40348905
50	0xbe335235	-0.17511828
51	0x3e878b9a	0.26473695
52	0xbeb4dff9	-0.35327128
53	0x3ec90338	0.39260268
54	0xbdd4ee28	-0.10396987
55	0x3e5f144c	0.21785086
56	0xbdc5cce3	-0.0965822
57	0xbc3b7660	-0.011441797
58	0xbe8e7d5a	-0.2783001
59	0x3eccc26b	0.3999208
60	0x3cf0dbf1	0.029401751
61	0xbeb6e714	-0.35723174
62	0x3db3e945	0.08784727
63	0x3c5c2980	0.013437629
64	0x3e349873	0.1763628
65	0x3e2985d0	0.16554952
66	0x3e71b7b3	0.23605232
67	0xbdc1efb8	-0.09469551
68	0x3ecf72d4	0.40517294
69	0xbea748e2	-0.32672793
70	0x3eb87c57	0.36032364
71	0xbe1d912f	-0.15387414

linear3.bias f4 [12]
0	0x3f06ea65	0.5270141
1	0xbdff70a2	-0.12472655
2	0x3eb0c0eb	0.34522185
3	0x3e669487	0.22517596
4	0x3e23ab33	0.15983276
5	0xbec3e15d	-0.38257876
6	0xbe1cf805	-0.15328987
7	0x3d39f2ec	0.045397684
8	0x3daf4666	0.08558349
9	0xbe285bf3	-0.16441326
10	0x3d1aa3c4	0.037753835
11	0x3e4f5ff6	0.2025145
