epoch_20_model/소입/model.pth (torch, 552224 bytes, 18 tensors)

linear1.weight f4 [60, 120]
0	0xbd538780	-0.051642895
1	0xbdc05362	-0.09390904
2	0xbda2f76c	-0.07957348
3	0xbc3d2677	-0.011544815
4	0xbdb0d1ed	-0.0863379
5	0xbdc2fc04	-0.095207244
6	0xbda43ae6	-0.080190465
7	0xbbcc6883	-0.0062380447
8	0xbd4e60dc	-0.05038534
9	0x3d89b07a	0.06723113
10	0xbda8c61e	-0.08240913
11	0x3bed0a4a	0.0072338926
12	0xbc870ffb	-0.016487112
13	0x3d779cb9	0.060452197
14	0x3da0502d	0.07827792
15	0xbc3aab8d	-0.01139344
16	0xbd7ea9e4	-0.06217374
17	0xbd2a6b04	-0.041605964
18	0xbd37b44d	-0.044849683
19	0xbc1cc9a4	-0.009569559
20	0xbd649b66	-0.055812262
21	0xbdc0e5d9	-0.0941884
22	0x3cc723f5	0.024309138
23	0x3da3f436	0.08005564
24	0xbdadd929	-0.08488686
25	0xbdb6727a	-0.089085534
26	0x3c4b5d3f	0.012412368
27	0x3d3c013a	0.045899607
28	0x3d6ebc12	0.058284827
29	0x3d5605c5	0.052251596
30	0xbdbaa4bd	-0.091134526
31	0x3d7d6454	0.06186326
32	0x3d9f070d	0.07765017
33	0xbd52f63e	-0.051504366
34	0x3c038c3a	0.008029038
35	0x3d2edf3c	0.04269336
36	0x3d657313	0.056017946
37	0xbdb8980b	-0.09013375
38	0x3d8fbb72	0.07018174
39	0xbd2cea95	-0.042215902
40	0x3cd698f3	0.026195979
41	0x3d8c4631	0.068493254
42	0x3c0c0b9c	0.00854769
43	0x3d96ff29	0.07372887
44	0x3d803412	0.062599316
45	0x3b2a3f78	0.0025977772
46	0xbb90d974	-0.0044204537
47	0xbce07be6	-0.02740283
48	0xbd12cf9a	-0.035842516
49	0x3d9c5475	0.076332964
50	0xbd475d06	-0.0486727
51	0xbd73be23	-0.0595075
52	0xbc68e1e8	-0.0142140165
53	0xbb602ee5	-0.0034207639
54	0xbce58480	-0.028017282
55	0x3c929e97	0.017897887
56	0x3d1bb64c	0.03801565
57	0x3d72b96b	0.05925886
58	0x3d2dd26d	0.042437006
59	0x3dac3d1b	0.084100924
60	0xbd97483b	-0.07386824
61	0x3b9dddcd	0.0048177005
62	0xbd3d9a7c	-0.046289906
63	0x3d8153d2	0.063148156
64	0x3cbc30e6	0.022972535
65	0x3bc4bb54	0.0060037766
66	0xbd1cbcd0	-0.038266003
67	0x3b3c8f5b	0.002877197
68	0x38dec74c	0.00010622907
69	0xbd84a747	-0.06477218
70	0xbdaa3376	-0.08310597
71	0xbc78b846	-0.015180653
72	0xbd00c1d7	-0.03143486
73	0x3d3f05ba	0.04663632
74	0x3d09e8d9	0.033669326
75	0xbd65ae55	-0.05607446
76	0xbd0c8d41	-0.034314398
77	0x3d823a5a	0.06358786
78	0xbdbcaa20	-0.09212136
79	0x3d37821c	0.044801816
80	0xbcda329b	-0.026635459
81	0x3d9e907f	0.07742404
82	0xbd18a9f7	-0.037271466
83	0xbd134af3	-0.03596015
84	0xbc62f22e	-0.013851685
85	0x3d94c0ee	0.07263361
86	0x3d682f30	0.056685627
87	0x3d2a348f	0.04155403
88	0x3d198fa9	0.03749052
89	0xbd4a3910	-0.049370825
90	0xbc758752	-0.014985876
91	0x3c84cb7c	0.01621031
92	0xbcb82a12	-0.022480998
93	0xbd2bd5a6	-0.041951798
94	0xbd71af41	-0.059005026
95	0xbc5b1dc2	-0.013373794
96	0x3bb40f02	0.005494953
97	0x3d96530b	0.07340058
98	0x3d2e2b54	0.04252179
99	0x3da6da88	0.0814715
100	0x3da42922	0.08015658
101	0x3c8d1744	0.017223008
102	0xbd1a9a48	-0.03774479
103	0x3cdaaf5c	0.026694946
104	0xbd324fe6	-0.04353323
105	0x3ba99e62	0.0051763514
106	0x3d0683ab	0.032840412
107	0x3c9e0084	0.019287355
108	0x3d75b29b	0.059984785
109	0xbd4398ec	-0.04775326
110	0xbdb15671	-0.086590655
111	0xbda3c511	-0.07996572
112	0xbb11c9ce	-0.002224553
113	0xbc0c0571	-0.008546219
114	0xbdc0c59f	-0.09412693
115	0xbd92289b	-0.07136651
116	0xbd9d737b	-0.07688042
117	0x3a81f384	0.0009914492
118	0xbd3068e2	-0.043068774
119	0xbc9220a7	-0.017837835
120	0x3d1d2719	0.038367365
121	0x3ccb4d7e	0.024817225
122	0xbc4903b9	-0.012268954
123	0x3d961240	0.073277
124	0x3b446061	0.0029964673
125	0xbd71e02f	-0.05905169
126	0xbd3883b6	-0.045047484
127	0xbd46c5e8	-0.04852858
128	0x3d7463aa	0.05966536
129	0xbd21f31c	-0.039538488
130	0xbc53b162	-0.012920709
131	0x3c246650	0.010034159
132	0xbdbabedf	-0.09118437
133	0x3c11fb62	0.008910032
134	0xbd8a3c50	-0.06749785
135	0xbd5c714d	-0.05381899
136	0x3cc3cae3	0.023900455
137	0x3d4dc12a	0.050233044
138	0x3c47288f	0.012155666
139	0xbd1adb1c	-0.037806615
140	0xbd937a33	-0.07201042
141	0xbddbcc78	-0.10732359
142	0x3d3917a4	0.04518856
143	0xbdc29173	-0.095003985
144	0x3cb01bc6	0.021497618
145	0xbd15fbb5	-0.036617
146	0x3d8ff47a	0.07029052
147	0xbdb17c7d	-0.086663224
148	0xbbb32510	-0.0054670647
149	0x3b4cd84f	0.003125686
150	0x3c0b8338	0.008515172
151	0x3d1f0549	0.0388234
152	0x3d575f1c	0.052580938
153	0xbb6f572f	-0.0036520471
154	0x3d91a653	0.07111802
155	0xbd28d05e	-0.04121434
156	0xb98d9054	-0.0002700115
157	0x3ce013e9	0.027353244
158	0xbd22e6bf	-0.039770838
159	0xbb80dba5	-0.0039324337
160	0x3d8a2e5e	0.06747125
161	0x3d252426	0.040317677
162	0x3cbf0227	0.023316456
163	0xbcd2935c	-0.025705032
164	0x3c71cc16	0.014758131
165	0xbdd5ceb6	-0.104398176
166	0x3cca7da1	0.024718108
167	0xbb05ea61	-0.002043389
168	0x3d58ba8d	0.052912284
169	0xbd57a626	-0.052648686
170	0xbb51da0b	-0.0032020833
171	0x3d49ea96	0.049295984
172	0xbd899105	-0.067171134
173	0x3cb6afce	0.022300627
174	0xbc845c08	-0.016157165
175	0xb931a9ea	-0.00016943333
176	0xbbe8f43e	-0.007109194
177	0x3d081d96	0.03323134
178	0xbd84eb43	-0.06490185
179	0x3cefc548	0.029268876
180	0x3cc3f6e6	0.023921441
181	0xbd13c30c	-0.036074683
182	0xbd87e823	-0.066360734
183	0x3d7997e1	0.06093586
184	0xbd9387f9	-0.07203669
185	0x3d711625	0.05885901
186	0x3c517eec	0.012786608
187	0x3b1b845a	0.002373001
188	0xbd95e740	-0.07319498
189	0x3c8aed3c	0.016958825
190	0xbd5a5744	-0.05330588
191	0x3c874409	0.016511934
192	0xbd006a8e	-0.03135162
193	0xbd82e382	-0.0639105
194	0x3d6da40d	0.05801778
195	0xbd0dc001	-0.034606937
196	0x3bdcb965	0.006735968
197	0x3d7b6115	0.06137188
198	0xbd203c14	-0.039119795
199	0xbb85e8b1	-0.004086577
200	0xbd22cf08	-0.03974822
201	0xbdbb1e11	-0.09136594
202	0x3d08c0bf	0.033386942
203	0x3c27d60e	0.010243906
204	0x3d4bb165	0.049729723
205	0xbc9cf9e8	-0.019162133
206	0xbd6c0560	-0.057622313
207	0x3d157d7f	0.036496636
208	0xbdcd50fd	-0.10025213
209	0xbc4fcf61	-0.01268372
210	0xbc3cdc57	-0.0115271425
211	0xbdbdf809	-0.092758246
212	0xbd14c7d4	-0.036323383
213	0xbc0795d8	-0.008275472
214	0xbc9e5ead	-0.019332254
215	0xbdca4d82	-0.09878065
216	0xbcd88937	-0.026432617
217	0x3d2b13d5	0.04176696
218	0x3d603b3c	0.05474399
219	0xbc9419a4	-0.018078633
220	0x3d064b08	0.0327864
221	0xbda30361	-0.07959629
222	0xbd9726d6	-0.07380454
223	0xbddb23ad	-0.10700164
224	0xbd1ff87b	-0.03905533
225	0x3c4ce423	0.012505564
226	0x3c02f0f6	0.00799202
227	0xbd861a38	-0.065479696
228	0xbc3da3e4	-0.011574719
229	0xbc5204fb	-0.01281857
230	0xbdda5a7c	-0.1066179
231	0xbdbe2eed	-0.09286294
232	0xbdafd112	-0.08584799
233	0xbdabd3dd	-0.08390019
234	0x3d6ea0c7	0.058258798
235	0x3c582e94	0.013194699
236	0xbdbe502a	-0.09292634
237	0x3d665fc7	0.056243684
238	0xbd2ae4fb	-0.04172228
239	0xbdb15294	-0.08658329
240	0x3da84026	0.0821536
241	0xbd09d623	-0.033651482
242	0xbc08a080	-0.008339047
243	0xbd3e64de	-0.046482913
244	0x3cc6138b	0.02417924
245	0xbd23dd28	-0.040005833
246	0xbd46267d	-0.04837655
247	0x3cfc3ce3	0.030790752
248	0x3dd95a9d	0.10612986
249	0x3db85a49	0.090015955
250	0xbbbf8946	-0.0058452217
251	0x3d210b8e	0.03931766
252	0x3d31d086	0.043411754
253	0x3b8e0b61	0.0043348526
254	0xbd35df75	-0.04440256
255	0xbdcd7d37	-0.100336485

linear1.bias f4 [60]
0	0xbccf52dc	-0.025308065
1	0x3ce4e447	0.027940882
2	0x3d9815ce	0.07426034
3	0x3d9e30ca	0.077241495
4	0x39ca39eb	0.00038571595
5	0x3cb96f9e	0.022636231
6	0xbc2d9e09	-0.010596761
7	0xbca29c6a	-0.019849975
8	0xbc85c7f4	-0.016330697
9	0xbd74ca4e	-0.059763245
10	0xbdb7fb7a	-0.08983512
11	0x3d75c511	0.06000239
12	0xbc9abf58	-0.018890068
13	0x3cb2f695	0.021846095
14	0x3d5c3774	0.05376382
15	0xbd61dbff	-0.055141445
16	0xbb706606	-0.0036681904
17	0xbd6349b4	-0.05549021
18	0xbd3b1af7	-0.045680013
19	0xbd11d607	-0.035604503
20	0x3d1cf26e	0.038317136
21	0xbdbd53be	-0.09244488
22	0x3d94ba0c	0.07262048
23	0xbc29eb6d	-0.010371071
24	0xbd7053ad	-0.05867355
25	0xbd42d12b	-0.04756276
26	0xbc3a489d	-0.011369851
27	0x3d79aca7	0.06095567
28	0x3d2b5404	0.04182817
29	0x3d980f84	0.07424834
30	0xbc340d72	-0.010989534
31	0xbd5da013	-0.054107737
32	0xbdbcd279	-0.09219832
33	0xbd3491a5	-0.04408421
34	0x3d8c2a59	0.06844015
35	0xbcb1228b	-0.021622917
36	0x3cd8446d	0.026399815
37	0x3c189096	0.009311816
38	0xbd54f625	-0.051992554
39	0xbd9bee32	-0.076137915
40	0x3d97bc93	0.074090146
41	0xbc490401	-0.012269021
42	0x3d125fac	0.03573577
43	0xbcc9cdc2	-0.024634246
44	0x3c10f37c	0.008847114
45	0xbb7badfc	-0.0038403263
46	0xbda7c9f8	-0.08192819
47	0x3d03b15b	0.03215156
48	0x3db90e4d	0.09035931
49	0xbd5fdf02	-0.054656036
50	0xbdc4db21	-0.09612108
51	0x3c3d4b0e	0.011553539
52	0x3d453d1e	0.04815399
53	0xbd6f42b8	-0.058413237
54	0xbc016ed3	-0.007899958
55	0xbd211b5b	-0.03933273
56	0x3c741548	0.014897652
57	0x3d88604f	0.066589944
58	0x3dae396b	0.08507045
59	0x3a04072c	0.0005036469

linear2.weight f4 [30, 60]
0	0xbd962572	-0.07331361
1	0x3d847cad	0.064690925
2	0xbded5ca1	-0.11589933
3	0x3db51530	0.08841932
4	0xbc724900	-0.014787912
5	0x3dd5d088	0.10440165
6	0x3d8430b0	0.06454599
7	0x3dff1e8a	0.12456997
8	0xbdd7c77f	-0.10536098
9	0xbc5d37a8	-0.013502039
10	0xbda72d90	-0.08162987
11	0x3dbd9976	0.09257786
12	0xbdf98c11	-0.12184919
13	0x3da7f42e	0.082008705
14	0xbdb4b7bc	-0.08824107
15	0x3da1b6aa	0.078961685
16	0xbdc5c237	-0.09656184
17	0x3d8f7026	0.070038125
18	0xbd333ad2	-0.043757267
19	0x3d182d70	0.037152708
20	0x3cd6c890	0.026218683
21	0xbd71e9e9	-0.059060965
22	0x3dda62a8	0.106633484
23	0xbde03bb2	-0.10948886
24	0x3dfcba36	0.123402044
25	0xbe01ef66	-0.1268898
26	0x3db8782a	0.090072945
27	0x3aaf7e77	0.001338913
28	0xbde8e949	-0.113726206
29	0x3d8021aa	0.06256421
30	0x3bd5d10f	0.006525166
31	0xbd862bb2	-0.06551303
32	0x3dcd0de0	0.10012412
33	0xbde5b756	-0.11216609
34	0xbd826838	-0.063675344
35	0xbdf7a5b5	-0.12092153
36	0x3b4be979	0.0031114502
37	0x3dcffb7d	0.101553895
38	0xbcbf962e	-0.023387041
39	0x3c3e7683	0.011624935
40	0x3d25677e	0.0403819
41	0xbcc2967d	-0.023753399
42	0xbc743f80	-0.014907718
43	0x3ad5f6d8	0.0016324176
44	0xbd177763	-0.03697909
45	0x3e01d460	0.12678671
46	0xbc9fa354	-0.01948706
47	0xbd2da104	-0.042389885
48	0x3ceee153	0.029160177
49	0x3db76443	0.0895467
50	0x3d7451a8	0.059648186
51	0x3d99452a	0.07483895
52	0x3d5f4759	0.0545114
53	0x3cb23b30	0.021756738
54	0xbd9b8ba0	-0.07594991
55	0x3dd42c81	0.10360051
56	0xbdb0735b	-0.08615752
57	0xbdd5e422	-0.104439035
58	0xbd481fb8	-0.048858374
59	0xbd18657f	-0.03720617
60	0x3de3e8ec	0.11128411
61	0xbcff18aa	-0.03113969
62	0xbda63b71	-0.08116806
63	0xbdbd2934	-0.092363745
64	0x3d6aaa32	0.057291217
65	0xbdf09bed	-0.117484905
66	0xbd9f2d74	-0.07772341
67	0x3d31faca	0.04345206
68	0x3dbc2a35	0.09187738
69	0xbddf7230	-0.109104514
70	0x3e003a51	0.12522246
71	0xbd45f7cc	-0.04833202
72	0x3d1dcfca	0.03852824
73	0x3ce9523d	0.028481597
74	0x3cf61175	0.030037621
75	0x3dc950ae	0.098298416
76	0xbd0fb535	-0.035084922
77	0x3c99564d	0.01871791
78	0x3d557486	0.05211308
79	0xbe58dcb2	-0.21177939
80	0x3d99b8de	0.07505964
81	0x3d017f95	0.031615812
82	0x3daf7356	0.085669205
83	0x3d6f0f41	0.058364157
84	0xbb058580	-0.0020373762
85	0x3d3ceb37	0.046122756
86	0x3c9fa3d9	0.019487308
87	0xbc90a855	-0.017658392
88	0x3d6bda90	0.057581484
89	0xbdfeee31	-0.12447775
90	0xbd8ad6bf	-0.06779241
91	0x3dab6762	0.08369328
92	0xbddcc7cc	-0.10780296
93	0xbde80169	-0.11328394
94	0xbddbe0dd	-0.10736249
95	0xbdbe17c5	-0.092818774
96	0x3dcd330b	0.10019501
97	0x3da4e2b4	0.08051053
98	0x3bf7bac0	0.007560104
99	0xbb786ae6	-0.0037905513
100	0xbd930f09	-0.07180602
101	0x3d7d4091	0.061829153
102	0xbde835ba	-0.113383725
103	0xbb6dbd0a	-0.0036276006
104	0xbdc354b0	-0.09537637
105	0xbdc3a6c1	-0.0955329
106	0xbd9f3ded	-0.07775483
107	0x3d88333e	0.06650399
108	0x3c068088	0.008209355
109	0x3db790f9	0.08963198
110	0x3c26aac8	0.010172553
111	0x3da11ff6	0.07867424
112	0x3e24323a	0.16034785
113	0x3de579fe	0.11204909
114	0x3da1784a	0.078842714
115	0xbd3cb3c1	-0.046069864
116	0xbdba657a	-0.09101386
117	0x3df867f6	0.12129204
118	0x3ccd97c5	0.025096783
119	0x3d895920	0.06706452
120	0xbdc6250b	-0.09675034
121	0x3df84143	0.12121823
122	0x3d8b4b93	0.06801524
123	0x3d5458fc	0.051842675
124	0x3c88f429	0.016717987
125	0xbd9e52e7	-0.07730656
126	0xbd850742	-0.06495525
127	0xbd7d330f	-0.06181627
128	0xbbffd541	-0.0078074043
129	0x3d26679c	0.040626153
130	0x3da428ec	0.08015618
131	0x3cf514fc	0.029917233
132	0xbd7fe018	-0.06246957
133	0x3e38e326	0.180554
134	0xbca44c2d	-0.020055855
135	0x3dca2e6b	0.09872135
136	0xbcc3f326	-0.023919653
137	0x3d6c53df	0.057697173
138	0x3b9abe65	0.004722404
139	0x3d3e8c2c	0.046520397
140	0xbd8b2e71	-0.06795967
141	0xbdb2f312	-0.08737768
142	0xbdab36bb	-0.083600484
143	0xbd8a4d68	-0.06753045
144	0x3dbf122c	0.09329638
145	0xbe389295	-0.18024667
146	0xbdbd0b80	-0.09230709
147	0xbde2c719	-0.11073131
148	0xbda3d612	-0.07999815
149	0x3dcfa24d	0.10138378
150	0xbdf194f3	-0.11795988
151	0xbd84c7a9	-0.06483395
152	0xbc540195	-0.01293983
153	0x3bcdad6c	0.006276777
154	0x3d600d99	0.054700468
155	0x3e0afa59	0.13572063
156	0x3d97f8cd	0.07420502
157	0xbdcaa032	-0.09893836
158	0xba1d7b7e	-0.00060074765
159	0x3e2a3688	0.16622365
160	0x3d1dadcf	0.038495835
161	0xbdc3909a	-0.09549065
162	0xbc99e0d4	-0.018783964
163	0x3d594501	0.053044323
164	0xbd11ac42	-0.03556467
165	0x3ddd3df1	0.1080283
166	0xbd30120e	-0.04298597
167	0x3d30fb92	0.043208666
168	0xbdbf3922	-0.09337069
169	0x3d2da038	0.042389125
170	0x3ddd925e	0.10818933
171	0x3cacd6ae	0.021098461
172	0x3d8f9902	0.07011606
173	0x3c8d33b8	0.017236575
174	0xbe00674f	-0.12539409
175	0x3e05c3d3	0.13062982
176	0x3d35e8ac	0.044411346
177	0xbda1464a	-0.07874735
178	0xbda8c20b	-0.08240136
179	0x3d483ca4	0.048885956
180	0x3d9d5858	0.07682866
181	0xba1b9447	-0.0005934876
182	0xbd6dd692	-0.05806596
183	0xbd502dc4	-0.050824896
184	0x3da258e6	0.07927112
185	0x3d966a0d	0.07344446
186	0x3d8171bd	0.06320522
187	0x3e2b4782	0.16726497
188	0x3d13fcdd	0.03612982
189	0x3e00d29f	0.12580346
190	0xbd51387c	-0.05107926
191	0x3cfdcc5b	0.030981233
192	0x3cd903bb	0.026491037
193	0x3d525809	0.051353488
194	0xbb87a54c	-0.004139578
195	0xbde6bb90	-0.112662435
196	0xbb4206fc	-0.0029606214
197	0x3df99c8e	0.121880636
198	0xbcdfc1df	-0.027314125
199	0x3d0e7782	0.03478194
200	0xbd4c1c79	-0.04983184
201	0x3dfb5347	0.12271743
202	0x3d03b97c	0.032159314
203	0x3c515546	0.012776678
204	0xbd85b54e	-0.06528722
205	0x3de11d53	0.10991921
206	0x3dd3d042	0.103424564
207	0xbde13bc1	-0.10997725
208	0xbd4f5d79	-0.05062625
209	0x3d64299d	0.055703748
210	0x3dbdd15a	0.09268446
211	0xbd58b736	-0.0529091
212	0xbd1215f6	-0.035665475
213	0xbc842c2f	-0.01613435
214	0x3dd4da29	0.10393173
215	0xbd8358ae	-0.06413399
216	0xbd3a066c	-0.04541628
217	0xbdc30ece	-0.09524308
218	0xbe00f71c	-0.12594265
219	0x39383000	0.00017565489
220	0xbe58f9fa	-0.21189108
221	0x3d8780a0	0.0661633
222	0xbe02f8a0	-0.12790155
223	0xbd78e16f	-0.060761865
224	0x3d0c9164	0.034318343
225	0xbde41c67	-0.1113823
226	0xbda7eca5	-0.08199433
227	0xbdc44d91	-0.09585107
228	0x3dfd94eb	0.123819195
229	0xbd857790	-0.06516945
230	0x3cba827d	0.0227673
231	0x3a34d73a	0.00068985263
232	0x3e4180c0	0.1889677
233	0xbcd45f94	-0.025924481
234	0xbe036b82	-0.1283398
235	0xbd569b94	-0.052394465
236	0x3bef22c0	0.0072978437
237	0x3d7a8b93	0.061168265
238	0x3dccee77	0.10006421
239	0xbd699d8d	-0.057035018
240	0xbd72dde8	-0.059293658
241	0x3dd733ed	0.10507951
242	0xbe222260	-0.15833426
243	0x3d9114e8	0.07084066
244	0xbda44538	-0.08021015
245	0xbd865389	-0.06558902
246	0xbd8a96e2	-0.0676706
247	0x3d9a8619	0.07545108
248	0xbd8b818c	-0.068118185
249	0xbddfd27f	-0.10928821
250	0x3d9b5a08	0.075855315
251	0xbd3dfafb	-0.04638193
252	0x3d9a3796	0.075301334
253	0x3d9bd371	0.076086886
254	0xbe0cf3a3	-0.13764815
255	0xbc05ff10	-0.008178487

linear2.bias f4 [30]
0	0xbd4424ea	-0.047886766
1	0xbdd080c4	-0.1018081
2	0x3d652176	0.055940114
3	0xbda3fad6	-0.080068275
4	0xbca80e4f	-0.020514635
5	0xbd0da9a3	-0.034585606
6	0xbdfaed92	-0.12252344
7	0xbde9114b	-0.113802515
8	0x3dac85d1	0.08423961
9	0xbdaaa77a	-0.08332725
10	0x3d7b25cc	0.061315343
11	0x3dbaa6ae	0.09113823
12	0x3d3a873c	0.045539126
13	0x3d0b22ef	0.033968862
14	0xbd5d9fb4	-0.054107383
15	0xbdec46b9	-0.11536927
16	0x3d7a3d7d	0.061093796
17	0xbdabb6c6	-0.08384471
18	0x3bc5e7db	0.006039602
19	0xbd273a36	-0.040827
20	0xbd5147a0	-0.051093698
21	0x3db51abc	0.0884299
22	0x3db0eb54	0.08638635
23	0x3c834915	0.01602606
24	0x3cefc692	0.02926949
25	0xbd580fb0	-0.052749336
26	0xbdce516a	-0.10074122
27	0x3d9d3af5	0.07677261
28	0xbdf7ab79	-0.12093253
29	0xbd9f93de	-0.07791875

linear3.weight f4 [1200, 30]
0	0xbe00284d	-0.12515374
1	0x3da4c4a1	0.080453165
2	0xbe02d60e	-0.12776968
3	0xbd2a6723	-0.041602265
4	0x3b917062	0.004438446
5	0x3e0c3fd4	0.13696223
6	0x3d9c2ca4	0.07625702
7	0x3e10c91f	0.14139222
8	0x3dc9c211	0.09851468
9	0x3db9066a	0.090344265
10	0x3cd5829b	0.026063254
11	0xbdeb6e7d	-0.11495683
12	0x3b5d4761	0.003376447
13	0xbe2fbf60	-0.17162848
14	0x3d40b13c	0.047044024
15	0x3be25c97	0.00690801
16	0xbd03f526	-0.032216214
17	0x3d2d1f14	0.042265967
18	0x3d9c0621	0.076183565
19	0x3dc444c4	0.095834285
20	0xbc05d114	-0.008167524
21	0x3d7acacb	0.061228555
22	0x3dd4d9cd	0.10393105
23	0xbe4f6e6d	-0.20256968
24	0xbd9aeb32	-0.07564391
25	0x3cefc788	0.029269949
26	0xbe0ab3fc	-0.13545221
27	0x3dda02c6	0.1064506
28	0xbd0e27cc	-0.034705922
29	0xbd500fed	-0.050796438
30	0xbe324df0	-0.17412543
31	0x3e3703d8	0.1787256
32	0xbe06524e	-0.13117334
33	0x3db4c8d5	0.08827368
34	0xbe2c033d	-0.1679811
35	0x3e5a817d	0.21338458
36	0x3dbef678	0.09324354
37	0x3e2a4b02	0.16630176
38	0xbdeef7f4	-0.11668387
39	0xbe00c64f	-0.12575649
40	0xbc9d79b4	-0.019223072
41	0x3cf60d9a	0.030035783
42	0xbd657911	-0.05602366
43	0xbe0c032b	-0.13673083
44	0xbe32092d	-0.17386313
45	0xbda3b840	-0.07994127
46	0x3d53e617	0.051733103
47	0xbe5640cc	-0.20923156
48	0xbbe63ea0	-0.0070265085
49	0xbe2df395	-0.1698745
50	0x3e24889b	0.16067736
51	0x3d94578e	0.07243262
52	0xbe218214	-0.15772277
53	0xbe03816d	-0.12842341
54	0xbd79895c	-0.06092201
55	0xbdbd1d29	-0.092340775
56	0xbdb464dc	-0.088083
57	0xbda20527	-0.07911139
58	0x3e0d1b46	0.13779935
59	0xbd54c05a	-0.051941253
60	0x3e1b73c1	0.15180875
61	0x3dfadd2e	0.12249218
62	0xbd94400b	-0.07238778
63	0xbe247cf0	-0.16063285
64	0x3b62a490	0.003458295
65	0xbcb3d8e7	-0.021954013
66	0x3d34c28c	0.044130847
67	0xbd894eb1	-0.06704462
68	0xbc44577e	-0.01198375
69	0x3e3811a0	0.17975473
70	0x3c4b51c1	0.012409628
71	0x3d97975e	0.07401918
72	0xbe2de91a	-0.16983452
73	0x3da1ddf0	0.07903659
74	0xbc88829a	-0.016663838
75	0x3e14dd3c	0.14537519
76	0xbdf22603	-0.118236564
77	0x3e01d086	0.12677202
78	0xbc91465b	-0.017733743
79	0x3d1ee832	0.038795657
80	0xbe02b8c5	-0.12765796
81	0x3be31a16	0.0069306
82	0x3dc6a0c0	0.096986294
83	0xbe0e2539	-0.13881387
84	0x3dbfd19f	0.09366154
85	0xbc842427	-0.01613052
86	0x3bbe55cb	0.005808567
87	0x3dae439c	0.08508989
88	0x3cf0c9e0	0.029393137
89	0xbcbed9af	-0.023297159
90	0x3d760452	0.060062714
91	0x3e63642f	0.22206186
92	0xbdf234ae	-0.11826454
93	0x3e467a33	0.19382553
94	0xbdb40c11	-0.08791364
95	0xbe770ff5	-0.24127181
96	0xbd10c09b	-0.035339933
97	0x3e5cf2c9	0.2157699
98	0xbc54d7af	-0.012990876
99	0xbe676d88	-0.22600377
100	0xbcac1743	-0.021007186
101	0xbd652ce2	-0.055951007
102	0xbe081a14	-0.13291198
103	0xbd526dad	-0.051374126
104	0xbe54a545	-0.2076617
105	0xbd5a4849	-0.053291593
106	0xbdefb7ed	-0.11705003
107	0x3df33d6f	0.11876952
108	0x3dbce8c8	0.09224087
109	0x3dfb7dc0	0.12279844
110	0x3c2f9b32	0.010718154
111	0xbd03dff8	-0.032196015
112	0x3ce55552	0.027994785
113	0x3ca54499	0.020174311
114	0xbe1fe173	-0.15613346
115	0x3d88689e	0.06660579
116	0xbdd10db8	-0.10207695
117	0x3dd44b45	0.10365919
118	0xba949c00	-0.0011337996
119	0x3e129702	0.14315417
120	0x3e1c3d7b	0.15257828
121	0xbbfae6f7	-0.0076569277
122	0x3e232093	0.15930395
123	0xbd9e2627	-0.07722121
124	0x3e5bb564	0.21455914
125	0x3dbfddaa	0.09368451
126	0x3e2fb20c	0.17157763
127	0xbe837f78	-0.25683188
128	0xbbe39949	-0.0069457632
129	0x3e88ae42	0.26695448
130	0x3e3aa239	0.18225946
131	0xbcba3fec	-0.022735558
132	0x3d1a3474	0.03764768
133	0x3d380bff	0.044933315
134	0x3e21a3ae	0.15785095
135	0xbd2a0dfd	-0.041517247
136	0x3dc083a5	0.09400109
137	0x3e11b9c0	0.14231014
138	0xbdf56814	-0.11982742
139	0xbdae4913	-0.085100316
140	0xbe2e8a1e	-0.17044875
141	0x3dda479e	0.10658191
142	0xbdb97cfd	-0.09057043
143	0xbd677d2f	-0.05651587
144	0xbd56d99c	-0.052453622
145	0x3d1a6578	0.037694424
146	0xbd2ab8b7	-0.041680064
147	0x3e2ad603	0.16683201
148	0x3d1fe518	0.03903684
149	0x3e004fac	0.12530392
150	0xbe2df5b8	-0.16988266
151	0xbc8c0cda	-0.017095972
152	0xbe3ef644	-0.1864863
153	0xbe15dd5c	-0.14635223
154	0xbdd518e2	-0.10405137
155	0x3d7e095b	0.06202064
156	0x3dbf2ca6	0.09334688
157	0x3da81274	0.08206645
158	0x3bc56478	0.0060239397
159	0xbd01ba36	-0.031671725
160	0x3dcf3b56	0.10118739
161	0x3e10147d	0.14070316
162	0xbe0a0a36	-0.13480458
163	0xbe046d82	-0.12932399
164	0xbdaff6aa	-0.08591969
165	0xbdcfa4b2	-0.10138835
166	0x3dbafbde	0.09130071
167	0xbdba9800	-0.09111023
168	0xbe2abb19	-0.16672935
169	0xbcd7aa71	-0.02632639
170	0xbe32c615	-0.17458375
171	0x3d8340a9	0.06408817
172	0x3e126a07	0.14298259
173	0x3bb1d2d9	0.0054267463
174	0x3dc89838	0.097946584
175	0x3c22f320	0.009945661
176	0x3e1eb93a	0.15500346
177	0x3d88a27b	0.06671616
178	0x3cdfdad8	0.027326033
179	0x3e200e94	0.15630561
180	0xbe0bb68c	-0.13643855
181	0xbdd48b0d	-0.10378084
182	0x3d93e4df	0.07221388
183	0x3d0f1c82	0.034939297
184	0xbd098321	-0.03357232
185	0x3d58d533	0.052937698
186	0x3dab88d9	0.08375711
187	0x3c2745f4	0.010209549
188	0x3d1c875c	0.038215026
189	0x3e0b09f2	0.13578013
190	0xbe137582	-0.14400294
191	0x3de3ddda	0.11126299
192	0x3e43d943	0.19125848
193	0x3ce516f8	0.027965054
194	0x3d34f0d4	0.044174984
195	0x3e0960be	0.1341581
196	0xbd8546af	-0.065076225
197	0xbbbde308	-0.0057948865
198	0xbe4f15b2	-0.2022312
199	0x3c0d3427	0.008618391
200	0x3d77ad7e	0.06046819
201	0x3e2cf5dc	0.16890663
202	0x3e4c98fb	0.19980232
203	0xbd26f92b	-0.04076497
204	0x3d5a170b	0.05324463
205	0x3cd4ae48	0.02596201
206	0x3d4e4900	0.050362587
207	0xbc7d3ebf	-0.015456854
208	0x3e20cf7c	0.15704149
209	0xbae8df8c	-0.0017766817
210	0xbe385f47	-0.18005095
211	0xbdecc70b	-0.11561402
212	0x3e007feb	0.12548797
213	0xbe3f8bc7	-0.18705665
214	0xbdd656cf	-0.10465776
215	0xbe183256	-0.14862952
216	0x3e2aac10	0.16667199
217	0xbd12a73f	-0.03580403
218	0x3d9e16c5	0.07719187
219	0x3e154d90	0.14580369
220	0xbe293731	-0.1652496
221	0x3da889fb	0.08229443
222	0x3dc7e4e4	0.09760454
223	0xbe067647	-0.13131057
224	0xbdbd71df	-0.09250235
225	0x3e001285	0.12507065
226	0x3d12072d	0.035651375
227	0x3d65f4a4	0.05614151
228	0xbdc47666	-0.09592895
229	0xbdbef34a	-0.093237475
230	0xbe17c489	-0.14821066
231	0xbd97f303	-0.07419398
232	0xbc8bea55	-0.017079512
233	0x3e0a3c0d	0.1349947
234	0xbe41189a	-0.18857041
235	0x3dc695bd	0.09696529
236	0x3ce30f32	0.027717207
237	0xbc00f7e2	-0.0078716
238	0xbe32f8e9	-0.17477764
239	0x3d674058	0.056457847
240	0x3e0b1b1c	0.1358456
241	0xbd6bd9e6	-0.05758085
242	0x3d4055b4	0.046956733
243	0xbde03ea1	-0.109494455
244	0x3d884dce	0.06655465
245	0xbdc4aeaf	-0.09603631
246	0xbb0282c0	-0.001991436
247	0x3dafb854	0.0858008
248	0xbd9674bd	-0.07346485
249	0xbe24eb5f	-0.16105412
250	0x3df65384	0.12027648
251	0x3ca990c0	0.020698905
252	0x3defaab4	0.11702481
253	0xbdc75e97	-0.097348385
254	0x3c2aeac0	0.010431945
255	0xbe0b48d6	-0.13602003

linear3.bias f4 [1200]
0	0xbd98e247	-0.07465034
1	0xbd162814	-0.036659315
2	0x3ce570df	0.028007923
3	0x3d972d95	0.07381741
4	0xbd013a01	-0.031549457
5	0xbe0baebc	-0.13640875
6	0xbd638388	-0.05554536
7	0x3e1f5051	0.15557982
8	0xbe1f95f1	-0.15584542
9	0x3d98ecc8	0.074670374
10	0x3e482a39	0.19547357
11	0x3e32e8e4	0.17471653
12	0x3d7a7891	0.061150137
13	0xbd2d8885	-0.042366523
14	0xbb6012de	-0.0034190933
15	0xbd105fab	-0.035247486
16	0xbda78f2d	-0.081816055
17	0x3e4a2dcd	0.19744034
18	0x3e23b024	0.15985161
19	0xbd979bf5	-0.07402793
20	0x3d90ead2	0.070760384
21	0xbd6e959e	-0.058248155
22	0x3e1d23b0	0.15345645
23	0xbd4a42f5	-0.04938026
24	0x3e39b906	0.18136987
25	0xbd1c1160	-0.038102508
26	0x3e820176	0.2539174
27	0x3e1be800	0.1522522
28	0x3e2dfbac	0.16990536
29	0xbdbb3c7b	-0.09142395
30	0x3dda12a4	0.10648087
31	0x3d9d9253	0.07693925
32	0x3d6caa2c	0.057779476
33	0xbaf979ec	-0.0019033528
34	0x3dd6364e	0.104595765
35	0x3d92f83e	0.07176255
36	0x3ce22c18	0.027608916
37	0xbe21d0f9	-0.15802373
38	0x3df1f41e	0.1181414
39	0xbc6e863a	-0.014558369
40	0xbdfafed0	-0.12255633
41	0x3e4194e6	0.18904456
42	0xbdcc8d6a	-0.0998791
43	0xbe217f13	-0.15771131
44	0xbcb1cdc4	-0.021704562
45	0x3e0f1545	0.13972957
46	0xbbfdabb3	-0.0077414154
47	0xbd9509e6	-0.072772786
48	0x3e462924	0.19351631
49	0x3dd68494	0.10474506
50	0x3c25019c	0.0100711845
51	0xbd2fd422	-0.042926915
52	0x3e2c2934	0.16812593
53	0x3debda04	0.115161926
54	0x3e446ed6	0.19182906
55	0xbdf46e17	-0.119350605
56	0x3e148f91	0.14507891
57	0x3cb98eff	0.022651194
58	0x3e0f89d5	0.14017422
59	0xbce68228	-0.028138235
60	0xbe4f57d4	-0.20248348
61	0xbd645e61	-0.05575407
62	0x3de9df0e	0.114194974
63	0x3deb8afa	0.11501117
64	0x3db26c44	0.08712056
65	0xbddfda57	-0.10930317
66	0xbe010c17	-0.12602268
67	0x3de48ffa	0.11160274
68	0x3df4c3b2	0.119513884
69	0x3e526830	0.20547557
70	0x3d0bdb53	0.03414471
71	0xbe448c2a	-0.19194093
72	0x3daec663	0.08533933
73	0xbe09cc5e	-0.13456866
74	0xbd893096	-0.0669872
75	0x3caff753	0.021480238
76	0x3e503e9d	0.20336385
77	0xbd8f6308	-0.070013106
78	0xbdb6920e	-0.089145765
79	0xbd0824d0	-0.033238232
80	0xbdbb2864	-0.09138563
81	0x3b66cdfd	0.0035217993
82	0x3e2d936f	0.16950773
83	0x3df4d84f	0.1195532
84	0xbd207f92	-0.03918416
85	0x3b14cc24	0.0022704685
86	0x3e04a0a8	0.1295191
87	0x3e193386	0.14961061
88	0x3dca6f16	0.09884469
89	0x3b293a4f	0.0025822108
90	0x3e0e07a0	0.13870096
91	0xbd5952b5	-0.05305739
92	0xbda46fe1	-0.08029152
93	0x3e1bc37a	0.15211287
94	0xbba55d40	-0.0050465167
95	0x3c36fcf5	0.011168708
96	0x3daba1da	0.0838048
97	0x3e23ef62	0.16009286
98	0xbe2b57fd	-0.16732784
99	0xbcf39c75	-0.02973769
100	0x3bcb9c3a	0.006213692
101	0x3dcc8119	0.09985561
102	0x3e3e5eca	0.18590847
103	0xbdcce5d2	-0.10004772
104	0x3932a3b4	0.00017036387
105	0x3c9904af	0.018678991
106	0x3ca340c2	0.01992834
107	0xbe27ac3c	-0.16374296
108	0xbdc25e79	-0.094906755
109	0xbd8d2752	-0.068922654
110	0xbdd09ec2	-0.10186531
111	0xbe31d78f	-0.17367385
112	0x3e07dd7f	0.13268088
113	0x3cf7ea02	0.03026295
114	0xbdb51513	-0.0884191
115	0x3df2f7f0	0.118636966
116	0xbdfde266	-0.12396698
117	0xbdf124fe	-0.11774634
118	0xbe030d8f	-0.12798141
119	0xbbe0ae3b	-0.0068567074
120	0xbda6a992	-0.08137812
121	0xbdcdf7ca	-0.10057028
122	0x3dfb6f9d	0.12277148
123	0x3d25629b	0.04037724
124	0xbdfe8bfc	-0.12429044
125	0xbd6754da	-0.056477405
126	0x3e047d41	0.12938406
127	0x3e0a27d1	0.13491751
128	0x3e0e2faf	0.13885377
129	0xbe050ee5	-0.12993963
130	0xbdb4a016	-0.088195965
131	0x3d978d40	0.07399988
132	0xbe244070	-0.16040206
133	0xbd2a6c6a	-0.041607298
134	0x3cc64d4c	0.02420678
135	0xbd6eb6b2	-0.0582797
136	0xbe27e5c7	-0.16396247
137	0x3c993529	0.018702107
138	0x3e2f2bb0	0.17106509
139	0xbda219d7	-0.07915085
140	0x3d2c78e4	0.042107478
141	0xbe39396a	-0.18088308
142	0x3e1c1574	0.15242559
143	0xbdab8d9a	-0.08376618
144	0x3e2a53bf	0.16633509
145	0xbd6fd2f2	-0.058550783
146	0xbbe4070f	-0.0069588493
147	0x3dd21e8b	0.10259732
148	0x3e5e669c	0.2171883
149	0x3db76880	0.08955479
150	0x3e3fbf2b	0.18725269
151	0x3d5ec2d4	0.05438502
152	0x3ddbd42b	0.10733827
153	0x3e2bde33	0.16783981
154	0xbd1bb212	-0.038011618
155	0x3e152222	0.14563802
156	0x3e138bc2	0.14408782
157	0x3e259440	0.16169834
158	0xbcec6722	-0.028857771
159	0x3e4932ab	0.19648235
160	0xbe0b976a	-0.13631979
161	0xbd5444db	-0.05182348
162	0xbd9074bb	-0.070535146
163	0x3e372e12	0.17888668
164	0xbd9b7b09	-0.075918265
165	0xbca21b20	-0.019788325
166	0xbdab1c60	-0.083550215
167	0x3e3c580c	0.18392962
168	0x3e4c46d8	0.199489
169	0x3d73eee2	0.05955399
170	0x3e25f5cc	0.16207045
171	0xbdb1580a	-0.0865937
172	0xbb87f22c	-0.004148742
173	0x3d837a32	0.06419791
174	0x3d2e964c	0.042623803
175	0x3e25a9cc	0.16178054
176	0xbc27ed9b	-0.010249521
177	0x3db92f4a	0.09042223
178	0x3e0171fa	0.12641135
179	0x3db09808	0.08622748
180	0xbdd192fc	-0.10233113
181	0xbe0fe98a	-0.14053932
182	0x3e24c6e6	0.16091499
183	0x3e0e3a8c	0.13889521
184	0x3e33126c	0.17487496
185	0x3d87c5b5	0.066295065
186	0xbdb61b0a	-0.08891876
187	0xbde0c232	-0.1097454
188	0x3dbe351e	0.09287475
189	0xbde3bd9d	-0.1112015
190	0x3e29cec8	0.16582787
191	0x3e13ec7a	0.14445677
192	0xbdb3a59d	-0.087718226
193	0x3d8e4625	0.06946973
194	0x3d712efa	0.05888269
195	0x3dbbfb02	0.09178735
196	0x3e24ab66	0.16081008
197	0xbde5b95d	-0.11216996
198	0x3d4d7e46	0.05016925
199	0xbd4878e1	-0.048943404
200	0xbc332cf7	-0.010936013
201	0xbdf16a55	-0.11787859
202	0x3d931dc0	0.07183409
203	0xbe000057	-0.1250013
204	0xbd7da3b8	-0.061923712
205	0x3db303ab	0.08740934
206	0xbe2a567a	-0.1663455
207	0x3dba7321	0.0910399
208	0x3e29b930	0.1657455
209	0x3de7c6ff	0.11317252
210	0xbcf5d3fd	-0.03000831
211	0x3da23d6c	0.079218715
212	0x3e094946	0.13406858
213	0xbe54ec90	-0.20793366
214	0xbd8cd370	-0.06876266
215	0xbc847713	-0.01617006
216	0xbe5438d6	-0.20724806
217	0xbe0af852	-0.13571289
218	0x3d6c44b9	0.057682727
219	0xbd2418b4	-0.04006262
220	0xbd6a55ec	-0.057210848
221	0xbe1510b1	-0.14557149
222	0xbd889f7e	-0.06671046
223	0x3d86da8c	0.06584653
224	0x3dd184c7	0.102304034
225	0x3ca33df0	0.019926995
226	0xbe3a9f93	-0.18224935
227	0xbd8f0f84	-0.06985381
228	0x3c6ca830	0.014444396
229	0xbbd07a40	-0.0063622296
230	0x3d0acb1c	0.033885106
231	0xbcaa0aba	-0.020757068
232	0x3c2cf746	0.010557001
233	0xbe1d6182	-0.15369228
234	0xbe32fb78	-0.1747874
235	0x3bf01f80	0.007327974
236	0x3e010da6	0.12602863
237	0xbe2da067	-0.1695572
238	0x3e39cd35	0.18144687
239	0xbd3e8f28	-0.046523243
240	0xbd810666	-0.063000485
241	0x3bad5209	0.0052893204
242	0xbe17afa1	-0.14813091
243	0xb88914c6	-6.5365384e-05
244	0x3e01dd27	0.12682019
245	0x3d9ee2eb	0.07758125
246	0xbe2862f4	-0.16443998
247	0x3e0523ec	0.13001984
248	0xbd2541c7	-0.040345933
249	0xbe608014	-0.21923858
250	0x3dd643f7	0.10462182
251	0xbd463fe1	-0.048400763
252	0xbd9cfe2b	-0.07665666
253	0xbdaa9083	-0.08328345
254	0xbd9fa3be	-0.07794903
255	0xbd7cdf3c	-0.06173633

linear1.weight f4 [30, 1200]
0	0xbc62493f	-0.013811409
1	0x3be1fe60	0.006896779
2	0x3a703640	0.00091633573
3	0x3c842a5a	0.016133476
4	0xbb317970	-0.002708044
5	0x3caa526a	0.020791251
6	0xbc46e472	-0.012139427
7	0xbc601fdf	-0.013679474
8	0x3bc85758	0.006113928
9	0xbcd2a1af	-0.025711862
10	0xbc5fa40b	-0.013649951
11	0xbcbc6780	-0.022998571
12	0xbb4259c0	-0.0029655546
13	0x3cd321c8	0.025772944
14	0x3ce16730	0.027515024
15	0x3b2870a0	0.0025701895
16	0x3ccf2fdc	0.025291376
17	0xbcdd003a	-0.026977647
18	0x3c33eab0	0.010981247
19	0xbc5425b6	-0.012948444
20	0xbcdc01e7	-0.026856376
21	0x3cbfef4c	0.023429535
22	0xbcbf3630	-0.023341268
23	0x3c0c75b4	0.0085729845
24	0xbbb72b70	-0.005589895
25	0x3bfee0f0	0.0077782795
26	0xbc9c4d9b	-0.019079974
27	0x3c898ba2	0.016790215
28	0x3ce4e958	0.027943298
29	0xbc3796b2	-0.011205362
30	0xbc5b59d3	-0.013388115
31	0x3b3302d0	0.0027314909
32	0xbb841df4	-0.004031891
33	0x3c4e744c	0.0126009695
34	0x3cd6a638	0.026202306
35	0xbbe4797c	-0.00697249
36	0x3c9ae780	0.018909216
37	0x3ce4c078	0.027923808
38	0xb9fa21c0	-0.00047708862
39	0xbc000392	-0.007813351
40	0x3c0bb2a8	0.008526482
41	0xbc3b3252	-0.0114255715
42	0xbc2b077c	-0.010438796
43	0x3af57070	0.0018725526
44	0x3c4e74e4	0.012601111
45	0x3c3e1454	0.011601526
46	0x3ce56570	0.02800247
47	0xbc109f3c	-0.008827027
48	0x3c7d4b0c	0.015459787
49	0x3c87d42e	0.016580667
50	0xbce5746e	-0.02800962
51	0x3ce305c2	0.027712706
52	0x3bc980f0	0.0061494038
53	0xbb902fb4	-0.004400218
54	0x3c81ed42	0.015860204
55	0xbc638d49	-0.0138886655
56	0xbce952e4	-0.028481908
57	0x3c8645be	0.016390678
58	0x3a76ef00	0.0009419769
59	0xbbd50f00	-0.0065020323
60	0x3c96ec2a	0.018423159
61	0x3b9b4f38	0.004739668
62	0x3c3d7a84	0.0115648545
63	0xbc9d6cca	-0.019216914
64	0xbc327178	-0.010891311
65	0xbc1bbd2a	-0.009505549
66	0xbcb498f2	-0.022045586
67	0xbcb9095c	-0.02258747
68	0x3c9f546a	0.019449431
69	0xbcd0027b	-0.025391808
70	0x3b8919a8	0.0041839667
71	0xbc40574e	-0.011739565
72	0x3ccda918	0.025105044
73	0xbcaed661	-0.021342458
74	0xbcc615b8	-0.024180278
75	0x3a1b0fa0	0.0005915109
76	0xbccf4770	-0.025302619
77	0xbbb4283c	-0.0054979604
78	0x3a718400	0.000921309
79	0xbc382e10	-0.011241451
80	0xbcb55598	-0.02213554
81	0x3c859ccc	0.016310118
82	0x3bfdccf0	0.0077453777
83	0xbb04d328	-0.002026746
84	0xbcc6da70	-0.024274081
85	0xbcb7448f	-0.022371558
86	0xbc985dfc	-0.018599503
87	0xbcd1ee76	-0.025626402
88	0x3c0a319c	0.008434679
89	0xbbd7889c	-0.0065775644
90	0x3ca6c44c	0.020357274
91	0x3ba70b58	0.005097788
92	0x3ca60e56	0.020270508
93	0x3c018184	0.007904414
94	0xbbd88ad4	-0.0066083465
95	0xbb90a858	-0.0044145994
96	0x3cbb0220	0.022828162
97	0xbc6cdff7	-0.014457694
98	0xbc833c08	-0.016019836
99	0xbbb134f4	-0.005407924
100	0xbc941c30	-0.018079847
101	0xbc88e41f	-0.01671034
102	0x3bb60580	0.005554855
103	0xbc943ec7	-0.01809634
104	0xbbab252c	-0.005222937
105	0x3c0e50e4	0.008686278
106	0x3cb1469e	0.021640118
107	0x3cdea20a	0.027176876
108	0xbcced5bf	-0.025248406
109	0xbc0a757e	-0.008450864
110	0x3b140390	0.0022585131
111	0xbba98f54	-0.0051745567
112	0xbc858fec	-0.016303979
113	0x3ceb44b4	0.028719284
114	0xbba8adc8	-0.0051476695
115	0xbc00ab34	-0.007853318
116	0xb9cc2640	-0.0003893841
117	0xbb42a880	-0.0029702485
118	0x3caaa178	0.020828947
119	0xbbd853b8	-0.006601777
120	0xbc97db25	-0.018537113
121	0x3ca8390a	0.02053501
122	0x3c8c0900	0.017094135
123	0xbcc3923a	-0.023873437
124	0x3cea2fe6	0.028587293
125	0xbc910f36	-0.017707448
126	0x3cc046b4	0.023471214
127	0xbce3f4a7	-0.02782662
128	0x3c0af0d0	0.008480266
129	0xbc5d3eab	-0.013503711
130	0x3cbf93ce	0.023385908
131	0x3b85ac88	0.004079405
132	0xbc4d5232	-0.012531804
133	0x3c042aa8	0.008066811
134	0x3c416428	0.011803664
135	0x3c89bf9e	0.016815003
136	0x3c594ad4	0.013262469
137	0x3c80aaae	0.015706386
138	0x3cc78f94	0.024360456
139	0xbc788374	-0.01516806
140	0x3c11f884	0.008909348
141	0xbc0e3832	-0.00868039
142	0xbce557c6	-0.027995955
143	0x3b4379e0	0.0029827282
144	0xbcaedb5c	-0.021344833
145	0x3cb832b2	0.02248511
146	0x3c2fb900	0.01072526
147	0x3c1e14c4	0.009648506
148	0x3ce03a78	0.02737163
149	0x3c096598	0.008386038
150	0x3ccfaca6	0.02535088
151	0xbb98eae4	-0.004666673
152	0xbcabc74a	-0.020969052
153	0x3c904740	0.0176121
154	0x3cbbf674	0.022944666
155	0xbaca50d0	-0.0015435461
156	0x3c83bcf6	0.016081315
157	0xbcd67712	-0.026179824
158	0x3ccfed2a	0.025381643
159	0x3c695014	0.0142402835
160	0xbc27fd08	-0.010253198
161	0x3b1b37d8	0.0023684409
162	0x3b39b820	0.0028338507
163	0xbb054f68	-0.002034152
164	0xba3117e0	-0.0006755572
165	0xbca0fbae	-0.01965126
166	0x3c7129b4	0.014719415
167	0x3c53fe14	0.012938995
168	0x3c2c70a4	0.0105249025
169	0x3cd145f6	0.025546055
170	0xbca9affa	-0.020713795
171	0x3c81ddae	0.015852775
172	0x3c0bc260	0.008530229
173	0xbc9fe6a7	-0.019519163
174	0xbcb903f4	-0.022584893
175	0x3c931e8c	0.017958902
176	0xbcbfcb12	-0.023412261
177	0x3b29d240	0.0025912672
178	0x3c169d2c	0.009192746
179	0xbcdd54c0	-0.027017951
180	0x3b3a5d70	0.002843704
181	0xbcde903b	-0.027168384
182	0xbcc6b12e	-0.024254408
183	0xbbee6da4	-0.007276254
184	0xbc197110	-0.009365335
185	0xb6893000	-4.088506e-06
186	0xbafbad60	-0.001920145
187	0x3cb2f626	0.021845888
188	0xbb8c8ad8	-0.0042890124
189	0x3adb88c0	0.0016749129
190	0xbce5d343	-0.028054839
191	0xba394d60	-0.000706872
192	0x3c6ff8b8	0.0146467015
193	0x3bd08780	0.006363809
194	0x3b96fdd0	0.0046078935
195	0x3cb3ca2e	0.021946993
196	0xbb90f2cc	-0.004423475
197	0x3be61438	0.007021453
198	0x3bd5cac8	0.0065244175
199	0xba886bf0	-0.0010408144
200	0x3cb3970c	0.02192261
201	0x3c57eddc	0.013179269
202	0x3cdab4b6	0.026697498
203	0x3cc71762	0.024303142
204	0x3ca1282c	0.019672476
205	0xbc067508	-0.008206613
206	0x3cd79302	0.026315216
207	0xbcb3178d	-0.021861816
208	0xbb05a550	-0.0020392723
209	0xbaa4edc0	-0.0012583062
210	0xbca52fd8	-0.020164415
211	0x3c7e58c8	0.015524097
212	0xbcc856ac	-0.02445539
213	0x3c805bd2	0.015668783
214	0xbcdde0bc	-0.0270847
215	0x3bc3b288	0.0059722103
216	0xba27fee0	-0.0006408524
217	0x3c8fb6ac	0.01754316
218	0xbbd43b70	-0.006476812
219	0xbc721610	-0.014775768
220	0x3c3f36f4	0.011670817
221	0x3ca7bdae	0.020476189
222	0x3cb9ee14	0.022696532
223	0x3c281e58	0.010261141
224	0x3c982e28	0.018576697
225	0xbc57c6fc	-0.01317
226	0xbb51a388	-0.0031988341
227	0xbca3c5f6	-0.019991856
228	0xbca674e8	-0.020319417
229	0x3ab38270	0.001369549
230	0xbc886fa6	-0.0166548
231	0x3c641348	0.013920613
232	0x3cc5b7ea	0.024135549
233	0xbaeee480	-0.0018226057
234	0x3ba98888	0.0051737465
235	0xbcabdddc	-0.020979814
236	0x3c939d2a	0.018019278
237	0x3c1991a4	0.009373102
238	0x3ccb12a8	0.02478917
239	0x3c16a3ac	0.009194296
240	0xbcddec36	-0.027090173
241	0xbce64aa3	-0.028111761
242	0x3c43bc44	0.0119467415
243	0x3cc81f54	0.024429
244	0x3ae31da0	0.0017327555
245	0xbcab829a	-0.0209363
246	0xbcca247b	-0.024675598
247	0xbc9b91aa	-0.018990356
248	0x3ce68750	0.028140694
249	0x3b92de28	0.0044820495
250	0x3c26ec6c	0.010188203
251	0x3cc4a89c	0.02400618
252	0xbcacf164	-0.021111198
253	0x3ce630d6	0.028099459
254	0x3be2f5b0	0.006926261
255	0xbacb84e0	-0.0015527271

linear1.bias f4 [30]
0	0xbcb9a82a	-0.022663195
1	0x39077f00	0.00012921914
2	0xbcfb5f07	-0.030684961
3	0x3dbc66a7	0.09199267
4	0x3d43cc04	0.047801986
5	0xbcb5cf96	-0.022193711
6	0x3b42ba49	0.0029713085
7	0x3896e21c	7.1946735e-05
8	0x3ca0bee9	0.019622283
9	0xbc872e57	-0.016501589
10	0x3dc69280	0.096959114
11	0x3d63c578	0.055608243
12	0xbd23d1b0	-0.039994895
13	0x3bd4db11	0.0064958413
14	0xbc0cef03	-0.008601907
15	0x3c4c3493	0.012463707
16	0x3c8fe4c7	0.017565144
17	0x3d2e5025	0.0425569
18	0xbc0d1dc2	-0.008613052
19	0xbc87da4a	-0.01658358
20	0xbc7c989b	-0.015417243
21	0x3de0e135	0.10980455
22	0xbcebf6aa	-0.028804142
23	0x3c660ad8	0.014040671
24	0x3bcd5471	0.0062661697
25	0xbd032ca8	-0.03202501
26	0xbbb97ac8	-0.0056603886
27	0xbc172990	-0.009226218
28	0xbbd45ca9	-0.0064807725
29	0x3d13caba	0.036082007

linear2.weight f4 [60, 30]
0	0xbc1f9110	-0.009739175
1	0x3e25851c	0.16164058
2	0xbd40a5c8	-0.0470331
3	0x3d82ecb6	0.06392805
4	0xbe18c734	-0.1491974
5	0x3e25e646	0.16201124
6	0xbdc1f93f	-0.09471368
7	0xbe1c2b06	-0.15250787
8	0xbc4a9480	-0.012364507
9	0xbd1d3f47	-0.038390424
10	0x3e09313c	0.13397688
11	0xbddc770f	-0.10764896
12	0xbd107b34	-0.035273746
13	0xbdfc5a82	-0.123219505
14	0xbe1c1c16	-0.15245089
15	0x3e2fba20	0.17160845
16	0x3dd64b94	0.10463634
17	0xbdd4549f	-0.10367703
18	0xbe191a93	-0.14951544
19	0xbdd5c391	-0.10437692
20	0xbe20a435	-0.1568764
21	0xbe0678a3	-0.13131957
22	0x3ce63da8	0.028105572
23	0xbba758a0	-0.0051070005
24	0x3db3479c	0.08753893
25	0xbd0c5c2c	-0.03426759
26	0xbe28fae2	-0.16501954
27	0x3e2a64b6	0.1663998
28	0x3dd5b8b3	0.10435619
29	0x3c5d9a43	0.013525548
30	0xbd899bff	-0.06719207
31	0x3cae8c28	0.021307066
32	0x3e35e23c	0.17762083
33	0xbcd8cac6	-0.026463877
34	0x3d55c2ec	0.052187845
35	0x3e0781be	0.13233086
36	0xbddd4d2b	-0.10805734
37	0xbd4d886e	-0.050178938
38	0xbd761289	-0.06007627
39	0x3e070f8a	0.13189521
40	0x3e0a5f27	0.1351286
41	0xbe221881	-0.1582966
42	0xbd82b87e	-0.06382845
43	0xbd667574	-0.056264356
44	0xbe28d13b	-0.16486065
45	0x3dec2924	0.115312845
46	0x3dfd4674	0.123669535
47	0xbdf37684	-0.118878394
48	0xbe061723	-0.13094763
49	0xbe133ad5	-0.14377911
50	0xbe027c53	-0.12742738
51	0x3c5a7e7f	0.013335823
52	0xbe0c4567	-0.1369835
53	0xbd22928b	-0.039690536
54	0x3df2a024	0.11846951
55	0x3d80c1f0	0.06286991
56	0xbe0b56a7	-0.13607274
57	0x3e27c13e	0.1638231
58	0xbdd9fa6e	-0.10643469
59	0x3db01fec	0.085998386
60	0x3d0a9cb0	0.033840835
61	0x3cfc26b0	0.030780166
62	0xbd5d6069	-0.054047022
63	0xbd3c5ce4	-0.045987025
64	0xbe13fd1d	-0.14452024
65	0xbd5c9251	-0.053850476
66	0x3dde2e51	0.10848678
67	0xbe205638	-0.1565789
68	0xbe35eef4	-0.17766935
69	0x3d9328bf	0.07185506
70	0xbd04fa85	-0.032465477
71	0x3e338e9c	0.1753487
72	0xbd940586	-0.07227616
73	0xbdbc6010	-0.0919801
74	0xbe0bc81b	-0.13650553
75	0x3dc8f6b7	0.09812682
76	0xbe202d42	-0.15642264
77	0xbe0fe7c3	-0.14053254
78	0x3e17c45a	0.14820996
79	0xbe3ca663	-0.18422846
80	0x3e15af54	0.14617664
81	0x3a3c56d7	0.0007184571
82	0x3e1add77	0.15123545
83	0xbdc038d8	-0.09385842
84	0xbc92e378	-0.017930731
85	0xbc8e8878	-0.017399058
86	0xbe25466e	-0.16140148
87	0xbd682932	-0.056679912
88	0xbe32cf91	-0.17461993
89	0xbdeb32a7	-0.114842705
90	0x3e1a8de2	0.15093186
91	0xbd06932c	-0.032855198
92	0x3e2b2c3c	0.16716093
93	0xbd49a248	-0.04922703
94	0xbbbe2da0	-0.005803779
95	0x3c7f0ae0	0.015566558
96	0x3da84890	0.08216965
97	0x3d541d78	0.051785916
98	0xbd7fca6c	-0.062448904
99	0xbbe115e0	-0.006869063
100	0xbd8b361b	-0.06797429
101	0x3e1636f8	0.14669406
102	0xbde12aea	-0.10994513
103	0x3dfe2b08	0.12410551
104	0xbe09bb7c	-0.13450426
105	0xbca9a398	-0.02070789
106	0x3dd0b824	0.10191372
107	0xbd252dd4	-0.04032691
108	0x3ced9938	0.029003724
109	0xbdc30dea	-0.09524138
110	0x3d8425de	0.06452535
111	0xbe0036a4	-0.12520844
112	0xbe0e938d	-0.13923474
113	0x3d981714	0.07426277
114	0x3d8e1cb8	0.069390714
115	0xbd268f20	-0.04066384
116	0x3e0d5cb0	0.13804889
117	0x3df112e0	0.11771178
118	0x3e0ef64c	0.13961142
119	0xbe024683	-0.1272221
120	0xbc3dd0e0	-0.011585444
121	0x3baf7c00	0.005355358
122	0xbde4f18b	-0.11178883
123	0x3dde2eb4	0.10848752
124	0x3e1e5553	0.15462236
125	0x3d9424c0	0.07233572
126	0xbe8d1e9a	-0.2756241
127	0xbd90f00a	-0.07077034
128	0xbda10e0e	-0.07864009
129	0x3dc771d5	0.097385086
130	0xbe1bd5f5	-0.15218337
131	0x3e263f9e	0.16235206
132	0xbe2ad7f3	-0.1668394
133	0x3df56785	0.119826354
134	0x3cf0ab78	0.029378638
135	0x3d8cef90	0.068816304
136	0xbd24d76d	-0.04024451
137	0xbcbf136b	-0.023324689
138	0xbe37233e	-0.17884538
139	0x3e880e75	0.2657353
140	0x3df06ad6	0.11739127
141	0xbd047896	-0.032341562
142	0xbe3aeaf0	-0.18253684
143	0xbd39ec97	-0.045391645
144	0xbdf04480	-0.11731815
145	0x3deb8103	0.114992164
146	0x3e0c87de	0.13723704
147	0xbc1882e0	-0.009308547
148	0xbe97927e	-0.29603952
149	0x3e990130	0.29883718
150	0x3d18d7dc	0.037315235
151	0x3b61b840	0.0034442097
152	0xbe19154b	-0.14949529
153	0x3cf6d457	0.030130548
154	0xbd0e7c96	-0.034786783
155	0xbced3660	-0.028956592
156	0xbc5fcb3d	-0.013659296
157	0x3dbb718a	0.09152515
158	0x3ddf00e8	0.10888845
159	0xbd2207f6	-0.039558373
160	0xbe188e92	-0.14898136
161	0xbe08f3cf	-0.13374256
162	0x3e0bc05e	0.13647601
163	0xbdc4e563	-0.096140645
164	0x3e1614ee	0.14656422
165	0xbe26da12	-0.16294125
166	0x3cefb25a	0.02925985
167	0xbd99675c	-0.07490417
168	0x3d3355f8	0.043783158
169	0xbd14ddb4	-0.036344245
170	0x3d6adb80	0.057338238
171	0x3b8dd749	0.0043286425
172	0x3dce74a8	0.10080844
173	0x3dd1ea68	0.102497876
174	0xbbb86ed6	-0.005628447
175	0xbcaf84a8	-0.02142556
176	0xbe0b60ec	-0.13611192
177	0x3dd6e023	0.104919694
178	0xbddfcb52	-0.10927452
179	0x3e3c1e1a	0.18370858
180	0xbc360dd0	-0.011111692
181	0x3b497300	0.0030738711
182	0x3e0400e2	0.12890962
183	0x3e620fb9	0.2207631
184	0x3e140602	0.14455417
185	0xbd99028f	-0.07471191
186	0xbd3d2738	-0.04617998
187	0x3cf71ce4	0.030165143
188	0x3e225b17	0.1585506
189	0x3e4bb0ae	0.19891617
190	0x3e4efbe8	0.20213282
191	0x3c70e034	0.014701892
192	0xbd348459	-0.04407153
193	0xba5d2365	-0.0008435755
194	0x3d22df7a	0.039763905
195	0xbd021700	-0.031760216
196	0x3d42b7aa	0.047538437
197	0x3e398f8a	0.18121162
198	0xbd7f4a11	-0.062326495
199	0x3d0d8b45	0.034556646
200	0x3d735e62	0.059416182
201	0x3e4f48d3	0.20242624
202	0x3d8c5574	0.068522364
203	0x3e2c5a39	0.16831292
204	0x3ddac071	0.106812365
205	0xbde5ff62	-0.11230351
206	0x3b3a8d3d	0.0028465532
207	0xbcbecf16	-0.023292106
208	0x3c6e7509	0.014554271
209	0x3cdf46fa	0.027255524
210	0x3decc008	0.115600646
211	0xbe284703	-0.16433339
212	0xbc834940	-0.01602614
213	0xbd7e52cd	-0.062090684
214	0x3e78f638	0.24312675
215	0xbd84f938	-0.06492847
216	0xbf40d358	-0.75322485
217	0xbdf2d131	-0.11856306
218	0x3d8a0450	0.06739104
219	0x3dbe8007	0.09301763
220	0x3c6c4240	0.014420092
221	0x3e5288ae	0.20559952
222	0x3de7dc5b	0.11321326
223	0xbdbae4b0	-0.0912565
224	0xbd385020	-0.04499829
225	0x3dca6d4c	0.09884128
226	0x3dc235a2	0.09482886
227	0x3e8dcf32	0.2769714
228	0xbdedca5d	-0.11610863
229	0x3e6148e1	0.22000457
230	0xbd64b9d4	-0.055841282
231	0xbcd9ede8	-0.0266027
232	0xbd51cb58	-0.051219314
233	0xbd285bc8	-0.041103154
234	0xbda99d7e	-0.082819924
235	0x3d1230d0	0.035691082
236	0x3e21a19b	0.15784304
237	0x3e243500	0.16035843
238	0x3e16a8ee	0.14712879
239	0x3ee8dde0	0.45481777
240	0xbdbeb488	-0.09311777
241	0xbd2bf734	-0.0419838
242	0xbdf51d2e	-0.11968456
243	0x3e2b9ccb	0.1675903
244	0x3e19e532	0.15028837
245	0xbe26b2ff	-0.16279219
246	0x3e49cb42	0.19706443
247	0x3d79b37a	0.060962178
248	0x3d468839	0.048469756
249	0xbe78d78a	-0.24300972
250	0x3ae9ca77	0.0017836828
251	0xbe02b163	-0.1276298
252	0xbe366372	-0.17811373
253	0xbbab2836	-0.0052232994
254	0x3df290f9	0.118440576
255	0x3da6ba09	0.08140952

linear2.bias f4 [60]
0	0xbe331900	-0.17490005
1	0xbe399dd1	-0.18126608
2	0x3d917649	0.07102639
3	0xbe18992c	-0.1490218
4	0xbe347095	-0.17621072
5	0xbdad86bc	-0.08472964
6	0x3e071401	0.13191225
7	0xbe32e2e2	-0.17469361
8	0x3e0ff2eb	0.1405751
9	0x3ded1b16	0.11577432
10	0x3e637f2e	0.22216484
11	0x3e232e76	0.15935692
12	0xbd7d4bee	-0.06183999
13	0x3e17d07a	0.14825621
14	0x3dca3ca4	0.098748475
15	0x3d4ff58b	0.050771277
16	0x3de7b1aa	0.113131836
17	0x3e07e0b8	0.13269317
18	0x3d065689	0.03279737
19	0xbdb556b7	-0.0885443
20	0x3e10af32	0.14129332
21	0xbd138977	-0.03601977
22	0xbdbf24d1	-0.09333194
23	0xbd41df0d	-0.04733186
24	0x3c14abfc	0.009074207
25	0xbc3c4827	-0.011491812
26	0x3c59e526	0.013299262
27	0xbdb09d5e	-0.086237654
28	0x3d55a771	0.052161638
29	0xbdb647f7	-0.08900445
30	0x3e0e64c3	0.13905625
31	0xbd59e0c4	-0.05319287
32	0xbd5fa22a	-0.05459801
33	0xbd175186	-0.03694298
34	0x3d20b9b4	0.0392396
35	0xbe3a112d	-0.18170615
36	0xbd12837b	-0.03576992
37	0x3e93f37f	0.2889671
38	0x3de84ccd	0.113427736
39	0x3e254eeb	0.16143386
40	0x3dcd7560	0.10032153
41	0x3dfa5c5f	0.1222465
42	0xbe369979	-0.17831983
43	0x3e5c2f0d	0.21502323
44	0x3e2ba24c	0.1676113
45	0xbb956bd4	-0.0045599733
46	0x3e1dc35d	0.15406556
47	0xbdafbe31	-0.08581198
48	0xbd4f981d	-0.050682176
49	0x3e6eae7f	0.23308752
50	0x3e71a84c	0.23599356
51	0x3e389999	0.18027343
52	0x3e773c56	0.2414411
53	0xbd895673	-0.06705942
54	0x3d673c14	0.05645378
55	0xbb33c0e5	-0.0027428207
56	0xbde3589b	-0.111008845
57	0x3e1a7c4d	0.1508648
58	0x3db3536d	0.087561466
59	0x3d99d614	0.07511535
