epoch_100_model/세정/model.pth (torch, 54880 bytes, 18 tensors)

linear1.weight f4 [6, 12]
0	0x3f81db6e	1.014509
1	0x3fa3d773	1.2800125
2	0x3f897d0b	1.0741285
3	0x3f788154	0.9707234
4	0x3fa963aa	1.323354
5	0x3fab3ea4	1.3378491
6	0x3f9b8b8a	1.2151959
7	0x3f9524d6	1.1651866
8	0x3f9c18ce	1.219507
9	0x3f966bd3	1.1751655
10	0x3f62aa25	0.8854087
11	0x3f6a70e9	0.9157854
12	0xbb67217b	-0.0035267759
13	0x3e68bb59	0.22727717
14	0xbd87c8e4	-0.06630114
15	0xbe0cbf36	-0.13744816
16	0x3d89c1a1	0.06726385
17	0xbcc010c7	-0.0234455
18	0xbe17b82e	-0.14816353
19	0xbca323b5	-0.019914487
20	0x3e4acd34	0.19804841
21	0x3d29022e	0.041261844
22	0xbe72c4c7	-0.23707877
23	0xbe520f15	-0.20513566
24	0xbf1d4a15	-0.61441165
25	0xbeea9da3	-0.45823392
26	0xbf5e40e3	-0.8681776
27	0xbedc895d	-0.4307355
28	0xbf1a0f84	-0.60179925
29	0xbeed5cd1	-0.46359876
30	0xbf62316e	-0.88356674
31	0xbf26b5d1	-0.6512118
32	0xbed50a2a	-0.41609317
33	0xbedbe83d	-0.4295062
34	0xbf600829	-0.8751245
35	0xbf421943	-0.75819796
36	0xbe57f2a6	-0.21088657
37	0x3e2edeb8	0.17077148
38	0x3e386590	0.18007493
39	0xbe3733d2	-0.17890862
40	0x3b65ee00	0.0035084486
41	0x3d8a016c	0.067385525
42	0xbe3f95e8	-0.18709528
43	0xbe4389c8	-0.19095528
44	0xbe175593	-0.14778738
45	0xbe0662a9	-0.13123573
46	0xbd2bb580	-0.04192114
47	0x3dcf5534	0.10123673
48	0x3e9c6c75	0.30551496
49	0xbe71b940	-0.23605824
50	0x3bb22743	0.0054368093
51	0xbda50720	-0.080579996
52	0x3e3c2e28	0.18376982
53	0xbe4b3efd	-0.19848247
54	0x3e6c6665	0.23085935
55	0xbded5c5b	-0.11589881
56	0xbe34789a	-0.17624131
57	0x3da79bd0	0.08184016
58	0xbe1f8c87	-0.1558095
59	0x3d63d0d5	0.05561908
60	0xbee05768	-0.43816686
61	0xbf286644	-0.65781045
62	0xbf544c9f	-0.82929415
63	0xbed873a5	-0.4227573
64	0xbf2aa8ca	-0.666638
65	0xbefec73c	-0.4976138
66	0xbeb72588	-0.35770822
67	0xbecbd7f0	-0.39813185
68	0xbeabbf36	-0.3354432
69	0xbf106f38	-0.56419706
70	0xbf1b60ca	-0.60694563
71	0xbeecd2de	-0.4625463

linear1.bias f4 [6]
0	0x3faea9dd	1.3645588
1	0x3d114869	0.035469446
2	0xbec5d2fa	-0.38637525
3	0xbe85b88d	-0.26117364
4	0x3e99979f	0.2999849
5	0xbf5f4528	-0.872149

linear2.weight f4 [3, 6]
0	0xbf67bf2b	-0.90526074
1	0xbe82abb3	-0.2552162
2	0x3f0187a7	0.50597614
3	0xbe865d1a	-0.26242906
4	0xbe8c5081	-0.2740517
5	0xbee0016f	-0.43751094
6	0xbf6abc76	-0.9169382
7	0xbf23c8f4	-0.63978505
8	0xbee2ca9d	-0.44295207
9	0xbe0ca0d0	-0.1373322
10	0x3f4f75bc	0.81039023
11	0xbedcaf11	-0.43102315
12	0xbf171ae4	-0.59025407
13	0xbe46f326	-0.19428691
14	0x3ecd3918	0.40082622
15	0x3e1ebfb4	0.15502816
16	0xbeeaba1c	-0.45845115
17	0x3df0e870	0.11763084

linear2.bias f4 [3]
0	0xbf0dd18c	-0.5539787
1	0xbf09a085	-0.5376056
2	0xbf73a0b7	-0.95167106

linear3.weight f4 [1200, 3]
0	0x3bc40c80	0.0059829354
1	0xbe52fa58	-0.20603311
2	0x3e9bee8a	0.30455428
3	0xbe7ba9e6	-0.2457653
4	0xbf1f3a55	-0.6219838
5	0xbf1127ac	-0.5670116
6	0xbde13c32	-0.109978095
7	0xbefecffa	-0.4976805
8	0xbf5fd5d5	-0.87435657
9	0x3eea94d8	0.45816684
10	0x3f681684	0.90659356
11	0xba9cb471	-0.0011955631
12	0x3d93134d	0.07181416
13	0x3ebe6ee4	0.37193978
14	0xbee3ecd3	-0.4451662
15	0xbf0738dd	-0.5282114
16	0xbf04ee2e	-0.51925933
17	0xbc865f80	-0.01640296
18	0xbd8983f0	-0.06714618
19	0xbeaa7d2c	-0.33298624
20	0xbe229f24	-0.1588102
21	0x3ed1aa9e	0.40950483
22	0x3e4086b8	0.18801391
23	0xbf355fa1	-0.70849043
24	0x3e5f46c8	0.21804345
25	0x3f02a072	0.5102607
26	0x3ef93760	0.4867506
27	0xbe60252e	-0.21889183
28	0xbebb8b5e	-0.36629766
29	0xbe49ee36	-0.19719777
30	0x3d94ba41	0.072620876
31	0x3f67d99b	0.90566415
32	0xbe3deb43	-0.18546776
33	0xbdc3bef0	-0.09557903
34	0x3e50bcb8	0.2038449
35	0x3ec3b680	0.38225174
36	0xbf0d1565	-0.5511077
37	0x3f1058c4	0.56385446
38	0x3ea93122	0.33045298
39	0xbeb8341c	-0.35977256
40	0x3ec4bd52	0.3842569
41	0xbe3e4cde	-0.1858401
42	0x3e93d82e	0.2887587
43	0xbdc620d3	-0.096742295
44	0xbf864a54	-1.0491433
45	0xbf92255d	-1.1417652
46	0xbf8d3b75	-1.103377
47	0x3e10f5e4	0.141563
48	0x3ef53b18	0.47896647
49	0x3f0496b2	0.5179244
50	0x3ea38e86	0.31944674
51	0x3f0e2c8d	0.5553673
52	0x3f17ca01	0.5929261
53	0xbf7fddeb	-0.99947995
54	0xbf2f18d2	-0.6839725
55	0xbf489de8	-0.78365946
56	0xbea63aa1	-0.32466605
57	0x3e972d7a	0.29526883
58	0xbecdf984	-0.40229428
59	0x3da7c390	0.081915975
60	0xbf8b509d	-1.0883976
61	0xbf1b0680	-0.60556793
62	0xbf139c65	-0.57660514
63	0xbe8ef53b	-0.2792147
64	0xbcef8c20	-0.029241621
65	0x3f09eb24	0.5387442
66	0xbf8c20cc	-1.0947509
67	0xbe0a3121	-0.13495304
68	0xbf58d8ea	-0.84705985
69	0x3f399032	0.7248565
70	0x3f257532	0.6463195
71	0xbf2faf5f	-0.6862697
72	0x3d88e472	0.066841975
73	0x3f6a5748	0.9153943
74	0xbeb709ea	-0.3574975
75	0x3e983207	0.29725668
76	0x3f345ce4	0.7045424
77	0xbf6098f6	-0.877334
78	0x3e80d6fa	0.25164014
79	0x3d0c2850	0.034218132
80	0xbe065398	-0.13117826
81	0xbece0ff6	-0.40246552
82	0xbdd5d500	-0.10441017
83	0x3efce72c	0.4939512
84	0x3f842d08	1.0326242
85	0x3f5deaa1	0.8668614
86	0xbf11864f	-0.56845564
87	0x3e065640	0.1311884
88	0xbe262d48	-0.16228211
89	0xbe8a6635	-0.27031103
90	0x3f3e5b2b	0.7435786
91	0xbc9fb3fd	-0.019495005
92	0xbe8e1b20	-0.2775507
93	0xbe6978a0	-0.22799921
94	0xbdff0aca	-0.1245323
95	0xbe86e93d	-0.26349822
96	0x3f6430cb	0.8913695
97	0x3db7504f	0.089508645
98	0xbf8bfd68	-1.0936708
99	0x3f0a3f38	0.54002714
100	0xbf02a7a2	-0.5103704
101	0xbee3980a	-0.44451934
102	0xbec76585	-0.3894464
103	0x3f054b7e	0.52068317
104	0xbdd4993f	-0.10380792
105	0xbd5b5020	-0.05354321
106	0x3b3dc600	0.0028957129
107	0x3f07e3c0	0.53081894
108	0xbe2d77c2	-0.16940215
109	0x3d518e00	0.051160812
110	0xbcb7bf20	-0.022430003
111	0xbd7a5b89	-0.06112245
112	0xbf166926	-0.58754194
113	0x3e0c0a50	0.13675809
114	0x3f203070	0.6257391
115	0x3e223b39	0.15842904
116	0xbf4e9869	-0.8070131
117	0x3ec66edc	0.38756454
118	0xbe999006	-0.29992694
119	0xbe997bd3	-0.29977283
120	0x3f4c00c5	0.79688674
121	0x3e72566a	0.23665777
122	0xbf8229bb	-1.0168985
123	0xbe722872	-0.23648241
124	0xbda27344	-0.079321414
125	0xbe419542	-0.18904594
126	0x3f1264a0	0.5718479
127	0xbf4d6f41	-0.80247885
128	0xbd4e26ef	-0.0503301
129	0xbf20af01	-0.62767035
130	0xbe0de4d5	-0.13856824
131	0xbe9bd2e1	-0.30434325
132	0xbf21f267	-0.632605
133	0xbf3ee36a	-0.74565756
134	0xbf5d462b	-0.8643519
135	0xbf8c32f9	-1.0953056
136	0xbf8a2e79	-1.0795432
137	0xbf162a16	-0.5865797
138	0xbe139ad6	-0.14414534
139	0x3eba7d88	0.36423898
140	0x3ea0ee5a	0.31431848
141	0x3f40acf9	0.75263935
142	0x3f790979	0.9728008
143	0xbf801127	-1.0005234
144	0xbf81959b	-1.0123781
145	0xbeb3b80f	-0.35101363
146	0xbf88e9b3	-1.0696319
147	0x3d1affc0	0.03784156
148	0x3e495128	0.19659865
149	0x3ca737e0	0.020412385
150	0x3eba099e	0.36335462
151	0x3e74e9c0	0.23917294
152	0x3ec51b52	0.38497406
153	0xbebc6bdb	-0.36801037
154	0xbe0be50e	-0.13661596
155	0x3b9a7d80	0.004714668
156	0x3dfc54c5	0.12320856
157	0x3d7a1e85	0.061064262
158	0xbeba8e48	-0.36436677
159	0x3e86141e	0.26187223
160	0x3d2cfc60	0.04223287
161	0x3e1ecbc0	0.15507412
162	0x3d5cacf0	0.053875864
163	0x3eb093d2	0.34487778
164	0xbe442566	-0.19154891
165	0x3f8e3e14	1.1112695
166	0x3e928abe	0.28621477
167	0xbeb8a14e	-0.36060566
168	0x3f0e7036	0.5563997
169	0x3efaa694	0.48955214
170	0x3d9cafc8	0.07650715
171	0x3f28f69b	0.6600129
172	0x3f29cf33	0.66331786
173	0xbe0af812	-0.13571194
174	0x3f12c0d2	0.5732547
175	0xbec10ce4	-0.37705147
176	0xbf01ca0a	-0.5069891
177	0xbf092e60	-0.5358639
178	0xbf748350	-0.95512867
179	0xbecccd37	-0.40000317
180	0x3ec7066f	0.38872096
181	0x3eb76e47	0.35826322
182	0xbd232462	-0.03982962
183	0x3ee1588c	0.44012868
184	0x3f8c9e7a	1.0985863
185	0xbf614303	-0.87992877
186	0xbda92988	-0.082598746
187	0xbef0b4a8	-0.4701283
188	0xbdc4c934	-0.09608689
189	0x3f04dfd8	0.5190406
190	0x3ef6f4b7	0.48233578
191	0xbf883787	-1.0641946
192	0xbef1f925	-0.47260395
193	0x3ed308d6	0.4121768
194	0xbf0954d8	-0.53645086
195	0x3e153d68	0.14574206
196	0x3d964c40	0.07338762
197	0xbf106f3d	-0.56419736
198	0xbee7cf2a	-0.4527524
199	0x3da3d678	0.07999891
200	0xbe60d55e	-0.21956393
201	0x3eddd9e0	0.43330288
202	0x3e7a1038	0.2442025
203	0x3e0f8518	0.14015615
204	0x3dc187e0	0.09449744
205	0x3ede607c	0.43432987
206	0x3e2e8e7c	0.17046541
207	0x3c8e4772	0.017368052
208	0x3ef6ebeb	0.48226866
209	0xbf16075b	-0.58604974
210	0x3f8d0e59	1.1020004
211	0x3f384eb0	0.7199507
212	0xbd69e595	-0.057103712
213	0xbe57d954	-0.21078998
214	0x3ed31030	0.41223288
215	0xbefe6ddc	-0.4969319
216	0xbefd217b	-0.49439606
217	0xbd640560	-0.05566919
218	0xbe29e79a	-0.16592255
219	0x3f5b79d5	0.85732776
220	0x3f78f5ec	0.97250247
221	0xbee25732	-0.4420715
222	0x3e45c33c	0.19312757
223	0xbe52c04c	-0.20581168
224	0x3f00c12c	0.50294757
225	0x3d014eb0	0.031569183
226	0x3efbaca8	0.49155164
227	0x3e6fda1c	0.23423046
228	0x3ed89717	0.42302772
229	0x3d396b56	0.04526838
230	0xbf3dac34	-0.74090886
231	0x3f083426	0.5320457
232	0xbe93c10c	-0.2885822
233	0xbea6af46	-0.32555598
234	0xbe0c52c4	-0.13703448
235	0xbe31d350	-0.17365766
236	0xbef3ab77	-0.47591755
237	0x3dfe8f2f	0.12429654
238	0x3f688ad5	0.9083684
239	0xbf8e11bc	-1.1099162
240	0xbd6f271d	-0.05838691
241	0xbe440a47	-0.19144545
242	0xbcf0bd40	-0.029387116
243	0x3efad2b1	0.4898887
244	0x3ea9bf50	0.33153772
245	0xbf362663	-0.71152323
246	0xbf916e71	-1.1361829
247	0xbf583fba	-0.8447224
248	0xbe1b9f02	-0.15197375
249	0xbc72b780	-0.014814258
250	0xbe18bfce	-0.14916918
251	0x3c23afc0	0.0099906325
252	0xbe9bd86b	-0.3043855
253	0xbef2963e	-0.4738025
254	0xbe4d40e1	-0.2004428
255	0x3ede656c	0.43436754

linear3.bias f4 [1200]
0	0xbed806b8	-0.42192626
1	0xbf7736e4	-0.9656813
2	0xbf52d87f	-0.82361597
3	0xbf65c9ef	-0.8976125
4	0xbf411bc1	-0.75432974
5	0xbf0a849e	-0.5410861
6	0xbec7cedc	-0.3902501
7	0xbf57a0b3	-0.8422958
8	0xbeb935d8	-0.36173892
9	0xbe6db854	-0.23214847
10	0xbf5d40df	-0.8642711
11	0xbe588af8	-0.21146762
12	0xbeaa810d	-0.33301583
13	0xbef90fcb	-0.48644862
14	0xbf30ff8d	-0.6913994
15	0xbf8209c4	-1.015923
16	0xbf0a3b63	-0.53996867
17	0xbf839817	-1.0280789
18	0xbf55626f	-0.8335332
19	0xbe8637a3	-0.26214322
20	0xbf8730b2	-1.0561736
21	0xbea021fd	-0.3127593
22	0xbf5a0ee1	-0.85178953
23	0xbf73e377	-0.9526896
24	0xbf5555d7	-0.83334106
25	0xbf3f4518	-0.74714804
26	0xbe506d5c	-0.20354217
27	0xbe00b630	-0.12569499
28	0xbf809a6b	-1.0047125
29	0xbec86a34	-0.39143527
30	0xbf844f05	-1.0336615
31	0xbf1c10b5	-0.6096299
32	0xbf877508	-1.058259
33	0xbe057c42	-0.13035682
34	0xbf8478f1	-1.0349408
35	0xbea03bb3	-0.31295547
36	0xbf046528	-0.5171685
37	0xbeac6cbe	-0.33676714
38	0xbeff3ea6	-0.49852484
39	0xbea3e2b5	-0.320089
40	0xbf7623a6	-0.96148145
41	0xbd4c08f0	-0.04981321
42	0xbf0de327	-0.5542473
43	0xbf8707c7	-1.0549248
44	0xbf8843af	-1.0645655
45	0xbf791c8e	-0.97309196
46	0xbdf40840	-0.11915636
47	0xbe8f90a5	-0.28040043
48	0xbf87cf7a	-1.0610192
49	0xbe471a52	-0.19443634
50	0xbf0c41d3	-0.5478794
51	0xbf0c2e40	-0.5475807
52	0xbf54667c	-0.8296888
53	0xbe65ec36	-0.22453389
54	0xbef25678	-0.47331595
55	0xbf84503b	-1.0336984
56	0xbe6aaf28	-0.2291838
57	0xbf19856b	-0.59969205
58	0xbe941f4b	-0.28930125
59	0xbf8a3342	-1.0796893
60	0xbf890bf2	-1.070677
61	0xbf2a14df	-0.66438097
62	0xbe604984	-0.21903044
63	0xbf625bb5	-0.88421184
64	0xbe33cc50	-0.17558408
65	0xbf0bb808	-0.54577684
66	0xbe9191d7	-0.2843158
67	0xbea46520	-0.32108402
68	0xbf0ac8b3	-0.5421249
69	0xbf935996	-1.1511714
70	0xbf93482c	-1.15064
71	0xbd9dd9d0	-0.0770756
72	0xbf1ea90c	-0.61976695
73	0xbf557b7b	-0.8339154
74	0xbf01d154	-0.50710034
75	0xbebe5037	-0.37170574
76	0xbf6a960d	-0.9163521
77	0xbd328b30	-0.04358977
78	0xbed6d0eb	-0.41956267
79	0xbf8a747a	-1.0816796
80	0xbf14eeca	-0.58176863
81	0xbf8a4f79	-1.0805503
82	0xbf003a05	-0.5008853
83	0xbe46f1fa	-0.19428244
84	0xbf8c9eba	-1.098594
85	0xbe6ae348	-0.22938263
86	0xbe3c81e4	-0.18408924
87	0xbea23290	-0.316792
88	0xbf7433b8	-0.95391417
89	0xbe42f32a	-0.19038072
90	0xbf1ae0db	-0.6049935
91	0xbe5e2d88	-0.21697056
92	0xbe80eb27	-0.25179407
93	0xbf88ea70	-1.0696545
94	0xbf88f58b	-1.0699934
95	0xbd8f89c8	-0.070087016
96	0xbf822f7f	-1.0170745
97	0xbf94fbbc	-1.1639323
98	0xbef28021	-0.4736338
99	0xbf84c43e	-1.0372388
100	0xbe4488d8	-0.19192827
101	0xbecdd154	-0.40198767
102	0xbf888b35	-1.0667483
103	0xbeb0a055	-0.34497324
104	0xbf4ef899	-0.8084808
105	0xbf4ab348	-0.7917981
106	0xbe8cbe95	-0.27489153
107	0xbf7b5849	-0.9818159
108	0xbf91b4b0	-1.1383266
109	0xbf0347d7	-0.51281494
110	0xbe5abea0	-0.2136178
111	0xbf39cd41	-0.7257882
112	0xbf6b59db	-0.91933984
113	0xbe972dc6	-0.2952711
114	0xbf374b07	-0.7159886
115	0xbe104d60	-0.14092016
116	0xbe159708	-0.14608395
117	0xbf005a4d	-0.5013779
118	0xbdf225a0	-0.11823583
119	0xbf0b41c0	-0.543972
120	0xbed6fd0a	-0.41989928
121	0xbf0c2c84	-0.54755425
122	0xbf86da36	-1.0535343
123	0xbf361235	-0.7112153
124	0xbe71d552	-0.23616531
125	0xbec801de	-0.39063925
126	0xbf69e697	-0.9136748
127	0xbf83a009	-1.0283214
128	0xbf049d10	-0.5180216
129	0xbde5d5a0	-0.11222386
130	0xbf00e680	-0.50351715
131	0xbf04aeff	-0.5182952
132	0xbf7ad093	-0.9797451
133	0xbf8be9d9	-1.093074
134	0xbf942eec	-1.157682
135	0xbf0be0b2	-0.5463973
136	0xbf5d29c8	-0.8639188
137	0xbeef166a	-0.46696788
138	0xbe77e5b0	-0.24208713
139	0xbf46e9a2	-0.77700245
140	0xbeeeec4e	-0.4666466
141	0xbe8d0688	-0.27544045
142	0xbf8f676f	-1.120344
143	0xbf01fd58	-0.50777197
144	0xbf9447c8	-1.1584406
145	0xbec09458	-0.37613177
146	0xbf8b7483	-1.0894932
147	0xbf45ec18	-0.77313375
148	0xbe17d342	-0.14826682
149	0xbd8f7830	-0.07005346
150	0xbf46b666	-0.7762207
151	0xbf83d3fe	-1.029907
152	0xbea66f49	-0.3250678
153	0xbf754300	-0.9580536
154	0xbf616a38	-0.880527
155	0xbf21502e	-0.6301297
156	0xbefebd6b	-0.4975389
157	0xbf77b5f6	-0.96762025
158	0xbf49b030	-0.78784466
159	0xbe947160	-0.28992748
160	0xbedcf790	-0.43157625
161	0xbf910447	-1.132943
162	0xbf6627ad	-0.8990429
163	0xbf87bef9	-1.0605155
164	0xbefe0f34	-0.49620974
165	0xbd839518	-0.06424922
166	0xbe7ae62a	-0.24501863
167	0xbf049631	-0.51791674
168	0xbe848a1e	-0.25886625
169	0xbf7cd552	-0.98763
170	0xbf501781	-0.81285864
171	0xbf086150	-0.5327349
172	0xbebd1895	-0.36932817
173	0xbef4c534	-0.47806704
174	0xbe8c21c0	-0.273695
175	0xbeb2a058	-0.34887958
176	0xbf1fc5d1	-0.6241122
177	0xbeced473	-0.4039646
178	0xbf81a74a	-1.0129178
179	0xbeddf7ea	-0.43353206
180	0xbf3c21ee	-0.7348927
181	0xbf89c74b	-1.0763944
182	0xbed784ba	-0.4209345
183	0xbf867a99	-1.0506164
184	0xbf89fcb4	-1.0780244
185	0xbe4e7cd2	-0.20164803
186	0xbf85fa91	-1.0467092
187	0xbf5a2590	-0.85213566
188	0xbf8eb884	-1.115006
189	0xbecd7e57	-0.40135452
190	0xbf0ab4e7	-0.54182285
191	0xbef8415d	-0.48487368
192	0xbed6e804	-0.4197389
193	0xbf8a05e0	-1.0783043
194	0xbefd1f04	-0.49437726
195	0xbf5be19c	-0.8589113
196	0xbe364b34	-0.17802125
197	0xbe875e2b	-0.26439032
198	0xbce736a0	-0.02822429
199	0xbe4afae0	-0.19822264
200	0xbef5e3ee	-0.4802546
201	0xbefda30c	-0.49538457
202	0xbeefedfa	-0.4686125
203	0xbf0da2bf	-0.55326456
204	0xbf7b7f1c	-0.9824083
205	0xbf0b282c	-0.5435817
206	0xbefcc2e9	-0.49367455
207	0xbf8692de	-1.051357
208	0xbf4da3e7	-0.8032822
209	0xbef8288d	-0.48468438
210	0xbf611744	-0.87926126
211	0xbe979c38	-0.29611373
212	0xbf11d235	-0.56961375
213	0xbf86c8f4	-1.0530076
214	0xbf8fc50a	-1.1232007
215	0xbf725186	-0.94655645
216	0xbf0ae37b	-0.5425336
217	0xbe98ff12	-0.29882103
218	0xbdec328c	-0.115330786
219	0xbf635b49	-0.88811165
220	0xbf97a6ce	-1.184778
221	0xbea14138	-0.3149507
222	0xbf0af00e	-0.54272544
223	0xbed73abc	-0.42036998
224	0xbece3670	-0.40275908
225	0xbed6ff63	-0.4199172
226	0xbf714da0	-0.9425907
227	0xbe885c6e	-0.26633018
228	0xbf5df518	-0.8670211
229	0xbe6f7b3e	-0.23386857
230	0xbec47932	-0.38373715
231	0xbe763604	-0.24044043
232	0xbebbc50c	-0.36673772
233	0xbe5e1fbc	-0.21691793
234	0xbe9b3eda	-0.3032139
235	0xbef3ab81	-0.47591785
236	0xbf8b00b0	-1.0859585
237	0xbf110f5a	-0.5666405
238	0xbf6e6ec6	-0.93137777
239	0xbf356fa1	-0.7087346
240	0xbf8655e0	-1.0494957
241	0xbf7e57ca	-0.99352705
242	0xbebf6564	-0.37382042
243	0xbf0ad2f4	-0.5422814
244	0xbf81ad69	-1.0131046
245	0xbef66039	-0.48120287
246	0xbee0b474	-0.43887675
247	0xbf1f3f27	-0.6220574
248	0xbee86941	-0.45392802
249	0xbf34bfe3	-0.70605296
250	0xbe703e66	-0.23461303
251	0xbf160b68	-0.58611155
252	0xbeb7911e	-0.35852903
253	0xbf9499de	-1.1609457
254	0xbe725a70	-0.23667312
255	0xbe49c1ea	-0.19702879

linear1.weight f4 [3, 1200]
0	0x3c4e78e8	0.0126020685
1	0xbf15971a	-0.5843369
2	0xbf1512ac	-0.58231616
3	0xbf1afdd2	-0.6054355
4	0xbf1abb79	-0.6044231
5	0xbca3a0a7	-0.019974066
6	0xbbb6bce0	-0.005576715
7	0xbf1cb284	-0.61209893
8	0xbc4547c6	-0.012041038
9	0xbcb245a4	-0.021761723
10	0xbf1b0c78	-0.605659
11	0x3b0b1870	0.0021224283
12	0x3c2fa590	0.0107206255
13	0xbc9eddde	-0.019392904
14	0xbf182559	-0.5943199
15	0xbf1835c7	-0.5945706
16	0xbb991a70	-0.004672341
17	0xbf1ba1b9	-0.60793644
18	0xbf181c0a	-0.59417784
19	0xbcc1f6e6	-0.0236773
20	0xbf127e1b	-0.5722367
21	0xbcaf1544	-0.021372445
22	0xbf12b3d6	-0.5730566
23	0xbf1b32c8	-0.6062436
24	0xbf1d7590	-0.6150751
25	0xbf20af6b	-0.62767667
26	0x3c0d5344	0.008625809
27	0x3cdac87e	0.02670693
28	0xbf1d9b20	-0.61564827
29	0x3cd67ab8	0.026181564
30	0xbf17ad28	-0.5924859
31	0xbf13abcf	-0.57684034
32	0xbf1e554b	-0.61848897
33	0xba9fd5f0	-0.0012194496
34	0xbf1c630c	-0.61088634
35	0xbcbaa621	-0.022784295
36	0x3cad8a1a	0.021184016
37	0x3d076f71	0.033065263
38	0xbf1ed773	-0.620475
39	0xbb2e15b8	-0.0026563238
40	0xbf1c7218	-0.61111593
41	0xbb17b968	-0.0023151282
42	0xbf17b94a	-0.59267104
43	0xbf165eb2	-0.58738244
44	0xbf165a22	-0.5873128
45	0xbf15ff47	-0.5859265
46	0xbca1170a	-0.019664306
47	0xbf19676f	-0.5992345
48	0xbf1adff7	-0.60497993
49	0x3c539170	0.012913093
50	0x3c094264	0.008377645
51	0xbcd41c38	-0.025892362
52	0xbf208d4e	-0.62715614
53	0xbc64108c	-0.013919961
54	0xbcdbefac	-0.026847683
55	0xbf1fbe6d	-0.6239994
56	0xbc8e2918	-0.01735358
57	0xbf1f6490	-0.6226282
58	0xbc7fd83f	-0.015615522
59	0xbf130224	-0.5742514
60	0xbf198b2f	-0.59978
61	0xbf1d1b2d	-0.6136959
62	0x3cd21c88	0.02564837
63	0xbf1ecef0	-0.6203451
64	0xbcc98140	-0.024597764
65	0x3c81baae	0.015836086
66	0x3c91fb2c	0.017819963
67	0x3a44ca40	0.0007506944
68	0x3cd64edc	0.02616065
69	0xbf1f2649	-0.62167794
70	0xbf1d586d	-0.6146305
71	0x3cca618c	0.024704717
72	0xbf15398c	-0.58290935
73	0xbf19f26e	-0.60135543
74	0xbcd494b8	-0.02594982
75	0x3a98ea10	0.0011666436
76	0xbf1d781f	-0.61511415
77	0xbc0818e4	-0.008306716
78	0xbcbc5648	-0.02299036
79	0xbf207417	-0.6267714
80	0xbf1545d1	-0.58309656
81	0xbf200aef	-0.62516683
82	0xbf1587a9	-0.58410126
83	0x3cc3500a	0.023841877
84	0xbf15ce5c	-0.58518004
85	0x3b8076c0	0.003920406
86	0xbba09694	-0.004900763
87	0x3c20f678	0.009824388
88	0xbf1b1da7	-0.6059212
89	0xbcbd6e25	-0.02312381
90	0xbf191049	-0.59790474
91	0xbc2cf4b8	-0.010556392
92	0x3b1cba10	0.0023914613
93	0xbf14301f	-0.57885927
94	0xbf129dbf	-0.5727195
95	0xbc8adea2	-0.016951863
96	0xbf1c39be	-0.6102561
97	0xbf126f19	-0.5720077
98	0x3ca6a4d2	0.020342264
99	0xbf15211f	-0.58253664
100	0x3c763cfc	0.015029188
101	0x3cc3e244	0.023911603
102	0xbf17cac1	-0.5929375
103	0xbc7a84c6	-0.015290445
104	0xbf20699d	-0.62661153
105	0xbf19a551	-0.6001788
106	0x3b1f2040	0.0024280697
107	0xbf200df7	-0.6252131
108	0xbf1867e1	-0.59533507
109	0xbcb19537	-0.021677596
110	0xbce3a157	-0.027786894
111	0xbf18b58f	-0.59652036
112	0xbf137d68	-0.5761323
113	0xbc8a5682	-0.016886953
114	0xbf1a58a3	-0.602915
115	0xbc8745cb	-0.016512772
116	0x3ba17c60	0.0049281567
117	0x3cde2c1e	0.027120646
118	0x3cc20262	0.023682777
119	0xbf18281d	-0.5943621
120	0x3cdd106a	0.026985366
121	0xbb76c4b0	-0.0037653856
122	0xbf1a2aac	-0.6022136
123	0xbf12ee3a	-0.57394755
124	0x3afec580	0.0019437522
125	0x3c77cd18	0.015124582
126	0xbf15996f	-0.58437246
127	0xbf183978	-0.5946269
128	0xbf16197a	-0.58632624
129	0xbc0be562	-0.008538576
130	0xbf186d89	-0.5954214
131	0xbf150594	-0.58211637
132	0xbf16d4e5	-0.589186
133	0xbf1a8ee1	-0.60374266
134	0xbf165be3	-0.5873396
135	0xbf18575e	-0.5950831
136	0xbf1a3a11	-0.6024485
137	0xbbd363b4	-0.0064510945
138	0x3cc61396	0.024179261
139	0xbf20bdb8	-0.6278949
140	0xbaf96cc0	-0.0019029602
141	0xbc8e3fbf	-0.01736438
142	0xbf1c3461	-0.61017424
143	0x3c37f630	0.011228129
144	0xbf17aefc	-0.5925138
145	0xbc881123	-0.016609734
146	0xbf1c3827	-0.6102318
147	0xbf1b52e2	-0.60673344
148	0xbcd5782c	-0.026058279
149	0xbaae6380	-0.00133048
150	0xbf1db8f1	-0.61610323
151	0xbf1e9f4f	-0.61961836
152	0xbc732d6d	-0.014842373
153	0xbf1efa25	-0.6210044
154	0xbf165aa4	-0.58732057
155	0x3ee6319f	0.44959733
156	0xbc81ec92	-0.015859876
157	0xbf159e8e	-0.5844506
158	0xbf1f3957	-0.6219687
159	0x3b2dde80	0.0026530325
160	0x3c94425a	0.018098045
161	0xbf1291cf	-0.57253736
162	0xbf19149e	-0.59797084
163	0xbf20cebf	-0.6281547
164	0x3bf7fb80	0.007567823
165	0xbc81c6f3	-0.015841937
166	0xbca27512	-0.019831214
167	0xbcbdf2fe	-0.023187157
168	0xbcac018c	-0.020996831
169	0xbf1728f8	-0.5904689
170	0xbf18a4ad	-0.59626275
171	0xbf15471c	-0.5831163
172	0x3ccfb108	0.02535297
173	0x3b04d0b0	0.002026599
174	0x3b57a0c0	0.003290221
175	0xbc83f95c	-0.016110115
176	0xbf1f4c33	-0.62225646
177	0xbcd1cc6d	-0.025610173
178	0xbf177c0b	-0.5917365
179	0xbf1f176f	-0.6214513
180	0xbf1b6e8c	-0.60715556
181	0xbf19d103	-0.6008455
182	0xbcb4097b	-0.021977177
183	0xbf181693	-0.59409446
184	0xbf181cba	-0.59418833
185	0xbca3cb2a	-0.019994337
186	0xbf1fbe59	-0.6239982
187	0xbf15783c	-0.5838659
188	0xbf15a064	-0.5844786
189	0xbf1a72df	-0.6033153
190	0xba6baf60	-0.00089906715
191	0x3c1a1ad0	0.009405807
192	0x3c5ad734	0.0133569725
193	0xbf12e880	-0.57386017
194	0x3bf90b50	0.0076002255
195	0xbf13ffba	-0.5781208
196	0xbc98f914	-0.018673457
197	0x3c9fdec4	0.019515403
198	0x3cb22234	0.021744825
199	0x3cd77e34	0.026305296
200	0xbcc0ee1d	-0.023551041
201	0xbc38fbba	-0.011290485
202	0x3c88d446	0.016702782
203	0x3be32d90	0.0069329217
204	0xbf1abf49	-0.6044813
205	0xbcc8ffb5	-0.024535993
206	0xbf1f2f69	-0.6218172
207	0xbf15ce31	-0.5851775
208	0xbf146751	-0.5797015
209	0xbf184d66	-0.594931
210	0xbf1c6dd5	-0.6110509
211	0x3cdb4a36	0.026768785
212	0xbce1aa0b	-0.027546903
213	0xbf13b992	-0.5770503
214	0xbf186649	-0.59531075
215	0xbf1b938a	-0.60772
216	0xbb5e4a68	-0.0033918861
217	0x3a65ee80	0.0008771196
218	0xbc898f5b	-0.01679199
219	0xbf1c6384	-0.6108935
220	0xbf1cdeb7	-0.61277336
221	0x3cd060f0	0.025436848
222	0xbca06758	-0.019580528
223	0x3b93a058	0.0045051984
224	0xbc9c54a1	-0.019083323
225	0x3cec1bf2	0.02882192
226	0xbf19629e	-0.599161
227	0xbcb9a572	-0.022661898
228	0xbf1af843	-0.6053507
229	0xbf1bcb69	-0.60857254
230	0xbcdde270	-0.027085513
231	0xbc85d446	-0.016336571
232	0xbc6ce739	-0.014459425
233	0x3b3ed350	0.0029117651
234	0xbc67fceb	-0.014159421
235	0xbf1a78a2	-0.6034032
236	0xbf18f0a5	-0.59742194
237	0xbca518c8	-0.020153418
238	0xbf1dbc7a	-0.6161572
239	0xbf1ea88e	-0.61975944
240	0xbf1dad4b	-0.6159255
241	0xbf1419c4	-0.57851815
242	0xbc6c7c8b	-0.01443399
243	0xbc3025ea	-0.010751227
244	0xbf13bcb9	-0.5770984
245	0x3b38e360	0.0028211698
246	0xbbad6de4	-0.005292641
247	0x3ca56000	0.020187378
248	0xbf1d5a93	-0.6146633
249	0xbf15bcde	-0.58491313
250	0xbcddaf2f	-0.027061073
251	0xbce62dc1	-0.028097989
252	0x3c496144	0.012291256
253	0xbf19e889	-0.60120445
254	0x3b9efb08	0.0048517026
255	0xbcdef31f	-0.027215539

linear1.bias f4 [3]
0	0xbf1bdb8a	-0.60881865
1	0xbf063e44	-0.5243876
2	0xbe946670	-0.28984404

linear2.weight f4 [6, 3]
0	0xbe4d5798	-0.20052946
1	0xbeacd9e3	-0.33759984
2	0x3f073d01	0.5282746
3	0xbdf48aac	-0.11940512
4	0xbee0df71	-0.43920472
5	0xbe52a01c	-0.2056889
6	0x3f02eee0	0.51145744
7	0x3e3a1734	0.18172914
8	0xbefa065c	-0.48832977
9	0xbd350bf7	-0.044200864
10	0xbef38641	-0.47563365
11	0xbe559adf	-0.2085986
12	0x3e8381f8	0.25685096
13	0x3d50ffb0	0.051025093
14	0xbee3fa3a	-0.44526845
15	0x3f256546	0.64607656
16	0x3d8a7ec6	0.06762461
17	0xbe7be1f1	-0.24597909

linear2.bias f4 [6]
0	0xbeb41d58	-0.35178638
1	0xbf24d529	-0.64387757
2	0xbeb9859a	-0.36234742
3	0xbec7775a	-0.38958246
4	0xbed541ac	-0.41651666
5	0xbe70e01d	-0.23522992

linear3.weight f4 [12, 6]
0	0xbe845118	-0.2584312
1	0xbef29a6e	-0.47383446
2	0x3eade202	0.33961493
3	0x3c9bbf6a	0.019012172
4	0x3ea74fe8	0.3267815
5	0xbf2b680d	-0.66955644
6	0xbddc37eb	-0.10752853
7	0xbe2315ab	-0.15926234
8	0x3ec8c838	0.39215255
9	0xbeeaea9e	-0.45882124
10	0x3d276d30	0.040875614
11	0xbebbb755	-0.3666331
12	0xbe5ca870	-0.21548629
13	0xbe8b6c87	-0.27231237
14	0x3ea12234	0.31471407
15	0xbf056fe8	-0.5212388
16	0xbd785da8	-0.060636193
17	0xbe29d66d	-0.16585703
18	0x3f6723f5	0.9028924
19	0x3f07ac1c	0.52996993
20	0xbe39f2e7	-0.18159066
21	0x3f0862dd	0.53275853
22	0x3e794050	0.2434094
23	0x3edcbea1	0.43114188
24	0xbdeb5bb4	-0.114921
25	0xbf236058	-0.63818884
26	0x3e872c46	0.26400965
27	0xbca144ea	-0.019686181
28	0x3df58de0	0.11989951
29	0xbe8518b7	-0.25995418
30	0xbf035fbe	-0.51317966
31	0xbf3131e8	-0.69216776
32	0xbdd480b0	-0.10376108
33	0xbed8afba	-0.4232157
34	0x3ea288b2	0.31744915
35	0xbd5ac1b3	-0.053407382
36	0xbdcb3ee2	-0.09924103
37	0xbe989cc9	-0.29807118
38	0x3db986bc	0.09058902
39	0x3d50bb38	0.050959796
40	0xbe96221a	-0.29322892
41	0x3db8ade5	0.09017543
42	0xbf06c524	-0.5264456
43	0xbf34007b	-0.70313233
44	0x3ebe6d4a	0.37192756
45	0xbe270a01	-0.1631241
46	0xbecd50dc	-0.40100753
47	0xbe8c1e40	-0.2736683
48	0x3f77b2f8	0.9675746
49	0x3f266112	0.6499187
50	0x3e8ced90	0.27524996
51	0x3eb42d6e	0.3519091
52	0xbe36cf0c	-0.1785242
53	0x3ee5e895	0.44904009
54	0x3f0338c7	0.5125851
55	0x3e5a2b58	0.21305597
56	0x3cbf5d90	0.023360044
57	0x3d6d47dc	0.05792986
58	0x3d409660	0.04701841
59	0x3e5a5d13	0.21324567
60	0x3ef8131c	0.4845208
61	0x3e7286ac	0.23684186
62	0xbdb04298	-0.08606452
63	0x3f33d48d	0.702462
64	0x3e88435a	0.26613885
65	0x3f257c29	0.6464258
66	0x3f00ea78	0.5035777
67	0xbe3f61b8	-0.1868962
68	0x3d29ecc0	0.041485548
69	0x3e2110dc	0.15729088
70	0x3cd290b0	0.025703758
71	0x3ec9491a	0.39313585

linear3.bias f4 [12]
0	0x3f2efd51	0.6835528
1	0x3f2f06a1	0.6836949
2	0x3f2f0045	0.68359786
3	0x3f2efa9b	0.68351144
4	0x3f2ef2ec	0.6833942
5	0x3f2ef460	0.68341637
6	0x3f2ef169	0.6833711
7	0x3f2ef736	0.68345964
8	0x3f2f0320	0.68364143
9	0x3f2f0ab7	0.68375725
10	0x3f2f0fca	0.6838347
11	0x3f2f134c	0.6838882

linear1.weight f4 [3, 1200]
0	0xba7d3660	-0.00096592866
1	0xbd5bc6d4	-0.053656414
2	0xbe9bb5c1	-0.30412105
3	0x3ec3ab4f	0.38216636
4	0x3ee15591	0.44010594
5	0x3c86bb4e	0.016446736
6	0x3c4d00fc	0.012512442
7	0x3ee10608	0.43949914
8	0x3c771cf0	0.015082583
9	0xbce3d772	-0.027812693
10	0x3ebbd61a	0.36686784
11	0x3c090acc	0.008364391
12	0xbc873231	-0.016503425
13	0x3ca80a12	0.020512614
14	0x3ef31033	0.47473297
15	0x3f1ce3d9	0.6128517
16	0xbc216976	-0.009851804
17	0x3f1b85e3	0.6075117
18	0x3ed309f0	0.4121852
19	0xbb6d3cb0	-0.0036199503
20	0xbe5c1577	-0.21492563
21	0xbc706dc1	-0.014674605
22	0x3ef00dca	0.4688552
23	0x3ee5b45a	0.4486416
24	0x3ee92a3a	0.4554003
25	0x3ef33225	0.47499195
26	0x3cd1cadc	0.025609426
27	0x3c07cf04	0.008289102
28	0x3e93be29	0.28856018
29	0xbcac31ca	-0.021019835
30	0xbdcb1db2	-0.09917773
31	0xbc07f52c	-0.0082982
32	0x3efa0754	0.48833716
33	0x3c1f9e3c	0.009742316
34	0x3e91e6d8	0.28496432
35	0xbccb8e93	-0.024848258
36	0xbc0a0f0c	-0.008426439
37	0xbb8310d4	-0.003999809
38	0x3eee6d1c	0.4656762
39	0x3bd550c0	0.0065098703
40	0x3ec4d674	0.38444865
41	0xbccfa78a	-0.025348444
42	0x3eda4da2	0.42637354
43	0x3f156cef	0.58369344
44	0x3e37b422	0.17939809
45	0x3eb1c2c7	0.34718916
46	0x3c58c008	0.013229378
47	0x3f1547e3	0.58312815
48	0x3ef7ad50	0.48374414
49	0x3c43f03c	0.011959132
50	0xbbfb9ae4	-0.0076783765
51	0xbbe11c80	-0.0068698525
52	0x3edb1054	0.42785895
53	0xbc977bd6	-0.018491667
54	0xbc8beb6e	-0.017080035
55	0x3eb85c76	0.36008042
56	0x3cbbc056	0.022918861
57	0x3ed6a860	0.41925335
58	0xbccfa9b4	-0.025349475
59	0xbe49934c	-0.19685096
60	0x3ebaf249	0.36512974
61	0x3efdbd5c	0.49558532
62	0xbcdfd7a9	-0.027324514
63	0x3eff6fbd	0.49889937
64	0x3ca2819e	0.019837197
65	0x3c979204	0.018502243
66	0xbbb94d78	-0.005654987
67	0xbb6a6450	-0.0035765357
68	0xbaf6de20	-0.0018834509
69	0x3e6fc30b	0.23414247
70	0xbe7aa589	-0.24477209
71	0xbc01f28c	-0.007931363
72	0x3a2812a0	0.0006411467
73	0x3eddf359	0.43349722
74	0x3c9871e6	0.018608999
75	0xbcc1eeb6	-0.023673397
76	0x3ed95136	0.42444772
77	0x3cb3d6be	0.021952983
78	0x3c9eda06	0.019391071
79	0x3ef2ae22	0.47398478
80	0xbbf6bd58	-0.0075298958
81	0x3f15a1d9	0.58450085
82	0x3ca48c7a	0.020086516
83	0xbcc9fda6	-0.024657082
84	0x3e14c170	0.14526916
85	0x3ca1bee6	0.019744348
86	0x3c922c02	0.01784325
87	0xbc063d0e	-0.0081932675
88	0x3eeafb3d	0.45894805
89	0xbcd98a29	-0.026555138
90	0x3eddbed8	0.43309665
91	0xbbe52768	-0.006993223
92	0x3bc15c70	0.005900912
93	0x3e75fcc9	0.24022211
94	0xbf12f3b8	-0.57403135
95	0xbc7b15f3	-0.015325057
96	0xbe77d778	-0.24203289
97	0x3edfb177	0.43690082
98	0xbbb84aac	-0.005624136
99	0x3f15538e	0.5833062
100	0x3b2e3110	0.0026579536
101	0x3ccf5102	0.025307182
102	0x3ed65634	0.41862643
103	0xbc9a0ee6	-0.018805932
104	0x3ef393f1	0.47573808
105	0xbec83f74	-0.3911091
106	0xbb8c8d28	-0.004289288
107	0x3ea92d45	0.3304235
108	0x3e738c82	0.23784068
109	0x3b80eec0	0.003934711
110	0xbc000e62	-0.007815929
111	0x3eebf8fd	0.460884
112	0x3ecbe873	0.39825782
113	0x3c6760b4	0.014122177
114	0x3effbfdf	0.49951074
115	0xbcdcd09a	-0.026954938
116	0x3cd2043c	0.025636785
117	0xbcd919ac	-0.0265015
118	0xbcc1c152	-0.023651753
119	0x3c95dad4	0.018292822
120	0xbc0de570	-0.008660659
121	0x3b467b40	0.0030285865
122	0x3ee92e27	0.45543024
123	0x3edb3e58	0.42821002
124	0x3c124370	0.008927211
125	0x3cadaae6	0.021199655
126	0x3ed865c3	0.42265138
127	0x3db0a382	0.08624937
128	0x3c50dde0	0.012748212
129	0x3c386634	0.011254836
130	0xbce1e222	-0.027573649
131	0x3ce85272	0.028359625
132	0x3ecf3f37	0.40477917
133	0x3f18d348	0.5969739
134	0x3eade937	0.3396699
135	0x3abc3d20	0.0014361478
136	0x3ef72d8a	0.4827693
137	0x3ca6f326	0.020379614
138	0xba81c5c0	-0.0009900853
139	0x3ee30fd8	0.44348025
140	0x3be11300	0.00686872
141	0xbce4c5c5	-0.027926335
142	0xbe37b772	-0.17941073
143	0x3c989ca4	0.01862938
144	0x3ecbec8f	0.39828917
145	0xbcb9ec30	-0.02269563
146	0x3e8dfc8f	0.2773175
147	0x3ef105af	0.4707465
148	0x3cd43de4	0.025908418
149	0x3ce07c20	0.027402937
150	0x3eeea656	0.4661128
151	0x3ef76897	0.48321983
152	0x3c818f0e	0.015815284
153	0x3ed8c82d	0.42340222
154	0x3ec81697	0.39079735
155	0xbc796e4a	-0.015224049
156	0xbc67bcd5	-0.014144142
157	0xbddbd423	-0.10733821
158	0x3eef1452	0.4669519
159	0x3cd7fcea	0.026365716
160	0x3cddaefc	0.027060978
161	0x3f0a64a5	0.5405982
162	0xbecf9f87	-0.40551397
163	0x3ee27c8c	0.44235647
164	0x3b4f1bb0	0.0031602196
165	0x3c99649a	0.018724728
166	0xbc303984	-0.0107559
167	0xbc95020c	-0.018189453
168	0xbce8d991	-0.028424056
169	0x3edaba19	0.42720106
170	0x3edc0bb5	0.42977682
171	0xbaa6dfe0	-0.0012731515
172	0xbbf0ed00	-0.0073524714
173	0xbc8ab6d2	-0.016932879
174	0x3c01fe68	0.00793419
175	0x3cd2804a	0.025695939
176	0x3ee31d32	0.44358212
177	0x3cd0cd52	0.02548853
178	0x3f16b62f	0.5887174
179	0x3ef6bd5f	0.48191354
180	0x3ed8a0b8	0.4231012
181	0x3ed08053	0.40722904
182	0x3cea7af8	0.02862309
183	0x3ef28410	0.4736638
184	0x3f145237	0.5793795
185	0xbce8ddfa	-0.02842616
186	0x3e6217b9	0.22079362
187	0x3edd6a96	0.4324538
188	0x3ee8f4c6	0.45499247
189	0x3eeb2db4	0.45933306
190	0x3c5c9ec8	0.013465591
191	0x3c92b24e	0.017907288
192	0x3c979290	0.018502504
193	0x3f1a4dac	0.6027477
194	0x3cd1b1c2	0.025597457
195	0x3edf93d6	0.43667477
196	0xbc65b8db	-0.014021124
197	0xbbb5edc8	-0.0055520274
198	0x3c78298c	0.015146624
199	0x3c105334	0.0088089
200	0xbc62eaa5	-0.013849889
201	0x3c63d2ec	0.013905268
202	0xbc3b5090	-0.011432782
203	0xbcca0f5a	-0.024665523
204	0x3f12f8e9	0.57411057
205	0x3a5c7340	0.00084095076
206	0x3ee8f847	0.4550192
207	0x3f1798a0	0.5921726
208	0x3eeadfc0	0.45873833
209	0xbbd8e5cc	-0.006619191
210	0x3edcb6d6	0.43108243
211	0xbb72e630	-0.0037063472
212	0xbf153d4a	-0.58296645
213	0xbe8baeb6	-0.2728173
214	0x3ef26744	0.4734441
215	0x3ec3e023	0.3825694
216	0x3b276f00	0.002554834
217	0xbcb45bf5	-0.022016505
218	0x3c4d6c48	0.012538023
219	0x3efb23ab	0.4905065
220	0x3f1b72f5	0.60722286
221	0xbb7e02c8	-0.0038758982
222	0x3cdc24fc	0.026873104
223	0xbc51ddfa	-0.012809271
224	0xba03f8e0	-0.00050343387
225	0x3ce0c65c	0.027438335
226	0x3ef8043b	0.48440728
227	0xbcb2d814	-0.02183155
228	0x3ecc6723	0.39922437
229	0x3efff852	0.4999414
230	0xbccff250	-0.025384098
231	0x3af37a10	0.0018575806
232	0x3cd086ae	0.025454845
233	0x3c683688	0.0141731575
234	0x3c663830	0.014051482
235	0x3ee8e2b0	0.4548545
236	0x3ebbb23d	0.36659423
237	0xbf1219b9	-0.570705
238	0x3ed8a5c6	0.42313975
239	0xbec378f9	-0.38178232
240	0xbd9f4b2e	-0.07778011
241	0x3ebe0045	0.3710958
242	0xbb9c6624	-0.0047729183
243	0x3c19d4f8	0.009389155
244	0x3ed543bc	0.4165324
245	0x3a2c1740	0.0006564744
246	0xbce82138	-0.028336152
247	0xbef40acd	-0.4766449
248	0x3ee969ae	0.4558844
249	0x3ee2e3d9	0.4431446
250	0x3cd3d6d4	0.025859274
251	0xbf0ecf96	-0.557855
252	0x3c7fc064	0.015609834
253	0xbdff5491	-0.12467302
254	0x3cd3ff88	0.025878683
255	0xbc022a6c	-0.0079446845

linear1.bias f4 [3]
0	0x3eec6dba	0.46177465
1	0xbf0701d9	-0.52737194
2	0xbdb000a5	-0.08593873

linear2.weight f4 [6, 3]
0	0xbf58bc25	-0.84662086
1	0xbd5f5910	-0.054528296
2	0xbf39337d	-0.7234419
3	0xbf21683d	-0.6304968
4	0x3e9d2754	0.30694067
5	0xbf670027	-0.9023461
6	0xbf840527	-1.0314072
7	0x3e8cc348	0.27492738
8	0xbe21cb8a	-0.158003
9	0xbee8a8db	-0.45441326
10	0xbe1e9066	-0.15484771
11	0xbf85c7b0	-1.0451565
12	0xbe147a51	-0.14499785
13	0xbefac0e4	-0.4897529
14	0xbf11c661	-0.5694333
15	0xbf3b2c2e	-0.7311429
16	0xbdb51be6	-0.08843212
17	0xbf1ac36d	-0.60454446

linear2.bias f4 [6]
0	0xbee66b32	-0.4500366
1	0xbf08eee9	-0.5348955
2	0xbf5ca1b4	-0.8618424
3	0xbea16e07	-0.31529257
4	0xbf401243	-0.75027865
5	0xbf0d56a3	-0.5521032

linear3.weight f4 [12, 6]
0	0x3f42c3dc	0.7608011
1	0x3e8aa1e0	0.27076626
2	0xbedc40af	-0.430181
3	0x3f50287e	0.81311786
4	0x3ebc7e46	0.3681509
5	0x3f22facf	0.63663954
6	0x3f66c72e	0.90147674
7	0x3e89c3c6	0.26907176
8	0x3efecccb	0.4976562
9	0x3ede554f	0.4342446
10	0x3f1cb564	0.6121428
11	0x3f1cb867	0.61218876
12	0x3e8418ba	0.25800115
13	0x3f63c0a0	0.889658
14	0xbf08cded	-0.5343922
15	0x3eaba9d6	0.33528012
16	0xbeea349c	-0.45743263
17	0xbde301e6	-0.110843465
18	0x3f668ada	0.9005562
19	0x3ef4bf45	0.47802177
20	0xbe51ee45	-0.20501049
21	0x3f333a66	0.70010984
22	0xbf03ee21	-0.5153523
23	0xbe2c4ed6	-0.16826949
24	0x3e96969c	0.2941178
25	0x3e465170	0.19367003
26	0xbe785d24	-0.2425428
27	0x3e664a92	0.22489384
28	0xbf0d5b4f	-0.5521745
29	0x3e74e66e	0.23916027
30	0x3f1a7499	0.60334164
31	0x3f0b1165	0.54323417
32	0x3f0fc9f9	0.5616756
33	0x3f05ab71	0.52214724
34	0x3f179754	0.59215283
35	0x3f5cd79c	0.86266494
36	0x3e6d7c76	0.2319201
37	0x3e8990aa	0.26868182
38	0x3e2713d3	0.16316156
39	0x3e694284	0.2277928
40	0x3f225dc5	0.6342433
41	0x3f36fab8	0.71476316
42	0x3edafb89	0.4277003
43	0x3f0a1871	0.53943545
44	0x3e20a332	0.15687254
45	0x3ebaaa65	0.36458126
46	0xbe96da05	-0.2946321
47	0x3e188d13	0.14897566
48	0x3e46a9a5	0.19400652
49	0x3f3fa9c8	0.7486844
50	0x3e7acf75	0.24493201
51	0x3f4aa29f	0.7915439
52	0x3f0ab61e	0.5418414
53	0x3f01061f	0.50399965
54	0x3f1d348c	0.61408305
55	0x3f40812e	0.7519711
56	0x3f1a58cc	0.60291743
57	0x3f2eaa71	0.6822882
58	0x3ec07fee	0.37597603
59	0x3ee409c2	0.44538695
60	0x3f1713a9	0.59014374
61	0x3f215284	0.63016534
62	0x3ea66e87	0.325062
63	0x3e85caad	0.26131192
64	0xbe751e45	-0.23937328
65	0x3e9d6092	0.3073774
66	0x3e912a8f	0.28352782
67	0x3f2ea4e9	0.6822038
68	0xbeb9cc44	-0.36288655
69	0x3f116488	0.56794024
70	0xbf1ca8bc	-0.6119497
71	0x3ded9ef2	0.11602582

linear3.bias f4 [12]
0	0x3f2efd59	0.6835533
1	0x3f2f06a3	0.683695
2	0x3f2f004b	0.6835982
3	0x3f2efa9d	0.68351156
4	0x3f2ef2ee	0.6833943
5	0x3f2ef460	0.68341637
6	0x3f2ef16d	0.68337137
7	0x3f2ef739	0.6834598
8	0x3f2f031a	0.6836411
9	0x3f2f0ab4	0.68375707
10	0x3f2f0fcc	0.6838348
11	0x3f2f1351	0.6838885
