epoch_20_model/솔트/model.pth (torch, 201120 bytes, 18 tensors)

linear1.weight f4 [24, 48]
00000000: 176d 923d e266 acbc 5128 e8bc f332 09be
00000010: 1284 06bd 8da8 e93d 4dd0 abbd f18f e33d
00000020: efbd 23bd 7ea6 b93d 0693 aabd abe4 1b3d
00000030: 0a22 d53d e19b afba 989b 00be eac5 9dbd
00000040: cf64 273d 4a75 f2bd 46bc cbbb dec7 19be
00000050: 70e2 abbd 5c49 cfbd 3302 533d ecb0 dc3d
00000060: 9fca 0dbe 1da3 ca3b eec5 4a3c 46a8 edbc
00000070: 5036 87bc e12b a23a 7e2b 75bc 3579 99bc
00000080: 45d3 cdbd 6a5e 90bd 6e8e 8b3d e809 edbd
00000090: b780 ab3d 4978 0dbc 2081 2abb acd9 9cbc
000000a0: d470 17be 2e09 cc3c 755d c5bd 5ea5 0fbe
000000b0: 16a7 143d 485b b8bd 90e7 f4bc 2d20 703c
000000c0: cce5 84bd becc fbbd 3066 443d de96 31bd
000000d0: 1735 8ebd 8626 b13d 5af7 b6bd 0690 02be
000000e0: 005e c739 222a 0cbe 86cc 9b3d b48d 95bd
000000f0: acad ea3d 1ad1 5dbd a088 c83b f7f5 8fbd
00000100: d83d 8b3c 2c06 dabd fe94 803d 8adf 07be
00000110: 38fe ed3d 8c43 1b3d c096 09bc 8019 d5bb
00000120: b87f 7dbd d8c4 983c 02da 3cbd 841a ffbd
00000130: b6d8 e9bd 6c23 033d 1029 98bc 0c44 ae3d
00000140: 545f 3b3d ac8e 6d3d 3c25 10be 752b 82bd
00000150: e632 c03d 5c3d 883d 007b f53d 7adc b4bd
00000160: d887 693d 54c6 7e3d 67dd a1bd d902 88bd
00000170: 3f4c fcbd 6823 583d 6495 a0bc 3cad febd
00000180: b0cf 2d3e bc64 183e ee79 993c 5cd3 343e
00000190: cee3 113e 8bb8 c13d 4579 9d3d 9fb0 373d
000001a0: f9e5 083e c52e a8bc 2d7f 9fbc f08c 613d
000001b0: 9947 7bbd 41fd 103e c7ab f33c 8f54 db3d
000001c0: 5d74 24be 2479 603d 7d1b 483c dcd4 073e
000001d0: af80 a2bd 1e3f 083c bb70 8f3d fffb 9b3d
000001e0: 518c 003e 6a23 06bc 6b5a 883b 8042 293e
000001f0: 4b96 d13c a1a5 173e abc5 3abc a5f6 5e3c
00000200: 9720 343d 7f42 92bc 38d7 dc3d b878 3a3d
00000210: 6373 c5bd c9a8 be3d af98 193c 54f5 a53d
00000220: 09a5 8e3d 1543 193e 44e5 8f3c f9ae 6a3d
00000230: 4045 5ebe 4220 c93c 3f7e c4bd 53a7 c03d
00000240: 5aef acbd fb27 5fbc 643f 2f3c 3c5e a23b
00000250: eb7f 06be 39c3 863b 2a8e 213d ed6b dfbd
00000260: 81c3 31bd aa74 80bd 4306 d0bd 06d6 f7bd
00000270: 3d3f 2c3d 9909 dabd bf54 d53d 5081 093e
00000280: 35e8 0ebd da4b 01be 2224 dbbd 45ea 88bd
00000290: 09c7 b63c 2808 d93c 35a3 92bd efe1 c9bd
000002a0: d55c 1a3c 1e58 253d 7922 d63d 5ce0 f83d
000002b0: 89f2 033e b956 4b3d e4be 4b3d 01aa f4bd
000002c0: 900d 4f3d f2c2 adbd 9d3b f7bd d39d cabd
000002d0: 6b95 003e d202 0abe 35bf 833d ab2b 4a3d
000002e0: 87bb e5bd a6f3 fbbd 8bb9 c3bc 5677 07be
000002f0: 39a1 08be 408c e338 6e46 febd e0f3 103d
00000300: 0bf0 c73b 729d 1b3d 469e 1a3d a40d 5c3d
00000310: 71ab 0fbe ea96 adbe c313 083e 5550 b33d
00000320: 06c8 883e 86e7 303e af3d 023e 7202 123e
00000330: 62ae ce3d f2da 9dbd f604 d43d 5af8 153e
00000340: 832e 16bd 8b0b b1bd 4ef8 c83d 0f17 373d
00000350: 62e1 24be 2fd8 e2bd b5e4 fa3d d879 95bb
00000360: fed1 88be d666 1d3d 3398 2f3e b52c 033e
00000370: 2d6d e8bd 99e8 10bd 35f6 863d 5502 f83d
00000380: bbdd 7d3e 0f25 223e bffa 023e 7f07 173e
00000390: de56 bc3c a833 683c a82f 963d 1523 ac3d
000003a0: 6b3f 103e 273d b43d 88e9 373d 76dc f33d
000003b0: e982 76be 8b0a 8cbd ae1f 393e 7ef4 223e
000003c0: b454 223e f1e8 5ebc b453 9d3d a602 dabc
000003d0: 90e6 babd 66bf b63c 6e68 b03d 5897 39bc
000003e0: 3b20 1f3e d548 41bd 363b c23d 9d97 963d
000003f0: 3bc9 bd3d caf4 98bd 3399 2a3e 717c 903c
0.071497135 -0.021045152 -0.028339537 -0.13398342 -0.032840796 0.11409102 -0.083893396 0.11111439
-0.039976057 0.09064959 -0.08328824 0.03805987 0.10406883 -0.0013397896 -0.12559354 -0.07703765
0.040867623 -0.11838777 -0.0062175123 -0.1501765 -0.08392799 -0.10121414 0.05151577 0.10775933
-0.13846825 0.0061839954 0.012376292 -0.029010903 -0.01650539 0.0012372696 -0.014963983 -0.018734554
-0.10050062 -0.07049258 0.06814276 -0.11574155 0.0837416 -0.008634635 -0.0026016906 -0.019146763
-0.14789134 0.024906721 -0.09636966 -0.14027926 0.036292158 -0.090017855 -0.029895574 0.014656109
-0.06489143 -0.12294911 0.047949016 -0.04335677 -0.0694372 0.08649926 -0.08933897 -0.12750253
0.00038026273 -0.13687947 0.07607369 -0.07302418 0.114589065 -0.054154493 0.0061198026 -0.07029336
0.016997263 -0.106457084 0.06278418 -0.13268867 0.11620754 0.037906215 -0.008397758 -0.006503284
-0.06188938 0.01864855 -0.046106346 -0.12456229 -0.114182875 0.032016203 -0.018574268 0.08509073
0.04574521 0.05799739 -0.14076704 -0.06355945 0.09384708 0.06652328 0.11986351 -0.08831115
0.057014316 0.06220086 -0.07903557 -0.06641168 -0.1231923 0.05276814 -0.019602485 -0.124353856
0.16973758 0.14882177 0.018734898 0.17658752 0.14247057 0.09459027 0.07689146 0.044846173
0.13368978 -0.020530114 -0.019469822 0.05506605 -0.061347578 0.14159109 0.029744996 0.10709488
-0.16060014 0.05480303 0.012213585 0.13264793 -0.07934701 0.00831583 0.070039235 0.07616424
0.12553526 -0.008187154 0.0041611693 0.16529274 0.02558436 0.14809276 -0.011399667 0.013608609
0.043976393 -0.017853973 0.10783237 0.045525283 -0.09641149 0.09309537 0.0093747815 0.08103433
0.06965072 0.14966996 0.017565377 0.057295773 -0.21706104 0.024551515 -0.09594392 0.094069146
-0.0844409 -0.013620372 0.010696266 0.0049550813 -0.13134734 0.004112628 0.03944222 -0.10909257
-0.043399338 -0.06272252 -0.10157444 -0.121013686 0.042052496 -0.10646362 0.10416555 0.13428235
-0.03488942 -0.12626591 -0.10700251 -0.06685308 0.022311704 0.026493147 -0.071600355 -0.098575465
0.009421547 0.04036724 0.10455794 0.12152168 0.12885489 0.049643252 0.049742594 -0.11946488
0.050550044 -0.084844485 -0.12071917 -0.09893384 0.12556998 -0.13477638 0.06432954 0.04935805
-0.112174086 -0.123023316 -0.023892185 -0.13229117 -0.13342752 0.00010850327 -0.12415777 0.035388827
0.0061016134 0.03799195 0.037748598 0.053723946 -0.14030243 -0.339042 0.13288788 0.087555565
0.26715106 0.17275819 0.12718843 0.14258745 0.10091855 -0.07707776 0.10352509 0.1464552
-0.03666545 -0.0864478 0.09812985 0.044699725 -0.16101602 -0.1107639 0.12250654 -0.004561644
-0.2672271 0.03842815 0.17147903 0.12810023 -0.11348949 -0.035378072 0.06589929 0.1210982
0.24791615 0.15834449 0.12790965 0.14748953 0.02299064 0.014172472 0.073333085 0.08405129
0.14086692 0.088007264 0.044900447 0.11907284 -0.24073376 -0.068379484 0.18078491 0.15913579
0.15852624 -0.013605342 0.07681981 -0.026612591 -0.091260076 0.022308063 0.086136684 -0.011327587
0.15539639 -0.0471886 0.0948395 0.07353137 0.09266897 -0.07468565 0.16660003 0.017637463

linear1.bias f4 [24]
00000000: ae49 d8bd 8154 9fbd 43ff bf3d 8657 3c3d
00000010: af60 113e 1ac5 023e ae6d 54bd 368e 0a3e
00000020: d70b 503e 4654 143d 087d 943e 65d3 363e
00000030: d323 87bd 1151 093e ddbb 86bd 0308 713d
00000040: 74bd 80bd c726 96bd da57 7c3c d7f4 173e
00000050: 21a6 143e 740e 4b3d 8908 763e 58e7 cbbd
-0.10560928 -0.0777979 0.09374859 0.045981906 0.14197038 0.12770501 -0.05186241 0.13530812
0.20317017 0.036213182 0.2900164 0.17854078 -0.0659863 0.1340983 -0.06578801 0.05884553
-0.06286135 -0.07331615 0.015401805 0.14839493 0.14516498 0.04957433 0.24026693 -0.09956235

linear2.weight f4 [12, 24]
00000000: 8f22 253e 0c60 07be 6361 153e e560 34be
00000010: d49a d13e 799f 9c3e 18ac 3a3e 8014 113f
00000020: fd94 7a3e 0cdb d9bd 70d2 6b3d 9a8b 6b3e
00000030: d00c 5dbe 63eb 1e3e 01aa 5c3e 12ac 9a3d
00000040: 2f31 e43b 3846 37bc ad3a a0bd 83a4 c33d
00000050: 7fdc f0bd 2cfe 1e3e 049c ba3d 7696 823e
00000060: ee1b ae3d 68e5 383d 85d2 e83d 6ea8 5abd
00000070: 385d 34ba 3d8e 143d 6c8e 403e e931 1e3f
00000080: 0e58 b13d 5fe6 25bd ffd2 14be 1864 953e
00000090: 81b8 29be 5199 073f f4e1 8dbd dde2 47be
000000a0: 1f07 52be 9e8d ba3e e254 f23c a759 a83d
000000b0: f727 a63e 6cac e73d b6cc f23d 2bf7 823d
000000c0: 8570 913d 88d6 4ebe cf80 ac3d c1e2 9abd
000000d0: bf3a c33d 063e 50be 9785 113d 4f56 403e
000000e0: 3457 8dbe 9eb1 86bd 7932 213e 146a 723e
000000f0: 7668 e63d a480 0ebd 768d adbd b667 ee3a
00000100: ccea 77be f0c9 9cbe d6f9 973e f73e c63c
00000110: 5659 403e 68e5 4ebe bac0 8ebe 8b80 dc3c
00000120: b614 b13d c804 da3d 2075 673e b06b 42be
00000130: cbab f23d 94cf 47bc ccd4 f63d e860 b0bb
00000140: 2ae4 36be 00af e83d f5fa 493b 0ecc 413e
00000150: 2fa7 a23d 98ef 27bc 8135 533d d436 703e
00000160: 9cd2 b43d b606 473e 9655 64bc bb90 bebd
00000170: eda8 11be f26a 493e f81c a83d 613a b83d
00000180: 1887 ff3d 68ab a53d 981f 013e ee46 a13d
00000190: 1b1b c43e e364 673d fe8c a9bc ecdb 2f3e
000001a0: 9cdf 9fbd c055 7bbe 8197 8d3e fa76 953c
000001b0: 09ee d3be db19 8e3d ea38 5ebe 806b 11be
000001c0: 5793 ebbd 143a 2bbe 656b 143e 38a3 903e
000001d0: 51b7 a73e 605a 483e d594 123e 3a8e 143d
000001e0: 7eab 2ebc 07c7 4fbe 867a 293e 5770 4abe
000001f0: 39df 10bd 8b11 e73d 8ab6 1a3e 320f 063f
00000200: 2fcb c33d 24c6 a3be 931e f93d e7fb 0f3f
00000210: ec24 d3be 8f78 5c3e 24cc c23c b86e 90bd
00000220: 1676 66be 38b5 653e 4f90 5cbd 0275 363e
00000230: d767 353b 2494 083d 7334 483e a1de 1dbc
00000240: 9a21 283d a011 81bd 69ef 013e b4cf 0cbe
00000250: 04d3 dd3e 964c d63d e6a7 86bd 2938 cb3d
00000260: c923 5f3d 55e6 dc3e b85b 28bb 9d9d 363d
00000270: db4c 4bbe 28ef 0dbe 4152 51be ef44 40be
00000280: a7c6 e7bd 8f32 1a3e d566 c7bc 5f1e 023d
00000290: f519 733e f8a2 de3d 2fdd 2dbc e308 26be
000002a0: d50f cbbd 7ce8 07be 1417 0abe ea42 19be
000002b0: fdfc 843c 2a26 0c3e 4876 653e 76dd e63e
000002c0: 3d30 353e 9bd4 81be 142a 2c3e 1d5f ab3e
000002d0: 4d10 8bbe 2549 833e d004 43be e9b1 27be
000002e0: f107 de3d 2a61 b63c 7586 eebd 872f 883e
000002f0: e4fa 983e 7cac ffbd 0789 4bbb 0c2d 2b3e
00000300: 1e29 7abd 0407 25be a85f 853d c263 ff3c
00000310: 8a87 673e 6331 cdbd 51bd 513e f9e0 e63d
00000320: 941f 19bc 5c96 3e3d 66e7 683c a28e 9cbd
00000330: ad11 3abe 8c81 5d3d 23e4 803c ea11 653e
00000340: dca3 043d e992 123d 6a62 07be 0af1 7f3e
00000350: f926 963e 1664 4b3e 8cc0 ab3e 1463 8c3e
00000360: 994b 113e 009a 223d 25f3 b93d 958e 483e
00000370: dbc4 df3c 93b7 f3bd d9df af3d cd88 0f3e
00000380: a7f3 9dbd 1b6f 1f3e 1040 58be 7946 29bd
00000390: 8060 173c 4ae3 50be d9a3 21bc ce2f 19bd
000003a0: 3431 6fbe 9240 693d ee21 043e 280a 24be
000003b0: d1fa 24be b8c7 e63c ca74 6bbe 439c ea3d
000003c0: 0f08 29be 32a7 debd a327 6f3e 40fa 803d
000003d0: 901f 89be d550 a1be ea3e d93d 7244 033d
000003e0: 21ef d1bc 966e 85be 2070 443e 821e f73c
000003f0: 90d8 bdbd 89e2 ac3d c29c 4b3e 8f2c 1e3d
0.16126464 -0.13220233 0.14587931 -0.17615087 0.40938437 0.30590418 0.18229711 0.56671906
0.24470897 -0.10637483 0.057573736 0.23002473 -0.21586919 0.1551948 0.21549226 0.07552351
0.006963871 -0.011186175 -0.078236915 0.095528625 -0.11760806 0.15526646 0.09111789 0.25505418
0.08501421 0.045140654 0.113682784 -0.053383283 -0.0006880346 0.03626846 0.1880433 0.61794907
0.08659373 -0.040502902 -0.14533614 0.29177928 -0.16574289 0.5296832 -0.06927863 -0.19520135
-0.20510529 0.3643617 0.02958149 0.08220225 0.32452366 0.11312184 0.11855452 0.063948
0.071015395 -0.20199025 0.08423006 -0.07562781 0.09532689 -0.2033616 0.03552779 0.18782924
-0.27605593 -0.065768465 0.1574191 0.23673278 0.11250393 -0.03479065 -0.08474247 0.0018188867
-0.24210662 -0.30622816 0.29682797 0.024199946 0.18784079 -0.20204699 -0.27881414 0.026916763
0.086465284 0.10645443 0.22603273 -0.18986392 0.11849173 -0.012195487 0.120523065 -0.005382646
-0.17860475 0.113615036 0.0030819748 0.18925497 0.07942044 -0.010249995 0.051564697 0.23458415
0.08829233 0.19436154 -0.013936421 -0.09304949 -0.14224596 0.19669703 0.0820865 0.0899551
0.12476939 0.08089334 0.12609708 0.07874857 0.3830193 0.056492697 -0.020697113 0.17173737
-0.07806322 -0.2454443 0.2765465 0.018245209 -0.41392544 0.06938525 -0.21701398 -0.14201164
-0.11502712 -0.16721374 0.14494093 0.28249526 0.32757047 0.19565725 0.14314587 0.03626845
-0.010661004 -0.20290767 0.16550645 -0.19769417 -0.03536913 0.11282643 0.15108696 0.52366936
0.095602386 -0.31987107 0.12164035 0.5624375 -0.41239107 0.21530364 0.023778982 -0.07052368
-0.22505984 0.2243241 -0.05384856 0.17818072 0.0027680302 0.033344403 0.19551258 -0.009635598
0.04104767 -0.0630219 0.12688984 -0.13751107 0.43325055 0.10463826 -0.06574993 0.09922821
0.054477487 0.4314448 -0.0025689434 0.044583905 -0.19853537 -0.13860762 -0.20441534 -0.18776296
-0.11317187 0.15058349 -0.024341026 0.031767245 0.2374037 0.108709276 -0.010611816 -0.16214328
-0.09915129 -0.1327228 -0.13485366 -0.14966932 0.016233915 0.13686433 0.22408402 0.45090836
0.17694183 -0.25357518 0.16812927 0.33471003 -0.27160874 0.25641742 -0.19044805 -0.16376461
0.108413585 0.022263128 -0.116467394 0.2659876 0.29878914 -0.12484071 -0.0031057016 0.16716403
-0.06107437 -0.16115957 0.065123856 0.031175498 0.22610298 -0.100191854 0.20482375 0.11273379
-0.009345908 0.046530113 0.014215326 -0.076443925 -0.18170805 0.054078624 0.015733784 0.22370115
0.03238283 0.035784636 -0.13221136 0.24994293 0.2932661 0.19862399 0.3354534 0.2741934
0.14188994 0.039697647 0.09079579 0.1958564 0.027315548 -0.119002484 0.085876174 0.14017029
-0.077124886 0.15569727 -0.21118188 -0.041326974 0.009239316 -0.20399204 -0.0098657245 -0.037399106
-0.23358613 0.056946345 0.12903568 -0.160195 -0.16111304 0.028171405 -0.2299377 0.11455586
-0.1650698 -0.10871734 0.23354964 0.062977314 -0.26781893 -0.31506982 0.10607703 0.032047696
-0.02562672 -0.26060933 0.19183397 0.030165914 -0.09269822 0.08441646 0.19884017 0.038616713

linear2.bias f4 [12]
00000000: 3c21 26bd 4e92 fc3c 11f9 3f3d 1e1f 0d3e
00000010: 8fdc e73d 6c36 883d 0b9e 403e e61d 153e
00000020: 2fd4 613c 6868 3e3c 4e80 173e 5d51 f0bc
-0.04055904 0.030831482 0.046868388 0.13781402 0.11321365 0.06651005 0.18810289 0.14562187
0.013783499 0.011621572 0.14795038 -0.029335672

linear3.weight f4 [1200, 12]
00000000: 7683 863d 90f2 1fbe 46e2 8f3e 30f3 afbc
00000010: 67e4 093e 7089 253d 5b34 c43d 5940 8f3e
00000020: ed4f f03d 1200 9f3c 6f25 96be 13a6 3fbe
00000030: 304f 8e3e 172e f93d f2c8 06be 3659 11be
00000040: eb2d 06bd 7ba9 943e 49f4 2d3e 64af d03e
00000050: 2218 dd3c 2374 e5bd 0a66 363d b9de 243e
00000060: 6d98 b63d dfdb c0bd 0a1a 893e 3258 283d
00000070: 09e2 783e 0715 8fbd 8445 4fbe 7f0b 40be
00000080: 03c4 313e a9a3 883c 4b7c 8d3d 77bd 65be
00000090: c092 803d 65b5 87be f489 803d bc46 bc3d
000000a0: e758 92be e109 0fbe dd23 1fbe c46f 04be
000000b0: 6be0 24be fc56 90be a6b3 88be d68b 7bbe
000000c0: 4fd9 903e 95b5 ab3e 11c2 31be 3434 0fbe
000000d0: 4968 d93e 5e7f 213e 7e3c 03be 15f2 5c3e
000000e0: bd99 b13e 3208 aa3d 1edb ae3e 0dfe 553e
000000f0: a934 f73c 0647 c03e 062e 3ebe 3e76 953d
00000100: 69be 1f3f fce7 803e 05da 303e 2f30 ccbb
00000110: 67fa 873e be07 4bbd f1e3 5e3e 226c 213e
00000120: d32c 9a3e 6f85 2d3e 75ce 17be 1008 95bd
00000130: fb34 84bd 5156 e7bb 1502 9dbe ec36 10be
00000140: 16e2 413e ae57 b73d 1bb0 fe3d 226e 893e
00000150: 11f3 853e 5281 83be 0a9b 4b3e 24db 023e
00000160: 33c6 acbd cf46 c53c 21cf 3b3e 6e19 4fbd
00000170: 9957 a6bd b191 93bd 375e 37bd a580 a3bd
00000180: 7f3d 0abf 4739 f73c d21e 043e acc3 41be
00000190: 05dd 003d 5da3 05bd 8555 393d b456 573d
000001a0: a55f df3d 02b4 4dbe 19ff dfbd 9f40 70be
000001b0: 98dc 8bbd dcbc 43be 9f4d 083e 8d2e 7bbe
000001c0: 76e0 93bd 1e9c 10bc f088 443e 4897 6cbd
000001d0: e207 c0be 08ad bdbd 3c8e a13d 3bb1 2c3d
000001e0: ef1b 643d 17db 13be 9e1d 1fbe d685 86be
000001f0: a8c0 05bc 5d23 70bd df10 34be 432d 893e
00000200: 7fa0 01be c3fa d4bc 4100 babd f1ed d9bd
00000210: ec7f 66be 177a 8fbd fe2b 8cbc 5e46 8ebe
00000220: 8b80 2f3c 28e6 543c a7b4 973d 2164 453e
00000230: 15de 9cbe 563e 84be c314 39be da13 b73d
00000240: b4f4 013e cf0f c53e 263f eebd 3ac3 683e
00000250: d0be b23e fcb7 c13e 1250 523e ed11 c63e
00000260: b504 fbbd 57ab abbd 824a 153e 4f0e bb3e
00000270: 52f5 0bbe 94e6 533e bc32 253e b2c4 cbbd
00000280: 9b9a 1abe 70b7 86bd 46c5 26be 08e1 2fbe
00000290: c0aa ad3b 64c0 633e 49a7 17be 7a16 51be
000002a0: 274c 82bd 7d3f aebe fb30 07be 4cdc 073d
000002b0: 4836 80bb c6df a7bd 6179 34be abf4 c3bd
000002c0: 3bb5 213e b1cc 673e fdc8 0bbe e742 5ebd
000002d0: f9cb a33e a1a2 793e e6e2 07bd 7785 60be
000002e0: c8ca a73e 525c 823e 1cf4 b73e c2d8 a83e
000002f0: 2ec4 e4bc f666 433e f5d4 85be 0782 b2be
00000300: 0f6d cd3d 723d 0b3e f59d a83d 3cc9 ac39
00000310: 84e6 9d3e 0710 9bbe cefe 773e ecf9 c63d
00000320: ebcf 1a3e d555 73be a42c 7cbe 9650 2dbd
00000330: e209 533e 8b88 a3be d7b6 d03c f93c acbe
00000340: a8f9 d7bb 0a09 b53d 5553 953d 6985 aebb
00000350: 1d48 b3be 6f07 803e 6c1c 9dbc 5232 a2bd
00000360: 2d05 af3e a3ac 3fbe 6d79 c5bc c8aa 803e
00000370: 052a 64bd 31f3 0f3d 5d64 ed3e 0e59 593e
00000380: 85fe 6a3e fd3f 8b3e 40b5 2cbd d44c 063e
00000390: a0f7 23be c21b 12be 07e5 8f3e 40ac acbd
000003a0: b001 9a3e ba7b 013e 3106 1d3e f975 403e
000003b0: b046 073d 619c 20bd c398 b3bd b1ef aabd
000003c0: 3450 56be 97c2 57bc 0f88 67be 9668 46be
000003d0: 6a21 fdbc 8a7e a3be ee96 493e fbfa 3abc
000003e0: d25d da3c be86 25be ed77 f53d d454 933d
000003f0: 9205 e83d aea8 1cbd f55b 593e 8811 33be
0.06568043 -0.15619874 0.2810232 -0.021478266 0.13466035 0.040414274 0.095802985 0.2797878
0.11733995 0.019409213 -0.29325435 -0.18715696 0.2779479 0.12166994 -0.13162592 -0.14194188
-0.032758635 0.29035553 0.16987719 0.40758812 0.026989046 -0.11203792 0.044530906 0.16100587
0.08915792 -0.09416937 0.2677768 0.041099735 0.24304976 -0.069864325 -0.20241362 -0.18754385
0.17359929 0.016679602 0.069084726 -0.22435556 0.0627799 -0.2650558 0.062763125 0.09193179
-0.28583452 -0.13968612 -0.15541025 -0.1293326 -0.16101234 -0.28191364 -0.2669956 -0.24565062
0.28290793 0.33536974 -0.17359187 -0.13984758 0.42462376 0.15771243 -0.12816045 0.21576722
0.34687606 0.083023444 0.34151548 0.20897694 0.030176478 0.37554187 -0.18572244 0.072979435
0.6239992 0.2517699 0.17270668 -0.00623133 0.2655823 -0.04956793 0.2176664 0.15763906
0.30112323 0.16945432 -0.14824851 -0.072769284 -0.06455418 -0.0070598503 -0.3066565 -0.14083451
0.18933901 0.089522704 0.12435933 0.26841837 0.26162007 -0.256846 0.19883361 0.12778908
-0.08436241 0.024081616 0.18340732 -0.05056136 -0.08122177 -0.07205523 -0.044767585 -0.07983521
-0.54000086 0.03017868 0.12902382 -0.18922299 0.03146078 -0.0326265 0.045247573 0.05257292
0.109069146 -0.20088199 -0.10937328 -0.23462151 -0.06829184 -0.19115013 0.1331086 -0.24529476
-0.07220547 -0.008826284 0.19192863 -0.05776146 -0.37506014 -0.09261519 0.07888457 0.042161208
0.055690702 -0.14439045 -0.15538642 -0.26273984 -0.008163609 -0.058627475 -0.17584561 0.26792344
-0.1265888 -0.025998479 -0.0908208 -0.10641087 -0.22509736 -0.07005709 -0.01711082 -0.2778806
0.010711799 0.012994327 0.074075036 0.19276477 -0.30638185 -0.2582881 -0.18074326 0.08939333
0.12691003 0.38488623 -0.11633138 0.22730723 0.34911203 0.3783568 0.20538357 0.3868555
-0.12256757 -0.0838229 0.14579204 0.36534354 -0.13667801 0.20693427 0.16132635 -0.09949626
-0.1509804 -0.06577957 -0.16286191 -0.17175686 0.005299896 0.2224136 -0.14809908 -0.2041873
-0.06362181 -0.34032813 -0.13202278 0.033169076 -0.003912721 -0.08196978 -0.17624427 -0.09568151
0.1579179 0.22636677 -0.1365089 -0.05426302 0.31991556 0.24378444 -0.03317537 -0.21925913
0.32771897 0.2546106 0.35928428 0.32977873 -0.027925577 0.19082245 -0.26139036 -0.34864828
0.10030567 0.13597658 0.08233253 0.00032956328 0.30839932 -0.30285665 0.24218294 0.097156376
0.15118377 -0.23763211 -0.24626404 -0.04231318 0.20609239 -0.31940112 0.02547781 -0.33640268
-0.0065910406 0.08839615 0.07291285 -0.0053259623 -0.35015956 0.2500567 -0.019178592 -0.07919754
0.34183636 -0.187182 -0.024105752 0.25130296 -0.055704135 0.035144035 0.46365634 0.21225378
0.22948654 0.27197257 -0.04216504 0.13115245 -0.1601243 -0.14268401 0.28104421 -0.084312916
0.30079412 0.12644854 0.15334393 0.18795003 0.033026397 -0.039211635 -0.08769371 -0.08346499
-0.20929033 -0.013168952 -0.22610496 -0.19375834 -0.030899722 -0.3193248 0.19686481 -0.0114123775
0.026656065 -0.16164681 0.11985765 0.07193914 0.113291875 -0.038246803 0.21226485 -0.17487156

linear3.bias f4 [1200]
00000000: d9be bebd 0514 243c 8e28 793e 8683 68be
00000010: 5ab7 9ebd a404 02be 69c8 cc3d 0047 703d
00000020: e145 9a3d 73e4 a6bc 7c27 8a3e be61 593e
00000030: 177c 23be 4857 01bd 3e5a c63d cd21 12be
00000040: 767d 0bbd 6e6a 1c3e 1111 d0bd 2fb3 99bd
00000050: 10ac 713e ec3f 97bd f0ae 463d c9dd 8cbe
00000060: 1717 d93c 2042 f93d 7e90 943d 1528 2dbe
00000070: 3e2a ed3d 1f45 3a3c db53 2bbe bb6c 93bc
00000080: dc31 91be 546e 0c3e 53e2 03be d16e 2d3e
00000090: 3bb8 4cbe ad22 8bbc b247 cf3d 1d49 0e3c
000000a0: 375b 0b3e ad58 09be 678e 8dbc 4038 01be
000000b0: 3390 8cbe e92c 923e 767f 19be bfda e8bd
000000c0: 9f9b 543e ae76 7abe 1674 28be 5964 60be
000000d0: 2937 d13d af92 33be 3f34 b0be 7741 6f3d
000000e0: 510e 0e3e d326 a4bd da56 1dbe 92b6 e5bd
000000f0: 0737 23bc e178 e9bc f0ab 5b3e ab70 2cbc
00000100: 6586 4b3e c2e5 b1bd ae77 a13c c091 22be
00000110: ac93 373e c76c bc3d 14d8 edbd cec2 163e
00000120: ae94 80bd 9db3 c7bd ab52 87bd 7af1 c2bc
00000130: 1e88 31ba 233f 83bc 4702 573d 7fdf 80be
00000140: 1f1b e83c 24f4 243e c945 32be 0a70 84bd
00000150: 443e 4cbe d5ca 5fbe fc22 00be 915e 52bc
00000160: 14ba 073e 6cc9 f4bb e767 5cbe 642e 73be
00000170: 0f8d 7cbe 78e2 16bd bea6 6c3e e9e5 d7bc
00000180: a1b3 9ebe 5206 e6bc c2ad 0b3d c217 2dbe
00000190: 48d1 e23d fc74 f43d 0f64 32be e3f7 10be
000001a0: a53c aebd 2d79 473e ef85 16bd 64fa 523e
000001b0: 5291 113e 7668 723e d793 00bd 8b17 92be
000001c0: 2d7e a6be e682 5cbe 7d98 a13d a208 ecbd
000001d0: 768f 8fbc 3d03 8fbe c704 fbbb 8f2f eb3c
000001e0: d5e5 1d3e 3e18 07bd 048c 1a3d d8d0 513e
000001f0: ae66 7ebb 239d 1a3e 9287 f73d 9589 99bd
00000200: 0d57 18be 9d30 903e 5009 0d3e 1ac3 1c3d
00000210: 45cf 1e3e 6f24 88be 1b7e 12be ac2c fbbd
00000220: 9c1d 9fbd 1d68 90bd bc87 98bc fe0e 933d
00000230: bcb2 123e f658 533e afa4 c6bd 257a 2c3d
00000240: 7cb8 c63d 55ae b3bd 24f4 07bd 3b2f 933e
00000250: 6642 1abe 133c 03be c1f7 66be 4f30 babc
00000260: 5f9b 673d eec3 adbd 9600 4d3d c770 df3d
00000270: ecc0 883d ecd2 e23d 2e6d 803e 0bdc afbe
00000280: 7a38 37be 12f2 933b 4186 a03d f5bf 333d
00000290: 2440 1cbe 4cea 263d 895d 833d d1fc 943e
000002a0: 9a19 98bd 6a98 77be a181 82be aa9b 0f3e
000002b0: 6c93 3b3e 6041 01bd d3a2 d0bd ee34 f13d
000002c0: 3729 6c3e 0d6b 843e 2d76 823c 3000 4bbe
000002d0: 70cc 22be aa63 86be da81 233e fd4a 70be
000002e0: b7aa 743e 4432 8abd 176e 373b 7ff1 87be
000002f0: 145e a8ba 86a5 92bd e82d fe3c 5444 5abe
00000300: ea6d 873c 05d5 c9bd c95f 8abb a7f9 503e
00000310: a2ef 503d 81a0 8fbe 7d85 d4bd 20b2 43be
00000320: 64c0 21be 7a4c b73d f17b c33c 10ff f5bc
00000330: 60bc 0ebe 4b48 8d3e b6ff 9f3d ab38 d03d
00000340: 7913 38be 5632 f63d 66ff f5bd 7dd4 8dbc
00000350: 71cd 9a3d a0f5 823d 6ae3 0d3e d6cd 813d
00000360: 881e 14be 8b9f 2d3e e92f 39be 802c 1d3c
00000370: bcd0 373a faa6 11be 8fbd 973e f6c9 1f3e
00000380: b62f 3abe 8130 553d 60a4 1a3e bb12 8d3d
00000390: 2c58 ed3d 9a0a 45bd 97a6 59bb 427e 13be
000003a0: 0eaf 203e c5dd c4bd c64d 223d d08b 143e
000003b0: f60b c23d e62f 0b3e 3850 ae3d 3ce8 77bd
000003c0: 38c8 373e 6872 163d 3679 6a3e 7910 d0bd
000003d0: ceda 6fbc 8794 49bc 2d58 713e aaee 1fbd
000003e0: 23b2 48bd ca78 2fbe 2a5b fa3d 1a43 24be
000003f0: e620 87bd 50b3 7ebc a178 0fbe 1190 cd3d
-0.09313745 0.010014539 0.24331877 -0.22706422 -0.07749815 -0.12697083 0.09999163 0.05866146
0.075328596 -0.020372605 0.2698325 0.21228692 -0.15965305 -0.03157738 0.09685181 -0.14270706
-0.034055196 0.15274975 -0.10159505 -0.0750488 0.23600793 -0.07385239 0.048506677 -0.2751296
0.026500268 0.121708155 0.07254122 -0.16909821 0.11580323 0.011369019 -0.16731207 -0.017996183
-0.28358352 0.13713962 -0.12879305 0.16936804 -0.19992153 -0.016984308 0.10121097 0.008684424
0.13609014 -0.13412733 -0.017279817 -0.12619114 -0.27453765 0.2854989 -0.14990029 -0.113698475
0.2076249 -0.24459335 -0.16450533 -0.2191328 0.10215599 -0.17536424 -0.3441486 0.05841204
0.13872649 -0.08015218 -0.15365162 -0.11216463 -0.00996185 -0.028500022 0.21452308 -0.010524909
0.19875486 -0.08686401 0.019710388 -0.15875912 0.17927426 0.09200435 -0.11613479 0.1472275
-0.062783584 -0.097510554 -0.066075645 -0.023796786 -0.0006772297 -0.016021317 0.052492406 -0.25170514
0.028333245 0.16108757 -0.17409433 -0.06466682 -0.19945627 -0.21854718 -0.12513345 -0.012839929
0.13254577 -0.0074703004 -0.2152401 -0.23748165 -0.24663185 -0.03683707 0.23110482 -0.026354747
-0.3099642 -0.028079186 0.034101255 -0.16903594 0.110750735 0.119363755 -0.17420982 -0.14157061
-0.08507661 0.19479819 -0.036748823 0.20603329 0.14215592 0.23672661 -0.03139099 -0.28533587
-0.3251814 -0.21534309 0.07890413 -0.11525084 -0.017524462 -0.27932158 -0.0076604816 0.028709201
0.15419705 -0.032982104 0.037731186 0.20489824 -0.0038818526 0.15099005 0.12086405 -0.07496945
-0.14876957 0.2816209 0.13773084 0.038272 0.15508755 -0.26590297 -0.14305918 -0.1226438
-0.077693194 -0.07051108 -0.01861941 0.07180594 0.14325994 0.20639405 -0.0969938 0.042108674
0.09703156 -0.087734856 -0.033191815 0.2874697 -0.15064391 -0.12815885 -0.22555448 -0.022728113
0.056544658 -0.08484636 0.050049387 0.109101824 0.06677422 0.110753864 0.25083297 -0.34347567
-0.17892638 0.004514941 0.07838107 0.043884236 -0.15258843 0.040750787 0.06414325 0.29099134
-0.07426758 -0.24179235 -0.25489524 0.14024225 0.18317956 -0.031556487 -0.10187306 0.11777674
0.23062597 0.25862923 0.015925491 -0.1982429 -0.15898299 -0.26247913 0.15967503 -0.23466106
0.23893248 -0.06747869 0.0027989203 -0.26551434 -0.001284542 -0.07160477 0.03102775 -0.21315128
0.016531903 -0.098550834 -0.0042228443 0.20407735 0.05100978 -0.28052142 -0.10377023 -0.19110918
-0.15796047 0.089501336 0.02386281 -0.03002885 -0.13939047 0.27594218 0.07812445 0.101670586
-0.17976178 0.120213196 -0.12011604 -0.017313236 0.07558716 0.063945055 0.13856283 0.06338088
-0.14464772 0.16955392 -0.18084683 0.009593129 0.0007012 -0.14223853 0.2963681 0.15604386
-0.18182263 0.05204821 0.15101767 0.06888338 0.11589083 -0.048105814 -0.0033210868 -0.14403632
0.15691778 -0.09612612 0.03962495 0.14506459 0.094749376 0.1359249 0.08511394 -0.06052421
0.17947471 0.0367302 0.22897801 -0.10159392 -0.014639569 -0.012303478 0.23568793 -0.039045967
-0.04899801 -0.17135921 0.122244194 -0.16041222 -0.06598072 -0.015545681 -0.1401086 0.10037244

linear1.weight f4 [12, 1200]
00000000: 0101 f3bb f573 f13b 035c 80bc 26dd dc3c
00000010: 4930 933d 7c36 433c 587b 9e3c e7f3 13bc
00000020: be7b 883c 308e d6bc af42 a8bc 0137 c9bc
00000030: 3afc 173d 7cbf 193c de63 c83d 8c0c 953c
00000040: a3e1 10bc 8e4a 83bd b3f4 b9bd d44a 8b3c
00000050: 1fb9 923d 271b 6dbd 0e11 4bbd 70a9 d4bb
00000060: 1c85 583c a6be 0fb8 0c1d e7bb 2d2b 30bc
00000070: 42f2 af3d abd7 e23c c225 7b3d 5e1d e93c
00000080: 859a e8bc 84f0 9a3d bd9a 01be 76b9 053c
00000090: a88e 143c 78c1 10be 671a 9b3d 6e69 9dbd
000000a0: c99d ec3d da3c 80bc cba9 84bd 90a5 f93a
000000b0: 920c e13c 2063 95bd c7a6 dbbc b73e 0d3c
000000c0: 45c7 c1bb 1d9c 24be 48d1 d33c 9fa0 5abc
000000d0: 7e50 023e 1076 55bd 95bd ecbb 225a 80bc
000000e0: 914f 943c 502f 9bbd f47d 0b3c b8bd 6fbd
000000f0: 989d 3fbc 45f5 44bc 9e6b 643d 975d 2abd
00000100: 416b 193b 12d4 b13d 73ff 623e b4dd 92bd
00000110: 9ad3 92bc b399 463d e297 993d 1ed2 283d
00000120: c548 6fbc 2ebb 11bd f862 93bd 2215 83bb
00000130: e055 9e3b f481 723c ed82 4cbd 0322 3ebd
00000140: 94d9 ad3d cb03 1abc 4601 1dbe 45b9 853d
00000150: dda3 09bc 4d96 20bd 8841 e53c f962 b9bd
00000160: 3dfa 953d 60a9 91bd 1e8a 43bd 33d5 8abc
00000170: 6b9c a43e 3c08 873d 51e0 ae3d 3b45 9b3d
00000180: 49e2 863b 1a34 f6bc 55e3 0dbd dce6 343e
00000190: 01ab abbd 34a0 b23d a6e2 a8bd e40f 3b3c
000001a0: 31b1 10bd f288 f639 94bd 883d d8c5 093c
000001b0: 5ac0 04bd 5a97 8dbc 5f8c 9a3d 983d de3a
000001c0: aef8 373c 5e26 6abc 03b6 853d 2dfb f53c
000001d0: a3d2 293e f0ee 973c 2d55 16bd 90b6 11bd
000001e0: 8c12 313d 479e a7bc c95c f53c 4035 0cbc
000001f0: 6083 a33d 2538 5bbd 24ea a3bd 45a7 54bc
00000200: 03a3 95ba 6f82 da3c e7a7 56bb 7a52 fabc
00000210: e7db 233d 570f a6bd f740 a83d 9c99 24bd
00000220: 059d cbbb ecd5 33bd 57d2 093d fe63 50bd
00000230: 37c3 ce3d 975a 26bd ae48 983c c3f8 9bbc
00000240: ad79 33bf cf5e c03d e527 33bd bab7 0cbd
00000250: 9d37 75bd 56f8 62bd 90fe 6dbd 25ff b1bb
00000260: 19ae 5e3c 3b24 813d 8241 1d3d 3f12 c23c
00000270: 063f ec3c 4f95 7e3d 368c a0bd 7316 81bd
00000280: 67e2 993d bb46 a2bd f6c8 883d 7ce2 213d
00000290: d399 263e 3787 813d 3693 a63c d55a 1dbd
000002a0: 007c cc38 6b0c b33d c6de 6dbd b5ae 4abd
000002b0: 4f88 efbc 2b14 babc 7802 8cbb 57c2 f73d
000002c0: 696e 80bd e70b 703d c113 823c 5407 a8bc
000002d0: 9415 68ba 6ccd 1d3c 3e9d 3e3d 3ef4 623c
000002e0: 5735 943c e5b9 9f3d 47fd 4e3d be4d 71bc
000002f0: 101a 9a3d 18b7 df3a f08a 0fbd fa06 dfbc
00000300: 5fd6 183d d151 d63c f42e 583d 25ee aabc
00000310: 6e07 063c 3e0d c4bc 45ed 123d 9adf c73c
00000320: 9a05 a03e 8129 f5bc a3e8 243d 6aba a2bc
00000330: 7c12 b93e 5b5b 7c3c 7a11 88bc 867f 893d
00000340: 8232 d13c a5fd 2e3c 15c6 e4bc 7911 0cbd
00000350: c024 85bd 8e02 28bd 4260 a7bd 4f77 3a3d
00000360: 85d3 5ebd 6f0b dcbd 20f9 4c3e d5c7 9e3c
00000370: d094 8f3d d75a 953b e072 013d 1f6b 76bb
00000380: 5217 b03c c53b 913d f4c0 483d d4ec fcbc
00000390: b8ca 82bd c903 423e d35d 643c c8a1 c83d
000003a0: d538 8c3b a0cf aebc 5c5a 073e fbee d03d
000003b0: 608f 623d 3f04 b2bc eade d53d 67e3 fd3d
000003c0: c1ef ecbb 56e8 cb3c f704 993d d6ed 7bbc
000003d0: 8a16 c3bd 7b7c 963c cdf5 6b3c 2948 643d
000003e0: 2cdd ef3d 6d84 653e 30c2 253d e49c 89bd
000003f0: a794 fbbc 4b91 10be 6ff9 1dbd bf5f c73d
-0.007415891 0.0073685595 -0.015668875 0.02696092 0.07186944 0.011914846 0.019345924 -0.009030319
0.016660567 -0.026190847 -0.02053961 -0.02456236 0.037105776 0.009384032 0.09784673 0.01819446
-0.0088428585 -0.064107046 -0.09079876 0.017003454 0.07164215 -0.057887223 -0.04957681 -0.006489925
0.0132153295 -3.4271412e-05 -0.007053023 -0.010752481 0.08591129 0.02769073 0.061315306 0.028456386
-0.028393993 0.07565406 -0.12656684 0.008161893 0.009067215 -0.14136302 0.07573395 -0.07686125
0.11553533 -0.015654016 -0.06477698 0.0019046534 0.027471814 -0.07294297 -0.026812924 0.008620909
-0.0059136474 -0.16075177 0.025856629 -0.013343959 0.12726018 -0.052114546 -0.0072247484 -0.015667979
0.018104346 -0.075773835 0.008513916 -0.05853054 -0.011695288 -0.012021367 0.055766694 -0.04159316
0.0023409876 0.08683027 0.22167759 -0.07171193 -0.017923165 0.048486423 0.074996725 0.04121601
-0.014604752 -0.0355789 -0.07196611 -0.004000322 0.0048320144 0.014801491 -0.049929548 -0.046419155
0.08488765 -0.009400318 -0.15332517 0.06529478 -0.008400884 -0.039205838 0.02798535 -0.09052081
0.0732312 -0.07112384 -0.04773914 -0.016947364 0.32150587 0.065933675 0.08538879 0.07581564
0.0041163308 -0.03005414 -0.03464063 0.17666191 -0.08382226 0.087219626 -0.08246355 0.011417363
-0.035325233 0.0004702281 0.06676784 0.008408986 -0.032410003 -0.017284084 0.07546305 0.0016955612
0.011228723 -0.014291374 0.065288566 0.030026997 0.16584258 0.018546551 -0.036702324 -0.035574496
0.04323058 -0.020461215 0.02995147 -0.008557618 0.07984042 -0.05352034 -0.08003643 -0.012979333
-0.0011416379 0.026673524 -0.0032753886 -0.030556906 0.040004637 -0.081083946 0.08215516 -0.040185556
-0.0062137865 -0.043905184 0.03364786 -0.05087661 0.10095828 -0.040613737 0.018589344 -0.019039517
-0.7010754 0.09393083 -0.04373922 -0.034354903 -0.05986749 -0.055412613 -0.058104098 -0.005432027
0.013591313 0.063057385 0.03839255 0.023690341 0.028838646 0.06215411 -0.07839243 -0.0630311
0.07513886 -0.07923647 0.06678955 0.039522633 0.16269617 0.06324618 0.020333868 -0.038416702
9.750575e-05 0.08742603 -0.05807378 -0.04948302 -0.029239802 -0.022714695 -0.0042727552 0.12097614
-0.06271059 0.0586051 0.01587856 -0.020511307 -0.0008853313 0.009631496 0.046536677 0.013852177
0.01809184 0.077991284 0.050534513 -0.014728008 0.07524502 0.0017068116 -0.03504461 -0.027225006
0.037313815 0.02616206 0.052779153 -0.02086551 0.008180482 -0.023932096 0.03587081 0.024398614
0.31254274 -0.029927017 0.040260922 -0.01986428 0.36146915 0.01540264 -0.016609896 0.06713776
0.02553678 0.010680591 -0.027926484 -0.03419635 -0.0650115 -0.04101806 -0.081726566 0.045523938
-0.05440094 -0.10744368 0.20016909 0.019382397 0.070108056 0.004557948 0.031603694 -0.003760047
0.021495495 0.07091478 0.04901214 -0.030874647 -0.06386322 0.18946756 0.013938385 0.09796482
0.004279236 -0.021339238 0.13218063 0.10201832 0.055312514 -0.02173054 0.10442908 0.12396889
-0.0072307293 0.02489106 0.0747165 -0.015376529 -0.09525783 0.018369904 0.014401865 0.05573288
0.11712107 0.22413798 0.040468395 -0.06719378 -0.030710531 -0.14117925 -0.038567957 0.09735059

linear1.bias f4 [12]
00000000: ed11 8fbd 20a7 223e 56cd 2cbb 1b56 803b
00000010: 9838 b33e a8da 063d b441 433d 3e7d a03c
00000020: 6625 3dbd 0c2e 8d3b 64f4 8abe eb9c 3fbc
-0.06985841 0.15884066 -0.0026367507 0.0039165146 0.35004115 0.03292337 0.04767008 0.01959097
-0.046178244 0.0043084677 -0.2713958 -0.011695127

linear2.weight f4 [24, 12]
00000000: 81cb c0bd a202 b03d 5633 cbbd df04 c4bd
00000010: 1274 28be ffa7 273e 653b 92be 5f2e 9cbe
00000020: 2602 98bd 2813 4dbe d1bb 94be cd31 773d
00000030: d3c7 393e a5cf 82be 8212 703e 1657 183e
00000040: 6dfe cfbe 296f f7bc 5619 d03e 085e 0e3e
00000050: 4eb8 263e 4dc8 8cbe 605c b63e 7c4f 663e
00000060: 8ab5 4e3e 2525 80bd 691a 0f3e 8a8e 74be
00000070: c727 c73d ff2a 53be 6ebd a83e feb8 81bd
00000080: 3611 6b3e 8989 e2bd 42e8 813e 821e 6cbd
00000090: 5773 11be b776 8e3e 2018 64ba 4b1a e73d
000000a0: abc7 623e 5a2e 10be 3266 3a3e ed54 d43d
000000b0: 23cf fabd 7d01 923e 6e2c c3bd bfca 863c
000000c0: ee4a 84be aa2b 91bc b857 113e b75e 563b
000000d0: cbda fcbd e62c b23e f6e1 873e 9442 7a3e
000000e0: 18d1 cf3d b948 f73d 8d5f 303e a0ae 5a3e
000000f0: f098 243d 9b0d c7bc 4eb1 cabd d2a6 73be
00000100: 065f 8cbe 43c5 8d3e 1dc9 7b3e 6538 e93a
00000110: 576e 423e de7a 0e3e cb64 bb3b e09c 13be
00000120: 328e 693e ad0d bdbe cbd3 babd ef4f 1abe
00000130: 6ff6 ab3d 197d 2e3e 57c0 80be 6735 c83d
00000140: 4d08 f5bc 3fdc 6c3d 1bdd 943e e01b 1dbe
00000150: a4f0 263e 8ad4 703e 7d04 e4bc 7463 20be
00000160: 1456 0bbd 17d1 83be 85ba bd3e 3396 10be
00000170: 2129 c63c b85b 353d da57 063e 5f55 353d
00000180: 14c5 e9bd d3e2 703d f49e 8bbe 1f46 7cbe
00000190: a27c 0b3f 69a8 a43e d48e 4a3e 90e8 543d
000001a0: 9ce0 4a3e fc8e 56be b2c1 b2be 06d7 61be
000001b0: e42e c33d 7666 4b3d 5826 223d 355b 783e
000001c0: 0a15 f63d 604f 003e a468 a0be fe63 9cbd
000001d0: ebdb 843e 88c1 16be 2beb c43d 209c 1b3e
000001e0: 7ad4 87be f0ac ef3c 982e 67bd 78e9 6bbd
000001f0: 6494 34be 84ac c9bd 6582 5bbe 65d9 38be
00000200: 300a 32bd 8838 8e3e d8be 3ebd 08ab c73d
00000210: 8c52 4e3e 510d 5fbe 1456 cdbd a06f 77be
00000220: 7e9b 273e fa53 833e a400 00be 9ce5 14bc
00000230: d789 253e 9c39 e43d 5afe 29ba 7e71 4f3e
00000240: 3ced 9bbc 27c2 0f3e 9999 14be 6942 93be
00000250: 3f26 68bd 5911 e23e c0c1 9b3e 262e c2be
00000260: 5a8b e03c 3caa a93d 31ee 4f3e 5845 8fbe
00000270: 6d55 a2bd e19b 673e f835 6cbe c1ca 823e
00000280: f710 55bd 84c0 723e 469b e5bd 1b47 0e3d
00000290: 7c75 913c 5f39 2c3e 68d2 91be 33c7 763e
000002a0: a3f2 e63d 3597 6cbd 0047 67be 8268 6fbe
000002b0: e61d 98be b64e 563e 1643 6dbe e1b4 033e
000002c0: 89ba 58be 20ff 353c a950 d73c f0a2 15be
000002d0: f777 b5bc f9ab 1ebe 989a 923d 20fb ac3d
000002e0: eaed 1cbe b2c9 83be 9fbb d1bd b888 35be
000002f0: ba8b 8d3e e43c 863e 01b7 123e 7eea 2f3e
00000300: ab48 abba f55d 9c3e a6ff 8d3e 9831 5a3e
00000310: 469c 663e d24b 9b3d a408 f4bd 07a3 23bd
00000320: 0e16 23be 0021 84bb 401d d3be c671 253e
00000330: 6732 9a3e c6ca 7fbe 44cd 79be ba82 253e
00000340: a022 35be 6591 9e3e 1a68 34bd 64ab 6e3e
00000350: bdbc 673e 0ee3 703e a1d7 93be 7096 6e3e
00000360: 6bef 69be 8706 ae3e ea63 853e 3146 0e3e
00000370: ba1b c7bd 42cd 03be a5bf 053d be9e 8a3e
00000380: b0d9 853e fc16 10be 6d73 1d3e c17f 64bb
00000390: cd21 a9bd 4b8e a83e f4d1 c8bd 045a 863d
000003a0: db96 9abe 9474 e33d 8670 a7be 1537 0dbc
000003b0: c3d6 3ebe ce1b 81be 7016 553e 9d2c 4fbe
000003c0: 5b6e 493e 0119 8c3d 409b 1b3d d3ca ec3c
000003d0: f0ea 7fbd bb9f 94be 0e4f aabe 15a8 5b3e
000003e0: 3e4b 283e 171e 1f3e 5ba3 5abd 0592 c73d
000003f0: e548 c8bd bc1f 003c ba8b 163e be36 8b3e
-0.09413815 0.08594252 -0.09921901 -0.095712416 -0.16450527 0.16372679 -0.2856094 -0.30504128
-0.07422285 -0.20026839 -0.29049543 0.060350228 0.18142633 -0.25549045 0.2344456 0.1487697
-0.406238 -0.030204372 0.4064433 0.13903058 0.16281244 -0.27496567 0.35617352 0.22491258
0.20186439 -0.06257085 0.13974918 -0.238825 0.09724384 -0.2062187 0.32957023 -0.063341126
0.22955784 -0.11061389 0.2537251 -0.057646282 -0.14204155 0.27824947 -0.00087011047 0.11284312
0.2214648 -0.14080182 0.18203047 0.10367761 -0.122465394 0.2851676 -0.09529959 0.016454099
-0.25838417 -0.017721016 0.14193618 0.0032710263 -0.12346419 0.3479988 0.26539582 0.2443946
0.10147303 0.120744176 0.1722395 0.21355677 0.040184915 -0.02429848 -0.098970994 -0.23794106
-0.27416247 0.2768956 0.24588437 0.0017793296 0.18987404 0.13914058 0.0057188026 -0.14415312
0.2280815 -0.36924496 -0.091224276 -0.15069555 0.08396613 0.17039908 -0.25146744 0.09775811
-0.029911185 0.05782723 0.2907494 -0.15342665 0.16302735 0.23518577 -0.027834171 -0.15662938
-0.034017637 -0.2574546 0.37056366 -0.14119796 0.024189534 0.044276923 0.1311945 0.04427087
-0.11414543 0.058810066 -0.2726971 -0.24636124 0.5448705 0.32159737 0.19781047 0.0519796
0.19812244 -0.20952982 -0.34913403 -0.22054681 0.09530428 0.04965826 0.03958735 0.24253543
0.12015732 0.12530279 -0.31329834 -0.076362595 0.25949034 -0.14722264 0.09615167 0.15196276
-0.26529294 0.029257268 -0.05644092 -0.0575957 -0.17634732 -0.09847358 -0.2143646 -0.1805168
-0.043466747 0.27777505 -0.04656872 0.097494185 0.20148677 -0.21782424 -0.10026184 -0.24163675
0.1636791 0.25650007 -0.12500244 -0.009087946 0.16165863 0.111438006 -0.000648474 0.20258138
-0.01903402 0.14038907 -0.14511718 -0.28761604 -0.0566771 0.4415386 0.30421257 -0.37925833
0.027410198 0.08284423 0.20305707 -0.27982593 -0.0792645 0.22618057 -0.23067462 0.25545314
-0.052018132 0.23706251 -0.11211257 0.03473578 0.017756216 0.1681876 -0.2848084 0.24099426
0.11276748 -0.05776139 -0.22585678 -0.2337971 -0.2971031 0.20928463 -0.23170123 0.12861969
-0.21164908 0.01110819 0.026283579 -0.14612937 -0.02215193 -0.1549529 0.07158393 0.08446336
-0.15325132 -0.2573982 -0.10240864 -0.17727935 0.27645665 0.2621833 0.14327623 0.17179295
-0.0013067921 0.30540434 0.27734107 0.21307981 0.22520551 0.07582821 -0.119157106 -0.039950397
-0.15926382 -0.004032254 -0.41233253 0.16156682 0.3011658 -0.24979696 -0.24394709 0.1616315
-0.1768899 0.30970302 -0.04404459 0.23307568 0.22630592 0.23524114 -0.2887545 0.23299575
-0.22845237 0.33989355 0.2605279 0.13893963 -0.09722085 -0.12871268 0.03265347 0.27074236
0.26142645 -0.14071268 0.15376063 -0.0034866186 -0.082584 0.3292106 -0.098056704 0.06560138
-0.3019322 0.1110622 -0.32703036 -0.00861909 -0.18636613 -0.25216526 0.2080934 -0.20231862
0.19671004 0.068407066 0.037989855 0.028905308 -0.062479913 -0.29028115 -0.3326344 0.21450837
0.16434953 0.15538822 -0.053378444 0.09744648 -0.097795285 0.007820066 0.14701739 0.27190202

linear2.bias f4 [24]
00000000: 9c35 7d3e 0342 a4be 9b56 f8bd a0bc 7b3d
00000010: 33c0 973e 488f 1bbe 0fdb 13be d433 9f3e
00000020: a9df ad3e 26a9 eb3d 2c05 85be d395 e93d
00000030: 1e53 21bf 4476 b93e 7bea 0fbe b949 003d
00000040: 474b f8bd 4edc 153e 3869 56bd 4bf9 c7bd
00000050: 1364 523d 2e21 47be 3ce7 77be 6307 943e
0.24727482 -0.32081613 -0.12125894 0.061459184 0.29638824 -0.15191376 -0.14439033 0.3109423
0.33959702 0.11506872 -0.25980508 0.1140553 -0.6301745 0.36223042 -0.14054291 0.031320307
-0.12123733 0.14634821 -0.05234644 -0.09764346 0.05136497 -0.19446251 -0.24209303 0.28911886

linear3.weight f4 [48, 24]
00000000: 25ce 3a3c 521e 91bd 2cef 163e c2b7 a4bd
00000010: b418 cdbe d5ee b23d 3a30 ea3d 3b75 60be
00000020: 8dda fabe 8022 32bd 377e 16be e4be 28be
00000030: 60ea 7a3f e387 f7bd 2ca2 c2bd c6da 453e
00000040: 1b62 c23e 7c95 27bd c6a6 2e3e 6ed8 e33d
00000050: ced5 723e 7426 cf3d 8cf7 4dbc bcf5 98bd
00000060: f136 2a3e 708a 3f3c 80af 8a3d 2c4d 493d
00000070: 5789 85be 162d dabd f582 b93d 30d3 39bd
00000080: 2279 0bbe 91c9 93bd 04cc 41bd 25f9 36be
00000090: 7e30 213f e95c 0c3d 85f6 8a3e 599b 223e
000000a0: 5d73 183f 4e3b 4bbe 4646 15bd 1c99 523d
000000b0: e12e cc3d d884 4cbe 0c8e 01bd c57b 0dbe
000000c0: 6792 c4bd 61a6 793b 5494 00be 7b1f 9b3c
000000d0: 91dc 22bc d770 b03d bbde 8b3c d1a8 9f3d
000000e0: c71e 05bd b13a c83d 95a5 1ebe b034 10be
000000f0: 7fed 1a3d 2f35 a8bc eee7 4ebe 1046 02be
00000100: bd8d d2bc dd86 b63d 078b 0fbd 84a6 543d
00000110: 986c 293e fd34 69bd 286a 2b3d 30e2 f0bd
00000120: c52f c13d f8f3 3b3d db55 8e3d f06b e5bd
00000130: 4980 0dbd b8b7 653d b829 b1bb c086 85bc
00000140: faae a7bd d447 d93b ffa0 a7bd 0e75 04be
00000150: f9b5 3f3d 973a 8abc 827b 0cbd 12fc 23be
00000160: 2f0e 2b3e bae8 7a3d 5b50 9d3d 64bd 253d
00000170: 24ca 2b3d e40c 4a3d ee26 b0bb 0b97 b4bd
00000180: a416 a8bc bb83 713e 36dd c9be 245d 87be
00000190: bf78 183f 12a0 9e3e b16a 723d 6483 c1be
000001a0: a3d4 eebd b19e 00bf 36bd 223e 1399 c5bd
000001b0: b56a 503f b6e9 513e 951c ba3e 0cab 853d
000001c0: 58a1 c4be 6707 f13e eab0 cc3c 777e 4d3d
000001d0: 177b 14be 007f 22be 8a3c 003f 3d82 3cbe
000001e0: b2b0 f2bd 6877 563e 2b8b 86bd 5f3e 83bd
000001f0: 3f6e 6b3e 728c fe3d 7a27 07be a1ad 62be
00000200: 7d83 643d de1e 6bbe cacd 1c3e e47c 2ebb
00000210: 0c3f f73e dc64 c4bc 19b9 d83e 6090 cbbb
00000220: 6cec 9c3d 69c3 a23d 43cc c03c 5fb4 75bc
00000230: 2be9 7fbe c814 20be 6288 6d3e 771e 75bd
00000240: 2f66 743a ccb1 ae3c 5cf3 2abc d4dc 22be
00000250: d82e b43d 9ad2 09bd 7ce6 08be d303 933d
00000260: ca4d a5bd e089 fe3d d865 d93c 4f9e 09bb
00000270: 24e6 2cbc 9c07 c2bd ebb0 183e 1bae 3e3e
00000280: e01f 563d 97df e73c d43c 9e3d 1f73 d0bd
00000290: bda2 323d f58d 9b3d 1ffb 93bc e573 abbd
000002a0: 2eb5 c8bd b099 173e f0e1 3ebe ad6d c8bc
000002b0: bdd7 303e b1c3 84bd d5e9 8bbc f014 3a3d
000002c0: f3f8 0ebe ac64 353e 88f1 133e f792 3a3d
000002d0: e47a c83c adac d9bd 71b4 1cbd 9277 03be
000002e0: 213d 8c3d 6e58 49bd dd97 b0bd 7175 4cbd
000002f0: f3f6 4f3d b9b2 b5bd b5f2 1e3d 6f83 103d
00000300: dbe5 0bbe 73a4 f9bd 2955 52be 5db4 05be
00000310: 4440 f63c 83d7 4abe 90a1 673e 1256 38be
00000320: 622e 74be 8aca be3e 945a 113d 1490 033d
00000330: 4cb9 133f 9721 083e 128e 5f3e 92e4 07be
00000340: 3354 49be ef55 83be 7744 113e 7c35 f93d
00000350: 4a71 7f3d d913 103e 886c 16be cb95 d8be
00000360: e7c3 46be 8e3b d6bd 9071 dcbc c2e0 4bbe
00000370: 4197 d73d a72a 8d3c 89dc 4a3e c6c4 c3bd
00000380: c601 2cbe 79de 0c3d 688d f43d cb14 9d3c
00000390: dfef 783e d5df 9d3d edd4 f53d ead7 7e3d
000003a0: 18b1 a9be 4be0 ad3d da12 a43d ce75 a43d
000003b0: da2a db3d 1d5c afbd c70f 30be 9f02 9abe
000003c0: 3b64 d7bc 1874 383d 7d70 223d d13b 193e
000003d0: 759c 65bd 9493 a83b 4703 20bd d664 e4bd
000003e0: 16a5 c6bd c3b4 1b3e eef9 42be e22a 2abd
000003f0: 7f0e ed3c 7dd9 aa3c eb4c 6a3c d88d eb3c
0.011401688 -0.07085861 0.14739674 -0.080428615 -0.4005791 0.0873696 0.1143498 -0.2191972
-0.48994866 -0.043489933 -0.14696585 -0.16479069 0.9801388 -0.12086465 -0.09503588 0.19321737
0.37965474 -0.040914044 0.17055807 0.11125265 0.23714373 0.10114756 -0.012571227 -0.07468745
0.16622521 0.011690721 0.06771755 0.049145862 -0.26081344 -0.10653131 0.09058181 -0.04536742
-0.13620427 -0.0721618 -0.047313705 -0.17868479 0.6296462 0.034268294 0.27141204 0.15879573
0.5955103 -0.19846842 -0.03644397 0.051415548 0.09969879 -0.19972551 -0.031629607 -0.13816746
-0.095982365 0.0038093554 -0.12556583 0.01893591 -0.009940282 0.086152725 0.01707398 0.07795871
-0.032500055 0.097768195 -0.15492852 -0.14082599 0.03782415 -0.020533172 -0.20205662 -0.12722039
-0.025702352 0.08912442 -0.035044696 0.051916614 0.16545331 -0.0569353 0.041849285 -0.11761892
0.094329394 0.045886964 0.069499694 -0.11202228 -0.03454617 0.05608341 -0.0054065846 -0.016299605
-0.08187671 0.006630877 -0.081850044 -0.12935278 0.046804402 -0.016873641 -0.034297474 -0.16014126
0.1670463 0.0612571 0.07681342 0.04046382 0.041940823 0.0493287 -0.0053757345 -0.08817872
-0.020518608 0.23585407 -0.39426583 -0.26438248 0.59559244 0.309815 0.05918378 -0.37795556
-0.11661651 -0.50242144 0.1589249 -0.09648337 0.8141282 0.2049931 0.3634993 0.06526765
-0.38404346 0.4707596 0.024986703 0.050169434 -0.1450008 -0.15868759 0.50092375 -0.18409057
-0.11850108 0.20943987 -0.06569513 -0.06408381 0.22991274 0.124291316 -0.13198653 -0.22136547
0.05578946 -0.22960994 0.15312877 -0.0026624734 0.48290288 -0.023973875 0.42328718 -0.006212279
0.076622814 0.07947428 0.0235349 -0.014996617 -0.2499129 -0.15632927 0.23196557 -0.059843507
0.0009323088 0.021325015 -0.010433998 -0.15904552 0.08797997 -0.03364811 -0.13369173 0.07178464
-0.08071478 0.12428641 0.02653782 -0.00209989 -0.010552917 -0.094741076 0.14911239 0.18621103
0.052276492 0.028304858 0.07726446 -0.101782076 0.04361223 0.075954355 -0.01806408 -0.083717145
-0.09800182 0.14804721 -0.18640876 -0.02446636 0.17269798 -0.06482638 -0.017079273 0.045430124
-0.13962154 0.17714185 0.14447606 0.045550313 0.024472661 -0.106286384 -0.03825802 -0.12838581
0.06847597 -0.0491566 -0.086227156 -0.04991669 0.05077262 -0.08871979 0.038805682 0.035281595
-0.13661902 -0.12189569 -0.20540299 -0.13057084 0.030059941 -0.19808774 0.22620225 -0.18001583
-0.23845819 0.372639 0.035486773 0.032119825 0.57704616 0.13294064 0.2183154 -0.13270786
-0.19661026 -0.256515 0.14186274 0.121684045 0.0623639 0.14070071 -0.14689839 -0.42301783
-0.19410668 -0.10460578 -0.02690962 -0.19909957 0.10526896 0.017232252 0.1981069 -0.09559016
-0.16797552 0.034391854 0.119410336 0.019174954 0.24310254 0.07708708 0.12003503 0.06221763
-0.33142924 0.08490046 0.08011408 0.08030282 0.10701533 -0.08562491 -0.17193519 -0.30080125
-0.02629291 0.04503259 0.03965806 0.14964224 -0.056057412 0.005144546 -0.039065626 -0.111520454
-0.096994564 0.15205674 -0.19040653 -0.041544802 0.028937576 0.02085566 0.014300565 0.02875416

linear3.bias f4 [48]
00000000: 40b4 ccbe 1142 e0be 2dfa bebd 6bd7 203d
00000010: fc43 2bbd a956 afbd c585 35bd a662 9abc
00000020: 9d9b b83d efa1 a43d 8ac7 e5bd 362b 623c
00000030: 84ff 8c3e 2cbd 77bd 82c0 2cbe 83de 8cbd
00000040: e129 833e cce6 aabd 83ba 08be e245 063e
00000050: 561b 7bbe 6562 54bc adaf b6bc 6ad1 ca3d
00000060: f5f4 0cbe 7a6c 4abe 0975 0dbd 9aee 403e
00000070: 8139 5bbc 8364 26be e43c 6f3d 8baf ce3d
00000080: ee91 70bd 3581 a5be 3597 343c 952a 5ebd
00000090: 4efc 243e 50f4 39be 4516 c93c 0a31 95bc
000000a0: 4b04 64be 4623 a8be d942 70bd 081e b0bc
000000b0: 2245 5dbc e44c 063e 59a9 acbd 80cb 473d
-0.3998127 -0.43800405 -0.09325061 0.03926794 -0.04181288 -0.08561451 -0.044317026 -0.018845867
0.09014056 0.08038699 -0.112197 0.013804248 0.27538693 -0.060483143 -0.16870311 -0.06878378
0.2561789 -0.08344802 -0.13352399 0.13112596 -0.24522147 -0.012962912 -0.022300566 0.09903224
-0.13765319 -0.19767943 -0.03453544 0.1884102 -0.013380409 -0.1624928 0.05840768 0.10092076
-0.05873292 -0.3232514 0.011022379 -0.05423983 0.16111872 -0.18159604 0.024546752 -0.01821186
-0.22267263 -0.32839411 -0.0586575 -0.021498695 -0.013505252 0.13115269 -0.08430738 0.048778057
