epoch_50_model/세정/model.pth (torch, 54880 bytes, 18 tensors)

linear1.weight f4 [6, 12]
0	0xbf89b9ea	-1.0759861
1	0xbf6adaac	-0.91739917
2	0xbf66edc6	-0.90206563
3	0xbf2734d8	-0.6531501
4	0xbf793420	-0.9734516
5	0xbf53c04f	-0.82715315
6	0xbf874b89	-1.0569927
7	0xbf5396b5	-0.82651836
8	0xbf1e9c04	-0.6195681
9	0xbf4548d3	-0.77064246
10	0xbf2c863b	-0.6739232
11	0xbf38b1bd	-0.7214621
12	0x3f7f8838	0.9981723
13	0x3fa57876	1.2927387
14	0x3f92284b	1.1418546
15	0x3f6bd076	0.9211496
16	0x3f7cabfb	0.9869992
17	0x3f82e06c	1.0224738
18	0x3f9ec806	1.2404792
19	0x3fa0b6ec	1.2555823
20	0x3fa8b981	1.3181611
21	0x3fa94fb5	1.322745
22	0x3f68a0af	0.90870184
23	0x3f888eb8	1.0668554
24	0xbf254334	-0.6455567
25	0xbf2539b3	-0.6454117
26	0xbf273dd3	-0.6532871
27	0xbf4df8a3	-0.80457515
28	0xbf26718d	-0.65017015
29	0xbf4b31b5	-0.7937272
30	0xbf7bfc4a	-0.9843184
31	0xbf695093	-0.9113857
32	0xbf80dd8e	-1.0067613
33	0xbf62d214	-0.88601804
34	0xbf422ae3	-0.7584669
35	0xbf2bed31	-0.671588
36	0xbf817fe4	-1.0117154
37	0xbf340b30	-0.7032957
38	0xbf4e9552	-0.80696595
39	0xbf30f280	-0.69120026
40	0xbf6d9a94	-0.9281399
41	0xbf60fd42	-0.8788644
42	0xbf3afe46	-0.7304424
43	0xbf5c82ff	-0.86137384
44	0xbf84ebc1	-1.0384446
45	0xbf3163fe	-0.692932
46	0xbf844062	-1.0332148
47	0xbf5303d4	-0.82427716
48	0xbf2bf10d	-0.6716469
49	0xbf281a83	-0.65665454
50	0xbf336c1f	-0.70086855
51	0xbf1b9af6	-0.60783327
52	0xbf3f3acd	-0.746991
53	0xbf59a4b2	-0.8501693
54	0xbf3beea2	-0.73411
55	0xbf0e080a	-0.55481017
56	0xbf16c3b8	-0.58892393
57	0xbf3bae16	-0.7331251
58	0xbf70da87	-0.94083446
59	0xbf626dbe	-0.88448703
60	0x3ec7343d	0.38907042
61	0xbf11b074	-0.5690987
62	0xbf2ec0fe	-0.6826323
63	0xbf45f50d	-0.7732704
64	0xbe85c648	-0.2612784
65	0xbf34d1ab	-0.7063243
66	0xbe8961da	-0.26832467
67	0xbecddb9b	-0.40206608
68	0xbee01b73	-0.43770942
69	0xbf03307f	-0.51245874
70	0xbf214b84	-0.6300585
71	0xbf08e9e1	-0.5348187

linear1.bias f4 [6]
0	0xbf359cf2	-0.70942605
1	0x3f6c7a3f	0.9237403
2	0xbf89a203	-1.0752567
3	0xbf221d5d	-0.63326055
4	0xbf8a84be	-1.082176
5	0xbe7d95bf	-0.24764155

linear2.weight f4 [3, 6]
0	0xbec395f7	-0.38200352
1	0xbe8816ef	-0.26579997
2	0xbdbc4350	-0.09192526
3	0xbd9be2e4	-0.07611635
4	0xbe919fcb	-0.28442225
5	0x3e8fbc2e	0.28073257
6	0xbf376546	-0.71638906
7	0xbf94a8eb	-1.161405
8	0xbf239185	-0.6389392
9	0xbf1d88c4	-0.6153681
10	0x3ef0a0b0	0.46997595
11	0x3e88d2ca	0.2672332
12	0xbe078fac	-0.132384
13	0xbebc8433	-0.3681961
14	0xbe47b8b6	-0.19504055
15	0x3e07f504	0.1327706
16	0x3da7371c	0.08164808
17	0xbe523bdc	-0.20530647

linear2.bias f4 [3]
0	0xbdc25260	-0.09488368
1	0xbf5f0f23	-0.8713247
2	0xbe8e98e2	-0.27851015

linear3.weight f4 [1200, 3]
0	0xbe2036f6	-0.15645966
1	0x3cf378c0	0.029720664
2	0xbda74264	-0.0816696
3	0x3eb275f6	0.34855622
4	0xbf8f1b09	-1.1180125
5	0x3e53cb0c	0.20682925
6	0x3f0fd370	0.56182003
7	0xbe8a6977	-0.27033588
8	0x3e870ad2	0.26375443
9	0x3e9b7002	0.30358893
10	0xbf4492bc	-0.767864
11	0xbea39d0e	-0.3195576
12	0xbcabdc60	-0.020979106
13	0xbf4b5b72	-0.7943641
14	0x3e2ea3c0	0.17054653
15	0xbe46fa3a	-0.19431391
16	0xbf966b83	-1.175156
17	0x3ed2d318	0.41176677
18	0xbe1ecc22	-0.15507558
19	0xbee5e6f8	-0.44902778
20	0xbefdfb11	-0.4960561
21	0x3ebe4e0c	0.3716892
22	0xbea2f2bd	-0.3182582
23	0x3e649818	0.22323644
24	0x3deaf930	0.1147331
25	0xbed309e2	-0.41218477
26	0xbf0df6a7	-0.55454487
27	0xbecf563e	-0.40495485
28	0xbeff0635	-0.49809423
29	0xbdf52418	-0.11969775
30	0x3e0b844c	0.13624686
31	0x399a5800	0.00029438734
32	0xbe89b866	-0.26898497
33	0x3ee2f284	0.4432565
34	0xbf2baf86	-0.670647
35	0x3df11eb8	0.11773437
36	0x3ed86ca0	0.42270374
37	0xbf94d781	-1.1628267
38	0x3df9a9b8	0.121905744
39	0xbe963a28	-0.29341245
40	0xbefa8bd7	-0.48934814
41	0x3ec32a5c	0.38118255
42	0x3e9d3074	0.3070103
43	0xbfa983dd	-1.3243366
44	0x3dd3b688	0.103375494
45	0x3e6ce430	0.23133922
46	0xbf7f5fda	-0.9975563
47	0xbdedeeac	-0.11617789
48	0xbdcb2c68	-0.09920579
49	0xbdbcdc78	-0.092217386
50	0xbd98ba10	-0.074573636
51	0xbf0c0baf	-0.5470533
52	0xbf980f5c	-1.1879687
53	0xbdc954e4	-0.09830645
54	0xbe2682b0	-0.16260791
55	0xbe0aaf16	-0.13543352
56	0x3ef5fc30	0.48043966
57	0xbd6375d0	-0.055532277
58	0xbf5d8688	-0.86533403
59	0xbdc8ddac	-0.098079056
60	0xbe271c1a	-0.16319314
61	0xbec4603e	-0.38354677
62	0x3f126354	0.5718281
63	0xbdcfa970	-0.101397395
64	0xbe3c3238	-0.18378532
65	0x3eb61b28	0.35567594
66	0xbefaa0f6	-0.48950928
67	0xbf60260e	-0.87558067
68	0x3effa268	0.49928594
69	0x3e89e6e8	0.2693398
70	0xbf756e5f	-0.9587154
71	0xbed0d973	-0.407909
72	0xbf075fe2	-0.5288068
73	0xbefda6ff	-0.4954147
74	0x3f0d6c96	0.55243814
75	0xbe56cd30	-0.2097671
76	0xbfa2330b	-1.2671827
77	0x3dade3d8	0.08490723
78	0x3dc24b70	0.09487045
79	0xbf0a371e	-0.5399035
80	0xbeee2def	-0.4651942
81	0x3f07ae32	0.53000176
82	0xbeb9c9fd	-0.36286917
83	0xbeab06b3	-0.3340355
84	0x3ee0ee90	0.4393201
85	0xbf87756d	-1.058271
86	0x3e3db68c	0.18526667
87	0xbec3274a	-0.38115913
88	0xbf87a88c	-1.0598311
89	0xbeb547c4	-0.35406315
90	0x3c8223c0	0.015886188
91	0xbee20d81	-0.44150928
92	0x3e987444	0.29776204
93	0xbe0fdeda	-0.14049855
94	0xbd81df08	-0.06341368
95	0xbe1eb0f6	-0.15497193
96	0xbe50d10a	-0.20392242
97	0x3dcf5578	0.10123724
98	0x3cfb2220	0.03065592
99	0xbe76d9a4	-0.24106461
100	0xbea24257	-0.31691238
101	0x3dfd8f28	0.123808205
102	0xbed1be16	-0.40965337
103	0xbf0de37d	-0.55425245
104	0x3ee714d4	0.45133078
105	0x3debd628	0.115154564
106	0xbe600e6a	-0.21880499
107	0xbe41d5cc	-0.18929213
108	0x3ea9cefc	0.3316573
109	0xbe612e7a	-0.21990386
110	0xbeacb428	-0.33731198
111	0x3eef65ec	0.46757448
112	0xbf8d6d13	-1.1048912
113	0xbde5cdc0	-0.11220884
114	0x3e4c3964	0.19943768
115	0x3e2d4f78	0.16924846
116	0x3e3de240	0.18543339
117	0xbd65c010	-0.05609137
118	0x3c1136c0	0.008863151
119	0xbe9491d7	-0.29017517
120	0x3ea5beee	0.3237223
121	0xbf9bcf07	-1.2172555
122	0xbededdfc	-0.43528736
123	0x3e2a295c	0.1661734
124	0xbf83d86c	-1.0300422
125	0x3e137668	0.14400637
126	0xbec658fb	-0.38739762
127	0xbfa539b7	-1.2908238
128	0x3ea241f8	0.31690955
129	0xbeed5e04	-0.4636079
130	0xbf92176d	-1.1413399
131	0x3ed48c5a	0.4151333
132	0xbe157b22	-0.14597753
133	0xbedef97e	-0.43549722
134	0xbe015246	-0.12629041
135	0xbdb2baa4	-0.08727005
136	0xbf40b81b	-0.7528092
137	0x3d8014f0	0.062539935
138	0x3ef275c4	0.47355473
139	0xbe7bcd4f	-0.24590038
140	0x3b350900	0.0027623773
141	0x3e233198	0.15936887
142	0xbe8875b2	-0.26652294
143	0xbe0d3766	-0.13790664
144	0xbe9e4025	-0.30908313
145	0xbdf4a4f0	-0.11945522
146	0x3c0da9c0	0.008646429
147	0x3eaf4376	0.34231156
148	0xbea22353	-0.31667575
149	0x3ee3f73c	0.44524562
150	0xbc678700	-0.014131308
151	0xbf299a09	-0.66250664
152	0xbcdde5c0	-0.027087092
153	0xbc088340	-0.008332074
154	0xbded9074	-0.11599818
155	0x3d8427b0	0.06452882
156	0xbe0e5736	-0.13900456
157	0xbe1432e4	-0.14472538
158	0xbe3cfa0a	-0.18454757
159	0xbef382ea	-0.47560817
160	0xbf4c3c73	-0.7977974
161	0x3f12b866	0.5731262
162	0x3e83c6d0	0.2573762
163	0xbef6826c	-0.4814638
164	0x3f124bd2	0.5714694
165	0xbec6603a	-0.3874529
166	0xbfb9b548	-1.4508448
167	0xbdc3dfd0	-0.09564173
168	0x3f066d9c	0.52511
169	0xbec304f5	-0.3808972
170	0xbeaf0cd4	-0.34189475
171	0xbf051092	-0.5197841
172	0xbee3ef99	-0.44518736
173	0x3ec16844	0.3777486
174	0xbdf715d0	-0.12064707
175	0xbf66f667	-0.9021973
176	0xbe8689c2	-0.26276976
177	0xbefc9998	-0.49335933
178	0xbf4b98e0	-0.79530144
179	0xbeff8aa1	-0.49910453
180	0x3e6f2fb8	0.23358047
181	0xbf987987	-1.1912087
182	0x3ec4b3a2	0.384183
183	0xbe4c25da	-0.19936314
184	0xbf1c10ac	-0.6096294
185	0x3b67cb00	0.00353688
186	0xbec225fe	-0.3791961
187	0xbf5af65d	-0.8553217
188	0xbe0bd294	-0.13654548
189	0x3dfd0728	0.123548806
190	0x3cb137e0	0.021633089
191	0xbe823106	-0.25428027
192	0x3e57cbe8	0.21073878
193	0xbf309316	-0.68974435
194	0x3e981738	0.29705215
195	0x3e7beab4	0.24601251
196	0xbf92cc53	-1.1468605
197	0x3ee38aa8	0.44441724
198	0x3f059674	0.521827
199	0xbf47d781	-0.7806321
200	0x3c8a1360	0.016854942
201	0x3f000caa	0.50019324
202	0xbf5ec06d	-0.8701237
203	0x3eebfbc8	0.4609053
204	0x3d966660	0.07343745
205	0xbe1c52be	-0.15265939
206	0xbe800700	-0.2500534
207	0xbe32882a	-0.17434755
208	0xbecb1760	-0.3966627
209	0xbe93e9bc	-0.28889263
210	0xbe00d142	-0.12579826
211	0xbfa1f7ae	-1.2653711
212	0x3eaa0742	0.33208662
213	0x3e93e8a0	0.28888416
214	0xbf353896	-0.7078947
215	0x3efbac1c	0.49154747
216	0xbec1a7ae	-0.37823242
217	0x3dfe8ee8	0.12429601
218	0xbdbba5d0	-0.091624856
219	0xbee7e881	-0.45294574
220	0xbf5a754c	-0.8533523
221	0x3ef9ce1c	0.4879006
222	0xbdadd614	-0.08488098
223	0xbef22115	-0.47290865
224	0xbe228eb8	-0.15874755
225	0x3f04c6d4	0.5186589
226	0xbeef559a	-0.46744996
227	0x3f0384b0	0.5137434
228	0xbe81d79d	-0.25359812
229	0xbfb767bb	-1.4328531
230	0xbefe822f	-0.49708697
231	0xbda940cc	-0.08264312
232	0xbe4ceb74	-0.20011693
233	0x3ec11c34	0.3771683
234	0xbe894c6d	-0.2681612
235	0x3db70d88	0.08938128
236	0x3f0f1ad4	0.5590031
237	0x3e9f414c	0.31104505
238	0xbe826299	-0.2546585
239	0x3e9ef618	0.3104713
240	0x3e0ddb90	0.13853288
241	0xbf9d0c8d	-1.2269455
242	0x3e1e1fd4	0.15441829
243	0x3ebe0426	0.3711254
244	0xbf795ffb	-0.9741208
245	0xbef374a5	-0.4754993
246	0x3ef46528	0.47733426
247	0xbf511528	-0.81672907
248	0x3ea18454	0.3154627
249	0xbf0fa744	-0.561146
250	0xbf9e9e94	-1.2392144
251	0xbe38f5a6	-0.18062457
252	0x3b1fdc00	0.0024392605
253	0xbfb19398	-1.3873167
254	0xbec55728	-0.38543057
255	0xbec54615	-0.3853003

linear3.bias f4 [1200]
0	0xbeeb8b80	-0.46004868
1	0xbf78d28a	-0.9719626
2	0xbcc293a0	-0.023752034
3	0xbf8daf35	-1.1069094
4	0xbf48be82	-0.7841569
5	0xbf09a52e	-0.5376767
6	0xbce43b80	-0.027860403
7	0xbf71558a	-0.9427115
8	0xbea6140d	-0.32437173
9	0xbf091495	-0.5354703
10	0xbeee8567	-0.46586153
11	0xbec74f67	-0.38927767
12	0xbf1b1272	-0.6057502
13	0xbf2f7aa1	-0.6854649
14	0xbf7037d2	-0.93835175
15	0x3f3b8fdd	0.7326639
16	0xbea821ec	-0.3283838
17	0xbf07ef6a	-0.5309969
18	0xbebe0754	-0.37114966
19	0xbf218b6f	-0.63103384
20	0xbe9c65ea	-0.30546504
21	0xbd854a70	-0.065083385
22	0xbfa2727a	-1.2691185
23	0xbf6acdbd	-0.9172018
24	0xbf17333d	-0.5906256
25	0xbf58292c	-0.84437823
26	0xbe4a6560	-0.19765234
27	0xbedd70d0	-0.43250132
28	0xbf44e32e	-0.7690915
29	0xbf52026e	-0.8203496
30	0xbee12a3a	-0.4397753
31	0xbf3f1dc0	-0.7465477
32	0xbe8dddcb	-0.27708277
33	0xbf28aa34	-0.6588471
34	0xbf2a86b2	-0.6661178
35	0xbe9f0ded	-0.31065312
36	0xbda45198	-0.08023375
37	0xbf5c854c	-0.86140895
38	0xbf05a341	-0.5220223
39	0xbe4f6d98	-0.2025665
40	0xbf80165c	-1.0006824
41	0xbf7e473d	-0.9932745
42	0xbf78fde3	-0.972624
43	0x3f55d39c	0.83526015
44	0xbf126fd6	-0.572019
45	0xbf2e3e3a	-0.680637
46	0xbf7e1df8	-0.9926448
47	0xbea1c60c	-0.3159641
48	0xbe4a81d4	-0.19776088
49	0xbebd4cf8	-0.36972785
50	0xbf7735b7	-0.9656634
51	0xbdc572a8	-0.096410096
52	0xbd1748f0	-0.036934793
53	0xbf65c688	-0.8975606
54	0xbefd25df	-0.49442956
55	0xbf536467	-0.82575077
56	0xbe9d2b83	-0.3069726
57	0xbf93acdf	-1.1537131
58	0xbf989ffd	-1.1923825
59	0xbf6c2684	-0.9224627
60	0xbf044708	-0.51670885
61	0xbf06844b	-0.52545613
62	0xbf8ae781	-1.0851899
63	0xbe464aa8	-0.19364417
64	0xbf8dd259	-1.1079818
65	0xbf3c0902	-0.73451245
66	0xbf215e75	-0.63034755
67	0xbf628e17	-0.8849806
68	0xbdcaeac4	-0.09908059
69	0xbf6d0ad8	-0.9259467
70	0xbefd56cb	-0.4948028
71	0xbf59b4e3	-0.85041636
72	0xbea7c996	-0.32770985
73	0x3f3f15ac	0.74642444
74	0xbeff2abc	-0.4983729
75	0xbf48bf72	-0.7841712
76	0xbf385e61	-0.7201901
77	0xbf0e4d3b	-0.55586594
78	0xbed6da1f	-0.41963288
79	0xbf744c6b	-0.95429105
80	0xbf6615a4	-0.8987677
81	0x3f5febaa	0.8746897
82	0xbf859a54	-1.0437722
83	0xbee4bc0b	-0.44674715
84	0xbee4437b	-0.44582734
85	0xbf48b215	-0.7839673
86	0xbdedc104	-0.116090804
87	0xbf31b3c2	-0.69414914
88	0xbf8e5ef2	-1.1122725
89	0xbe863235	-0.2621018
90	0xbf68a8de	-0.9088267
91	0xbf0fbc7e	-0.5614699
92	0xbf138cde	-0.5763682
93	0xbf3c720c	-0.7361152
94	0xbe0797ba	-0.13241473
95	0xbf33afa2	-0.7018987
96	0xbf6ea346	-0.93217885
97	0xbf2953c6	-0.66143453
98	0xbf83034d	-1.0235382
99	0xbf5cb9ee	-0.86221206
100	0xbfa55645	-1.2916952
101	0xbef03c19	-0.4692085
102	0xbdec5fb0	-0.115416884
103	0xbf6a413b	-0.91505784
104	0xbd0faade	-0.03507506
105	0xbeb6540e	-0.35611004
106	0xbea99035	-0.33117834
107	0xbf482861	-0.78186613
108	0xbf17ae7b	-0.5925061
109	0xbf239414	-0.63897824
110	0xbf3beb5b	-0.73406
111	0xbf0850f6	-0.53248537
112	0xbdcf09d8	-0.101092994
113	0xbe33e9b4	-0.1756962
114	0xbf5fdc1d	-0.8744524
115	0xbf59df5a	-0.8510643
116	0xbf7deadb	-0.99186486
117	0xbf5c1e86	-0.85984075
118	0xbedd2c25	-0.43197742
119	0xbf90c1d7	-1.1309155
120	0xbf792be7	-0.97332615
121	0xbf2ab4b2	-0.6668197
122	0xbebaeb83	-0.36507806
123	0xbf635add	-0.8881052
124	0xbf591a94	-0.8480618
125	0xbefa6c96	-0.4891097
126	0xbf48d2cf	-0.7844667
127	0xbf213b10	-0.6298075
128	0xbf7a496f	-0.977683
129	0xbeee952e	-0.4659819
130	0xbf83469b	-1.0255922
131	0xbf236288	-0.6382222
132	0x3f666226	0.8999351
133	0xbfaa5bc4	-1.3309255
134	0xbf29fb4c	-0.66399074
135	0xbf772604	-0.9654238
136	0xbfa25834	-1.2683167
137	0xbe51588a	-0.20443931
138	0xbec192c0	-0.37807274
139	0xbe03d4f4	-0.12874204
140	0xbf6c7894	-0.9237149
141	0x3f37b109	0.7175451
142	0xbf67c274	-0.90531087
143	0xbf6cf6ac	-0.9256389
144	0xbf377fee	-0.7167958
145	0xbed7d292	-0.4215284
146	0xbee4a432	-0.4465652
147	0xbefcdb93	-0.49386272
148	0xbee91a10	-0.45527697
149	0xbf7d0e55	-0.98849994
150	0xbfaa0f6d	-1.3285958
151	0xbe153d58	-0.14574182
152	0xbf0a61a1	-0.5405522
153	0xbd83a010	-0.06427014
154	0xbf8e0bea	-1.1097386
155	0xbf6d8b8b	-0.9279105
156	0xbf3773d2	-0.716611
157	0xbf749fca	-0.9555632
158	0xbecf9ed4	-0.40550864
159	0xbf0079c8	-0.50185823
160	0xbe480dc8	-0.19536507
161	0xbfa39d1a	-1.2782319
162	0xbf0870e1	-0.5329724
163	0x3f575e11	0.8412791
164	0xbf0359c4	-0.51308846
165	0xbd8997b8	-0.06718391
166	0xbf8cde9b	-1.1005434
167	0xbf4d583d	-0.80212766
168	0xbf11ad00	-0.569046
169	0xbf46847d	-0.7754591
170	0xbed62142	-0.4182225
171	0xbf53ab82	-0.82683575
172	0xbf5916bd	-0.8480032
173	0xbe8c3123	-0.27381238
174	0xbf0841f9	-0.53225666
175	0xbf577792	-0.84166825
176	0xbf94dfb1	-1.1630765
177	0xbf32f442	-0.6990396
178	0xbf7b4eda	-0.9816719
179	0xbf76b329	-0.96367127
180	0xbf071637	-0.5276827
181	0xbf6376f7	-0.888534
182	0xbf2543cd	-0.6455658
183	0xbebf3e62	-0.37352282
184	0xbf0e6b30	-0.55632305
185	0xbf6f359d	-0.9344118
186	0xbf11afe3	-0.56909007
187	0xbecbebd2	-0.39828354
188	0xbf73de21	-0.95260817
189	0xbf6871f5	-0.90798885
190	0xbf8cacba	-1.0990212
191	0xbf453b45	-0.77043563
192	0xbf1e156f	-0.61751455
193	0xbf3628d6	-0.7115606
194	0xbf3c4f03	-0.7355806
195	0xbef895c0	-0.4855175
196	0xbf221ae6	-0.63322294
197	0xbd5c5560	-0.053792357
198	0xbf637c82	-0.8886186
199	0xbf9386e6	-1.1525543
200	0xbf753e3c	-0.9579809
201	0xbf762732	-0.9615356
202	0xbed751d7	-0.42054626
203	0xbe1ca840	-0.15298557
204	0xbf3c6116	-0.7358564
205	0xbf949261	-1.1607171
206	0xbee4adeb	-0.4466394
207	0xbed5adae	-0.4173407
208	0xbf243dd5	-0.6415685
209	0xbf347f29	-0.7050653
210	0x3f893686	1.0719764
211	0xbf3e5f85	-0.743645
212	0xbeac7736	-0.336847
213	0xbf92967e	-1.1452177
214	0xbf305675	-0.6888192
215	0xbf5f72c7	-0.8728451
216	0xbc1f3ac0	-0.009718597
217	0xbe821f22	-0.25414377
218	0xbee2ba67	-0.4428284
219	0xbf3616da	-0.7112862
220	0xbecb9420	-0.39761448
221	0xbefe5159	-0.49671438
222	0xbef148ba	-0.47125798
223	0xbf76c270	-0.9639044
224	0xbec55080	-0.3853798
225	0xbe0dd9b0	-0.13852572
226	0xbf67c2f2	-0.9053184
227	0xbf2e5be9	-0.68108994
228	0xbf57214c	-0.8403518
229	0xbf2ec0e0	-0.68263054
230	0xbf1c6b25	-0.6110099
231	0xbc154d00	-0.0091125965
232	0xbee93744	-0.45549977
233	0xbf7ee10a	-0.9956213
234	0xbf226834	-0.6344025
235	0xbf60a6c1	-0.87754446
236	0xbf47ff17	-0.7812361
237	0xbe769e22	-0.2408376
238	0xbe40983c	-0.18808073
239	0xbee72e4e	-0.45152515
240	0xbf6f03ba	-0.9336506
241	0xbebba746	-0.36651057
242	0xbf21f21f	-0.6326007
243	0xbee39b87	-0.44454595
244	0xbf6ac398	-0.917047
245	0xbf6d753d	-0.92757016
246	0xbd2dea00	-0.042459488
247	0xbf87f4b7	-1.0621556
248	0xbf24e56a	-0.6441256
249	0xbf50844a	-0.8145186
250	0xbe8ca205	-0.2746736
251	0xbefaf87a	-0.49017698
252	0xbe14a756	-0.14516959
253	0xbf32c26b	-0.6982791
254	0xbeb6d7c8	-0.35711503
255	0xbf883198	-1.0640135

linear1.weight f4 [3, 1200]
0	0xbc2da65e	-0.010598747
1	0xbef7f738	-0.484308
2	0x3ce2991e	0.027660903
3	0xbf0a53f5	-0.5403436
4	0xbecc8d4b	-0.39951548
5	0xbeec8397	-0.46194145
6	0x3c97dd16	0.01853804
7	0xbcb07bba	-0.021543372
8	0xbebb203b	-0.36548027
9	0xbead9d27	-0.3390896
10	0x3c54e8a4	0.012994919
11	0xbea83a9a	-0.3285721
12	0xbeb83472	-0.35977513
13	0xbeaa2e99	-0.33238676
14	0xbecc876e	-0.39947075
15	0xbed60a06	-0.41804522
16	0x3cdac8ec	0.026707135
17	0xbee374b7	-0.44424984
18	0x3cc403ec	0.023927651
19	0xbeb9c662	-0.36284167
20	0xbc994cdd	-0.01871341
21	0x3c1f0f48	0.009708233
22	0x3f098b3f	0.537281
23	0xbedf0be2	-0.43563753
24	0x3eaa9cf6	0.33322877
25	0xbecebb2a	-0.4037717
26	0xb923e180	-0.00015628897
27	0xbc8add9d	-0.016951377
28	0xbec821dd	-0.39088336
29	0xbec8a8df	-0.39191338
30	0xbc1e0e2a	-0.009646932
31	0xbb205698	-0.0024465676
32	0xbceacfc3	-0.028663522
33	0xbeaf6076	-0.3425328
34	0xbeb187f0	-0.34674025
35	0xbc3a73fc	-0.011380192
36	0x3cbe41c2	0.023224715
37	0xbeef3f9d	-0.4672822
38	0x3b7e7b90	0.0038830973
39	0xbc1ffd0e	-0.009764923
40	0xbee9aea0	-0.4564104
41	0xbef2b392	-0.47402626
42	0xbed8cfae	-0.42345947
43	0xbed4cd44	-0.41562855
44	0x3c32d734	0.010915566
45	0xbeafd8fb	-0.3434523
46	0xbec6bfb0	-0.3881812
47	0xbcea44e5	-0.028597305
48	0x3c83dfb0	0.016097873
49	0x3ccc82c8	0.024964705
50	0x3f00d6be	0.5032767
51	0x3c722e3c	0.014781531
52	0x3c50abc0	0.012736261
53	0xbec42b7b	-0.38314423
54	0xbcc70cc8	-0.024298087
55	0xbede7c5f	-0.43454263
56	0xbbab6930	-0.005231045
57	0x3eef541b	0.46743855
58	0x3f092a72	0.5358039
59	0xbedeaa65	-0.43489376
60	0xbef5d924	-0.48017228
61	0x3f0171f3	0.505645
62	0x3f069dbb	0.5258443
63	0x3c6e38d4	0.014539916
64	0xbee39e0e	-0.44456524
65	0xbebff6d1	-0.37492993
66	0xbebc7622	-0.36808878
67	0xbee27ab7	-0.4423425
68	0xbc9db09e	-0.019249257
69	0x3c94213a	0.01808225
70	0xbee84f36	-0.45372933
71	0xbed05c19	-0.40695265
72	0xbcc0e2f8	-0.023545727
73	0xbed16664	-0.4089843
74	0xbc2c9544	-0.010533635
75	0xbeb2db90	-0.34933138
76	0xbed0bdbd	-0.4076976
77	0xbbb35528	-0.005472798
78	0xbb91eeec	-0.0044535305
79	0x3ca7497a	0.020420779
80	0xbed30340	-0.41213417
81	0xbec83d02	-0.39109045
82	0xbf0e1366	-0.5549835
83	0xbee54d23	-0.44785413
84	0xbebbc26c	-0.3667177
85	0x3cd2db70	0.025739402
86	0xbcad8d14	-0.021185435
87	0xbed17d11	-0.4091573
88	0xbeec6f6a	-0.46178752
89	0xbb90b7fc	-0.004416464
90	0x3ca32472	0.01991484
91	0xbceb68d3	-0.028736508
92	0xbcebe961	-0.028797807
93	0xbebacea8	-0.3648579
94	0xbca66cce	-0.020315554
95	0xbec26470	-0.37967253
96	0xbc81043d	-0.015749091
97	0xbebc6c13	-0.36801204
98	0xbeb999a7	-0.3625004
99	0xbee47adc	-0.44624984
100	0x3cbfb1b4	0.023400165
101	0x3ca0310a	0.019554634
102	0xba3e37a0	-0.00072562136
103	0x3ccdbc7e	0.025114294
104	0xbec7712e	-0.38953537
105	0x3a741500	0.00093109906
106	0x3ba75768	0.005106855
107	0xbbe67508	-0.007032994
108	0xbee87d2a	-0.45407993
109	0xbed8037b	-0.42190155
110	0x3b7c85f0	0.0038531981
111	0xbb1e0d48	-0.0024116803
112	0x3ba4d828	0.0050306506
113	0xbc38cf46	-0.011279887
114	0xbc690d71	-0.014224396
115	0xbeb74ce5	-0.35800853
116	0xbedecccc	-0.43515623
117	0xbebf8320	-0.37404728
118	0xbc51604e	-0.0127793085
119	0x3ef487f7	0.47759983
120	0xbedebecb	-0.43504938
121	0xbeb60c82	-0.35556418
122	0xbc984060	-0.018585384
123	0xbed0cd66	-0.40781707
124	0xbccd8af0	-0.025090665
125	0x3cad682a	0.021167833
126	0xbc530216	-0.012878915
127	0xbebcd3c3	-0.3688031
128	0xbeed45f0	-0.4634242
129	0x3ae14320	0.0017186143
130	0xbef6e0f0	-0.4821849
131	0xbec58f52	-0.38585907
132	0xbec9155f	-0.39274117
133	0x3ee9f585	0.4569513
134	0xbeba4c72	-0.36386448
135	0xbeed0637	-0.46293804
136	0x3c37e478	0.011223905
137	0xbcd29edd	-0.025710518
138	0x3c5fd354	0.013661224
139	0xbc8396ae	-0.01606306
140	0xbcce1bb4	-0.025159694
141	0xbee88bc7	-0.45419142
142	0x3c799950	0.015234306
143	0xbebe3c5d	-0.3715543
144	0xbeb86852	-0.3601709
145	0x3c7b789c	0.01534858
146	0xbe9b0e17	-0.30284187
147	0x3b958128	0.0045625158
148	0xbef60a94	-0.48054945
149	0xbef4362e	-0.47697586
150	0x3eebf9d3	0.46089038
151	0x3c9babd4	0.019002832
152	0x3e00367d	0.12520786
153	0xbcd8c3e0	-0.026460588
154	0xbef970b8	-0.4871881
155	0xbef2bb11	-0.47408345
156	0xbb9c24c8	-0.004765127
157	0xbed6dc7c	-0.4196509
158	0x3cd55d52	0.026045475
159	0xbec0d776	-0.37664384
160	0xbc692ccb	-0.014231871
161	0xbef02fe6	-0.46911544
162	0x3c1b1238	0.009464793
163	0xbed679be	-0.41889757
164	0x3ee8c950	0.4546609
165	0x3ce8061a	0.028323222
166	0x3ce76ddc	0.028250627
167	0xbec90c7b	-0.39267334
168	0x3c3f1ec0	0.011665046
169	0xbed0e28f	-0.4079785
170	0xbc0b7100	-0.008510828
171	0xbeebcde2	-0.46055514
172	0xbeca6a09	-0.39534023
173	0x3ca33d0a	0.019926567
174	0x3f008e38	0.5021701
175	0x3b2715c0	0.0025495142
176	0x3f049b15	0.51799136
177	0xbe7c0c82	-0.24614146
178	0xbc89144f	-0.016733317
179	0xbeea4c2d	-0.45761243
180	0xbcca118a	-0.024666566
181	0xba00cf40	-0.0004913695
182	0xbebe4216	-0.37159795
183	0x3b4a26b0	0.0030845813
184	0xbc911189	-0.017708557
185	0xbf0e69a9	-0.55629975
186	0x3ebb292f	0.36554858
187	0xbcab1945	-0.020886073
188	0xbedee136	-0.43531197
189	0xbeec2083	-0.46118554
190	0xbef267bf	-0.47344777
191	0xbed69d7e	-0.41917032
192	0xbeba269d	-0.36357585
193	0xbeca7230	-0.39540243
194	0xbf1655ef	-0.58724874
195	0xbede68fc	-0.43439472
196	0xbeade0c4	-0.33960545
197	0x3c8f2e4e	0.017478134
198	0xbaf33340	-0.0018554702
199	0x3ca02a4a	0.019551415
200	0xbee12a03	-0.43977365
201	0xbed1630e	-0.40895885
202	0xbc99b8fe	-0.018764969
203	0xbc1a2b2c	-0.009409707
204	0xbeb81bb6	-0.35958642
205	0xbe9c2d96	-0.3050353
206	0xbc9ffda4	-0.019530125
207	0xbb864ac0	-0.0040982664
208	0xbef84c67	-0.4849579
209	0xbecdf9f8	-0.40229774
210	0xbec51e10	-0.38499498
211	0xbee37618	-0.44426036
212	0xbc15ae4e	-0.009135796
213	0xbee7ee77	-0.45299122
214	0xbec7118f	-0.38880584
215	0x3e90e698	0.2830093
216	0xbcbdf502	-0.023188118
217	0x3c69216c	0.01422916
218	0x3c9dfbfe	0.019285198
219	0xbc909260	-0.017647922
220	0x3e9a064f	0.30082938
221	0xbf0914d7	-0.53547424
222	0x3c9c1e88	0.019057527
223	0xbec3783e	-0.38177675
224	0xbc84320c	-0.016137145
225	0x3bbc4b08	0.005746249
226	0xbecbb60a	-0.39787322
227	0xbed2b7eb	-0.41155943
228	0x3b4b0290	0.003097687
229	0xbeb08115	-0.34473482
230	0xbecfb183	-0.40565118
231	0xbc2fdf04	-0.010734323
232	0x3c3e2a40	0.011606753
233	0xbeec0802	-0.4609986
234	0xbec653e8	-0.3873589
235	0x3c046db8	0.0080828
236	0xbebff777	-0.37493488
237	0x3ca6f228	0.020379141
238	0xbc6145ab	-0.01374952
239	0xbedc8faa	-0.43078357
240	0xbcb19065	-0.021675298
241	0x3c30aa40	0.010782778
242	0xbeaecca9	-0.34140518
243	0xbea24437	-0.3169267
244	0xbb9344dc	-0.0044942927
245	0xbed491f4	-0.41517603
246	0x3c995ee8	0.018722013
247	0xbedbc43b	-0.4292315
248	0xbec360fd	-0.38159934
249	0xbebfa06b	-0.37427077
250	0xbc8cf104	-0.017204769
251	0xbaac5c20	-0.0013150014
252	0x3c385dc0	0.0112528205
253	0xbeccf03c	-0.40027034
254	0xba8ce720	-0.0010750033
255	0x3cb8c196	0.022553246

linear1.bias f4 [3]
0	0xbe9ff181	-0.3123894
1	0x3f5cf7e0	0.8631573
2	0xbf147cfc	-0.5800321

linear2.weight f4 [6, 3]
0	0x3df2c721	0.11854387
1	0xbfb491de	-1.4107015
2	0x3e491aeb	0.19639175
3	0xbf83b49b	-1.0289491
4	0xbc7c3325	-0.015393053
5	0xbe2ed8e6	-0.17074928
6	0xbe7d07b2	-0.24709967
7	0xbf32ca00	-0.6983948
8	0x3a2e7800	0.00066554546
9	0xbeaa6a10	-0.33284044
10	0xbda6c82c	-0.081436485
11	0xbe852e82	-0.26012045
12	0xbf3cf742	-0.73814785
13	0xbf8f47a0	-1.1193733
14	0xbe979098	-0.29602504
15	0xbe9488c4	-0.29010594
16	0xbeffaf00	-0.49938202
17	0xbec4b15e	-0.3841657

linear2.bias f4 [6]
0	0x3f0f2a79	0.55924183
1	0xbeb33577	-0.35001728
2	0xbf6c5081	-0.9231034
3	0xbef624b8	-0.4807489
4	0xbe8a57cd	-0.27020112
5	0xbf6fec03	-0.937195

linear3.weight f4 [12, 6]
0	0x3e8e2cfb	0.27768692
1	0xbe6d4a99	-0.23172988
2	0x3e412651	0.18862273
3	0xbebcc7d4	-0.36871207
4	0x3f6de2a4	0.9292395
5	0x3f44fcf1	0.7694846
6	0x3e93c16c	0.28858507
7	0x3f70853f	0.9395332
8	0xbec94362	-0.39309222
9	0x3e236fa8	0.15960562
10	0x3ed44c95	0.41464677
11	0xbe730946	-0.23734006
12	0x3d8a31a5	0.0674775
13	0x3f915741	1.1354753
14	0x3ef168bf	0.47150227
15	0x3d235c98	0.039883226
16	0x3f594e10	0.8488474
17	0x3f1bc280	0.6084366
18	0x3c7bdcf0	0.0153725
19	0x3f835f68	1.0263491
20	0x3ec5adb1	0.3860908
21	0x3d83e488	0.06440073
22	0x3edcf1a7	0.43153116
23	0x3e926878	0.28595328
24	0xbe5896e4	-0.2115131
25	0x3d22ad74	0.0397162
26	0x3f249cf7	0.6430201
27	0x3dba9568	0.09110528
28	0x3f7a110f	0.9768228
29	0x3f09d36f	0.5383825
30	0xbd8feea8	-0.07027942
31	0x3eba0b66	0.3633682
32	0x3f111940	0.56679153
33	0xbd427558	-0.04747519
34	0x3f380d9c	0.71895766
35	0x3ec59d7c	0.38596714
36	0x3eb51d39	0.35373858
37	0x3f8026e8	1.0011873
38	0xbf65c2b2	-0.89750206
39	0x3e48cf38	0.19610298
40	0x3f02cb4a	0.51091444
41	0xbe3ac2ec	-0.1823842
42	0x3e4b94d8	0.19880998
43	0xbf820d41	-1.0160295
44	0x3e39853d	0.18117233
45	0x3e96321e	0.2933511
46	0x3eb73534	0.35782778
47	0x3e75e98e	0.24014875
48	0x3e4878f8	0.19577396
49	0x3ed8bda8	0.42332196
50	0x3eff7f5c	0.49901855
51	0xbe7f4b60	-0.24931097
52	0x3f024c46	0.50897634
53	0x3ecf9f58	0.40551257
54	0xbb480930	-0.0030523054
55	0x3e7fa7e1	0.24966384
56	0xbeda0ca5	-0.42587772
57	0xbec740d4	-0.38916647
58	0x3ef2eebf	0.47447774
59	0xbeadbbd8	-0.33932376
60	0x3c7089f7	0.014681331
61	0x3c9c412f	0.01907405
62	0x3ece2fa0	0.4027071
63	0xbdbd5724	-0.092451364
64	0x3f32fcf2	0.69917214
65	0x3e58e32a	0.21180406
66	0xbe19090f	-0.14944862
67	0xbe6624ba	-0.22474948
68	0x3ef640ca	0.48096305
69	0x3eae4f9a	0.34045106
70	0x3ea6a9c5	0.325514
71	0x3f1f1288	0.6213765

linear3.bias f4 [12]
0	0x3f227f52	0.63475525
1	0x3f227ced	0.6347187
2	0x3f228ed8	0.6349921
3	0x3f2280b0	0.6347761
4	0x3f227b3b	0.63469285
5	0x3f227c70	0.63471127
6	0x3f227c2d	0.6347073
7	0x3f2278be	0.6346549
8	0x3f228402	0.6348268
9	0x3f227b14	0.6346905
10	0x3f227614	0.6346142
11	0x3f226ead	0.6345013

linear1.weight f4 [3, 1200]
0	0xbc92a500	-0.017900944
1	0x3a803360	0.0009780936
2	0xbcb7a94c	-0.022419594
3	0xbf1f4e75	-0.6222909
4	0xbbe0cb90	-0.006860204
5	0xbb67d440	-0.0035374314
6	0xbc29e2e0	-0.010369033
7	0xbf15d783	-0.5853197
8	0xbf1cb18e	-0.61208427
9	0xbf1ca8fd	-0.61195356
10	0x3c940630	0.018069357
11	0xbf1b1ea5	-0.60593635
12	0xbf1ac028	-0.6044946
13	0xbf1ab04e	-0.6042527
14	0xbf13874b	-0.57628316
15	0x3cb774e6	0.022394609
16	0x3c20293c	0.009775456
17	0x3cac0682	0.020999197
18	0xbcde79c0	-0.027157664
19	0xbf1c0743	-0.6094858
20	0xbc2aca52	-0.0104242135
21	0x3c9b5a90	0.018964082
22	0xbf1420f4	-0.5786278
23	0xbf1ca4b1	-0.611888
24	0xbccabf02	-0.024749283
25	0xbf14b47b	-0.5808789
26	0x3c077968	0.008268692
27	0x3cdba662	0.026812736
28	0xbf1c0421	-0.609438
29	0xbf19bd36	-0.6005434
30	0x3c8fa02e	0.017532434
31	0xbf1b2cf9	-0.606155
32	0x3c786d58	0.015162788
33	0xbf1be280	-0.60892487
34	0xbf1c46af	-0.61045355
35	0xbcb33da4	-0.021879978
36	0x3c72542c	0.014790576
37	0xbc389c7e	-0.011267779
38	0x3c09fbc8	0.008421846
39	0xbc48d9f6	-0.012258997
40	0xbf15f47d	-0.58576185
41	0xbf148983	-0.58022326
42	0xbf134aa1	-0.5753575
43	0xbc5e3ecb	-0.013564776
44	0x3c2e3348	0.010632344
45	0xbf1c4f92	-0.61058915
46	0xbf1f6119	-0.62257534
47	0x3c31df04	0.010856394
48	0xbcd7f954	-0.026364006
49	0x3c59bd94	0.013289828
50	0xbf18085d	-0.5938776
51	0x3c9e0eae	0.01929411
52	0xbc522c48	-0.01282794
53	0xbf12dd89	-0.57369286
54	0xbce9df00	-0.028548717
55	0xbf1b1dc4	-0.60592294
56	0xbb2da3a0	-0.0026495233
57	0xbf1c5f5c	-0.61083007
58	0xbf13feed	-0.5781086
59	0xbccbc6e3	-0.02487511
60	0x3c17ba50	0.009260729
61	0xbc36491a	-0.011125827
62	0xbf1563b8	-0.58355284
63	0xbaaa6680	-0.0013000518
64	0xbf1c2e99	-0.610086
65	0xbf144d20	-0.57930183
66	0xbf1b79d4	-0.6073277
67	0xbe4317ec	-0.19052094
68	0xbcd685cd	-0.026186848
69	0xbf163dd6	-0.58688104
70	0x3c421d24	0.011847768
71	0x3c8cce8c	0.017188333
72	0x3ca41370	0.0200288
73	0xbaab5670	-0.0013072025
74	0x3b452740	0.003008321
75	0xbf1d5ccf	-0.6146974
76	0xbf1355c3	-0.57552737
77	0x3c4681e4	0.012115929
78	0x3c12a184	0.008949641
79	0xbf13dd6a	-0.57759726
80	0xbf15307e	-0.5827712
81	0x3bdfd070	0.0068302676
82	0xbf1dba1b	-0.616121
83	0x3c3434cc	0.010998916
84	0xbf198e28	-0.5998254
85	0xbf1afc12	-0.6054088
86	0xbc0e2aec	-0.008677226
87	0xbf1a1e6a	-0.6020266
88	0xbf1454a9	-0.5794168
89	0x3cdaf846	0.026729714
90	0xbf1529ff	-0.58267206
91	0xbc64b3ce	-0.013958884
92	0xbbddf8b8	-0.0067740344
93	0xbf1d20ae	-0.6137799
94	0x3ccd2b28	0.025044993
95	0x3b2234f0	0.0024750791
96	0xbf1aada5	-0.6042121
97	0xbf20ff43	-0.628895
98	0xbf12a3cb	-0.5728118
99	0xbf159d03	-0.58442706
100	0xbf146b6f	-0.5797643
101	0xbc096e2a	-0.008388082
102	0xbc8abc5a	-0.016935516
103	0x3ea1738c	0.31533468
104	0xbe702aee	-0.23453876
105	0x3c813aee	0.01577517
106	0xbf1f9d5f	-0.62349504
107	0xbf159c50	-0.5844164
108	0xbc5103ba	-0.012757236
109	0xbc8f7a70	-0.017514437
110	0xbf16cbbb	-0.5890462
111	0xbbb2624c	-0.005443847
112	0x3cb9d6f6	0.02268551
113	0xbc0274b6	-0.007962396
114	0xbf1634f7	-0.5867457
115	0xbf133c9e	-0.5751437
116	0xbf15ebcc	-0.5856292
117	0xbf1c9adf	-0.61173815
118	0x3c18a0c4	0.009315673
119	0xbf17e21c	-0.5932939
120	0xbf1269dd	-0.57192785
121	0xbf163e5a	-0.5868889
122	0x3c597b44	0.013274018
123	0xbf15613a	-0.5835148
124	0xbf18b968	-0.5965791
125	0xbce68e95	-0.02814416
126	0xbf1cd0fa	-0.6125637
127	0xbc85ca78	-0.016331896
128	0xbf1841cd	-0.59475404
129	0xbce34f49	-0.027747767
130	0xbf12aa22	-0.5729085
131	0xbf121c0f	-0.57074064
132	0x3b75da40	0.003751412
133	0xbf15f5f9	-0.5857845
134	0xbf180939	-0.5938907
135	0xbf154726	-0.5831169
136	0xbf17f7da	-0.59362566
137	0xbb3f79e8	-0.002921695
138	0xba512340	-0.000797797
139	0xbc14d37a	-0.009083623
140	0xbf203511	-0.6258097
141	0xbcb31f67	-0.02186556
142	0xbf1c076f	-0.6094884
143	0xbf1b8f35	-0.6076539
144	0xbf1cadaa	-0.6120249
145	0xbcde4732	-0.027133558
146	0xbf1935f9	-0.5984798
147	0x3cddd8ec	0.027080975
148	0x3c8c9d9e	0.017165001
149	0xbf12cc25	-0.5734275
150	0xbf1581fc	-0.58401465
151	0xbc850d16	-0.016241591
152	0x3c8ee86c	0.017444812
153	0x3c0ebbe0	0.008711785
154	0xbf177326	-0.5916008
155	0xbf145eec	-0.5795734
156	0xbf1ad14f	-0.6047563
157	0xbf19f36f	-0.60137075
158	0x399ebbc0	0.00030275993
159	0xbf1ff509	-0.6248327
160	0xbbf98564	-0.0076147784
161	0xbf13f6a8	-0.5779824
162	0xbb2702e0	-0.0025483891
163	0xbbc1fc34	-0.0059199575
164	0xbcce2549	-0.025164263
165	0x3c6e1cdc	0.014533248
166	0xbf1d7fab	-0.6152293
167	0xbf1d1c45	-0.6137126
168	0x3c65dc20	0.014029533
169	0xbf1e0dae	-0.61739624
170	0xbcdd3c40	-0.027006269
171	0x3c210a88	0.009829171
172	0xbf1e0488	-0.61725664
173	0xbc45c82c	-0.0120716505
174	0x3ade0960	0.001694005
175	0xbf16273b	-0.5865361
176	0xbf17ba81	-0.5926896
177	0xbf188683	-0.5958025
178	0xbf1e25cd	-0.6177643
179	0xbf14baa2	-0.5809728
180	0xbb2fce68	-0.0026825909
181	0xbf179f0e	-0.59227073
182	0xbf1d8c2b	-0.61542004
183	0x3c69de68	0.014274217
184	0x3cae59b0	0.021283
185	0xbf1ecc29	-0.62030274
186	0x396cce00	0.00022583455
187	0x3a4c0520	0.0007782746
188	0xbf1633ff	-0.5867309
189	0x3c71a7f4	0.014749516
190	0xbf1717eb	-0.5902087
191	0xbf1ffed4	-0.6249821
192	0xbf1dfe85	-0.6171649
193	0xbf19d8c1	-0.60096365
194	0xbc08d2e4	-0.0083510615
195	0x3c718ca0	0.014743
196	0xbf17c45a	-0.59283984
197	0xbc3fcb7c	-0.011706229
198	0xbf16cccd	-0.5890625
199	0xbf13ec24	-0.57782197
200	0xbf157c16	-0.58392465
201	0xbf1f8b25	-0.6232169
202	0xba08a2a0	-0.00052122213
203	0xbbb65e0c	-0.0055654105
204	0xbf140092	-0.5781337
205	0xbf1a92da	-0.6038033
206	0x3bde2700	0.0067795515
207	0x3cbe2b74	0.02321408
208	0x3ca29868	0.019848064
209	0x3cd2824e	0.0256969
210	0x3c6b9600	0.0143790245
211	0xbcea32da	-0.028588701
212	0xbb1d14c8	-0.0023968685
213	0xbf170305	-0.5898898
214	0xbf1aae2f	-0.60422033
215	0xbf17830e	-0.5918435
216	0xbccc3064	-0.024925418
217	0x3c83636a	0.016038615
218	0x3caff006	0.021476757
219	0xbf1b8a56	-0.6075796
220	0xbf1df219	-0.61697537
221	0x3c88855a	0.01666515
222	0xbca17ac0	-0.019711852
223	0xbf1b0c2c	-0.6056545
224	0xbc27c628	-0.010240115
225	0xbcc3f476	-0.023920279
226	0xbf1804aa	-0.59382117
227	0xbf17841a	-0.59185946
228	0xbf1bb853	-0.6082813
229	0xbf142be8	-0.57879496
230	0xbf200d39	-0.62520176
231	0xbc7b51f3	-0.015339362
232	0x3c4c6bd8	0.012476884
233	0xbf149fac	-0.5805614
234	0xbf1dde22	-0.6166707
235	0xbf1f9917	-0.6234297
236	0xbf1af5a1	-0.6053105
237	0x3c5d9c98	0.013526104
238	0xbc73a412	-0.01487066
239	0xbcca44fe	-0.024691101
240	0xbf2067ec	-0.6265857
241	0x3ccf2b6c	0.02528926
242	0xbf1f0e3b	-0.6213109
243	0xbf1bbaf8	-0.60832167
244	0xbf19a89d	-0.6002291
245	0xbf139648	-0.57651186
246	0xbbc10148	-0.0058900453
247	0xbf14b171	-0.58083254
248	0x3b1374c8	0.0022500027
249	0xbf1c239a	-0.60991824
250	0x3cceec08	0.025259033
251	0xbcd4f56b	-0.02599593
252	0x3c492cd0	0.012278751
253	0xbf1cbc80	-0.6122513
254	0x3c6b517c	0.014362689
255	0xbf12a0ae	-0.5727643

linear1.bias f4 [3]
0	0xbf14244f	-0.578679
1	0xbeaf8c4a	-0.3428672
2	0xbf1d7ba2	-0.61516774

linear2.weight f4 [6, 3]
0	0xbf056eb2	-0.5212203
1	0xbda1ed90	-0.079066396
2	0xbeef6901	-0.467598
3	0xbe3fdfff	-0.18737791
4	0x3f1fade5	0.62374717
5	0xbe9d3e8b	-0.3071178
6	0xbe52fe6e	-0.2060487
7	0xbf91b792	-1.1384146
8	0xbf864ff7	-1.0493153
9	0x3d5f317c	0.05449055
10	0xbde27e95	-0.110593
11	0x3e2da84d	0.16958733
12	0x3ebe27ba	0.37139684
13	0xbe2f7ab4	-0.17136651
14	0x3dd410e8	0.10354787
15	0xbce7c6c0	-0.028293014
16	0xbeb750bc	-0.35803783
17	0xbecb07b9	-0.3965433

linear2.bias f4 [6]
0	0xbeb59800	-0.3546753
1	0xbf3e3453	-0.7429859
2	0xbec4dad7	-0.38448212
3	0xbdb5f1fd	-0.08884046
4	0xbe8442b2	-0.25832134
5	0xbe312c9a	-0.1730217

linear3.weight f4 [12, 6]
0	0x3e18998c	0.14902323
1	0x3c7fb1f6	0.015606394
2	0x3f28a896	0.6588224
3	0xbf16c3cf	-0.5889253
4	0x3eba1be2	0.36349398
5	0x3d4dfe28	0.05029121
6	0x3c905d10	0.0176225
7	0x3e96a4d9	0.29422644
8	0x3f80eae9	1.0071689
9	0x3ebf6389	0.37380627
10	0x3df436c8	0.11924511
11	0xbeb12039	-0.34594896
12	0xbe32f5f8	-0.17476642
13	0x3f60cb62	0.8781034
14	0x3ecb4631	0.3970199
15	0x3ef9054a	0.48636848
16	0x3e35857c	0.17726701
17	0x3d0b6840	0.034034967
18	0x3e48c250	0.19605374
19	0x3eee248f	0.46512267
20	0x3f4426e4	0.7662184
21	0xbe074952	-0.13211563
22	0xbdc8ed24	-0.09810856
23	0x3da21674	0.07914439
24	0xbd412368	-0.047152907
25	0x3f3b4143	0.73146456
26	0x3f59bfe0	0.85058403
27	0x3e89e67f	0.26933667
28	0x3e869e94	0.2629286
29	0x3ebc1f66	0.36742705
30	0x3e75b82c	0.23996037
31	0x3f28e23a	0.65970194
32	0x3ec86e27	0.3914654
33	0x3eb637ca	0.3558944
34	0x3e9d369a	0.3070572
35	0x3cee9910	0.02912572
36	0xbe1e272c	-0.1544463
37	0xbc92f0d6	-0.017937105
38	0x3ee3e21c	0.44508445
39	0xbefba494	-0.49149
40	0x3dc43618	0.0958063
41	0xbea4a23a	-0.3215502
42	0xbe32c8b1	-0.1745937
43	0x3f2877f2	0.6580802
44	0x3ecdd6b2	0.40202862
45	0xbd2c04b5	-0.041996676
46	0xbd2019d8	-0.039087147
47	0x3ec2b6f6	0.38030213
48	0x3dd1a828	0.102371514
49	0x3e979158	0.29603076
50	0x3ef5338b	0.47890887
51	0xbec7e52a	-0.39042026
52	0x3ec994e0	0.39371395
53	0xbdb7007c	-0.08935639
54	0x3c1306e0	0.008973807
55	0x3f911678	1.1334982
56	0x3f4d14a9	0.8010965
57	0x3e9a8fbf	0.30187795
58	0xbe9cbaf6	-0.3061139
59	0x3d1aa1b0	0.037751853
60	0x3d925540	0.071451664
61	0x3e6c9a95	0.23105843
62	0x3ee3f125	0.44519916
63	0xbee67003	-0.45007333
64	0xbec1d536	-0.3785798
65	0x3d8f74b0	0.07004678
66	0xbcd37430	-0.025812238
67	0x3f13c1ac	0.57717395
68	0x3ec81d48	0.3908484
69	0xbe6d35ed	-0.23165102
70	0xbc3e3420	-0.011609107
71	0xbd0e08c0	-0.034676313

linear3.bias f4 [12]
0	0x3f228061	0.6347714
1	0x3f228161	0.63478667
2	0x3f2298f6	0.6351465
3	0x3f22809f	0.6347751
4	0x3f2283b4	0.63482213
5	0x3f227af1	0.63468844
6	0x3f227693	0.6346218
7	0x3f228119	0.6347824
8	0x3f22778b	0.6346366
9	0x3f2286ab	0.63486737
10	0x3f227140	0.63454056
11	0x3f227292	0.6345607
