epoch_100_model/건조/model.pth (torch, 201120 bytes, 18 tensors)

linear1.weight f4 [24, 48]
000000 d9 42 8e bf 50 23 88 bf 78 4f 78 bf c0 14 6f bf
       -1.111415 -1.0635777 -0.9699626 -0.93391037
000010 26 80 7a bf fe a5 72 bf 8f 8c 98 bf 40 b2 6e bf
       -0.9785179 -0.94784534 -1.1917895 -0.9324074
000020 97 97 95 bf 09 18 86 bf d2 5f 86 bf ec 66 98 bf
       -1.1686887 -1.0476085 -1.0497992 -1.1906409
000030 b3 7c 7c bf b7 45 81 bf fd 10 99 bf 93 1b 6f bf
       -0.98627776 -1.00994 -1.195831 -0.9340145
000040 e2 84 6e bf 1f d4 82 bf 9d 08 7b bf 13 ec 98 bf
       -0.93171513 -1.0220984 -0.9806002 -1.1947044
000050 7b 82 81 bf 17 88 80 bf b3 08 87 bf 43 67 8c bf
       -1.0117944 -1.0041531 -1.054953 -1.0969013
000060 46 37 94 bf af 3e 8b bf cd 27 91 bf cf 4b 6a bf
       -1.1579368 -1.0878505 -1.1340271 -0.91521925
000070 f9 02 7f bf bb 72 90 bf da 42 82 bf f6 47 82 bf
       -0.9961391 -1.1285013 -1.0176651 -1.0178211
000080 cb a4 8b bf ae e9 7a bf 74 2e 85 bf 4c f8 83 bf
       -1.0909666 -0.98012817 -1.0404801 -1.0310149
000090 97 87 8a bf c8 3b 83 bf 12 44 8e bf 0a dd 85 bf
       -1.0822629 -1.0252619 -1.1114523 -1.0458081
0000a0 46 de 87 bf f2 c4 90 bf d8 8d 8e bf a6 55 87 bf
       -1.0614707 -1.1310103 -1.1137037 -1.0573013
0000b0 6e 8e 6c bf 30 66 73 bf f3 c9 82 bf 0f 4d 7d bf
       -0.9240483 -0.950778 -1.021788 -0.9894571
0000c0 f8 78 b1 bf cb fe 6f bf ab 46 48 bf 5e 7e 53 bf
       -1.3865042 -0.9374816 -0.7823283 -0.82614696
0000d0 7a b6 a1 bf 4f 4a 51 bf 16 a4 48 bf e8 89 4e bf
       -1.2633812 -0.8175401 -0.78375375 -0.8067918
0000e0 75 f5 38 bf 6d 98 55 bf 80 43 4e bf 72 ca 55 bf
       -0.7224954 -0.8343571 -0.80571747 -0.8351203
0000f0 32 c4 5c bf 66 63 5c bf a3 21 79 bf c3 a5 7a bf
       -0.8623687 -0.8608917 -0.9731695 -0.9790918
000100 a3 49 7c bf 88 c1 7b bf f1 55 50 bf 61 d5 5c bf
       -0.9854986 -0.9834218 -0.81381136 -0.8626309
000110 d9 00 44 bf a3 23 2a bf e9 0c 65 bf 8b b3 5b bf
       -0.76563793 -0.6646063 -0.89472824 -0.85820836
000120 a6 e0 6e bf dd cf 6c bf 44 b4 22 bf c4 ab 35 bf
       -0.93311536 -0.92504674 -0.63556314 -0.7096522
000130 69 9c 6b bf aa 00 4b bf a7 6c 5a bf a1 53 40 bf
       -0.9203554 -0.7929789 -0.8532204 -0.7512761
000140 9a e1 6b bf c8 49 33 bf fe b9 54 bf ec d7 68 bf
       -0.92141116 -0.70034456 -0.830963 -0.9095447
000150 38 a3 74 bf 7e c3 88 bf 82 a9 46 bf 22 f8 56 bf
       -0.9556155 -1.068466 -0.776024 -0.8397237
000160 1a 4b 5b bf d7 bf 62 bf 89 94 48 bf 73 e5 5c bf
       -0.8566147 -0.88573974 -0.78351647 -0.8628761
000170 42 e9 31 bf 7c 11 61 bf a3 5d 85 bf 0a 6f 71 bf
       -0.6949655 -0.87917304 -1.0419201 -0.9431006
000180 05 4b 12 bf dc f8 da be ae d3 dd 3e f1 a2 04 3f
       -0.5714572 -0.4276799 0.4332556 0.5181113
000190 1a 16 ef be 6b a2 75 be b3 cd 61 be 3b 99 cd be
       -0.4669655 -0.23987739 -0.22051124 -0.40155968
0001a0 cc ae 0d 3f e6 e2 ca 3e c3 f7 ca be 98 3c 15 bf
       0.55344844 0.39626235 -0.39642152 -0.58295584
0001b0 0c 41 01 3f 2b 8f 0c 3f a2 e2 d7 be a4 f1 d3 be
       0.5048988 0.54905957 -0.42165095 -0.41395295
0001c0 6d 5f 2d bf f2 b0 e9 be 3b b4 9f be bb 56 d7 be
       -0.67723733 -0.4564281 -0.31192192 -0.42058358
0001d0 4e b1 f5 3e a6 e5 24 3f 8e 6c 0b bf 5c f5 07 bf
       0.47986835 0.64412916 -0.54462516 -0.53108764
0001e0 0a 1d 03 bf c1 d9 ca be 3e 19 29 3f 8f 44 ee 3e
       -0.51216185 -0.39619258 0.6605414 0.4653668
0001f0 98 8f 17 bf 15 37 f3 be a2 2f fe be f7 e6 6e be
       -0.5920348 -0.47502962 -0.49645716 -0.23330294
000200 fa df aa 3e d1 18 06 3f 06 e7 14 bf 5c ac 15 bf
       0.33374006 0.52381617 -0.58165014 -0.58466125
000210 58 d2 2e bf 98 40 29 bf 93 31 d0 be 82 52 d6 be
       -0.6828971 -0.6611419 -0.40662822 -0.41859823
000220 5c 5a f2 be 1a bf e0 be b7 a9 b6 be 8c 2e ce be
       -0.47334564 -0.438958 -0.35676357 -0.40269887
000230 e7 f7 04 3f 4f e4 0c bf 80 8d 17 bf dc 9f 2d bf
       0.5194077 -0.5503587 -0.59200287 -0.6782205
000240 5c 4e ab 3d 04 8b ff 3d 80 16 23 3c 48 2d 7b bd
       0.08364555 0.12477687 0.009954095 -0.06132248
000250 04 eb c4 bd 78 6e d4 bd 7b 24 af bd 3d b4 9e bd
       -0.09615138 -0.10372633 -0.0855188 -0.077492215
000260 58 c5 03 be 20 b9 7d 3c fa 42 0f 3e 12 29 b6 3d
       -0.1286825 0.015486032 0.13990393 0.08894552
000270 e2 0b bf bd b4 77 a6 bc 80 5a da 3a e8 06 88 3c
       -0.09328438 -0.02032075 0.0016659051 0.016604856
000280 44 45 d0 bd d6 31 68 bd 5c ab c2 3d a4 f2 cd bd
       -0.10169461 -0.056688152 0.095053405 -0.10056046
000290 b0 71 c5 bc 5e c8 98 bd 98 a6 bb 3d b9 3c 8f bd
       -0.024102062 -0.07460092 0.091626346 -0.06994004
0002a0 60 df 46 bc 00 bb 49 bb 40 89 70 3b e7 1f 83 bd
       -0.012138218 -0.0030781627 0.00367029 -0.06402569
0002b0 60 7d 76 3c b8 74 8b 3d 97 07 a7 bd 80 0e ee 3d
       0.01504454 0.06809372 -0.081557445 0.116238594
0002c0 00 50 f5 3a b0 86 a7 3c 30 95 1d 3c d0 c6 ae 3c
       0.0018715858 0.020449966 0.009618089 0.021335036
0002d0 5f 19 85 bd 74 8b 06 be f6 fb f0 bd 94 b9 81 3d
       -0.0649898 -0.13139135 -0.11766808 0.06334224
0002e0 ca bf 03 3e 0d c7 a6 bd a0 bf 2e bc 98 ab 5d bd
       0.1286613 -0.08143435 -0.010665804 -0.054118723
0002f0 c0 29 b4 3d 32 62 81 bd e6 ff d6 bd 70 f3 1e 3d
       0.08797026 -0.063175574 -0.104980275 0.03880638
000300 8a ec b0 3d 6b 8e 79 bc 82 bc 77 bf 1e fd 8c bf
       0.08638866 -0.015231709 -0.96772015 -1.1014745
000310 a0 11 06 be 1c 2a 56 be 5f f9 ea be 91 c3 03 be
       -0.13092661 -0.20914501 -0.4589338 -0.12867571
000320 11 cc d7 bd 76 6f 8b bf 45 f6 69 bf 43 5f 57 be
       -0.105369695 -1.089339 -0.913914 -0.21032433
000330 f8 8a 8c bf a5 f8 93 bf 3f 03 70 3d 14 9b 92 bd
       -1.097991 -1.1560255 0.058596846 -0.07158485
000340 6b 80 88 bf a7 33 e6 3c c7 7f 5a be 2e 2c f7 3c
       -1.066419 0.028100802 -0.21337806 0.030172434
000350 9b 36 79 bf 5a 3a 87 bf 8b b9 d9 be a4 af 3b bf
       -0.97348946 -1.0564682 -0.4252437 -0.7331488
000360 fb 9c 56 bd a0 98 29 be fe 23 81 bf f3 14 9a bf
       -0.052395802 -0.16562128 -1.0089109 -1.2037643
000370 44 b8 1d bd 2c 4c 36 be 58 c8 96 bf 77 e6 88 bf
       -0.038505808 -0.17802495 -1.177989 -1.0695332
000380 b6 19 85 bf cf bf 8c bf 0c 48 1c 3d 99 9c 80 bd
       -1.0398471 -1.0996035 0.038154647 -0.06279869
000390 49 c7 8f bb 08 ff 95 bd 7e 84 8f bf 9f 7a 3c be
       -0.0043877703 -0.07324034 -1.1212308 -0.18406151
0003a0 79 0a c0 3d 5e 2e 2a be 47 44 9f bf 0c fd 93 bf
       0.093769975 -0.1661925 -1.2442712 -1.1561599
0003b0 af 31 91 bf 96 51 11 be 70 1d ae bd e8 cf 72 bd
       -1.1343287 -0.14191279 -0.085017085 -0.059280306
0003c0 92 58 90 bf 28 eb 8c bf ac 25 7a bf 76 a4 97 bf
       -1.127703 -1.1009264 -0.9771373 -1.1847064
0003d0 39 91 94 bf 3c 75 7f bf c2 d5 84 bf a0 9c 71 bf
       -1.1606818 -0.9978826 -1.0377734 -0.94379616
0003e0 76 c2 95 bf cc 43 91 bf b7 e2 6c bf f6 50 8c bf
       -1.169997 -1.1348815 -0.9253344 -1.0962207
0003f0 31 0b 8d bf 09 28 79 bf de 0c 7a bf b0 0d 72 bf
       -1.101904 -0.97326714 -0.97675884 -0.94552135

linear1.bias f4 [24]
000000 5a 84 85 bf 07 de 52 bf 39 0c 1d bf 4c 8f 52 bd
       -1.0431015 -0.82370037 -0.61346775 -0.05140619
000010 59 3a d8 bd fc 53 6e bf 7b 17 2a bf c9 78 69 bf
       -0.10558004 -0.930969 -0.6644208 -0.9119993
000020 cf b3 a4 be b4 42 0c bf c5 f5 0d 3e ed 43 d7 be
       -0.32168433 -0.5478928 0.13863285 -0.4204401
000030 d9 fe 06 bf 5d 17 14 bf 33 31 e9 be d9 4b 89 bf
       -0.52732617 -0.5784815 -0.4554535 -1.0726272
000040 38 a9 02 3e a2 d6 2c bf 46 63 0a be ee f4 e6 be
       0.12759864 -0.67515004 -0.13514432 -0.45108742
000050 71 bd 42 bf 43 f7 a3 be 60 6a 99 bb c2 61 1e bf
       -0.76070315 -0.32024583 -0.0046818703 -0.61867917

linear2.weight f4 [12, 24]
000000 fe 01 ce 3d 7f 97 9d 3e 4e a2 88 bd 11 58 df bd
       0.10058974 0.30779645 -0.06671582 -0.10905469
000010 76 66 d4 3e b5 60 03 3e 86 b0 21 be e8 9b 05 3e
       0.41484421 0.1282986 -0.15789995 0.13047755
000020 bf c9 18 3f 90 3d 6d bd 5e 51 95 3d 7c 66 98 3d
       0.5968284 -0.05792004 0.0729091 0.07441422
000030 e1 48 b1 3e 6c 9a 33 3d d7 97 43 be b6 eb 7b 3e
       0.34625915 0.04384844 -0.19100891 0.24601635
000040 00 76 40 3e 0e 7f 1f 3e 84 89 9b bd 47 8c 3e 3f
       0.18795013 0.15575811 -0.075945884 0.74432796
000050 79 b8 46 3f 64 11 0e 3d 60 27 15 3e 38 eb 47 3d
       0.7762523 0.034684554 0.14565802 0.048808306
000060 ce 26 0c bf 3a e8 ea be 82 21 21 bf 00 72 e1 39
       -0.5474671 -0.458803 -0.62941754 0.0004300028
000070 d7 31 d7 be 04 4f 06 bf f0 3e 2a bf 1f 3f 17 bf
       -0.42030212 -0.5246432 -0.66502285 -0.5908069
000080 da b9 b3 3e be f7 1b bf 3a f7 13 bc 03 df 0c bf
       0.3510273 -0.609249 -0.009031111 -0.5502779
000090 44 55 30 bd 0d 45 19 bf 42 75 1a bf 9d 29 14 bf
       -0.043050066 -0.5987099 -0.6033517 -0.57875997
0000a0 48 8d e9 bc 5e 5d 12 bf a4 a8 39 3e 01 91 1a be
       -0.028509751 -0.5717372 0.18130738 -0.15094377
0000b0 08 af 3f bf 49 6c cc 3d e8 94 ad 3c 4e bb e1 3e
       -0.7487645 0.09981591 0.021189168 0.44088215
0000c0 21 dc 14 3f 44 c6 8a 3d ec 70 68 bd 2c 0d 45 be
       0.5814839 0.067760974 -0.056748316 -0.19243306
0000d0 12 05 46 be 07 87 06 3f 2e 4f 19 be d8 29 14 3f
       -0.19337872 0.52549785 -0.14971611 0.5787635
0000e0 98 7d 9d 3d 51 f2 16 be a7 8e b4 3d b4 ff 9f bd
       0.07689971 -0.14740874 0.08816271 -0.078124434
0000f0 ad 58 ba bd 10 bd 3b 3c 3d 46 c1 bd 99 7e 1a 3f
       -0.09098945 0.01145865 -0.09437225 0.6034942
000100 1c ed 13 bd 9c db 5e bd 84 41 16 3d d4 ac d4 3d
       -0.036114797 -0.054408655 0.036683574 0.10384527
000110 0f 04 d8 3d 0d 13 01 be 08 57 12 be e8 92 fd 3d
       0.10547649 -0.12604924 -0.14291012 0.12381536
000120 d8 68 41 bf 67 54 ae be 15 10 f9 be 24 86 06 3d
       -0.75550604 -0.3404877 -0.48645082 0.03284277
000130 d6 d8 10 bf 12 2e 1d bf 8c 08 ff be ca ec ee 3e
       -0.56580865 -0.6139842 -0.49811208 0.4666503
000140 c8 d2 f1 be f1 3f 2d bf b3 d4 21 3d 50 e8 06 bf
       -0.47231126 -0.6767569 0.039509486 -0.5269823
000150 c0 8e 3d 3e 8c d2 e9 be aa 00 bd be db 4b 00 bf
       0.18511486 -0.45668447 -0.3691457 -0.50115746
000160 c6 71 1f be 63 96 f3 3e 58 8a 02 3d 51 17 52 bd
       -0.15570745 0.47575673 0.031870216 -0.051291768
000170 b3 c0 1d bf c1 dd 45 3d b0 af b6 bd f6 15 fd be
       -0.6162216 0.048307184 -0.089202285 -0.49430817
000180 ef c2 99 3d e0 fc 05 3e 9b d4 be 3e 94 d4 2b 3d
       0.07507884 0.13084745 0.3727158 0.041950777
000190 2d 36 b1 bc 88 e0 c6 3d 7d 80 20 3e e9 85 de 3c
       -0.021632278 0.09710795 0.15674014 0.027163463
0001a0 45 47 67 3e ea c4 fa 3e 23 36 18 bf 7e 84 7f 3e
       0.22585781 0.48978359 -0.59457606 0.24952886
0001b0 c8 43 89 3c 74 9c e8 3e 15 7c 17 bc 16 6b 35 bd
       0.016755953 0.45431864 -0.009245892 -0.04429158
0001c0 18 ce 3a 3e 2b 16 d0 3c 29 8a 16 be 31 b8 fc bd
       0.18242681 0.025401196 -0.14701141 -0.12339819
0001d0 db a6 b4 be 64 97 45 3e 80 12 92 3b aa 47 18 3c
       -0.3528355 0.19296032 0.004457772 0.00929443
0001e0 a1 ad 3c bf 85 66 36 be 28 fe b4 3c 7e 40 80 bd
       -0.73702437 -0.17812546 0.022093847 -0.06262301
0001f0 60 9d f2 3d 1c c1 22 bf 4e 63 e9 bd 9e e7 ef be
       0.11846423 -0.6357591 -0.11395894 -0.46856397
000200 28 b4 28 bd 2c 00 5b bd 46 4e 0c bf 20 47 92 bd
       -0.041187435 -0.05346696 -0.54806936 -0.07142472
000210 6c e0 ee 3d db 39 a4 bd bc d1 30 3d db 8c 21 bf
       0.11663899 -0.080188476 0.04316877 -0.63105553
000220 d9 14 1f be ce 3e 48 3e 00 0c 51 bb d8 2d 3d 3d
       -0.15535296 0.19555208 -0.0031898022 0.046186298
000230 35 c4 2b bf 7a ea 14 3e 4c be 4f be 00 7f 21 3d
       -0.67096263 0.1454257 -0.20287436 0.039427757
000240 78 23 5c 3e da 24 23 3f 3a 23 3d 3f 16 9e d9 bd
       0.21497905 0.63728106 0.73881876 -0.106258556
000250 90 de 87 3f 17 49 9b 3e b8 59 d0 3e 47 ff 96 3e
       1.0614796 0.303292 0.4069345 0.29491636
000260 94 d2 63 3d 79 0f 27 3f ed 44 91 bf 57 93 25 3f
       0.055620745 0.65257984 -1.134916 0.6467795
000270 55 c0 ee bd 8e 90 fd 3e 22 60 37 3f b1 b5 17 3e
       -0.11657778 0.4952435 0.7163106 0.14815404
000280 e0 48 28 be 51 6c 04 3f 80 2a 12 bb bd 67 3b 3f
       -0.1643405 0.5172778 -0.0022303164 0.7320517
000290 13 b2 a9 bf 66 97 19 be 38 54 cc bd d2 75 84 be
       -1.3257469 -0.1499916 -0.09977001 -0.2587114
0002a0 12 c3 0a be 20 43 53 3d 8c d1 bb bd 6c 98 09 3e
       -0.13550976 0.051577687 -0.09170827 0.1343705
0002b0 f8 cd d1 3d 52 13 27 be 18 b8 36 3d 32 00 2a be
       0.102443635 -0.16315964 0.04460916 -0.16601637
0002c0 7f 9c 2c be 06 f8 32 be 6e 55 17 be 58 9c 51 3d
       -0.16856574 -0.17477426 -0.14778683 0.05117449
0002d0 00 57 71 bd 74 40 db bd f6 34 12 3e 4e 60 39 3e
       -0.05892086 -0.10705653 0.14278015 0.18103144
0002e0 d4 75 88 3d eb 16 cb bd d0 d0 17 3d 58 27 b0 3d
       0.06663099 -0.09916481 0.037064373 0.08601254
0002f0 4c 3b 23 3d a0 15 66 bd 38 91 9d 3d 22 f1 44 3e
       0.03985147 -0.056172967 0.07693714 0.1923261
000300 0a b6 11 bf 12 a5 58 be 3f cd 17 be 1b 91 05 be
       -0.56918395 -0.2115672 -0.14824389 -0.13043635
000310 16 38 26 3e 3d 08 1d bf 16 7c 0b 3e 9a 9e 3c bf
       0.16232333 -0.61340696 0.13621554 -0.73679507
000320 11 7c 33 be 54 52 95 3d 85 3a 96 be 70 15 1f bc
       -0.17527796 0.072910935 -0.29341522 -0.009709701
000330 28 31 73 bd 5a 57 d6 bd e0 8a 9f 3d e7 e7 bc be
       -0.05937305 -0.1046588 0.0779016 -0.36895677
000340 ec c7 31 3e 9f 21 e2 bd 98 61 f3 3c dd c5 15 be
       0.1736142 -0.11041569 0.029709622 -0.1462626
000350 b7 11 e1 be 50 ed 9c 3c 88 d4 91 bd f8 e5 8a bc
       -0.43958828 0.019156128 -0.07120615 -0.01695536
000360 08 f3 06 3e 12 85 5e bc 5f aa 13 3f 6a 07 08 be
       0.13178647 -0.013581531 0.5768184 -0.13284078
000370 22 72 cc 3d 6e d6 98 3c 9a a8 ff 3e f5 da 0c 3e
       0.099827066 0.018656936 0.4993332 0.137554
000380 b4 76 0a 3c 77 b2 04 3f 98 80 1a bf f8 32 16 3f
       0.008451153 0.51834816 -0.6035247 0.5867152
000390 b4 f0 f5 3d c7 22 20 3f 16 6e 15 3f 5c 90 3b 3e
       0.12008801 0.62553066 0.583711 0.18316787
0003a0 b4 f2 8e bd 2c 7d 0a 3f 54 51 24 3e 76 fd e7 be
       -0.06979886 0.5409725 0.16046649 -0.45310563
0003b0 78 d4 75 bc a6 96 1c 3e 72 5a 3e 3e cc b5 01 3f
       -0.01500427 0.15291843 0.1858919 0.50668025
0003c0 11 24 42 bf 87 e3 95 be ec bc 03 bf b0 b0 08 3e
       -0.7583628 -0.29275152 -0.51460147 0.13348651
0003d0 50 26 1c bf 3f 86 1d bf a5 fc ed be 3e a1 27 bf
       -0.6099596 -0.6153297 -0.46481815 -0.6548041
0003e0 1b 8b fe be 73 dd 01 bf 45 c6 41 be 72 9a 20 bf
       -0.49715504 -0.5072853 -0.1892329 -0.62735665
0003f0 8e 8d 2b be 53 5d 16 bf fe 4c 01 bf 84 bc fc be
       -0.16753218 -0.5873615 -0.50508106 -0.49362576

linear2.bias f4 [12]
000000 17 31 ff 3e ef 45 0f bf ca 65 c7 bb 18 c5 27 bf
       0.4984214 -0.55966085 -0.0060851322 -0.65535116
000010 d8 82 8b be 68 77 e2 be d5 a0 84 bf fd 30 33 be
       -0.27248263 -0.44231725 -1.0361582 -0.17499156
000020 93 74 10 bf e0 24 b8 bd 59 5c 01 bf f6 d4 5b bf
       -0.5642788 -0.08991408 -0.50531536 -0.8587183

linear3.weight f4 [1200, 12]
000000 99 c6 43 bf cd eb c4 be d0 85 d0 3c f5 7d 4d 3e
       -0.7647491 -0.38461152 0.025454432 0.2006758
000010 76 9a b6 3d 78 21 b6 3d 40 ce 71 bf a0 82 46 be
       0.0891618 0.088931024 -0.9445534 -0.19385767
000020 a0 24 8f bc 09 0e 81 bf 6f 8c 68 3e 6e 9b 50 be
       -0.017473519 -1.0082408 0.22709821 -0.20371792
000030 5e 96 a1 be 5a 3d c9 3e 53 38 57 bf 87 3c 05 3f
       -0.31560034 0.3930462 -0.8407032 0.5204548
000040 e8 dc 10 be b0 f7 14 bf 47 c2 1d bf d4 c3 5e be
       -0.14146769 -0.5819044 -0.6162457 -0.2175439
000050 11 97 36 bf 44 6d 28 bf 07 28 eb bd 6d 75 ce be
       -0.7132426 -0.65791726 -0.11482244 -0.40323964
000060 0d bb 74 3e 0e 15 23 3e 6f 87 8e bf 18 c7 81 be
       0.23899479 0.15926 -1.1135081 -0.2534721
000070 b6 77 23 bf 8b 59 d7 3e 38 09 c8 be 70 0f 20 3d
       -0.6385454 0.42060503 -0.39069533 0.039077222
000080 85 5d 18 3f e2 d2 46 be ca f5 18 3e c9 b1 fc be
       0.595177 -0.19416383 0.14937511 -0.4935439
000090 fc 68 84 be 0f 5c b5 3e 97 c8 8a bf e5 68 1a 3e
       -0.25861347 0.35421798 -1.0842465 0.15079077
0000a0 5b b7 a2 be 38 30 42 bf 74 bb 6f bf b0 0f 84 3c
       -0.31780514 -0.75854826 -0.93645406 0.016120762
0000b0 dd 29 99 be 03 7a cc bd 11 6c a7 3e 8f ab d7 be
       -0.29914752 -0.099842094 0.32699636 -0.42123076
0000c0 9d b1 03 3e dc c5 d4 3d dd f2 99 bf f4 b2 b0 3d
       0.12860723 0.10389301 -1.2027241 0.086278826
0000d0 79 63 bc be 6f 11 4a 3f 55 10 b1 be 68 6e 8c 3e
       -0.36794642 0.7893285 -0.34582773 0.27427983
0000e0 94 21 0a 3f fb af c4 bc c6 d8 df bd 37 de dd be
       0.53957486 -0.024009695 -0.10930018 -0.433336
0000f0 32 82 17 3e de 53 a7 bd ba 7f 4f be c2 df 24 be
       0.1479576 -0.08170293 -0.20263568 -0.16100982
000100 34 73 5e be 3e 2c 30 3e 4c 48 02 be 7e 15 45 3e
       -0.21723634 0.17204377 -0.12722892 0.1924648
000110 be 91 8b 3e 4a 18 2c be 50 94 c0 3d a0 2b e4 bd
       0.2725963 -0.1680614 0.09403288 -0.11141133
000120 d2 f5 31 3e 52 75 80 3e 21 bf 7f bf 7c e1 a8 3d
       0.1737893 0.25089508 -0.99901015 0.08246133
000130 43 b5 02 bf 4f df 4b 3f 58 64 31 bf f0 59 48 3e
       -0.51057833 0.79637617 -0.6929374 0.19565558
000140 31 a5 39 3f 24 21 13 be 00 62 67 bc 7f e5 78 be
       0.7251769 -0.14368111 -0.014122486 -0.24306296
000150 26 5e 83 be 6a a6 2c be 50 b1 80 bc ec 83 84 3d
       -0.25657767 -0.16860357 -0.01570955 0.064704746
000160 d7 71 88 3e 8b 36 0c be bb eb 49 bf 9a 6d f8 bd
       0.26649353 -0.13692681 -0.7887532 -0.1213028
000170 d8 be 7f 3e c8 41 05 bf 22 61 4a bd 94 e8 58 3e
       0.24975145 -0.520535 -0.04940904 0.21182472
000180 fa 92 df be 4e 40 1e 3e 73 67 72 bf 72 0f e5 3e
       -0.43666822 0.15454218 -0.946891 0.44738346
000190 ba 67 1e bf d6 df 29 bf fc 8f bc bf 10 08 7d bd
       -0.61877024 -0.6635717 -1.473144 -0.061775267
0001a0 bb c7 b1 be 2c 1e 31 bf 16 13 23 be 52 16 81 bf
       -0.34722695 -0.69186664 -0.1592525 -1.0084937
0001b0 30 d1 9e bf f4 c0 06 bf 9d 10 84 bf 8c 42 74 bd
       -1.2407589 -0.52638173 -1.031757 -0.059633777
0001c0 7d cf 02 bf f5 4c 25 bf 68 76 9c bf 00 90 89 3e
       -0.5109785 -0.6457055 -1.2223635 0.26867676
0001d0 9d 9d 2a bf f6 ba 22 bf 72 00 6a be e1 ce 95 be
       -0.6664675 -0.6356653 -0.22851732 -0.292594
0001e0 c9 12 04 bf a4 c1 ba 3d 8f c1 f3 be e4 c8 68 3e
       -0.51591164 0.09118965 -0.4760861 0.22732884
0001f0 90 be 7b 3e 39 24 c0 be 81 e5 d2 be e4 f8 6d be
       0.24584413 -0.37527636 -0.41190723 -0.23239475
000200 b0 4a c2 be 9c 23 80 be 40 1b f9 3c 30 8e de be
       -0.37947607 -0.25027168 0.030408502 -0.43467855
000210 68 ad 40 be 63 b8 f2 be 08 8e 53 3d c8 dc 98 bd
       -0.18816149 -0.474063 0.051649123 -0.07463986
000220 ae df 64 be 81 b2 8a be 73 ba dd be e4 ac 63 3e
       -0.22350952 -0.27089313 -0.43306312 0.22233921
000230 64 10 60 be 68 62 c4 be a5 12 a2 be 70 9f e5 3c
       -0.21881253 -0.38356328 -0.3165485 0.028030127
000240 03 58 f4 be dd a7 c3 be da 17 5f bf 34 d0 ae bd
       -0.47723398 -0.38214007 -0.8714577 -0.08535805
000250 b7 30 2d be ac 08 96 3d 4a a9 5f bf b2 c2 1d 3e
       -0.16913114 0.07325873 -0.8736769 0.15406302
000260 9e 06 3f be 8d d5 a0 bf 52 8b 25 3c 21 67 30 bf
       -0.18654868 -1.256517 0.010104017 -0.6890736
000270 62 e2 94 bf e9 e4 bb be a8 be 7c bf a0 8f a8 bd
       -1.1631587 -0.36698082 -0.9872842 -0.08230519
000280 3e 27 af be 9e 2a 9d be 59 f0 98 bf f4 cc 59 3e
       -0.34209627 -0.30696577 -1.1948348 0.2126959
000290 f9 9b 97 be 0a 40 d5 bb 53 d6 83 be d6 81 0a bf
       -0.29611185 -0.006507878 -0.25749454 -0.54104364
0002a0 20 2e a3 bc 7f 0f 23 be 70 8d 7b bd 3c 3b 19 be
       -0.019919455 -0.1592388 -0.061414182 -0.14964002
0002b0 96 48 4c 3e a0 be 00 3d f4 76 41 bd 94 fb 54 be
       0.19949564 0.031431794 -0.047232583 -0.20799094
0002c0 00 1d 34 3d 44 dc 13 be b0 f3 dc 3d e0 1c 2b be
       0.04397297 -0.14439493 0.10788667 -0.16710234
0002d0 4c 44 2f 3d 9a 08 e3 be 7b ff 67 bf 04 8f 38 3d
       0.042789742 -0.443425 -0.9062421 0.045058265
0002e0 7e ef dd be 8c f4 2d bf d3 a3 4c be 90 c1 9b 3c
       -0.4334678 -0.67951274 -0.19984369 0.019013196
0002f0 86 79 ed be e3 97 a3 3e a0 90 8f be 10 ef 30 bf
       -0.46381778 0.31951818 -0.28040028 -0.6911478
000300 fb fe 92 be cc f6 6a be 8d f8 68 bf 70 d7 e8 3d
       -0.2871016 -0.22945708 -0.9100426 0.113692164
000310 72 ae 2d bf c9 32 1c 3f ed f7 72 bf 94 77 04 be
       -0.6784431 0.6101499 -0.94909555 -0.1293624
000320 21 f9 4b 3f cf 85 49 bf e4 42 bb bd 17 0a a6 be
       0.79677016 -0.787198 -0.09143618 -0.32429573
000330 9f 89 8f be ca 49 98 bd 87 65 3e bf 47 17 42 be
       -0.28034684 -0.07435949 -0.7437367 -0.18954192
000340 38 09 9c bd 91 6a 9d be d5 a6 d6 be b0 45 c2 bd
       -0.07618946 -0.30745366 -0.41924158 -0.09485948
000350 31 bc b3 be f8 16 4c be 6c 4d fc 3d 46 4c d5 be
       -0.35104516 -0.19930637 0.123194546 -0.41659755
000360 c4 ee a6 3e b8 9b 37 be a9 8e cd be 77 78 22 be
       0.3260404 -0.17930496 -0.40147904 -0.15866266
000370 4a ad 24 bf f8 9e 5f 3e 26 f8 2a be c2 ab 77 be
       -0.6432692 0.21837986 -0.16696224 -0.24186614
000380 a4 5f 5f be b9 e9 93 bc 1c b1 8e 3e fa b4 73 be
       -0.21813828 -0.018055784 0.278695 -0.23799506
000390 22 4a 08 bf a4 69 93 3e b8 87 3f bf 1c f6 e4 3d
       -0.5323812 0.28791535 -0.74816465 0.11179754
0003a0 0a 88 b1 bc 32 91 4b bf 87 7b ee be 20 26 8b 3d
       -0.021671314 -0.79518425 -0.4657862 0.06794381
0003b0 81 8a 1e bf fd 39 24 bf 85 1b b1 3e ac b6 ee be
       -0.6193009 -0.64150983 0.34591308 -0.46623743
0003c0 97 98 2f bf 70 2d 20 bd ec 23 41 be 0c 0d 8b 3e
       -0.6859221 -0.039105833 -0.1886136 0.2715839
0003d0 e0 eb 89 be 9c e2 91 be c5 2a 07 bf cf 30 89 be
       -0.2693777 -0.28493202 -0.52799636 -0.2679505
0003e0 00 06 b3 bb d6 50 0f bf 98 61 78 3e c6 59 8a 3e
       -0.0054633617 -0.5598272 0.24255979 0.27021617
0003f0 c8 18 90 be 20 ab ec 3c de 20 32 3e 50 18 ec bd
       -0.28143907 0.028890193 0.1739535 -0.11528075

linear3.bias f4 [1200]
000000 03 63 98 bf 0c d8 05 bf 94 95 91 bf e0 0d 42 bf
       -1.1905216 -0.52282786 -1.1373773 -0.7580242
000010 ac 51 86 bf b4 da 63 bd 45 d5 80 bf 27 0e f2 be
       -1.0493674 -0.055628493 -1.0065085 -0.47276422
000020 db 44 89 bf 3e e7 55 bf 75 7a 41 bf d4 56 0e bf
       -1.0724138 -0.8355597 -0.7557748 -0.5560124
000030 ad 68 8b bf 2c 5e 83 bf 62 65 33 be cd bc 82 bf
       -1.089132 -1.0263114 -0.17519143 -1.0213867
000040 6b 16 79 bf b5 ab 0c bf e1 7f 21 bf 59 9c e4 be
       -0.9729983 -0.54949504 -0.6308575 -0.44650534
000050 ac a6 47 bf 4a 94 62 be e3 42 10 bf 99 38 59 bf
       -0.77988696 -0.2212688 -0.5635206 -0.84851986
000060 a8 64 d2 be 6e 24 6a bf 25 eb 92 bf d1 b1 4d bf
       -0.4109242 -0.9146184 -1.147801 -0.8034945
000070 d1 9b 89 be 28 dc 28 bf 68 cf 99 bd e9 92 39 bf
       -0.2687669 -0.6596093 -0.07510263 -0.7248979
000080 d0 e2 df 3c e0 a6 28 bf 7c 4e 70 be 63 ba 76 bf
       0.027329832 -0.6587963 -0.2346744 -0.96378154
000090 c8 8d f8 be 9b 17 be be 03 a3 6f bf a2 2a 2e bf
       -0.4854567 -0.37127385 -0.9360811 -0.680338
0000a0 f6 68 1f bf e9 d2 09 bf 69 03 f1 be 26 18 f3 bd
       -0.6226953 -0.5383745 -0.47072914 -0.1186984
0000b0 c3 8b 51 bf 0c 71 33 bf 00 89 ec bc 8e 69 2b be
       -0.81853884 -0.7009437 -0.02887392 -0.16739485
0000c0 e6 b9 48 bf 2c 4e 6c bf 56 f1 d2 be 2f 4d 33 bf
       -0.7840866 -0.9230678 -0.4119975 -0.7003965
0000d0 a9 f4 78 bf 9d ef 8b bf 1a 4b 59 bf 02 65 2c be
       -0.9724832 -1.0932499 -0.8488022 -0.16835406
0000e0 a1 3b 11 bf cd 82 2e bf d4 fd 66 bf fa f2 a0 bf
       -0.5673161 -0.68168336 -0.9023106 -1.257415
0000f0 84 f1 1e bf c9 b8 39 bf 4b dd 9b be c5 5b 62 bf
       -0.62087274 -0.72547585 -0.3044227 -0.8842128
000100 46 c4 2a be 64 9f 7d bf 4f 93 d1 be d9 e2 58 bf
       -0.16676435 -0.99071336 -0.409327 -0.8472114
000110 5b 21 78 bf 44 a1 77 bf 38 9d 49 be 29 6b 5a bf
       -0.96925896 -0.96730447 -0.1968888 -0.85319763
000120 68 63 48 bf 65 e0 7e 3c 7b 0e 5a bf 5f a1 9c bf
       -0.7827668 0.0155564295 -0.85178345 -1.2236747
000130 1b 75 c1 bd eb 78 34 be c6 aa a5 bf 87 69 30 bf
       -0.09446164 -0.17624252 -1.2942741 -0.6891102
000140 46 e8 6d bf 20 fc 6b bd 34 6a 85 bf 94 62 db be
       -0.92932546 -0.057613492 -1.0423036 -0.42848647
000150 cb 28 0f 3e 35 a7 5c bf 92 14 88 bf e9 8d e8 3d
       0.13980405 -0.8619264 -1.0631278 0.11355192
000160 d2 8a 0f be 4c 2f 0c bd ce 56 8a bf f1 44 34 be
       -0.140178 -0.034224793 -1.0807741 -0.17604424
000170 ec 4e 3c bf 47 76 9a bf 99 2b 9c bf d7 51 4d bf
       -0.73557925 -1.2067345 -1.2200805 -0.80203
000180 de 2a 86 bf 10 b1 86 bf c8 10 31 bf 3e 6e 96 bf
       -1.0481832 -1.0522785 -0.6916623 -1.1752393
000190 3c ef ea be 15 17 7c be 05 98 80 bf 5f 51 48 be
       -0.45885646 -0.2461818 -1.0046393 -0.1956229
0001a0 83 b0 6e bf 30 4f 59 bf 03 f2 90 bf a2 26 eb be
       -0.93238086 -0.84886456 -1.1323856 -0.45927912
0001b0 7f 0c 88 bf 3c 29 64 be 8b eb 81 bf 6d 93 55 bf
       -1.0628814 -0.22281355 -1.0150007 -0.8342808
0001c0 ee 8a 4f bf ca 6d 89 be d5 fd 92 be ab 57 81 bf
       -0.81071365 -0.26841575 -0.28709283 -1.0104879
0001d0 fd 3f a3 be d2 49 a1 bd 39 8d 4c bf e7 38 3d bf
       -0.31884757 -0.07875408 -0.7990299 -0.7391495
0001e0 1a 0a 86 bf c6 99 ff bd 9b 0f 35 bf ee 3c 90 bf
       -1.0471833 -0.12480502 -0.7072694 -1.1268594
0001f0 ca fb 78 bf ee 94 b7 be 94 55 87 bf f4 2c 4b bf
       -0.972592 -0.35855812 -1.0572991 -0.7936547
000200 6b ea 9e be 0b e6 4b bf 57 d6 48 be b0 83 a8 be
       -0.31038222 -0.7964789 -0.19613014 -0.3291297
000210 04 29 96 bc 37 7d 86 bf c3 5b 49 bf 74 6b 87 be
       -0.018330105 -1.0506963 -0.7865564 -0.26449168
000220 ad 0f 81 bf 10 5a 57 bd c4 e2 ab bd cb 52 81 bf
       -1.0082909 -0.052576125 -0.083928615 -1.0103391
000230 84 88 6a be ff a0 68 bf d0 8f 63 bf 9e 8b 37 bf
       -0.22903639 -0.9087066 -0.88891315 -0.71697414
000240 b0 6e fc be 34 ea 4b bf c5 b3 5f bf 21 06 5c be
       -0.49303198 -0.7965424 -0.8738368 -0.21486713
000250 54 1e 77 bf bf bb 12 bf fb c8 7e bf fc d3 94 be
       -0.9653065 -0.5731773 -0.9952542 -0.2906798
000260 18 21 67 be 54 5d 7c bf 7c 65 78 be f0 ec 50 bf
       -0.22571218 -0.9857991 -0.24257463 -0.8161154
000270 00 b2 e4 bc bc 2f 7a be 5a bb 89 bf 84 c7 56 be
       -0.027916908 -0.24432272 -1.07603 -0.20974547
000280 4c d5 0b bf 1e 3c 05 bf 72 b7 a0 bd 0b 70 01 3d
       -0.5462234 -0.52044857 -0.078474894 0.031600993
000290 61 7e 2d bf e8 fd c6 be 2a 07 84 bf a5 31 75 3d
       -0.67770964 -0.3886559 -1.0314686 0.059861798
0002a0 e4 e0 11 bf 08 4d 3c bf 9f 0c ee bd 39 26 1d bf
       -0.5698378 -0.7355504 -0.11623501 -0.6138645
0002b0 1e 1f 8a bf 54 d7 f7 bd e6 70 55 bf a3 51 91 be
       -1.0790746 -0.121016175 -0.83375394 -0.28382596
0002c0 ed 65 31 be 0b 9f c0 bc b3 c9 7a bf 1c 88 90 be
       -0.17324038 -0.023513338 -0.9796402 -0.28228843
0002d0 fa 91 6d be 00 2a 67 bf 4e e3 4f bf ed db 4a bf
       -0.23200217 -0.9029846 -0.81206214 -0.7924183
0002e0 4f 20 5f bf 78 78 2e bd 72 c3 88 bf e0 0e 03 bd
       -0.87158674 -0.042595357 -1.0684645 -0.031996608
0002f0 3e 88 2a be 3f 80 2a be a7 3c 20 bf a3 f7 b7 be
       -0.16653535 -0.16650485 -0.6259255 -0.3593112
000300 d3 17 a1 bf f8 c5 4b bf 8c b6 a2 be 29 e7 89 bf
       -1.2585396 -0.7959895 -0.31779897 -1.077367
000310 90 59 4a bf dd a0 75 bf 77 82 40 bf 3a b1 82 bf
       -0.7904291 -0.9594858 -0.75199074 -1.0210335
000320 b7 cb 89 bf 0b a3 90 be 20 76 6c bc 0e 6e 7f bf
       -1.0765294 -0.28249392 -0.01443246 -0.99777305
000330 ea 80 90 be 10 bb 12 bf aa 02 66 bf 04 16 8b be
       -0.28223354 -0.57316685 -0.89847815 -0.27165234
000340 65 1b 70 bf 1f a7 95 bf 1b cb 8b bf f2 59 76 bf
       -0.937918 -1.1691626 -1.0921358 -0.96230996
000350 35 18 6b bf 8e 1e 32 be 4e b6 87 bf f8 6c e2 3d
       -0.9183381 -0.17394468 -1.060251 0.110559404
000360 00 d4 48 bd 5f 09 5b bf 81 b4 4b bf 08 49 65 bf
       -0.049030304 -0.85561174 -0.795723 -0.8956456
000370 4a 30 54 bf d1 92 8b bf b3 0d 01 bf 18 0b 87 bf
       -0.82886183 -1.090418 -0.5041153 -1.055026
000380 9d 67 47 be 08 0f 75 bf ba 97 70 bf eb 1c bf bd
       -0.19473119 -0.9572606 -0.93981516 -0.093316875
000390 d7 10 97 bf d2 ef b5 3d 71 d6 45 bf 4a 2c 43 be
       -1.1802014 0.08883633 -0.77280337 -0.19059864
0003a0 d3 18 57 bf d4 3f 5c bf 02 24 83 bf 52 5f 97 bf
       -0.84022254 -0.86034894 -1.0245364 -1.1825964
0003b0 ee 43 4d be 62 71 53 be ed ee 6b bf 4b fa 83 bf
       -0.20045444 -0.20648721 -0.92161447 -1.0310758
0003c0 a5 7a e6 be ba 9f 6d bf 93 44 32 bf 98 56 49 bf
       -0.45015445 -0.9282185 -0.69635886 -0.78647757
0003d0 2d a8 99 bc 72 26 16 bf 66 e2 15 bf 7a cf 2a bf
       -0.01875695 -0.5865241 -0.5854858 -0.66722834
0003e0 e4 32 65 be f9 2d 74 bf 20 4d 83 bf 86 6d 3d be
       -0.22382694 -0.9538265 -1.0257912 -0.18498811
0003f0 42 88 78 bf b5 d5 25 bf c7 00 3d bf 3f da c4 bd
       -0.9708291 -0.64779216 -0.7382931 -0.0961194

linear1.weight f4 [12, 1200]
000000 56 df 0b 3f df 87 0e bf 14 4e ca 3c 3f 13 12 bf
       0.5463766 -0.5567607 0.024695434 -0.5706062
000010 20 fb d8 3a 08 10 49 bc 0a 64 a0 3c 62 cc 14 bf
       0.0016554333 -0.012271889 0.019578952 -0.58124363
000020 33 f9 11 bf 87 a7 16 bf 06 3c cb 3c c4 d8 ea be
       -0.5702087 -0.58849376 0.024808895 -0.45868504
000030 64 f6 14 bf 60 61 13 bf fa 4f 44 bc 64 73 10 3f
       -0.5818846 -0.5757046 -0.0119819585 0.5642607
000040 de 6a 52 bc 98 1c bc 3b d8 45 63 3c e0 06 1c bf
       -0.012842862 0.0057407133 0.0138716325 -0.6094799
000050 0e c0 a4 bc 7c f9 d2 3c 77 75 e1 3e 93 47 19 bf
       -0.02011111 0.025753729 0.4403493 -0.5987484
000060 81 b8 97 bd c9 29 0c 3f 96 f4 10 bf c0 5c 9b 3b
       -0.07408238 0.5475126 -0.5662321 0.0047412813
000070 94 09 05 3c 87 ef 17 bf 07 6e 18 bf fc 1b dc bc
       0.008119959 -0.59349865 -0.5954289 -0.026868813
000080 fb a6 0b bf e0 7e a0 3b c0 5e 05 3c fb 31 15 bf
       -0.54551667 0.004897937 0.008140266 -0.5827939
000090 50 f7 aa bc f0 0e dc 3c 23 ea 0d bf 08 27 22 3c
       -0.02086988 0.026862592 -0.5543539 0.009897001
0000a0 ca ad a7 bc 5f e7 19 bf 70 66 16 bf cc bc 54 bc
       -0.020468611 -0.6011867 -0.5875006 -0.012984466
0000b0 49 87 1b bf 1c b7 0f bf 60 ff 46 bb fc ab 16 bf
       -0.60753304 -0.5613878 -0.0030364618 -0.5885618
0000c0 22 49 18 bf c4 4f 1b bf b0 0b a3 3b f2 87 de 3c
       -0.5948659 -0.6066859 0.0049757585 0.027164433
0000d0 ad 66 1d bf 67 4b 09 3f 98 ef c2 bc c0 70 4f 3b
       -0.61484796 0.5363068 -0.023795888 0.0031652898
0000e0 13 e8 94 bc f0 2d ca bc 98 ba 11 bf 80 72 a2 3c
       -0.018177068 -0.024680108 -0.56925344 0.019829988
0000f0 02 2f 90 3c 44 a3 64 bc 83 b2 14 bf 86 1d b4 3c
       0.01760054 -0.013954941 -0.5808489 0.021986734
000100 5f bd e0 bc b0 28 03 bc b3 c2 12 bf 33 6e 06 bf
       -0.02743405 -0.008005306 -0.5732834 -0.525119
000110 a9 c0 10 bf f4 6d 10 bf 46 ab 82 3c 6d 62 11 bf
       -0.56543976 -0.56417775 0.01595081 -0.5679081
000120 f0 2d 1c bf 54 ba 6b 3c 72 d3 0f bf f2 01 12 3f
       -0.61007595 0.014387686 -0.56182015 0.5703422
000130 7c b6 41 3c aa 09 18 bf 24 c1 0e 3f c0 af 87 3c
       0.011823293 -0.59389746 0.5576346 0.016563296
000140 88 b0 11 bf 24 e3 43 bc 25 c4 1b bf 81 89 15 bf
       -0.5690999 -0.01195601 -0.6084617 -0.5841294
000150 68 46 dc 3c 1a 07 1c bf 22 75 15 bf c8 ad ad 3b
       0.026889041 -0.60948336 -0.58381855 0.0053002574
000160 ae be 76 bc 78 1b 21 3e 9a 32 f3 be 96 25 a9 bc
       -0.01506011 0.15733135 -0.47499543 -0.020647805
000170 f0 fa 78 bb eb 15 15 3f ab c9 11 bf 50 da 67 3c
       -0.0037991367 0.5823657 -0.56948346 0.014151171
000180 77 8f 11 bf 08 f8 15 bf 5d b4 aa bc b4 96 ae bc
       -0.56859535 -0.5858159 -0.020837957 -0.021312095
000190 cb 52 18 bf 6d f1 13 bf 00 1b 18 bf ab 96 b8 bc
       -0.5950133 -0.5779026 -0.594162 -0.022532782
0001a0 2a 77 13 bf 41 f0 1a bf b8 44 1b bc a8 73 19 bf
       -0.57603705 -0.6052285 -0.009476833 -0.599421
0001b0 a8 bb 78 bc 00 56 c4 3b 72 6c 08 bf 25 9b 1a bf
       -0.0151814595 0.0059916973 -0.53290474 -0.6039298
0001c0 0e a4 a1 bc 1d e9 19 bf 50 e8 1c 3b 9a 85 18 bf
       -0.019731548 -0.6012133 0.002394218 -0.5957886
0001d0 d0 88 bc 3c a8 ba 08 3c 4c 02 5d 3c 2c 5c 11 bf
       0.023014456 0.008345284 0.013489317 -0.5678127
0001e0 e1 32 11 bf ae b4 88 bc c0 29 12 bf c9 14 10 bf
       -0.5671826 -0.016687717 -0.57094955 -0.56281716
0001f0 5c e5 13 bf f8 74 13 bf 59 68 01 3f 20 32 ab 3b
       -0.5777185 -0.57600355 0.50549847 0.005224481
000200 87 cd 0e bf f4 ad be bc da f5 8b bc 9e b7 12 bf
       -0.5578236 -0.023276307 -0.017085005 -0.5731143
000210 fe 7f d5 3c 2a 15 87 bc 4c c8 9d 3c 5e 14 af 3c
       0.026062008 -0.016489584 0.019260548 0.021372017
000220 fb 9f 03 bf 00 50 d6 3c 84 f8 b7 bc 50 25 1a bf
       -0.51415986 0.026161194 -0.022457369 -0.60213184
000230 fa 65 14 bf d6 7a 16 bf 73 df 0a 3f 08 9f 1b bc
       -0.57968104 -0.5878118 0.54247206 -0.009498365
000240 f0 f6 14 bf 28 4d 5b 3c 17 d4 e8 be 28 91 c0 3b
       -0.58189297 0.013385095 -0.45474312 0.005876679
000250 70 a1 12 bf 3c 31 90 3c e5 15 1a bf 81 c1 16 bf
       -0.57277584 0.017601602 -0.6018966 -0.58889014
000260 00 16 51 b8 87 31 16 bf 84 b2 1c bc 7d 32 1c bf
       -4.9849972e-05 -0.5866932 -0.009564046 -0.6101454
000270 ce 01 8a 3c 80 19 29 ba 68 92 40 3c 5c 02 17 bf
       0.016846564 -0.0006450638 0.011753656 -0.58987975
000280 1b 15 0d bf fa 3b 0e bf 6a ab a4 bb 80 f0 1a bf
       -0.5511033 -0.55560267 -0.005025317 -0.60523224
000290 5a 6c 0e bf 45 d5 19 bf e4 e0 10 bf cb b5 eb bc
       -0.5563408 -0.6009105 -0.56593156 -0.02877321
0002a0 48 ea 89 3c 88 ff 3f 3c 09 41 11 3f 62 b4 0b 3f
       0.016835347 0.011718638 0.5673986 0.5457212
0002b0 a6 de 5d bc 20 39 b2 3b b4 82 10 bf b0 8b 85 bb
       -0.013541853 0.0054389387 -0.5644944 -0.00407549
0002c0 73 3d 15 bf 58 63 11 bf ae 3d 27 bc e0 57 81 3a
       -0.5829689 -0.5679221 -0.010207577 0.0009868108
0002d0 98 6c a3 3c d8 10 1d bf 0a e6 1d bf e0 99 4c 3a
       0.019949242 -0.61353827 -0.61679137 0.00078049116
0002e0 ed 04 43 bd 30 53 35 bb fe 4f b9 3c 42 40 be 3c
       -0.04761212 -0.0027667992 0.022621151 0.023224
0002f0 80 f7 be 3b a1 1f 14 bf c0 2a 06 3f a9 65 12 bf
       0.005827844 -0.5786076 0.5240898 -0.5718637
000300 e1 e5 17 bf 1e 67 12 bf 65 a6 80 3e 2e 7a 95 3c
       -0.5933514 -0.57188594 0.2512695 0.018246736
000310 1f f3 c5 bc 7b a2 1e bf cc e2 08 3c 88 a3 17 bf
       -0.02416378 -0.61966676 0.008354854 -0.59233904
000320 db f2 1e bf 80 8b 1b bc 90 37 e1 3a 22 a1 16 bf
       -0.6208932 -0.009493709 0.0017182697 -0.5883962
000330 6c db 8d 3c e7 7f 19 bf 66 dd 15 bf d8 c4 94 bc
       0.017316543 -0.5996079 -0.5854095 -0.018160269
000340 0b 3d 1e bf 48 3b 94 bc 44 bb 16 bf f0 87 0f bf
       -0.61811894 -0.018094674 -0.58879495 -0.560668
000350 f2 b8 5c 3e 14 1d 2f 3c 10 3d a1 bc b0 8d c9 3b
       0.21554926 0.010688085 -0.019682437 0.0061509237
000360 76 2f 94 bc 6e b6 0d 3f bb a9 1d bf b4 6f 12 bf
       -0.018089037 0.5535649 -0.61587113 -0.57201695
000370 4a 9f 1d bf 7a 33 bd 3c bc 9d 15 bc 7b 6b 15 3f
       -0.6157118 0.023095835 -0.009131845 0.5836713
000380 0c f6 3b 3c d6 36 06 bc ea 8c 13 bf 0e 31 e5 3c
       0.011472236 -0.008191785 -0.5763689 0.027977493
000390 c3 e7 0b bf 00 58 19 39 74 29 1d 3c fa 94 1b bf
       -0.54650515 0.00014624 0.009592403 -0.60774195
0003a0 b4 7d 1b bf de 36 16 bf 10 8a 11 bf db 51 0d bf
       -0.6073868 -0.5867747 -0.5685129 -0.55203027
0003b0 29 e7 16 bf cf 94 ad bc b0 8c 0f bf 80 79 10 3c
       -0.5894647 -0.021189122 -0.5607405 0.00881803
0003c0 be 97 10 bf 81 df 1b bf 82 8e 56 bc e0 72 3b bb
       -0.5648154 -0.60887915 -0.0130955 -0.0028602406
0003d0 65 8d 18 bf 08 a1 96 bc 9d 36 ec bc 20 b8 9a 3c
       -0.5959075 -0.018387333 -0.028834635 0.018886626
0003e0 cc 79 3c 3c 23 78 10 bf 6a 7c d4 be b0 10 6b bb
       0.011503648 -0.56433314 -0.4150117 -0.00358681
0003f0 6e ec 13 bc 31 03 db bc ca 40 1b bc 06 a2 ad 3c
       -0.009028537 -0.02673492 -0.009475896 0.021195423

linear1.bias f4 [12]
000000 2d 3f 12 bf 07 b6 2a bf a3 d8 f4 be 09 50 28 bf
       -0.5712765 -0.66684 -0.4782153 -0.65747124
000010 60 1b d9 be 9d 93 8a be 6a 2b 03 bf 6d 91 05 bf
       -0.42403698 -0.27065745 -0.5123812 -0.5217503
000020 04 cb 0d bf 9b 7c d7 be 69 ca 1f bf 0a 98 b3 3c
       -0.553879 -0.42087254 -0.6241823 0.021923084

linear2.weight f4 [24, 12]
000000 5d 75 16 be 5c 39 1e be 10 82 3f 3d 94 e6 33 bd
       -0.14693208 -0.15451568 0.046754897 -0.04392107
000010 07 5b e3 be ac 9e bb bd 18 70 51 3d 18 be 3d be
       -0.44405386 -0.09161124 0.05113229 -0.18529546
000020 8e 62 b4 be 2a 84 a2 bd 80 c8 62 be 60 c4 a2 3d
       -0.3523144 -0.079353645 -0.22146797 0.07947612
000030 ac c8 5e be 77 e7 66 be 94 a2 8d 3d d4 ad c5 3d
       -0.21756238 -0.22549234 0.06915775 0.09652296
000040 7e bb 8d be fe b8 84 bd 06 d7 84 3e a2 40 d1 bd
       -0.27682108 -0.06480597 0.259453 -0.10217406
000050 0c f8 20 bf 4a e2 85 be 78 a1 71 be 9f 08 93 be
       -0.6287849 -0.26149207 -0.23596752 -0.28717515
000060 b2 4e 8c bd ef 0e 35 be a8 90 6c bd 1e dd a5 bd
       -0.068509474 -0.17681478 -0.057755142 -0.080988154
000070 6e 82 b4 be 40 83 8f 3e 8c 80 2b 3e 67 1e 72 be
       -0.3525576 0.28029823 0.16748255 -0.2364441
000080 f5 55 b0 be 20 55 6d bc 40 73 60 be 68 40 21 3d
       -0.3444058 -0.014485627 -0.21918964 0.039368063
000090 88 d9 49 3e 0c 69 67 be a3 7a 1c be 00 4c 0d 3c
       0.19711888 -0.22598666 -0.15281157 0.008624077
0000a0 0b 01 df be 60 07 2c 3e 7c 85 8f 3d 7c 8f 91 be
       -0.43555483 0.16799688 0.07007882 -0.28429782
0000b0 49 c7 3c bf 70 b7 6a bd 60 c1 3b 3c 1c eb f7 3d
       -0.73741585 -0.057303846 0.011459678 0.121053904
0000c0 55 ef 0b bf f3 b0 37 bf 4c 0e b6 3d 4c 16 1b bf
       -0.54662067 -0.7175438 0.08889446 -0.605809
0000d0 c9 ec b9 be 44 c5 0c be e2 d7 34 3e 14 4f cc be
       -0.36313465 -0.13747126 0.17660478 -0.39904082
0000e0 0d a2 92 be c6 f3 44 be 49 23 f1 be fc 6d 2e be
       -0.2863926 -0.19233617 -0.47097233 -0.17034143
0000f0 ba 22 1a bf 60 eb de be b0 76 ff 3d 9e dc a3 be
       -0.6020924 -0.43538952 0.1247381 -0.32004255
000100 64 3a 8c be b4 11 51 bd 30 bb 9d 3d a4 4e 44 bf
       -0.273883 -0.051042274 0.07701719 -0.76682496
000110 50 49 03 3e 8a af 62 be 44 00 1e bf 18 af 4b 3e
       0.12820935 -0.22137275 -0.61719155 0.19891012
000120 f4 8d df 3d 90 3b 1f bd 26 92 f2 bd 00 9c b7 bb
       0.10915747 -0.038875163 -0.11844282 -0.0056033134
000130 c4 3b e8 be 1c 38 33 3e 54 73 58 3e 52 96 03 be
       -0.45358098 0.17501873 0.21137744 -0.12850311
000140 68 12 c7 be 31 34 50 be dd 39 66 be 54 37 93 bd
       -0.3888123 -0.2033241 -0.2248301 -0.071882874
000150 ee 6f 33 bf b9 a9 f8 be 1a b1 8f 3e 5b b1 3a bf
       -0.70092666 -0.48566988 0.28064805 -0.7292687
000160 e2 27 b9 be 31 f0 52 be 84 79 4b be 7f 25 2f bf
       -0.3616324 -0.20599438 -0.19870573 -0.6841659
000170 8e a3 a7 be 5e 09 53 be c7 14 e8 be 90 de 81 3e
       -0.3274197 -0.20609042 -0.45328352 0.25365114
000180 f8 a9 06 3f 64 ec c2 be 5b 3f 47 3f f9 d9 ff be
       0.526031 -0.38070977 0.7783105 -0.49970987
000190 4d d8 3b bf 11 b7 8b be 10 7c 43 be b8 ed 9a be
       -0.73376924 -0.27288106 -0.19090295 -0.3025949
0001a0 ac d3 43 be 6b a1 eb 3e 0f 86 27 bf 28 9a 72 3d
       -0.19123715 0.4602159 -0.6543893 0.059229046
0001b0 70 75 3e 3f 83 d1 10 bf a0 25 e1 bc 79 3f 55 bf
       0.74397945 -0.5656969 -0.027483761 -0.83299977
0001c0 f6 f3 ec be 86 04 13 3e 9b d2 b0 be 72 cc db be
       -0.46279877 0.14357194 -0.3453568 -0.42929417
0001d0 c3 fd 05 bf 73 38 11 be 10 39 05 bf 40 ed b1 bb
       -0.52340335 -0.1418169 -0.52040195 -0.0054298937
0001e0 ff 9a c3 3e 85 a6 d7 be 28 bd 17 3f 73 2c b2 be
       0.3820419 -0.42119232 0.59273005 -0.34799537
0001f0 b7 6e 10 bf 00 2d 23 3e d5 1c 11 bf eb e3 24 bf
       -0.5641894 0.15935135 -0.5668462 -0.64410275
000200 00 ec 99 3d 8d 3c 13 3f 44 b4 91 be 91 08 87 be
       0.075157166 0.5751427 -0.28457844 -0.26373723
000210 c6 af 3c be ed 9c 77 be a5 41 02 3f 02 9f 86 3e
       -0.18426427 -0.24180956 0.50881416 0.26293188
000220 62 f4 80 be 43 4a 8f be 80 01 b7 bd f4 da ab bd
       -0.2518645 -0.27986345 -0.08935833 -0.08391371
000230 55 cf 2c bf 55 8e 29 3f db 81 80 be 64 31 c8 3d
       -0.67503864 0.66232806 -0.25099072 0.097750455
000240 cd ce 13 bf 5a dd 4f bf a3 08 93 be 7b b5 42 bf
       -0.5773743 -0.8119713 -0.28717527 -0.7605817
000250 7e 8e 59 be 2a e0 80 3e 90 a6 fa 3c a3 17 55 bf
       -0.21245763 0.25171024 0.030597001 -0.8323919
000260 80 32 3d be 1e 99 01 bf 2c 45 0d bf 2b c8 2f be
       -0.18476295 -0.50624263 -0.5518367 -0.17166202
000270 26 e8 63 be 47 19 ac be 3d 6e 33 3f 82 3e 80 3d
       -0.22256526 -0.33613035 0.70090085 0.062619224
000280 2a 4d d5 3e 84 a9 d9 bd 46 63 72 be 6e d5 ab 3c
       0.41660434 -0.10628036 -0.23670682 0.020975795
000290 60 48 ba 3d dc 47 ea 3e 8f f4 3d bd 74 e7 f3 bd
       0.09095836 0.4575795 -0.046375807 -0.119093806
0002a0 e8 0e 34 3e e2 8b 31 be 36 7a 10 be 79 3c 84 be
       0.17583811 -0.17338517 -0.1410912 -0.25827387
0002b0 c4 cd 82 be e6 1e 62 be e8 43 69 be bc ce 9e 3d
       -0.25547612 -0.220821 -0.2277981 0.07754275
0002c0 2b 98 4a bf 70 12 25 3e 12 64 49 3e 7f c5 1f be
       -0.7913844 0.16120315 0.1966708 -0.15602683
0002d0 a4 dc ca 3d e0 06 1a be 3c 9e d0 be 51 32 86 be
       0.09905365 -0.15041685 -0.40745723 -0.26210263
0002e0 da 5b 52 be d6 3b 8f 3e 70 df 7a 3d 3a d5 82 bd
       -0.20542851 0.2797534 0.061248243 -0.06388326
0002f0 1c fe b2 3d 8f 31 eb be 28 49 3f 3e f6 15 45 be
       0.08739874 -0.45936248 0.1868025 -0.19246659
000300 2e 4d 34 3f 31 06 27 bf 5a 4c 21 be c8 ad 55 be
       0.70430267 -0.6524382 -0.15751782 -0.20867074
000310 71 19 3d bf 9a 6e 05 be 04 f0 ef 3d 11 01 3d bf
       -0.73866946 -0.13030472 0.11715701 -0.7382975
000320 00 35 bd 3c 38 86 3e bd 7b d2 4c be 80 7a 76 3d
       0.023096561 -0.04651472 -0.20002167 0.06017542
000330 10 3b 81 be de 6e 3b be c2 08 86 be 7a 7a 20 be
       -0.25240374 -0.18304011 -0.26178557 -0.15671721
000340 34 57 81 bd 28 91 5d be f8 44 f8 bd 90 9c 91 3e
       -0.06315461 -0.21637404 -0.1212253 0.2843976
000350 bc bb 8a be 1c 50 ae be f2 e5 06 be 30 50 8d bd
       -0.27096355 -0.34045494 -0.13173655 -0.0690006
000360 aa 66 cd be 43 2a d3 be e8 2c 79 be 84 57 a4 be
       -0.4011739 -0.4124318 -0.24333537 -0.3209802
000370 1f 1c 1c be 80 0c dc 3d c0 f3 40 3d 41 53 25 bf
       -0.15245102 0.10744572 0.047107458 -0.6458016
000380 4c ed 46 be 37 6c 3a be 9d 16 5c bf 24 d7 f0 3d
       -0.19426459 -0.18205343 -0.85972005 0.11759785
000390 01 82 8b be 7b ec 5b be d8 8d b3 3d 38 a8 8d be
       -0.27247623 -0.21476929 0.08767289 -0.27667403
0003a0 d1 d2 cd 3e ec 4c d4 3d 1b e7 da be 74 27 2c be
       0.40199903 0.10366234 -0.42754444 -0.16811925
0003b0 20 b3 70 3c 34 5b 66 bd bc cb 88 be f6 b8 2e 3e
       0.014691144 -0.05623932 -0.26717937 0.17062744
0003c0 f0 24 a7 3d 04 f1 f8 be 0c 4d e4 3d 4f 59 8f be
       0.08161342 -0.4862138 0.11147508 -0.27997825
0003d0 61 4c 27 bf 54 1e 06 3e 22 bc 89 3e 64 9a 43 bf
       -0.6535092 0.13097507 0.26901346 -0.76407456
0003e0 40 8e 47 3d cc cc e4 bd 78 a6 20 bf b0 a7 cd bc
       0.048719645 -0.111718744 -0.6275401 -0.025104374
0003f0 5a 85 39 bf 01 39 00 bf 84 3e 7b be 52 0d 47 bf
       -0.72469103 -0.5008698 -0.24535567 -0.777547

linear2.bias f4 [24]
000000 96 b9 08 bf 57 0e 49 bf cb 7c 17 bf 44 a2 23 bf
       -0.5340818 -0.78537506 -0.59174794 -0.6391947
000010 8b b8 f7 be 32 30 bf be 1a de 4a bf 9b bd 07 bf
       -0.48382983 -0.37341458 -0.7924515 -0.5302369
000020 01 14 02 bf b0 c0 40 bf df d9 02 bf 79 cc 7e be
       -0.50811774 -0.7529402 -0.51113695 -0.24882688
000030 aa f4 25 bf e0 3a 02 bf 68 4b 10 bf 4e 47 29 bf
       -0.6482645 -0.50871086 -0.5636506 -0.6612443
000040 88 7d 35 bf 74 89 2b bf ec 6a d5 be 87 9f 1a bf
       -0.7089467 -0.6700661 -0.41683137 -0.6039967
000050 23 13 0e bf b7 4d 13 bf 12 25 81 be 1e e3 1a bf
       -0.5549795 -0.5754046 -0.25223595 -0.60502803
