epoch_100_model/솔트/model.pth (torch, 201120 bytes, 18 tensors)

linear1.weight f4 [24, 48]
00000000: 4bd8 7dbf b30a 83bf f36b 77bf c864 7ebf
00000010: a6d9 4ebf c5be 71bf c231 85bf 6700 6abf
00000020: 1d80 85bf fa68 56bf b663 5cbf 9aca 80bf
00000030: c3b5 4ebf 49ae 45bf e7ee 55bf 7ade 51bf
00000040: 2485 82bf 595d 84bf e2c1 70bf 4aa1 4cbf
00000050: 1f9b 45bf cb4f 54bf 04d2 50bf 16cb 6bbf
00000060: 41f5 7bbf 5b09 86bf 4874 83bf 0fdf 5ebf
00000070: 6911 71bf b806 85bf 954c 86bf 2276 54bf
00000080: e84b 75bf e918 7ebf 87f9 6cbf cac3 54bf
00000090: 980c 75bf 1a5b 4dbf 9441 75bf 2487 5bbf
000000a0: d060 63bf ac07 7cbf 0d73 85bf 3fd3 78bf
000000b0: 2484 77bf c0da 4cbf cc02 60bf fc19 45bf
000000c0: 27a2 61bf 59f9 81bf 9fd1 67bf 76f0 54bf
000000d0: 3a2f 75bf e80c 7bbf 7c39 5cbf 1d80 56bf
000000e0: 18f8 71bf 329a 83bf 7c05 67bf 911f 6bbf
000000f0: d2a2 5fbf 8da3 6fbf f8de 84bf 40f6 6abf
00000100: 3748 80bf 2882 54bf b236 58bf 3cf3 65bf
00000110: f4b4 74bf ae0b 6ebf d09b 76bf 9f68 76bf
00000120: 17e8 4fbf 8b14 7fbf 4b1f 60bf 0e32 77bf
00000130: 3fe0 63bf 3d12 63bf 46ec 66bf c749 6bbf
00000140: 6a2c 85bf 8094 6ebf c393 4bbf 297f 82bf
00000150: 8f49 6cbf 7d04 4fbf 5381 7cbf 327c 86bf
00000160: 6aa4 55bf 3491 62bf 015d 79bf 9caa 59bf
00000170: 4c0b 84bf 4dac 44bf 90be 46bf 69fa 82bf
00000180: 19bc 0dbf fa20 0fbf b4f4 f6be 57a9 2ebf
00000190: a5e1 1bbf ca57 07bf 2504 edbe 5886 36bf
000001a0: afd8 21bf 62d4 edbe c79f 38bf 69e6 01bf
000001b0: 7019 05bf 4478 ffbe 6595 f8be c141 10bf
000001c0: 4319 10bf 52a1 1ebf f2cd 38bf 264d 23bf
000001d0: fe57 16bf 40d2 0ebf 9f89 10bf 2e41 20bf
000001e0: 6354 2bbf b050 ebbe 64c6 2abf 3998 30bf
000001f0: 938c 12bf b8c4 27bf 567c 2bbf bfc9 08bf
00000200: 1a0c f6be fc5c 1bbf 14d6 05bf 32dd 0dbf
00000210: 774c f4be ba3f 0cbf c2d2 08bf 50a0 2cbf
00000220: 3c14 edbe 4454 10bf e730 3bbf dc3f 0bbf
00000230: 394e 27bf eac7 39bf 4996 0bbf 11f2 26bf
00000240: 06c9 d0be 4471 58be 3e5f cdbd 21ea 8dbe
00000250: e30e 79bd 2c2d 4bbe e707 85be 230e 68be
00000260: 2a35 4bbe e514 2ebe 3e0a a6be 4f17 1ebe
00000270: 765e cabd 32a2 70be 8fc8 61be c38c 9bbe
00000280: 62d5 0dbe 61fa ddbd 12c6 b5be c20a 62be
00000290: ca99 06bf 5db3 e2be d501 b8be 47c6 8dbe
000002a0: b8c8 a6be 25ff bdbe d57b 33be b10a 93be
000002b0: 8501 9dbe 428d e3be 9db7 a2be b7a1 c9bd
000002c0: 2c76 b2be 6a15 98be cae5 e9bd 71b1 d5be
000002d0: 772d f0be f1f2 9bbe 434d aebe 05da 67be
000002e0: 8ca2 e6bd d223 99be 59b7 00be e1ef 0ebe
000002f0: 71d2 d7bd d723 cebe 7401 8dbe 7729 cbbe
00000300: 1f18 84bf 29c8 92bf 367b 64bf 5711 80bf
00000310: f8ed 73bf 960b 75bf 88e8 90bf 2d90 90bf
00000320: f7c8 70bf 4e49 80bf 21ce 7cbf 32e8 7fbf
00000330: e5af 8dbf 0a00 71bf 5fe4 92bf 2be9 82bf
00000340: e30a 84bf 5723 88bf ed75 7ebf 703e 77bf
00000350: 34fa 89bf 4cda 82bf 28e1 68bf 7d83 7ebf
00000360: 2ada 91bf 97e7 86bf cfb8 8bbf 6621 74bf
00000370: c87a 89bf dd87 77bf 44ac 93bf 865d 79bf
00000380: e9ee 64bf 769d 6fbf 57ab 74bf 4d14 88bf
00000390: 48ea 8cbf 6914 68bf d29f 73bf bcfe 87bf
000003a0: 4741 89bf 022a 69bf e660 8bbf 2685 85bf
000003b0: df5f 94bf ee63 90bf b6ad 86bf e1e9 95bf
000003c0: 6381 22bf 481a 38bf 2e47 35bf c5c6 f6be
000003d0: 95fb 29bf bd6f edbe 1841 03bf 5735 25bf
000003e0: bf30 fdbe 4410 24bf e304 0ebf f5aa efbe
000003f0: e0cb f4be ae07 16bf a45c 11bf 1dae 28bf
-0.9915816 -1.023764 -0.9664909 -0.9937253 -0.80800855 -0.94431716 -1.040581 -0.91406864
-1.0429722 -0.8375393 -0.86089647 -1.0061829 -0.80746096 -0.77219063 -0.8356766 -0.819801
-1.0196881 -1.0340987 -0.9404584 -0.7993361 -0.7718982 -0.82934254 -0.8157046 -0.9210676
-0.984211 -1.0471605 -1.0269861 -0.8705911 -0.9416719 -1.0392675 -1.0492121 -0.82992756
-0.9581895 -0.9925676 -0.9256825 -0.8311125 -0.9572234 -0.80217135 -0.9580319 -0.85753083
-0.888196 -0.98449206 -1.0425736 -0.97197336 -0.96686006 -0.80021286 -0.8750427 -0.76992774
-0.8813805 -1.015422 -0.9055423 -0.83179414 -0.95775187 -0.9806657 -0.86025214 -0.83789235
-0.94519186 -1.0281432 -0.90242743 -0.9184504 -0.8735782 -0.93608934 -1.0380545 -0.91782
-1.0022038 -0.830111 -0.8445846 -0.8982427 -0.9558861 -0.9298657 -0.963315 -0.9625339
-0.81213516 -0.9964072 -0.8754775 -0.9656075 -0.8901405 -0.88699704 -0.90204275 -0.9190945
-1.0404179 -0.93195343 -0.7952234 -1.0195056 -0.9229974 -0.80866224 -0.98634833 -1.0506651
-0.83454 -0.8850281 -0.9740754 -0.85025954 -1.0315948 -0.7682541 -0.77634525 -1.0232669
-0.5536514 -0.55909693 -0.4823357 -0.6822714 -0.6089118 -0.5286833 -0.46292225 -0.7129874
-0.6322126 -0.46451098 -0.721188 -0.50742203 -0.5199194 -0.49896443 -0.4855148 -0.5635033
-0.56288546 -0.61964905 -0.7218925 -0.63789594 -0.58728015 -0.55789566 -0.56459993 -0.62599456
-0.6692564 -0.45959997 -0.6670897 -0.68982273 -0.5724575 -0.65534544 -0.66986597 -0.5343284
-0.48056108 -0.6068876 -0.5227978 -0.5541564 -0.47714588 -0.5478474 -0.5344659 -0.6743212
-0.463045 -0.5637858 -0.73121494 -0.54394317 -0.65353733 -0.7257067 -0.5452619 -0.65213114
-0.4077837 -0.21136957 -0.10027932 -0.2771769 -0.060805213 -0.1984145 -0.25982592 -0.22661643
-0.19844499 -0.17000158 -0.3242969 -0.15438579 -0.09881298 -0.23499373 -0.22049163 -0.3038083
-0.1385093 -0.108387716 -0.35502678 -0.22074416 -0.52578413 -0.44277468 -0.35938898 -0.27690336
-0.3257501 -0.37108722 -0.17527707 -0.28719094 -0.30665222 -0.4444371 -0.3178071 -0.09845298
-0.34855783 -0.29703838 -0.11420782 -0.4173694 -0.46909687 -0.30458787 -0.3404332 -0.22641762
-0.11261472 -0.2991014 -0.12569942 -0.13958694 -0.105381854 -0.4026172 -0.2754017 -0.39680073
-1.0319861 -1.1467334 -0.89250505 -1.0005292 -0.95284986 -0.95720804 -1.1320963 -1.1293999
-0.9405665 -1.0022371 -0.9875203 -0.99963677 -1.1069304 -0.94140685 -1.1475943 -1.0227407
-1.0315822 -1.0635785 -0.9939869 -0.9657965 -1.0779481 -1.0222869 -0.9096856 -0.99419385
-1.1394703 -1.0539426 -1.0915774 -0.9536346 -1.0740595 -0.96691686 -1.1536946 -0.9740833
-0.8942705 -0.9359964 -0.95573944 -1.0631195 -1.1008997 -0.90656143 -0.9516574 -1.0624614
-1.0723046 -0.91079724 -1.0888946 -1.0431259 -1.1591758 -1.1280496 -1.0521762 -1.1711999
-0.6347868 -0.719151 -0.70811737 -0.48198524 -0.6639951 -0.46374312 -0.512712 -0.64534515
-0.49451253 -0.6408732 -0.55476207 -0.46810117 -0.47811794 -0.5860547 -0.56781983 -0.65890676

linear1.bias f4 [24]
00000000: 5965 4cbf 5500 59bf cbaf 01bf 920f 6dbe
00000010: dd10 94bf 847b 2fbf 6395 febe 3218 7cbf
00000020: cb0c 9b3f 4cd9 65bf 860a 03bf 651d 97bf
00000030: 154c 03bf a0d4 03bf 3b0a 13bf 2941 f7be
00000040: fbc8 05bf 92f1 f2be 4f1f 8abf b280 8bbf
00000050: 1645 28bf da2b 8bbf 9697 33bf f7b6 8b3f
-0.79842144 -0.8476613 -0.50658864 -0.23150471 -1.1567646 -0.68547845 -0.49723348 -0.9847442
1.2113279 -0.89784694 -0.5118793 -1.1805845 -0.51287967 -0.51496315 -0.57437485 -0.482919
-0.52259797 -0.4744993 -1.0790805 -1.089865 -0.65730417 -1.0872757 -0.70153177 1.0915211

linear2.weight f4 [12, 24]
00000000: 30c0 e7be ff2e 39bf 25cf 103f 5a07 1fbf
00000010: 8e7c cdbe 6c89 0c3f d344 9a3e f58f d0be
00000020: 43ac 2bbf 36bd 20bf fc83 123f 86da 2dbf
00000030: 69aa 203f 1517 1f3f 1a66 163f 35cc 4e3d
00000040: df9d f23e 165f 3dbe e321 d33d 6428 4cbf
00000050: 60f9 e13e c4fe 2cbf 9274 a53e 3bfe c4be
00000060: 79eb 5fbf d6f2 4cbf 9275 013f e7ed d9be
00000070: 821f 283e c1ba 453f 635a d13e 225a 69bf
00000080: ff2d 85bf 407b 3ebf f908 d43e baf4 eb3d
00000090: cbcd 423f f8bc 123f c123 143f 74c1 2c3f
000000a0: e1f8 0b3f 6a2c ea3e 3e07 913e d8c4 473d
000000b0: f2f9 243f d134 773e 8e69 e83e f8c9 8cbf
000000c0: 4073 42bf fcb7 10bf 4900 06bf 3165 e6be
000000d0: 86a3 33bf c60e 0ebf 10e9 16bf dad6 0dbe
000000e0: ede1 23bf 345f 34bf 3d55 09bf 45b6 10bf
000000f0: da90 46bf 7d93 00bf 77f0 d3be de62 e8be
00000100: cdf0 19bf fec1 07bf 66ed d5be 1201 fd3e
00000110: ec81 0ebf 3bbf ad3e d1aa 063e f842 dfbe
00000120: 5db6 d5be 5414 46bf 9008 913c 7683 fabe
00000130: 0916 13bf 80e7 fbba 74a6 f33d 1f30 debe
00000140: 30f8 03bf 8f89 21bf f0cf 30bd 35cf 1abf
00000150: 80ed 41bb 44ba edbd e9cd 10be f89a f6bc
00000160: be1c dcbd 80d1 6d3d acad ddbe 2a54 43bf
00000170: 200e 3dbd 4bb0 e4be 3090 4d3d 8b15 00bf
00000180: beb9 83bf 5abb 4dbf 1bee 253f 4ffc 4ebf
00000190: 5bec 033d aee5 3f3f e6ca 4c3f a90d 19bf
000001a0: 46e7 8abe 74ec 90bf 755e 1b3f 6dca 2d3e
000001b0: 9f7a 003f 90f6 063f 6597 f43e 5b46 0b3f
000001c0: 5138 0f3f ab5a e33e 0769 92bd a35f bc3d
000001d0: 9a1b f3be 2333 acbd 023f 1c3f ad22 6cbd
000001e0: b38d 33bf 5fbd d3be 281b ecbe 1939 d2be
000001f0: 5f21 35bf 6e8e f4be 9bb0 15bf 9793 febd
00000200: b9eb 3ebf 5ad2 b7be 5f19 03bf 3865 2bbf
00000210: 140f 0bbf 79c7 20bf e2e1 08bf 158e cdbe
00000220: 9e09 d6be f432 01bf b397 45bf 8bbb 13bf
00000230: 7601 edbe c086 2abf b8d1 fbbe 82bd 22bf
00000240: 30e1 80bf db36 a1bf 514f 353f adf3 b5be
00000250: fb0f 8ebf fa39 e23e fcf8 233f e00e 83bf
00000260: a738 79bf 33d1 6cbf 06d3 f43e 227c 9dbf
00000270: 71de 323f 5b54 293f 7f77 343f c98e f03e
00000280: 701a 433f 6c61 383f 7b6a 75bf daea 7cbf
00000290: 0af6 1a3f e0ac 5fbf 1974 2f3f 881e 74bf
000002a0: ec4b fcbe 5419 0bbf ad2e ebbe 287a 00be
000002b0: 77da 1ebf 19ac 27bf 7f23 49bf 3edb 10bf
000002c0: 9a8c 2ebf 465a 29bf 818e 27bf 8ff9 25bf
000002d0: 4299 20bf f05c 12bf b55e 1fbf bc7d a23e
000002e0: b68a 14bf e189 bfbe ed80 01bf a356 d8be
000002f0: 1162 dbbe e646 15bf 9fdc 1f3f e485 fabe
00000300: a7d1 08bf 356e fabe 4546 12bf 0376 1ebe
00000310: d662 3abf c1a9 08bf 8cf1 f5be 6cc7 2abf
00000320: 5646 5cbf 137d 07bf 9b47 4abf 41ed 04bf
00000330: f92e e5be f2e2 e1be 5643 1bbf 63c4 45bf
00000340: 928d 46bf 1692 0abf 0c4a 2ebf 5165 57bf
00000350: c0c3 28bf 16c7 4bbf 9380 f4be f232 5ebf
00000360: 0c0e 5ebf e572 50bf 13b1 383f 4b2f 26bf
00000370: 6047 b83d 45fb 323f c3e7 de3e f904 4bbf
00000380: c3e0 c9be 2f62 4bbf f17d f73e fe0c 7e3d
00000390: dd87 3c3f f582 483f d888 233f 3f95 323f
000003a0: a543 2c3f 42c8 c03e 8c27 243d 21d8 47bc
000003b0: 8554 b9be 285b 67be b949 373f 9618 813d
000003c0: ab9c 15bf 037c 15bf cc6e 28bf 9a19 8abe
000003d0: 7465 e5be 696c 17bf 5318 0ebf a42a 78ba
000003e0: d660 0dbf ceca 24bf 7fa7 d2be 961c 42bf
000003f0: 635a 24bf 9c55 f0be fa25 f4be 4920 09bf
-0.45263815 -0.72337335 0.5656608 -0.6212059 -0.4013409 0.5489719 0.30130634 -0.4073483
-0.67059726 -0.6278871 0.5723264 -0.67911565 0.62760025 0.62144595 0.58749545 0.050487716
0.4738607 -0.18493304 0.10309198 -0.7974913 0.4413557 -0.6757624 0.323155 -0.38475212
-0.8746868 -0.8005804 0.50570023 -0.42564318 0.1641827 0.7723809 0.40889272 -0.91153157
-1.0404662 -0.74406815 0.41413096 0.11521287 0.76095265 0.57319593 0.57867056 0.67482686
0.54676634 0.4573701 0.28325838 0.04877171 0.64443886 0.24141242 0.45393032 -1.0999136
-0.7595711 -0.5653074 -0.52344185 -0.44999078 -0.7017139 -0.5549129 -0.58949375 -0.1385149
-0.6401661 -0.7045777 -0.5364569 -0.5652812 -0.77564776 -0.5022505 -0.41394398 -0.4538793
-0.6013306 -0.53030384 -0.41782683 0.4941488 -0.55666995 0.3393496 0.13151099 -0.4360578
-0.41740695 -0.7737477 0.017704278 -0.48928422 -0.574555 -0.0019218773 0.11896983 -0.43396088
-0.5155058 -0.6310052 -0.043167055 -0.6047242 -0.0029591024 -0.11607793 -0.14141048 -0.030103192
-0.1074767 0.058061123 -0.43296564 -0.763003 -0.04615605 -0.4466575 0.050186336 -0.5003287
-1.0291059 -0.80364 0.64816445 -0.8085374 0.032207828 0.7495984 0.799971 -0.5978647
-0.27129573 -1.132216 0.60691005 0.1697175 0.50187105 0.52719975 0.47771755 0.5440423
0.55945307 0.44405112 -0.071489386 0.09197929 -0.47481996 -0.08408191 0.6103364 -0.057650257
-0.7013809 -0.41355416 -0.4611447 -0.41059187 -0.70754045 -0.47764915 -0.58472604 -0.12430494
-0.74578434 -0.35902673 -0.5121059 -0.6695132 -0.5431988 -0.6280437 -0.5346967 -0.40147462
-0.41804212 -0.50468373 -0.771846 -0.5770804 -0.46290177 -0.6661186 -0.4918344 -0.63570416
-1.0068722 -1.2594866 0.7082415 -0.35537472 -1.1098627 0.44184858 0.64051795 -1.0238914
-0.9735207 -0.9250671 0.47817248 -1.2303507 0.6987067 0.6614434 0.70494837 0.46983936
0.76212215 0.72023654 -0.958656 -0.98795855 0.60531676 -0.8737316 0.68536526 -0.95359087
-0.49276674 -0.5433552 -0.45934048 -0.12546599 -0.620521 -0.65496975 -0.7856979 -0.5658454
-0.6818329 -0.6615337 -0.6545182 -0.6483392 -0.6273385 -0.5717306 -0.62253886 0.31736553
-0.58024156 -0.3740988 -0.5058735 -0.422536 -0.42848256 -0.5831131 0.62446016 -0.48930275
-0.53444904 -0.48912206 -0.5713847 -0.15474705 -0.7280706 -0.53384024 -0.48035848 -0.66710544
-0.86044824 -0.52925223 -0.7901551 -0.5192452 -0.447624 -0.44118458 -0.6064962 -0.7725279
-0.7755977 -0.5412916 -0.68081737 -0.8413897 -0.6592369 -0.79600656 -0.47754344 -0.86796486
-0.86740184 -0.81425315 0.72145194 -0.64915913 0.08997989 0.69914657 0.43536195 -0.7930446
-0.39429292 -0.7944669 0.48338273 0.06202411 0.7364481 0.78324825 0.6388068 0.6975898
0.6729072 0.37652785 0.040076777 -0.012197525 -0.36197296 -0.22593367 0.71596867 0.063035175
-0.5844218 -0.5839235 -0.6579406 -0.26972657 -0.44803965 -0.59149796 -0.55505866 -0.0009466803
-0.55225885 -0.64371955 -0.41143414 -0.7582487 -0.6420042 -0.46940315 -0.47685224 -0.5356489

linear2.bias f4 [12]
00000000: 43f4 32be 1f32 47bf 5116 fdbe 25b1 3abf
00000010: 27c8 c2bc 7ab0 02bf 255d 5fbf 6deb 02bf
00000020: 246e 01bf 356c 00be f746 f3be a09a 15bf
-0.17475991 -0.77810854 -0.4943109 -0.7292655 -0.02377708 -0.5105053 -0.872515 -0.5114048
-0.50558686 -0.12541278 -0.4751508 -0.58439064

linear3.weight f4 [1200, 12]
00000000: 80d1 523b 5e68 88be 786e c93d 2049 54bc
00000010: 4a29 61be 082c 723e 10a4 fa3c fc57 123e
00000020: 444f d2bd 3428 9abd 4876 35bd ad12 41be
00000030: 40f9 053e cdc1 edbe a0c7 e23c 563e 65be
00000040: 10b8 35be 7195 23be 181a 28bf db03 4cbf
00000050: 8692 22bf d4ba 81be a411 613e b4ac 73be
00000060: 371b 9bbe eae7 eebe 3816 d53d 48fa ebbe
00000070: d919 05bf 80de 473c 1f1d 0bbf 983e 623e
00000080: 3489 22bd 6f1c 50bf 3d04 7cbe d4dd cdbd
00000090: c038 2e3e 1068 30bf 70e1 f6be 6800 2ebe
000000a0: ca15 68be 1ba9 24bf b1db 2dbf 0a50 e5be
000000b0: 69cf 0cbf 5d08 0ebf 9adf 36bf 2fce 4a3d
000000c0: 3d59 2b3e 1d21 6bbf da7d 053f 72fb 233f
000000d0: ec03 a43f 0604 5c3f 4b86 3a3f 66b2 8e3d
000000e0: d843 62be b069 aa3f ff23 563f 5655 353f
000000f0: aeb9 afbe a70b 78bf 9d43 b63e da80 d1be
00000100: 0e6a a0be 597a e03e 442e 65be 1562 a9bd
00000110: 03ef 41be 05e0 c7bd a05b a03e f0d6 153f
00000120: b761 8ebe c9c2 c2be 8a51 fbbe 0845 8abe
00000130: ea48 febe 9a1e afbe dd08 47bf c13e 10bf
00000140: 0893 b2be 1f69 c2be 1b2e 57bf 81c5 eebe
00000150: a899 0fbd c124 33be 8ca5 473e 5855 073e
00000160: 70d0 593e dc32 82be 7005 d73c b861 ea3d
00000170: 504a fabd c4f6 1bbe 8ab6 39be e28d 873e
00000180: e0ef 6bbe 05ed 57be 922b aebd 0043 ce3c
00000190: 1ec0 39be 6ee5 823e 285e 26be 3038 533e
000001a0: 143e 803d b050 883e 1898 84be c0c4 73bd
000001b0: d00e 5b3e 2476 793e 449e 833e 87b0 72be
000001c0: f80a 72be eca0 e93d 36cc 11bf 6901 d2be
000001d0: 99b4 42bf e0d1 3fbd 6276 2ebe ea52 4b3e
000001e0: 46ca f9bd bdb8 03bf 42c3 c93e d6c6 0fbe
000001f0: c8e0 5a3e fd5f fc3e 2c4d d73e 2ac3 5b3f
00000200: 7ef1 003f 5e7b 693e 940c e53e 02c7 5d3e
00000210: 7813 a63e a4e4 ab3e 62b4 6fbe 0df1 1e3f
00000220: d6f7 363f eda9 17be 8e42 8d3f 96ef 023f
00000230: 71e6 843e 430f b93e 45ef 75be 2baf 21be
00000240: de50 6b3e a940 9b3e 2303 34bf 8a74 78be
00000250: a915 6ebe 278e b7be 17a3 07bf abe4 c7be
00000260: d51e 2dbf 8744 cc3e 1e2f cfbe 212e 913e
00000270: 0449 49be 3ce3 bcbd dac9 93be a64c 84bd
00000280: bbee 07be dcc1 293e 6801 cabd de57 e1bd
00000290: aab7 8e3e 3442 55be 0076 1a3d 530c 87be
000002a0: 7836 81bd 8a32 ccbd 9228 5bbe 5849 4b3e
000002b0: 2408 5a3e 92b9 a1bd 92af fcbd c033 6cbc
000002c0: 7c58 6e3e 3e81 08be 4295 4ebe 98f4 623e
000002d0: 1f4d f33c ab7e 5bbf b8f5 0b3f 3716 23bf
000002e0: 46a7 25be a7d9 063f f12d c73d 1911 df3e
000002f0: 56a3 8fbe 9f4a 8dbd da15 523f 7eb4 cb3e
00000300: 7569 18be 5da2 19be 7844 0e3e be92 88bd
00000310: d765 01be 201b 453c 0468 e5bd f44e cfbd
00000320: e8e7 2b3e 045a 823e d820 22be bec7 803e
00000330: 66de 923e 53f1 38be c297 bebe 32ed 883e
00000340: 5178 69be 3595 23be af44 d4be a3ac 14be
00000350: 048d eebe 963e 8fbe 90ef 8dbe 5154 26be
00000360: 17ed 88be 8b68 88bf 6f33 243f f881 4cbe
00000370: 1cda 1b3f 7e66 a33e 9ece bbbe a32d 16be
00000380: d403 cebe 2dd7 603e 3239 e73e a36f 343e
00000390: 6353 34be 7367 6dbf 9180 1dbf 1522 f33e
000003a0: 3a19 4f3e bbd0 0bbf c3af 2b3e 114b 19bf
000003b0: de7b 46bf ac8d e7bd da55 0cbf 9a19 0ebf
000003c0: f854 753e 5a48 d0bd 54bc 443e 157e 0fbe
000003d0: b677 02be f6b3 7cbe 8c53 c2bd 3c62 8b3e
000003e0: d04f a43d 7ce4 6c3e 146b cabd 00c5 483b
000003f0: 84e9 5a3d 2e8e 0cbf 1629 52be a2f8 2bbf
0.0032168329 -0.26642126 0.09835523 -0.0129568875 -0.21988407 0.23649609 0.03059581 0.14291376
-0.10269025 -0.075271994 -0.044302255 -0.1885478 0.13083363 -0.4643692 0.02768308 -0.2238706
-0.17745996 -0.15974976 -0.65664816 -0.7969338 -0.6350483 -0.2533785 0.21979386 -0.2379635
-0.302942 -0.4666131 0.104046285 -0.46089387 -0.51992565 0.012199044 -0.5434131 0.2209419
-0.03968163 -0.81293386 -0.24610992 -0.10052076 0.17013836 -0.68908787 -0.4821887 -0.16992342
-0.22664562 -0.64320534 -0.6791335 -0.44787627 -0.5500398 -0.5548151 -0.7143494 0.04951304
0.1673326 -0.918474 0.5214516 0.6405555 1.2813697 0.8594364 0.72861165 0.069676206
-0.22096193 1.3313503 0.83648676 0.7083334 -0.3432135 -0.9689278 0.3559846 -0.40918618
-0.31330913 0.43843344 -0.2238093 -0.08270661 -0.18938832 -0.09759525 0.31319904 0.58531094
-0.27808926 -0.38039234 -0.49085647 -0.27005792 -0.49665004 -0.34203035 -0.777479 -0.56345755
-0.348778 -0.37970826 -0.84054726 -0.4663506 -0.035058647 -0.17494489 0.19496745 0.1321615
0.21270919 -0.25429428 0.02624771 0.114444196 -0.12221205 -0.15230852 -0.1813604 0.26475435
-0.23040724 -0.2108651 -0.08504404 0.025178432 -0.18139693 0.25565666 -0.16246855 0.20626903
0.062618405 0.2662406 -0.25897288 -0.059513807 0.2139237 0.24361473 0.25706685 -0.23700152
-0.23636997 0.114076465 -0.56952226 -0.410167 -0.7605682 -0.04683101 -0.17037347 0.19855848
-0.12196784 -0.51453763 0.39406782 -0.14040694 0.2137481 0.49291983 0.42051065 0.8584467
0.5036849 0.22800967 0.4473616 0.21657947 0.32436728 0.33572876 -0.23408654 0.62086564
0.7147192 -0.14810915 1.1035936 0.5114683 0.25957063 0.36144456 -0.24017055 -0.15789478
0.22980067 0.3032277 -0.70317286 -0.24263206 -0.2325045 -0.3585064 -0.5298323 -0.39041647
-0.6762517 0.39896032 -0.40465635 0.28355506 -0.1965676 -0.09223029 -0.28864938 -0.06459932
-0.13274662 0.16577858 -0.098635495 -0.110030875 0.278745 -0.20826036 0.03771019 -0.2637659
-0.06309217 -0.09970577 -0.21402195 0.19852197 0.21292168 -0.07896723 -0.12338175 -0.014416635
0.23275942 -0.13330552 -0.20174125 0.22163618 0.02969986 -0.85740155 0.5467181 -0.6370577
-0.16177091 0.5267586 0.097255595 0.43567732 -0.28054303 -0.068989985 0.8206459 0.39786142
-0.14883979 -0.15003343 0.13893306 -0.06668614 -0.12636505 0.012030393 -0.1120148 -0.10122481
0.16787684 0.254593 -0.15832841 0.2515239 0.28685302 -0.18060808 -0.37225157 0.26743466
-0.22799803 -0.15974887 -0.4145865 -0.1451898 -0.4659196 -0.27977437 -0.27721834 -0.16243102
-0.26743385 -1.0656904 0.6414098 -0.19971454 0.60879683 0.31914133 -0.36681074 -0.14665847
-0.40237296 0.21957083 0.45160824 0.17620711 -0.17609935 -0.92735976 -0.615243 0.4748694
0.20224467 -0.5461537 0.16766267 -0.5988017 -0.77532756 -0.11306319 -0.548185 -0.55507815
0.23958194 -0.1017005 0.19212466 -0.1401294 -0.12740979 -0.24678025 -0.094885916 0.27223384
0.080230355 0.23134035 -0.09883705 0.0030635 0.053445354 -0.5490445 -0.20523486 -0.6717626

linear3.bias f4 [1200]
00000000: 8bb4 8ebe 5a39 44bf 06fb 48bf 3e5a e7be
00000010: e3f1 89bf 7a85 74bf a48c 00bf 5c79 b8bd
00000020: 867c 78be eedf 5abe 63c9 3dbf 1091 efbd
00000030: 042c efbe 0226 f8bd 53c0 90be 0de7 90bf
00000040: 1216 46be 26db 03bf bc7b edbe 37f1 91bf
00000050: 9061 65be 5685 61bf 8b84 80bf 9201 14bf
00000060: 2cfc 92bf ab38 36bf 226b a8bf 1f57 51be
00000070: 65e9 0bbe 6382 83bf 1771 86bf 9066 84bd
00000080: 0060 85bf e700 64be 787b a6bf 40b7 c7be
00000090: fbfe 4abf 725c 15be 36f3 89be 9cd5 88be
000000a0: b6ae 03be ff78 83bf a95d e7be 869c 7dbe
000000b0: b941 94bf e712 84bf 97b4 68bf d27d 183f
000000c0: 9276 9abf d829 babe 604a 9fbe beb5 07bf
000000d0: c4df 62be 0078 3cbf 38b1 33bf c82f 97bf
000000e0: 4a84 6cbf 3f3e 90be d4f7 8bbf 431d 07bf
000000f0: 4987 17bf fee1 0abf 3ffb e4bc d918 7abf
00000100: 16b5 a6bf e01c 46bf 8bdf a9bf 631d f8be
00000110: 4ecc 2fbf aa73 83be e148 83be 95ae 8bbf
00000120: a70a 1fbf ceae 7ebe 0fe2 d7be 3f3d 69be
00000130: 8c7f 02bf 0c3e acbe 5122 65be 0abf 30bf
00000140: 32e3 ccbd ca37 88bf c4d0 03be 34a1 28bf
00000150: 1d58 9fbf 6bff 85bf 48a0 5fbd 7088 14bf
00000160: bd61 26bf fe59 82bf 445c b9bc 29db 1fbf
00000170: e656 8dbf 7bb8 8bbf 0d89 8dbf c0e1 05be
00000180: 0396 ec3e 6b25 94be d52b 8bbe a059 55be
00000190: c53b 82bf 8a69 12bf 8229 123f 11dd 1dbf
000001a0: f2ae 27bf 86aa 76bf 600b 54bf 5060 b5bc
000001b0: ff0b 10bf ed53 29bf 67cb 2c3e f585 a3bf
000001c0: 457a ebbe 3740 5bbe 1e2a 86bf 6a25 69bf
000001d0: bfc8 0abf 39f1 64bf 3fe5 4abf 2c1c 28be
000001e0: 574f 22bf 94d2 53be 3023 30bf 524b 0abf
000001f0: a7fc 9abf 8136 92bf bedf 3cbf 973b d23e
00000200: 4f88 febe af45 98bf 6e87 94bf a663 0ebf
00000210: 5fc9 88be 1b71 f4be e407 b2bf 5066 5ebe
00000220: a159 f8be 0060 22bf 11fd 0b3e d06f 9dbf
00000230: 24f1 94bf 174d 93bf 9028 50bd ec69 88bf
00000240: 0169 d7bd 3453 62be 4b01 38bf e515 b1be
00000250: 7519 64bf 338b 6ebf 781d 89be 2681 2ebf
00000260: 94f4 abbd 48ee 35bf d5b1 75bf 79e6 02bf
00000270: ebf6 7dbf 4e97 b1bd 4bc6 03bf b2d0 3dbe
00000280: 03be 88bf b0b2 7cbe 71f9 78bf 3fdb 97bf
00000290: 4e80 60be b4b1 80bf 10cf 45bf bb65 83be
000002a0: 15df 98bf 6474 a1bf 49ce 1bbf 03df 8cbe
000002b0: f5db 27bf 0e69 7fbf e62c 8dbf e36e 84bf
000002c0: 3a1a 84be 6f5c 7fbf f7ab 04bf a87d 83bf
000002d0: 0c51 e1be 957e 9abf e6da 2dbe 2871 a4bd
000002e0: ee62 27bf 9575 0bbf 5c53 12bf 875a 96bf
000002f0: 86fe 02bf a644 88bf 59c4 4abf deeb 86bf
00000300: d635 9fbf d003 c0bc 3cc8 96bd bc2a 63be
00000310: 493d 4f3f bb63 02bf 463e 5bbf f06f 9dbe
00000320: 9f87 c7bd c95e fabe b631 1dbe 7b2a 91bf
00000330: af30 48bf aa50 f6be f024 b1bd fe18 5dbf
00000340: e8e1 91be fa54 9abf 543b 3ebe 4845 9abf
00000350: 33de 02bf b09f 92bf 76fa 55bf ac79 fcbe
00000360: 3720 49bf 9516 41bf f71d c4be 524e 56bf
00000370: ff90 98bf 41b6 41bf 6468 20be 3b8a cabe
00000380: b3ad 41bf f32d 21be 324c 2cbe 59fc 9fbf
00000390: cf88 a1bf d410 7cbf 981e 7abf dd62 35bf
000003a0: 5c1b 80bf 54fb 5bbf 832a 8ebf 9d4c 22be
000003b0: fdf2 89bf 32ae 2dbf 6d1e cd3c 6740 0bbf
000003c0: dec1 02bf 5188 e3be 5e76 debe e822 98bf
000003d0: dcf3 70bf ec8b 03be 0944 83bf ae39 9dbf
000003e0: 988d 97bf be46 95bf 5065 88bf f751 f1be
000003f0: faf2 92bf 41fd 78bf 6a87 98bf 775d 90bf
-0.27872118 -0.7665001 -0.7850803 -0.45186037 -1.0776943 -0.9551617 -0.502146 -0.090075225
-0.24266252 -0.21374485 -0.74135417 -0.1169759 -0.4671327 -0.121166244 -0.28271732 -1.1320511
-0.19344357 -0.5150627 -0.46383464 -1.1401738 -0.22400498 -0.8809408 -1.0040449 -0.57814896
-1.1483207 -0.7118022 -1.3157694 -0.2044339 -0.13663252 -1.0274166 -1.0503262 -0.06464875
-1.0419922 -0.22265969 -1.300643 -0.39006996 -0.7929532 -0.14586046 -0.26943368 -0.2672547
-0.12859616 -1.02713 -0.45188645 -0.2476674 -1.1582557 -1.0318269 -0.9090056 0.59566987
-1.2067435 -0.3636005 -0.3111143 -0.5301169 -0.22155672 -0.73620605 -0.7019229 -1.1811457
-0.9238936 -0.2817249 -1.0935006 -0.52779025 -0.59190804 -0.54251087 -0.027951835 -0.97694165
-1.3024013 -0.7738781 -1.3271345 -0.4845992 -0.6867112 -0.25674182 -0.2564154 -1.0912653
-0.6212563 -0.2487137 -0.42164657 -0.2277727 -0.5097587 -0.33641088 -0.22376372 -0.690415
-0.100042716 -1.0642025 -0.12872607 -0.65870976 -1.2448765 -1.0468572 -0.054596215 -0.5802069
-0.64992887 -1.0183713 -0.022627003 -0.62443787 -1.1042144 -1.0915674 -1.105745 -0.13074398
0.462082 -0.28934798 -0.2718188 -0.2083497 -1.017449 -0.5719229 0.57094586 -0.61665446
-0.6550132 -0.9635395 -0.82829857 -0.022140652 -0.56268305 -0.66143686 0.16874467 -1.2775255
-0.45991722 -0.21411215 -1.0481603 -0.91072714 -0.54212564 -0.89430577 -0.7925605 -0.16416997
-0.63402313 -0.20685798 -0.6880369 -0.5402118 -1.2108353 -1.1422883 -0.73778903 0.41061088
-0.4971337 -1.1896266 -1.160383 -0.556208 -0.26716134 -0.47742543 -1.3908658 -0.21718717
-0.4850588 -0.63427734 0.13670756 -1.2299747 -1.163609 -1.1507901 -0.050819933 -1.0657325
-0.10518075 -0.22102052 -0.7187697 -0.34587017 -0.89101344 -0.9318115 -0.26780295 -0.68165815
-0.08396259 -0.71066713 -0.95974475 -0.51132923 -0.9920489 -0.08671437 -0.51474446 -0.18536642
-1.0682987 -0.24677539 -0.9725562 -1.1863784 -0.21923944 -1.0054231 -0.7726908 -0.25663552
-1.1943079 -1.2613645 -0.6086164 -0.27513894 -0.6557 -0.99769676 -1.1029327 -1.034634
-0.2580126 -0.9975042 -0.518249 -1.0272722 -0.44007146 -1.206988 -0.16978034 -0.08029395
-0.6538533 -0.5447629 -0.57158446 -1.1746377 -0.5116962 -1.064595 -0.7920585 -1.0540731
-1.2438304 -0.023439318 -0.073624104 -0.2218427 0.8095289 -0.50933427 -0.85641897 -0.30749464
-0.097426645 -0.4890044 -0.15350994 -1.1341089 -0.78199285 -0.48108417 -0.086496234 -0.8636626
-0.28492665 -1.2057183 -0.1857732 -1.2052393 -0.511203 -1.1454983 -0.835853 -0.49311578
-0.7856478 -0.7542508 -0.3830411 -0.8371326 -1.1919249 -0.7566872 -0.15664822 -0.39558586
-0.7565567 -0.15740184 -0.16825941 -1.2498885 -1.2619876 -0.9846318 -0.9770293 -0.7085398
-1.000835 -0.8593037 -1.1106724 -0.15849538 -1.0777279 -0.67843926 0.025038922 -0.54395145
-0.5107707 -0.4443994 -0.43449682 -1.1885653 -0.941221 -0.12846345 -1.0255138 -1.2283227
-1.1840086 -1.1662214 -1.0655918 -0.47132847 -1.14804 -0.97261435 -1.1916325 -1.1278523

linear1.weight f4 [12, 1200]
00000000: 18da 193b d4fa 833c f8b3 653c 2f72 16bf
00000010: 82e7 1fbf 682d 1bbf 8bf2 1dbf 7ff7 a7bc
00000020: e0e9 5abc d817 4c3c 9958 17bf 882c 93be
00000030: 986e 1ebf 98f3 19bb d5f0 d2bc b838 18bf
00000040: c0f1 a739 4fc7 63be 84e7 14bf 1048 17bf
00000050: 02cf bc3c 1ece e53c 6be3 1abf fc1d f43e
00000060: 760e 143f 6bb5 8ebc 6a6e 1fbf f808 a03b
00000070: 9895 973c 877e 15bf f27c 073f 6175 19bf
00000080: 1c86 13bf 4a4a de3c 184b c73c 23ab 0abe
00000090: d0a6 16bf 92c3 9d3c 386a 76bb 2600 24bc
000000a0: f1fe 113f 6399 183f f012 c43b 580d 653c
000000b0: 7ab4 16bf 849d 15bf 48db fdbe c2aa 9ebc
000000c0: f543 13bf 667c 85bc e1f6 6fbd 9ff8 19bf
000000d0: caeb 29bc 0550 17bf f66a 86bc e791 1e3f
000000e0: 289c f6be f075 e93a 5d5d 1abf 918c 1f3f
000000f0: 8aa9 13bf f353 15bf 201d 903a 382b 1dbf
00000100: bc2b 1abc ba1c 38bc 6f1f 133f ab8d e7be
00000110: 9c9b c83c bce4 13bf 105d eb3a ff79 1fbf
00000120: 17a9 123f f87e a53c c1fc cbbc 3f6f 1fbf
00000130: bbee 18bf 1075 283b fa2d 83bc c0cd 65be
00000140: 2a5d 35bc 00dc 17bf 4501 17bf 5c7b 1cbf
00000150: f2bd c53c b8ad 0ebf 2c17 113c a5cc 11bf
00000160: 26b4 c53e 85a0 103f b00d 10bf 9c7a cd3c
00000170: a3af 12bf 8ad2 15bf 56c5 1abf 0736 ddbc
00000180: c8de 1a3f 1556 80bc d11c 19bf 423e 98bc
00000190: 0953 133f a936 1b3f 4076 c5bc 4ed5 10bf
000001a0: 29f2 19bf 612c 1dbf ff2f cbbc a04b 993b
000001b0: 114b 13bf 90b4 0abf 3f43 16bf b8f3 653c
000001c0: bf75 12bf d209 bd3c b189 15bf 2ba4 06bf
000001d0: 6c3f 0dbf 10c4 1fbf f00d a7bc 5cce 7bbe
000001e0: 4e26 fe3e 10d8 ddbb 00ee 093b 41f1 1a3f
000001f0: 637e 1fbf 41c2 123f 7fd7 15bf 16cb 83bc
00000200: 80c0 15bf 441a 1bbf 8c9c 1b3f 7839 92be
00000210: 8adf a4bc 24a4 0dbf 6133 1ebf bf49 83bc
00000220: 54d4 113f 3487 17bf 610a 1fbf 1e3b 17bf
00000230: 37f7 1c3f 8447 1ebf 08b8 b0bc a844 53bb
00000240: 2cd1 35bc b8f2 643c ccbf bd3c 8e63 123f
00000250: e442 e73c dc0b 193f 1c15 41bc 449e 123f
00000260: ee8e 8bbc 0064 3c3c cdd3 14bf 8dce 0bbf
00000270: f28a 133f 40c0 71bb f316 13bf 80a7 5e39
00000280: 9364 0d3f 00ce d639 53e7 1abf 0d75 143f
00000290: 4853 d33c d0b3 1c3f d0fb 1c3f 96d2 e23c
000002a0: c31c 1a3f 1d96 12bf 8caa 133f 1e30 52bc
000002b0: 9b27 0e3f 6b8f 1bbf d3b8 1c3f b16e 12bf
000002c0: aec0 a33c 0b58 0ebf 5717 1b3f 9465 19bf
000002d0: cd14 16bf 8ae0 193f d6bc 43bc 648f 19bf
000002e0: 53c4 153f ce47 1abf 8989 17bf 9131 1dbf
000002f0: 3f34 003f 7c83 13bf 9051 a23b 3321 19bf
00000300: 4a55 10bf 70d9 b9bc 226d b13c 60a3 963b
00000310: d9ab 12bf 4cde 0fbf 3855 cbbc 70ef 4a3b
00000320: a8f0 a73b 54b3 17bf 80a2 9db9 052c 1c3f
00000330: 8e69 df3c 05ac 98be f4e3 b8bc 5e3a 25bc
00000340: 9894 11bf 4c4d 153f 5c35 eabb e3ae 1bbf
00000350: c814 10bb 94ef 113f 22e6 c9bc eeb4 74be
00000360: 482f 4fbc 5f5b 1ebf f5f2 2b3d 9df7 0dbf
00000370: e28e 1cbf d2b4 153f e07f 1f3f c478 a9be
00000380: 24ac a53c e4d6 6b3c 4ef0 b2bc 0b70 143f
00000390: 5ec2 18bf efd2 18bf 37f3 19bf f33e 193f
000003a0: 9cdc 12bf 27fd 14bf c169 1c3f cef0 863c
000003b0: 2721 18bf a0b8 fabc dae1 b7bc ddfd 1ebf
000003c0: 2957 1f3f bb1d 12bf a7cc 153f ba9b 0cbf
000003d0: e81c f03b 0324 98bc 06ec 12bf 8c19 173f
000003e0: af30 1ebf c75d 0abf 71b5 1dbf 101f 11bf
000003f0: 1a85 1bbf 008c 1bbf 51a1 133f d09b 7c3c
0.0023475941 0.016110815 0.014019959 -0.5876798 -0.6246263 -0.6061616 -0.61698216 -0.020503758
-0.013361424 0.012456857 -0.59119564 -0.28744912 -0.618875 -0.002349114 -0.025749603 -0.59461546
0.0003203284 -0.22243999 -0.58165765 -0.59094334 0.023047928 0.028052386 -0.6050326 0.47679126
0.57834566 -0.017420491 -0.62277853 0.0048838817 0.018503949 -0.5839619 0.52925026 -0.5994473
-0.5762651 0.027135033 0.0243278 -0.13541846 -0.58848286 0.019258294 -0.0037599932 -0.010009801
0.57029635 0.5960905 0.005983703 0.013980232 -0.58869135 -0.58443475 -0.4958136 -0.019368533
-0.5752557 -0.01629467 -0.05858505 -0.6014499 -0.010371158 -0.59106475 -0.016408425 0.6194138
-0.48166013 0.0017811637 -0.6029871 0.6232386 -0.5768057 -0.5833122 0.0010995008 -0.6139407
-0.009409841 -0.011237318 0.5746984 -0.45225272 0.024488263 -0.57770896 0.0017956812 -0.62295526
0.5728926 0.020202145 -0.024900796 -0.62279123 -0.59739274 0.002570454 -0.016013134 -0.22441769
-0.011069575 -0.5932007 -0.5898631 -0.6112573 0.024138425 -0.55733824 0.008855622 -0.5695289
0.38614005 0.56494933 -0.56270885 0.025082879 -0.5729925 -0.5852438 -0.6045736 -0.027003301
0.6049619 -0.015666047 -0.59809595 -0.018584374 0.57548577 0.6063028 -0.024104238 -0.5657548
-0.6013513 -0.6139584 -0.02480316 0.0046782047 -0.5753642 -0.54181767 -0.5869636 0.014035158
-0.57210916 0.023075972 -0.58413225 -0.5259425 -0.551749 -0.6240854 -0.020392388 -0.24590439
0.496386 -0.0067701414 0.00210464 0.60524374 -0.62302226 0.5732766 -0.58531946 -0.01608805
-0.58496857 -0.60586953 0.60785747 -0.2855947 -0.020126123 -0.55328584 -0.6179715 -0.016026376
0.5696461 -0.5919068 -0.6212521 -0.5907458 0.6131472 -0.61827874 -0.021572128 -0.0032236967
-0.011097234 0.013973884 0.023162745 0.5718316 0.028230138 0.5978372 -0.011784818 0.57272744
-0.017035928 0.011498451 -0.5813568 -0.54612046 0.5763389 -0.0036888272 -0.5745689 0.00021233968
0.5523159 0.00040970743 -0.6050922 0.57991105 0.025796548 0.6121187 0.61321735 0.027688306
0.60200137 -0.57260305 0.5768211 -0.012828855 0.55529183 -0.60765713 0.6121952 -0.5720015
0.019989338 -0.5560309 0.6058249 -0.5992062 -0.5862549 0.60108244 -0.011946877 -0.5998442
0.5850269 -0.60265815 -0.59194237 -0.6140376 0.5007972 -0.57622504 0.0049535707 -0.59816283
-0.5638014 -0.02268669 0.021658484 0.0045971125 -0.5729347 -0.56198573 -0.024820909 0.003096547
0.005125124 -0.5925801 -0.00030066445 0.6100467 0.027272012 -0.2981874 -0.022569634 -0.010084717
-0.5686736 0.5832107 -0.007147474 -0.6081373 -0.0021985043 0.5700619 -0.024645869 -0.23897144
-0.01264555 -0.6185817 0.04197975 -0.5545595 -0.6115552 0.58479035 0.62304497 -0.3309995
0.020223685 0.014394496 -0.021843102 0.57983464 -0.5967158 -0.5969686 -0.6013674 0.5986168
-0.57367873 -0.5819878 0.6109887 0.016472246 -0.59425586 -0.030605614 -0.022446562 -0.62106115
0.6224237 -0.57076615 0.585154 -0.5492512 0.0073276646 -0.01857186 -0.57391393 0.59023356
-0.61793035 -0.5404934 -0.6160498 -0.5668802 -0.6074997 -0.607605 0.57668024 0.015418008

linear1.bias f4 [12]
00000000: fed8 1cbf 07ea 02bf ab6a 0fbf 028b 063e
00000010: 387a e0bc adf9 b7bd 8d1f 14bf 4453 03bf
00000020: 04ad c7be 3a41 e5bc 2e19 1dbf ad88 1abf
-0.61268604 -0.5113835 -0.5602214 0.13138965 -0.027402028 -0.08983169 -0.5786064 -0.5129893
-0.38999188 -0.027985204 -0.61366546 -0.603648

linear2.weight f4 [24, 12]
00000000: b83b 5e3e 8ca4 d0bd 2e1a c63e df1f f7be
00000010: d048 29be c0a8 87be 7ce7 4f3f a615 b73e
00000020: c01d e1bb 3e62 cebd 789d de3d 5626 bc3e
00000030: 7711 c23e 98e7 67be 60fd 0a3f 022c 8bbf
00000040: 283e 23bd d7fd aabe eb5b cc3e 9e9a 363e
00000050: a891 7fbe 8079 a93c 4318 ad3e e24c f33c
00000060: 307c f53c bd4b c5be d1b3 8dbe 0364 0cbf
00000070: c540 88be 57cc 44bf ddba 06bf d31c 22bf
00000080: b650 163f 6407 dbbd a0b0 de3c 7d10 5abe
00000090: d6e8 99bd b0ec b2bc e742 e7be c29d 39bf
000000a0: e0c1 d33c c373 8ebe ebe8 28bf 63e7 0ebf
000000b0: 4643 8abe 90e1 263d 2eb3 e6bd ed92 debe
000000c0: 5228 fabe a845 663e 741f 43be aea0 e1be
000000d0: bce7 dfbd f081 3a3d 25e8 1fbe d36e 9dbe
000000e0: b482 6fbe dc7f 73be a106 47bf 7be9 ffbe
000000f0: 23b3 393f 8038 1dbc 2b29 d3be 63ed 37bf
00000100: dafa 0ebe 8c19 f93d 59ba 1cbf fc95 eebe
00000110: 30a4 b8bc ec12 6dbe db10 4c3f 6485 33bf
00000120: 541f 8d3e e5dd 5bbe 8466 66be ca9c 99be
00000130: 5220 4b3e fec6 463e aa05 94bd b4e1 86be
00000140: 3102 a4be 60d0 533e 50d5 59be 603d bfbd
00000150: 2076 d0bd 5c99 fcbd 0590 3ebf 32b2 a9be
00000160: cafc adbd 784d f73d 5f16 01bf 745b 13bf
00000170: d0c5 f43d a476 543e fbd1 8dbe 2ed2 a7be
00000180: e506 e73e c401 dfbe 00ae 763e 2a96 95be
00000190: 389f 223e 8dc9 10bf c249 29be bca3 b4be
000001a0: 8a21 f2be 880a 7e3d 9c73 ee3e b90b 1ebf
000001b0: d6d3 52bf 240b 103e 6adf 95be 0803 28be
000001c0: 6e0d 1f3e 900b fe3d f4f3 cdbe 5479 03bf
000001d0: b0bb 24bd 0027 8a3e d737 c0be f8c9 eebe
000001e0: 0fa4 fd3e dbb0 78be 605c 193f 5503 64bf
000001f0: d494 e63d f829 afbe c028 2a3f b8aa 8ebe
00000200: 7c0e 30be c444 ebbd 9c35 db3e 49ea e93d
00000210: 08a7 c9be 4ef8 203e 3fbe dfbe e211 2cbe
00000220: f0c6 a73c 6463 e0bd 04f7 cabe fcf1 c3be
00000230: 8771 12be d64f fdbd 7cca bdbe 004c 15bf
00000240: b0db fa3c 841c 033e 5830 31be b1d3 a9bd
00000250: 50a7 8d3c e4fd 7ebd 9467 1a3e 184f 2a3e
00000260: 6a08 6fbe 8082 f9bb 62d0 2cbe 089f 3abe
00000270: 29bb 57be 02c5 143e 1e47 10be 8c5d f5be
00000280: 5090 a2bd 8b34 51be b85a 7fbe b0bb 703e
00000290: 2e17 dfbd d5e6 8cbe 4042 c93c 7b1a 76be
000002a0: ae88 74be 22fe 543e 4457 35bf adf3 18bf
000002b0: a0d2 54bc c295 2c3e 4ce5 32bf 40d4 38bf
000002c0: 58e4 803e 032e 13be e071 6cbc 9339 04bf
000002d0: 4e65 5ebf 94cf 7dbd 9cd3 1b3e 4f3b 30bf
000002e0: c0d6 793e 5cec b9bd 4721 8bbe 3d22 703e
000002f0: 1567 aabe 58bd d8bd cc6c b1be ab2c 55bf
00000300: f068 31bf 401c 7b3c 00f1 e63a 346c 1cbf
00000310: 5895 483d c55d 43be 58d6 e13d c8bc 8fbe
00000320: edcd 86be 78dc 65be 643e 3cbf f6d7 f8be
00000330: 495f 53bf 581d 463d 5a8c 46bf 5e5e 3abe
00000340: 4065 ff3b 20c1 803d fc5d 9cbe 76bf 2abf
00000350: 2804 8fbe b08f cbbc 6641 12bf f812 c8be
00000360: 11d4 2fbf 7c64 3f3e fa00 7ebe 2e01 5fbe
00000370: 286b 423d dcea 53be 36a3 853e e2a5 e9be
00000380: 807c 7ebe 40c7 34bc cf0b 33bf 56bf 4dbf
00000390: 6c1e ef3d fb73 21be f8c4 3a3d 43a9 4dbe
000003a0: c007 bd3b 38a5 a0be a0e3 f13d 006f a53c
000003b0: 6d4a 953e 2021 373c 406a 00bd 195b 87be
000003c0: c633 42bf c28b 043f 80a3 5f3e afaa 023f
000003d0: 96c5 d8bd 7611 eebe 061b 163e 8620 babe
000003e0: c7ba 6fbe f472 6abe 2e1f 06bf d6e2 38bf
000003f0: 33a5 c03e ec0f 85be f74a d5be c424 8e3e
0.21702468 -0.10187635 0.3869185 -0.48266503 -0.16531682 -0.26495934 0.8121259 0.35758704
-0.0068700016 -0.10077332 0.108698785 0.36747998 0.3790395 -0.2264694 0.5429287 -1.0872805
-0.0398542 -0.3339679 0.39913878 0.1783242 -0.24957907 0.020687819 0.33807573 0.029699747
0.029966444 -0.38534346 -0.27676252 -0.54840106 -0.26611915 -0.768743 -0.5262888 -0.6332523
0.58716905 -0.10694769 0.02718383 -0.21295352 -0.07515113 -0.021841377 -0.4516823 -0.72506344
0.025849283 -0.27822694 -0.65980405 -0.5582182 -0.2700445 0.040742457 -0.112646446 -0.4347147
-0.48858887 0.22487509 -0.19054967 -0.440679 -0.10932872 0.045534074 -0.156159 -0.30748615
-0.23389703 -0.23779243 -0.7774449 -0.4998282 0.72538966 -0.00959599 -0.41242346 -0.718466
-0.1396288 0.12163076 -0.61221844 -0.46598804 -0.022539228 -0.2315175 0.7971322 -0.7012541
0.27562964 -0.21471365 -0.22500044 -0.30002433 0.19836548 0.19411847 -0.07227643 -0.26344073
-0.32032922 0.20684958 -0.21272779 -0.09337878 -0.101787806 -0.123339385 -0.74438506 -0.33143765
-0.08495481 0.12075323 -0.5042476 -0.5756142 0.11951792 0.20748383 -0.27699265 -0.32777542
0.45122448 -0.43556035 0.24089813 -0.2921613 0.1588105 -0.5655754 -0.16532043 -0.3528117
-0.47291213 0.062021762 0.46572578 -0.6173664 -0.82354486 0.1406675 -0.29272014 -0.16407406
0.15532467 0.12404549 -0.40225184 -0.5135701 -0.040218055 0.2698288 -0.37542602 -0.46638465
0.4953923 -0.24286215 0.5990658 -0.89067584 0.112588555 -0.34211707 0.6646843 -0.27864623
-0.17193025 -0.114877254 0.42814338 0.114216395 -0.39385247 0.1571972 -0.43699834 -0.16803697
0.020480603 -0.10956457 -0.39641583 -0.38270557 -0.1430112 -0.12368743 -0.37068546 -0.5831909
0.030622333 0.12803847 -0.17303598 -0.0829233 0.017291695 -0.062253848 0.15078574 0.16631734
-0.23343053 -0.0076144338 -0.16876367 -0.18224728 -0.2106749 0.14528278 -0.14089629 -0.47922933
-0.07937682 -0.204302 -0.2493695 0.23509097 -0.10893093 -0.2751986 0.024567723 -0.24033539
-0.23880264 0.20800069 -0.7083628 -0.5974682 -0.01298967 0.16854003 -0.6988113 -0.7219887
0.25174212 -0.14373021 -0.014431447 -0.5165035 -0.8687333 -0.06196554 0.15217441 -0.688405
0.24398327 -0.09078285 -0.27173826 0.23450561 -0.3328177 -0.105829895 -0.34653318 -0.8327128
-0.69300747 0.01532656 0.0017619431 -0.61102605 0.04897055 -0.19078739 0.11027211 -0.28073716
-0.26328984 -0.22447383 -0.735327 -0.48602265 -0.8256727 0.048367828 -0.7755791 -0.1820006
0.0077940524 0.06286836 -0.30540454 -0.66698396 -0.27932858 -0.024848789 -0.5713104 -0.39076972
-0.6868296 0.18690675 -0.2480506 -0.21777794 0.047465473 -0.2069506 0.26101083 -0.4563437
-0.2485218 -0.011033833 -0.69939893 -0.8037008 0.116757244 -0.157669 0.045598 -0.200841
0.005768746 -0.31376052 0.11810994 0.02019453 0.29158345 0.011177331 -0.031351328 -0.2643669
-0.7586025 0.51775753 0.21839714 0.5104169 -0.105845615 -0.46497697 0.14658746 -0.36352938
-0.23411094 -0.22895414 -0.52391326 -0.72221124 0.37626037 -0.2598871 -0.41658756 0.27762425

linear2.bias f4 [24]
00000000: a2a3 0cbf 9a6a 82be 3b84 97bd e310 42bf
00000010: 8607 5abf 217f 0cbf 43ed 16bf 73f9 81bf
00000020: a43c 3ebd 0880 40bf eafd a5bd 29f2 2cbf
00000030: 34cd f8be 176e 19bf d123 72bf 406d 1fbf
00000040: 0bb5 11bf c469 44bf ad6a b1be b455 0bbf
00000050: 535e a4be c547 0ebc 1074 30be 0032 fabb
-0.54937184 -0.25471956 -0.07398268 -0.7580702 -0.8516773 -0.54881483 -0.5895578 -1.0154251
-0.04644455 -0.7519536 -0.08105071 -0.6755701 -0.48594058 -0.5993361 -0.945859 -0.6227608
-0.56916875 -0.76723886 -0.346517 -0.5442765 -0.32103214 -0.008684103 -0.17231774 -0.007635355

linear3.weight f4 [48, 24]
00000000: 68ed 18bf 302f 06bf d3ce 3ebf 1c63 04bf
00000010: c745 52bf d265 21bf 7c32 d53e 414f 44bf
00000020: c258 c7be b09c d8be f5a9 17bf e16f a2be
00000030: aa20 b23e 9b4a bb3e 9129 47bf 0840 413e
00000040: 30ea 623e 6df0 e5be 3fa3 113f ecf4 d33e
00000050: 4d3a 4d3f 258b 8fbe 7c0f 3ebe a039 c23d
00000060: d78c 5c3e 2832 863e db56 dbbe 16fb a5bd
00000070: 2442 38be 6c79 b3be e823 1dbf 98ed c0be
00000080: 31c9 723e ebca f4be 49ec c13e d991 b6bc
00000090: 1817 59bf f585 31bf a076 1ebe de59 dc3d
000000a0: 39fe 233e 0c7a 8dbe c0c4 d73e a0fd 44bf
000000b0: 2349 acbd c3a4 0ebd a58a bebd 2cac 2ebd
000000c0: d93b 55be 273d 513e da6d d2be 2c45 e4be
000000d0: 2a6c 99be 58ba c4bd 4d2b fb3e a8b1 94be
000000e0: d032 e93e b1fc d2be f285 9a3e 880d efbd
000000f0: fcf1 383f 9663 f93e 5a54 21bf 100b 103f
00000100: b191 083f 486a 7bbe 8eef 063f 3da9 263f
00000110: f5f3 953e 37e3 033e 346b 84bd 8013 c23c
00000120: 76e0 c6be 57a4 423d 7897 acbe 4b1b 10bf
00000130: c38f 26be ba61 08bf 6013 e33e 0cab 2bbf
00000140: d509 213f 30aa edbe 1ab1 0bbd 2381 11bf
00000150: 9452 213f d7d4 1d3f 5733 a3be 85ac e63e
00000160: d323 a63e 31b7 70be f550 0a3f aa90 c63e
00000170: 591e e03e 0acd 5fbd 04b3 db3d 2e31 11be
00000180: a860 34bf 129d 12bf 1adb 34bf 2653 2bbf
00000190: 47c6 60be 5b57 0a3e 362b 833e d3cb 15bf
000001a0: 0276 6ebe 5cf3 50bd 0779 91be 03c7 603e
000001b0: a209 57bd c11f bd3e f76d 2bbf 40d5 e53e
000001c0: 826e b93e 2a86 573e 1695 ff3e 110e c03e
000001d0: e6d2 b43e 859c 893d b07b c9bc 18a1 d23d
000001e0: 2f9b f0be 4d77 e4be 8f92 0dbf f497 9fbe
000001f0: 777a ad3e 76af 1ebf 892b 1f3f 63ed babe
00000200: ad25 d33e b70e 09bf 5caf a9be fc6c 31bf
00000210: acff 383f af6f ae3e 9d17 bbbe 1fd0 773d
00000220: d97a 95bb a157 0bbf 16e3 22bf 5b0a 123f
00000230: ec50 27be b18d fdbe a659 0a3e bee6 4b3e
00000240: 63b8 26be 271e 8abd 9754 0ebf 296c 9bbe
00000250: 35c8 bbbe d802 d7be 1409 aa3e a5a0 1cbf
00000260: ff03 2c3f 34cb 0abf 44fd 013e 3722 88be
00000270: b859 1a3f 6193 a93e 31ea 2bbf 10ed de3e
00000280: 0363 1e3f ee08 c6be 656d ea3e fe2f 3a3f
00000290: 4b97 2c3f fb21 d03c d8e5 333e c8d3 adbd
000002a0: a86a b93e 0e6d 393f 5f21 e73e 29d5 b73e
000002b0: c58c 19be 4e31 ec3e af92 b43e f40a c83e
000002c0: bae4 b3be 4d4d 203f c95f 443f 3776 1d3f
000002d0: 2ce1 da3e faa4 bd3e 243b f13e c244 0c3f
000002e0: 4c73 cd3e c6b2 0e3f 9767 063f 3d16 e43e
000002f0: b874 e03d 3cbf 043f 083c 81bc 302b 20bd
00000300: 46b5 68bf 2270 04bf dcc2 0dbf 2039 1abf
00000310: e586 863e 5161 2bbf 1185 91be ef25 41bf
00000320: ad30 3cbe 6f10 1fbf 535b 00bf 855e 15bf
00000330: 145d ecbe 30b5 10bf 14ba 17bf 9b84 103f
00000340: 0c12 793f 1192 f5be 9c83 103f 37d8 b0be
00000350: 7d0c 573f ca57 24bc fb0f a2bd 0c0b 8e3d
00000360: 52e4 b6be 5bc0 b1be c994 15bf 989d 22bf
00000370: 10d1 22bf 7f32 a4be b2af 833e 10af fcbe
00000380: 7d10 843e 420f 0bbf a654 00bf 505f 1dbf
00000390: 8f8d b03e a79c 313f 0ba5 16bf 97b8 6e3e
000003a0: 9788 22be 6d8a 08bf 067b 4d3f 804d d23e
000003b0: acc1 303f 4406 d5be b80f af3d 7c1a dd3d
000003c0: c50d 6a3e 8a2e 363f d54d 83bf df22 b3bd
000003d0: d4a0 a7be 2ea8 023f 150e f53e 96e2 593e
000003e0: fa29 9c3e 28a2 0a3f 0874 033f 8f9f de3e
000003f0: 21c5 473e 4893 253f 133f 0bbe 58e7 ad3e
-0.59737253 -0.5241575 -0.7453434 -0.5171373 -0.8213772 -0.6304599 0.4164008 -0.7668343
-0.38934904 -0.42307043 -0.5924371 -0.31725982 0.34790546 0.36580357 -0.777978 0.18872082
0.22159648 -0.44909993 0.5688972 0.41397798 0.80167085 -0.28035846 -0.18560594 0.09483647
0.21538101 0.2621014 -0.42839703 -0.081045315 -0.1799398 -0.35053575 -0.61382914 -0.3768127
0.23709561 -0.47811064 0.37875584 -0.022286342 -0.84800863 -0.6934503 -0.1547494 0.10759328
0.16014947 -0.27632177 0.42142296 -0.769495 -0.08412387 -0.034825098 -0.09303788 -0.042644665
-0.20823611 0.20433484 -0.41099435 -0.44584024 -0.29965335 -0.09605855 0.49056473 -0.2904179
0.4554658 -0.41208413 0.30180317 -0.11672503 0.7224424 0.4870879 -0.63019335 0.5626688
0.5334731 -0.24552262 0.5270928 0.6510199 0.29287687 0.12879644 -0.0646576 0.023690939
-0.38843125 0.047520008 -0.3370931 -0.56291646 -0.16265778 -0.5327412 0.4435072 -0.6705787
0.6290563 -0.46418905 -0.034104444 -0.5683767 0.6301663 0.6165289 -0.31875107 0.45053497
0.32449207 -0.23507382 0.5402978 0.38782245 0.43773153 -0.0546389 0.10727504 -0.14178917
-0.70459986 -0.5727092 -0.7064682 -0.6692375 -0.21950637 0.13509886 0.25618905 -0.58514136
-0.23287204 -0.051013336 -0.2841265 0.21950917 -0.05249942 0.3693829 -0.6696467 0.4488926
0.36217123 0.21047273 0.4991843 0.37510732 0.35317153 0.06719307 -0.024595112 0.102846324
-0.46993396 -0.4462227 -0.55301756 -0.3117062 0.33882496 -0.6198648 0.62175804 -0.36509237
0.41239682 -0.5353808 -0.331416 -0.6930692 0.72265124 0.34069583 -0.36541453 0.060501214
-0.0045617637 -0.54430586 -0.63627756 0.5704705 -0.16339463 -0.49522164 0.1351076 0.1991224
-0.16281275 -0.06744032 -0.55597824 -0.30355957 -0.36676183 -0.41994357 0.3321005 -0.61182624
0.671936 -0.54216313 0.1269427 -0.26588604 0.6029315 0.33120254 -0.6715422 0.4354024
0.6186983 -0.38678688 0.45786586 0.7272948 0.67418355 0.025406828 0.17568147 -0.0848766
0.36214185 0.7243203 0.45142648 0.35904816 -0.14995106 0.46131366 0.3526816 0.39070857
-0.35135442 0.6261795 0.76708657 0.61508507 0.42749918 0.3703993 0.47115433 0.54792416
0.40127027 0.55741537 0.52501816 0.44548216 0.10959762 0.518543 -0.015775695 -0.039103687
-0.909016 -0.517336 -0.55375457 -0.60243416 0.2627479 -0.6694537 -0.28421834 -0.7544851
-0.18377943 -0.6213445 -0.5013935 -0.5834735 -0.46164763 -0.5652647 -0.5926831 0.5645234
0.9729316 -0.47963002 0.5645082 -0.3453996 0.8400343 -0.010030696 -0.07913204 0.06935701
-0.3572107 -0.34717068 -0.58430153 -0.6352172 -0.63600254 -0.32069775 0.25719982 -0.49352312
0.2579383 -0.54320157 -0.50129163 -0.6147356 0.34483 0.6937966 -0.58845586 0.23312603
-0.15872417 -0.5333622 0.80265844 0.41074753 0.6904552 -0.41606343 0.0854792 0.10796067
0.22856815 0.7116476 -1.0258127 -0.087468855 -0.3273989 0.5103787 0.47862306 0.21277842
0.30500776 0.5415368 0.51348925 0.4348111 0.19508792 0.6467786 -0.1359828 0.33965564

linear3.bias f4 [48]
00000000: 2a5a 1e3e e03d f63d f8e3 593f 05e9 1e3f
00000010: e689 1e3e 00cd f63d bedf 593f 48ee 1e3f
00000020: 237e 1e3e d381 f63d 88e4 593f e9f2 1e3f
00000030: 5374 1e3e 1b38 f63d 3fe3 593f f1fb 1e3f
00000040: aa6f 1e3e 64dd f53d 17e6 593f a8f7 1e3f
00000050: 368d 1e3e 796c f63d f6dd 593f ae02 1f3f
00000060: 9c97 1e3e 2612 f63d 1eea 593f a307 1f3f
00000070: 5106 1f3e 81e9 f53d 06f5 593f d90c 1f3f
00000080: bfcc 1e3e 5abf f53d 06ea 593f 0005 1f3f
00000090: 9add 1e3e 70a6 f53d adf3 593f deff 1e3f
000000a0: bac1 1e3e 4751 f53d 32f3 593f 1602 1f3f
000000b0: 7a86 1e3e 7c33 f53d 97f3 593f a1f7 1e3f
0.15464082 0.120235205 0.8511348 0.6207431 0.15482292 0.120508194 0.8510703 0.6208234
0.15477805 0.12036481 0.85114336 0.620894 0.15474062 0.1202242 0.85112375 0.6210318
0.15472284 0.120051175 0.85116714 0.62096643 0.15483555 0.12032408 0.8510431 0.62113464
0.15487522 0.1201518 0.8512286 0.6212103 0.15529753 0.12007428 0.851395 0.6212898
0.15507792 0.11999388 0.85122716 0.62117004 0.15514222 0.11994636 0.85137445 0.6210917
0.15503588 0.11978393 0.8513671 0.6211256 0.15480986 0.119727105 0.85137314 0.620966
