epoch_50_model/건조/model.pth (torch, 201120 bytes, 18 tensors)

linear1.weight f4 [24, 48]
0	0xbd9bbd62	-0.07604481
1	0x3bec5cc0	0.007213205
2	0xbdee6f84	-0.11642364
3	0x3dad2af0	0.08455455
4	0x3b7e8040	0.0038833767
5	0x3d49ab90	0.04923588
6	0xbdffff1e	-0.124998316
7	0x3e0a6aae	0.13517258
8	0xbd0d9714	-0.034567907
9	0x3d9e1e38	0.077206075
10	0xbd72bea4	-0.05926384
11	0x3c5788b0	0.013155147
12	0xbd3bb3e8	-0.04582587
13	0x3de65fe8	0.112487614
14	0x3d95752a	0.07297738
15	0xbad88600	-0.0016519427
16	0xbd946168	-0.07245141
17	0x3c33b650	0.01096876
18	0x3ba88180	0.0051423907
19	0xbd846098	-0.06463736
20	0xbdb561fe	-0.08856581
21	0xbd95b8cc	-0.07310638
22	0xbdd864d2	-0.10566105
23	0x3bf878e0	0.007582769
24	0xbd9bfd71	-0.076166995
25	0x3df7ab54	0.12093225
26	0xbdb50437	-0.088386945
27	0xbd9de7fb	-0.077102624
28	0x3dded51c	0.10880491
29	0x3d533d34	0.05157204
30	0xbd75dc82	-0.060024746
31	0xbde85432	-0.11344184
32	0x3d9c7146	0.07638793
33	0x3c44ba90	0.012007371
34	0xbe07c2ed	-0.13257952
35	0xbe0541ba	-0.13013354
36	0xbc95f538	-0.018305406
37	0x3d0d1bec	0.034450457
38	0x3d71a904	0.058999076
39	0xbbc127c0	-0.005894631
40	0xbbdc24a0	-0.006718233
41	0xbde1e5b4	-0.110301405
42	0x3d3f1658	0.046652168
43	0x3d8642f8	0.06555742
44	0x3dbb1a52	0.091358796
45	0xbcdd9784	-0.027049787
46	0xbd056916	-0.03257092
47	0xbd7b1fae	-0.06130951
48	0xbf0aa7e6	-0.5416244
49	0xbef8013c	-0.48438442
50	0xbefe8cd4	-0.49716818
51	0xbf00b609	-0.50277764
52	0xbf35c678	-0.71005964
53	0xbf125ebb	-0.571758
54	0xbef5d67a	-0.48015195
55	0xbf2c787c	-0.67371345
56	0xbf0998a8	-0.5374856
57	0xbf098bc6	-0.537289
58	0xbf3ca179	-0.7368389
59	0xbf170afe	-0.5900115
60	0xbf38ce8a	-0.72190154
61	0xbf375aca	-0.7162291
62	0xbf2fa0c5	-0.6860469
63	0xbf3607a6	-0.7110542
64	0xbf327d03	-0.69722
65	0xbf018680	-0.50595856
66	0xbf2215ca	-0.633145
67	0xbf0d1f59	-0.5512596
68	0xbf096f73	-0.53685683
69	0xbf29b624	-0.6629355
70	0xbf15e140	-0.5854683
71	0xbf27f798	-0.65612173
72	0xbf2ac6ca	-0.6670958
73	0xbef99818	-0.4874885
74	0xbf0b2616	-0.5435499
75	0xbf08ec0b	-0.53485173
76	0xbf2d8466	-0.6778015
77	0xbeffde1e	-0.4997415
78	0xbf1e79bb	-0.61904496
79	0xbf2232ba	-0.6335865
80	0xbf1cacba	-0.6120106
81	0xbf32104f	-0.69556135
82	0xbeecaf14	-0.46227324
83	0xbee985f0	-0.4561
84	0xbf191c51	-0.5980883
85	0xbefc0ae7	-0.49227068
86	0xbefe54d6	-0.496741
87	0xbf18d94e	-0.5970658
88	0xbf2e52b3	-0.6809494
89	0xbf1f7cce	-0.6229981
90	0xbefbe39f	-0.491971
91	0xbf27ca4b	-0.6554305
92	0xbf2ba686	-0.6705097
93	0xbf01cd8c	-0.50704265
94	0xbf099787	-0.5374684
95	0xbf0dd562	-0.5540372
96	0xbeaa846b	-0.33304152
97	0xbeb787ba	-0.3584574
98	0xbe9a184c	-0.30096662
99	0xbe9e0de7	-0.30869982
100	0xbf0f1431	-0.55890185
101	0xbe962e52	-0.29332215
102	0xbeff7beb	-0.4989923
103	0xbec2dc3f	-0.3805866
104	0xbefaf3fb	-0.49014267
105	0xbf14d5e0	-0.5813885
106	0xbe9a0f93	-0.30090007
107	0xbf02d6e1	-0.5110913
108	0xbe99ce55	-0.3004023
109	0xbe8d4aef	-0.27596232
110	0xbf04da84	-0.5189593
111	0xbeb92557	-0.361613
112	0xbee0e299	-0.4392288
113	0xbe96c81c	-0.29449546
114	0xbedf2bdd	-0.43588153
115	0xbeb35d93	-0.3503233
116	0xbe9fbadc	-0.3119725
117	0xbebf5591	-0.3736997
118	0xbe97af0d	-0.2962574
119	0xbeea07b7	-0.4570901
120	0xbedef803	-0.43548593
121	0xbebe0d8f	-0.3711972
122	0xbf038aa2	-0.5138341
123	0xbec20828	-0.37896848
124	0xbe75ca00	-0.24002838
125	0xbee65065	-0.4498321
126	0xbf098e03	-0.5373232
127	0xbef149de	-0.4712667
128	0xbe9feeaa	-0.31236774
129	0xbef8502e	-0.48498672
130	0xbeb51bf1	-0.3537288
131	0xbee3665f	-0.4441404
132	0xbe6bae96	-0.23015818
133	0xbeec5805	-0.46160904
134	0xbf074deb	-0.5285327
135	0xbf09cf0f	-0.5383157
136	0xbee1e8ac	-0.44122827
137	0xbec159fe	-0.3776397
138	0xbeafd1a6	-0.34339637
139	0xbea4f496	-0.32217854
140	0xbe8a9276	-0.27064866
141	0xbec7249a	-0.38895112
142	0xbe7ca9a4	-0.24674088
143	0xbebc37ea	-0.3676141
144	0xbf2ea26e	-0.682166
145	0xbf3c06cf	-0.7344789
146	0xbf0b1822	-0.543337
147	0xbf351d7c	-0.70748115
148	0xbf1ac557	-0.60457367
149	0xbf381a26	-0.719149
150	0xbf351efc	-0.70750403
151	0xbef29017	-0.47375557
152	0xbefda0a8	-0.49536633
153	0xbf13f6dd	-0.5779856
154	0xbf30160a	-0.6878363
155	0xbf203317	-0.62577957
156	0xbf1117a1	-0.5667668
157	0xbf3308b1	-0.6993514
158	0xbef94790	-0.4868741
159	0xbef0d5d9	-0.47038153
160	0xbef6060e	-0.48051494
161	0xbf275d02	-0.65376294
162	0xbf3cdd66	-0.7377533
163	0xbefa0252	-0.48829895
164	0xbf13f31e	-0.5779284
165	0xbf00fbe9	-0.50384384
166	0xbf33b1a3	-0.7019293
167	0xbf1016b7	-0.5628466
168	0xbeefe327	-0.4685299
169	0xbf3c1592	-0.73470414
170	0xbf17f1a6	-0.593531
171	0xbf02c127	-0.5107598
172	0xbf21a320	-0.63139534
173	0xbf31fade	-0.6952342
174	0xbf0aca54	-0.5421498
175	0xbf28f78b	-0.6600272
176	0xbf0b86c2	-0.545025
177	0xbf2e718d	-0.68142015
178	0xbeed1c55	-0.46310678
179	0xbf028e04	-0.5099795
180	0xbf27d22a	-0.6555506
181	0xbf0b7a87	-0.54483837
182	0xbf389028	-0.72094965
183	0xbf06985f	-0.5257625
184	0xbeea6b80	-0.4578514
185	0xbf17ec21	-0.5934468
186	0xbf05ca2e	-0.52261627
187	0xbf0574e9	-0.52131516
188	0xbeef2363	-0.46706685
189	0xbf298e90	-0.6623316
190	0xbef8d795	-0.48601976
191	0xbf32d4d7	-0.6985602
192	0xbf15d9d2	-0.5853549
193	0xbf1b14a4	-0.6057837
194	0xbf11f0ff	-0.57008356
195	0xbeefb5d5	-0.46818414
196	0xbf2ab2a5	-0.6667884
197	0xbef7b254	-0.4837824
198	0xbf16907a	-0.58814204
199	0xbf0e0eb7	-0.55491203
200	0xbf11e5e4	-0.5699141
201	0xbf04e5f1	-0.5191336
202	0xbeee70fa	-0.4657057
203	0xbee13643	-0.4398671
204	0xbf2588c9	-0.6466184
205	0xbf2bbc33	-0.67084044
206	0xbf2391b4	-0.638942
207	0xbf354e8a	-0.70822966
208	0xbf0cc105	-0.54982024
209	0xbeff804b	-0.49902567
210	0xbee1ad20	-0.44077396
211	0xbf0fe7bd	-0.5621298
212	0xbf13ebfb	-0.5778195
213	0xbf16740c	-0.58770823
214	0xbf33a8e0	-0.7017956
215	0xbf20a72a	-0.6275507
216	0xbf0a1fc6	-0.5395473
217	0xbf250c27	-0.6447167
218	0xbef24b12	-0.473229
219	0xbf0816d2	-0.5315982
220	0xbf03c6d6	-0.51475275
221	0xbef8da86	-0.4860422
222	0xbf086955	-0.53285724
223	0xbf187a50	-0.59561634
224	0xbf1a23ea	-0.6021105
225	0xbf1c4c98	-0.6105437
226	0xbf0103f0	-0.50396633
227	0xbf22b31a	-0.6355454
228	0xbf1e9aba	-0.61954844
229	0xbedd5415	-0.43228212
230	0xbee74f42	-0.45177656
231	0xbf31f50b	-0.6951453
232	0xbef0af94	-0.47008955
233	0xbee7d808	-0.45282006
234	0xbf28281e	-0.65686214
235	0xbf27dc5c	-0.65570617
236	0xbf2479f2	-0.64248574
237	0xbf1bc164	-0.60841966
238	0xbee1a7c0	-0.44073296
239	0xbf1a07cc	-0.6016815
240	0xbf0b457c	-0.544029
241	0xbf0a4aa9	-0.5402017
242	0xbf387fe9	-0.72070175
243	0xbefe3a2e	-0.49653763
244	0xbef2a0ac	-0.47388208
245	0xbf3b0a6c	-0.7306278
246	0xbef6c7a1	-0.4819918
247	0xbf3cbee9	-0.73728806
248	0xbef47fef	-0.47753856
249	0xbf31f9e7	-0.69521946
250	0xbf0a8082	-0.5410234
251	0xbf16642b	-0.58746594
252	0xbf156fc2	-0.58373654
253	0xbf0a8e40	-0.54123306
254	0xbf00b4b8	-0.50275755
255	0xbef8075d	-0.48443118

linear1.bias f4 [24]
0	0xbe05f5bd	-0.13082023
1	0xbeff4606	-0.4985811
2	0xbee5ca47	-0.44880888
3	0xbf1a1aaf	-0.60196966
4	0xbf2fd254	-0.6868031
5	0xbf21c12a	-0.6318537
6	0xbf1766ca	-0.5914122
7	0xbf85b964	-1.0447202
8	0xbf982d9f	-1.1888922
9	0xbf74dc82	-0.9564897
10	0xbf980850	-1.1877537
11	0xbd2f9f18	-0.042876333
12	0xbf7dfe5d	-0.9921625
13	0x3d0eaf9f	0.034835454
14	0x3de4b66c	0.11167607
15	0xbf840f35	-1.0317141
16	0xbf94e8f1	-1.1633588
17	0x3be347c0	0.0069360435
18	0xbf369b7e	-0.7133101
19	0x3cae8950	0.02130571
20	0xbf087a7e	-0.5331191
21	0x3ecc3781	0.39886096
22	0xbefbbaf6	-0.49166077
23	0xbf776d5c	-0.96651244

linear2.weight f4 [12, 24]
0	0xbdc6df52	-0.09710564
1	0xbf1f810a	-0.62306273
2	0xbdb5b92e	-0.08873211
3	0xbef1695b	-0.47150692
4	0xbf1ba8a7	-0.6080422
5	0xbf3a173b	-0.72691697
6	0xbed42a61	-0.41438583
7	0xbf0e1e8c	-0.5551536
8	0xbf1da9af	-0.6158704
9	0xbf381bda	-0.719175
10	0xbf4a59a1	-0.7904301
11	0x3e4c0eba	0.19927493
12	0xbf49ed4e	-0.78877723
13	0xbf18e401	-0.59722906
14	0x3da79720	0.08183122
15	0xbf19ea1b	-0.6012284
16	0xbf218d8b	-0.631066
17	0xbe1aef76	-0.1513041
18	0xbef40ebd	-0.47667494
19	0xbe148db4	-0.1450718
20	0xbf0ebe98	-0.55759573
21	0xbf091567	-0.5354828
22	0xbee122fd	-0.43972006
23	0xbefdceef	-0.4957194
24	0x3c725690	0.014791146
25	0x3d7a65f8	0.0611324
26	0xbeed474a	-0.46343452
27	0x3d37f444	0.044910684
28	0x3d37cdfc	0.044874176
29	0x3e0a7aa0	0.1352334
30	0xbdc328a7	-0.09529238
31	0xbf2f243e	-0.68414676
32	0xbf4729ea	-0.7779833
33	0xbec37973	-0.38178596
34	0xbea6daae	-0.32588714
35	0x3d6fb700	0.05852413
36	0xbf14504c	-0.57935023
37	0xbebed5c8	-0.37272477
38	0xbddb7728	-0.107160866
39	0xbea04fd8	-0.31310916
40	0xbf0a7fc0	-0.5410118
41	0xbdd490f9	-0.10379214
42	0x3e716b65	0.23576124
43	0xbd0a5b08	-0.03377822
44	0x3e3755b4	0.17903787
45	0xbf073f9a	-0.52831423
46	0xbddd8e03	-0.10818102
47	0xbef6c707	-0.4819872
48	0xbd780178	-0.060548276
49	0x3c014740	0.0078905225
50	0xbddcbe00	-0.10778427
51	0xbd5c76c4	-0.0538242
52	0x3e440d8e	0.19145796
53	0x3da6d6e8	0.08146459
54	0x3e4bb26c	0.19892281
55	0xbe3f7cac	-0.18699902
56	0xbde85f0c	-0.11346254
57	0x3dac92e4	0.08426455
58	0x3c9843a8	0.018586949
59	0xbd285064	-0.04109229
60	0xbc8e1588	-0.017344251
61	0xbe0ef004	-0.13958746
62	0x3dafb8e0	0.08580184
63	0xbe322a75	-0.17399009
64	0x3df79da8	0.120906174
65	0x3ca0c048	0.019622937
66	0xbd820fda	-0.0635068
67	0x3b343ec0	0.0027503222
68	0x3d0e491c	0.03473769
69	0xbd6f7b64	-0.058467284
70	0xbdfa456b	-0.12220272
71	0xbe324a07	-0.17411052
72	0xbdff3e2f	-0.124630325
73	0xbef446fc	-0.47710407
74	0xbe350ee3	-0.1768146
75	0xbf09ee04	-0.5387881
76	0xbebd4d29	-0.3697293
77	0xbed236c0	-0.41057396
78	0xbf112bcb	-0.5670745
79	0xbf25f06d	-0.64819986
80	0xbf491c31	-0.7855864
81	0xbf227a06	-0.63467443
82	0xbf4bc7eb	-0.79601926
83	0x3e49d9b0	0.19711947
84	0xbed98df6	-0.4249112
85	0xbf11bc82	-0.56928265
86	0xbd9c7e8e	-0.07641326
87	0xbf4016a1	-0.7503453
88	0xbf1e6ede	-0.6188792
89	0xbb81ddc0	-0.0039632022
90	0xbf33085b	-0.69934624
91	0x3dace13c	0.084413975
92	0xbf345aa3	-0.704508
93	0xbf148fbe	-0.58031833
94	0xbec027f5	-0.37530485
95	0xbf28ac66	-0.6588806
96	0xbdbb1466	-0.0913475
97	0x3f378c5b	0.7169854
98	0xbe9adc3a	-0.30246145
99	0x3f1fb32a	0.6238276
100	0x3e851655	0.259936
101	0x3f0c8822	0.5489522
102	0x3f2ebf82	0.6826097
103	0x3b69f08f	0.0035696363
104	0x3dc6bc09	0.097038336
105	0x3d8931ef	0.06698977
106	0xbe38f458	-0.1806196
107	0x3e382d36	0.17985997
108	0x3c2ef4eb	0.01067851
109	0x3d156d39	0.036481116
110	0x3a67f100	0.00088478625
111	0x3e0bf7db	0.13668768
112	0xbd807770	-0.06272781
113	0x3daaed24	0.08346012
114	0x3f1c9a9e	0.6117343
115	0x3a5d9a00	0.0008453429
116	0x3ef38d91	0.47568944
117	0xbed83590	-0.42228365
118	0x3f255d3e	0.645954
119	0x3e18a4d2	0.14906624
120	0xbd9ad158	-0.075594604
121	0x3e0c201a	0.13684121
122	0x3d9e1824	0.07719448
123	0x3e11f8da	0.14255086
124	0xbcbdbf20	-0.023162425
125	0xbdfc2a85	-0.123127975
126	0x3d27d250	0.040972054
127	0xbd4dc044	-0.050232187
128	0x3bf565e0	0.007488951
129	0x3e394f3c	0.18096632
130	0x3df01a58	0.11723775
131	0xbc504350	-0.012711361
132	0xbe092402	-0.13392642
133	0xbd48487c	-0.04889725
134	0xbe2c2fea	-0.16815153
135	0xbde6b66b	-0.11265262
136	0xbd8d0894	-0.06886402
137	0xbde962c8	-0.11395794
138	0x3e13fd9e	0.14452216
139	0x3e1e381e	0.15451095
140	0xbd8d4bf0	-0.068992496
141	0xbdae3693	-0.08506503
142	0xbd17804c	-0.036987588
143	0xbe176db7	-0.14787947
144	0x3d2fe260	0.042940497
145	0x3d170d48	0.0368779
146	0x3f156451	0.58356196
147	0x3cd55218	0.026040122
148	0x3d50bde0	0.05096233
149	0x3c419c20	0.011817008
150	0xbde27373	-0.110571764
151	0xbcc8c0fb	-0.024506083
152	0x3e7bfbed	0.24607821
153	0x3e7724f8	0.24135196
154	0x3c85d71e	0.016337927
155	0x3e11b5b6	0.14229473
156	0x3e73e834	0.23819047
157	0xbf3e2045	-0.7426799
158	0x3dd9cdec	0.106349796
159	0xbd939996	-0.072070286
160	0x3ddfa3bc	0.10919902
161	0x3d023d90	0.03179699
162	0xbd3c6f30	-0.046004474
163	0x3d9cf7b8	0.07664436
164	0xbd4eae3c	-0.05045913
165	0xbf27a32e	-0.6548337
166	0xbda56225	-0.0807536
167	0x3ddc7b41	0.10765696
168	0x3cc93340	0.02456057
169	0xbd1ea57c	-0.038732037
170	0x3ed5564f	0.4166741
171	0xbe1407c7	-0.14456092
172	0xbe4febed	-0.20304842
173	0xbd040314	-0.032229498
174	0xbce977d0	-0.028499514
175	0x3e337a3d	0.17527099
176	0x3dff1640	0.12455416
177	0x3e268135	0.16260226
178	0x3e2ff6e1	0.1718402
179	0x3e0753dc	0.13215584
180	0x3c6e8a5f	0.014559357
181	0xbda7023f	-0.08154725
182	0x3e100b1a	0.14066735
183	0x3e311108	0.17291653
184	0xbdff6953	-0.12471261
185	0xbd4e5db4	-0.05038233
186	0x3d8c87a0	0.06861806
187	0xbd027fc8	-0.031860143
188	0xbc928a80	-0.017888308
189	0xbdb1589f	-0.08659481
190	0x3db05904	0.086107284
191	0x3d1c79d2	0.038202114
192	0x3e2d398e	0.16916487
193	0xbed0c9f3	-0.40779075
194	0x3dad131d	0.08450911
195	0xbf39746c	-0.7244327
196	0xbedaa164	-0.42701256
197	0xbf333d9f	-0.700159
198	0xbf2266fb	-0.63438386
199	0xbf150af0	-0.58219814
200	0xbf3245e2	-0.6963788
201	0xbf1beed2	-0.60911286
202	0xbf21ac9d	-0.6315401
203	0xbd9bc5d2	-0.076060906
204	0xbec1fb26	-0.37886924
205	0xbeee6a01	-0.4656525
206	0x3df0f680	0.11765766
207	0xbf46c58f	-0.776452
208	0xbeded8c3	-0.4352475
209	0x3e423a94	0.18967658
210	0xbeede248	-0.464617
211	0xbc8746e0	-0.016513288
212	0xbf0a2ecb	-0.5397765
213	0xbf259264	-0.646765
214	0x3db9ec4c	0.09078273
215	0xbf257535	-0.6463197
216	0x3dca0300	0.098638535
217	0xbe508aac	-0.20365399
218	0x3e10a508	0.14125454
219	0xbe85ff20	-0.26171207
220	0x3e024b80	0.12724113
221	0x3d58ae24	0.05290045
222	0x3e23df80	0.16003227
223	0xbf33c4d7	-0.7022223
224	0xbf2ec247	-0.68265194
225	0xbf337910	-0.701066
226	0xbf396795	-0.7242368
227	0x3e00ae9e	0.12566611
228	0xbf118fea	-0.5686022
229	0xbef5f42f	-0.4803786
230	0xbe058646	-0.13039503
231	0xbf2d2e3a	-0.6764866
232	0xbf182429	-0.59430176
233	0xbd500304	-0.050784126
234	0xbde48b6b	-0.11159404
235	0x3d44b520	0.048024297
236	0xbcd9b4ae	-0.026575413
237	0xbee596f6	-0.44841737
238	0xbd94422e	-0.07239185
239	0xbef13e08	-0.4711764
240	0xbbd247a0	-0.00641723
241	0xbf2a12c6	-0.66434896
242	0xbdc5f4ea	-0.09665854
243	0xbedc0be5	-0.42977825
244	0xbec38140	-0.38184547
245	0xbed0487d	-0.40680304
246	0xbf47c2ed	-0.7803181
247	0xbf49f71f	-0.788927
248	0xbf310294	-0.6914456
249	0xbf49df10	-0.7885599
250	0xbeccee87	-0.40025732
251	0xbdbfbebe	-0.09362553
252	0xbf47749d	-0.7791231
253	0xbf3f93e2	-0.74835026
254	0xbde54ec0	-0.11196661
255	0xbee96e5d	-0.45592013

linear2.bias f4 [12]
0	0xbee23311	-0.44179586
1	0xbf1a7c89	-0.60346276
2	0xbce404a0	-0.027834237
3	0xbee8a602	-0.45439154
4	0xbd789981	-0.060693268
5	0xbd40a4f0	-0.047032297
6	0xbf5acc7e	-0.8546828
7	0xbdbddea0	-0.09270978
8	0xbee2ef1e	-0.44323057
9	0xbf27cb98	-0.65545034
10	0xbf0a50c4	-0.5402949
11	0xbe3791bc	-0.17926687

linear3.weight f4 [1200, 12]
0	0xbd982c9a	-0.07430382
1	0xbdf2ded4	-0.11858907
2	0x3e192e98	0.1495918
3	0xbe83ab26	-0.25716513
4	0x3c7e8dc0	0.0155367255
5	0x3d089588	0.03334573
6	0xbe2d7515	-0.16939195
7	0xbbc26c00	-0.0059332848
8	0x3e3afc46	0.18260297
9	0xbcac69f0	-0.021046609
10	0xbe829fa5	-0.25512424
11	0xbe5466bb	-0.20742314
12	0xba377a00	-0.00069990754
13	0xbe3f0646	-0.18654737
14	0x3e879dae	0.26487488
15	0xbd2879b0	-0.041131675
16	0xbd9843e4	-0.07434824
17	0x3e912176	0.2834584
18	0xbe81747a	-0.25284177
19	0xbe35f5e8	-0.17769587
20	0xbd97edfa	-0.07418437
21	0x3bbf4600	0.005837202
22	0xbe6bbae0	-0.23020506
23	0xbe89d412	-0.2691961
24	0xbb0c3680	-0.002139479
25	0xbe27850e	-0.1635935
26	0xbbc36880	-0.005963385
27	0x3da7732c	0.08176264
28	0xbe4e9094	-0.2017234
29	0xbdcf9e60	-0.101376295
30	0x3f87fdc2	1.0624316
31	0xbd5847ba	-0.05280278
32	0x3e6880d4	0.22705394
33	0xbf52cc0a	-0.8234259
34	0x3db452ac	0.08804831
35	0x3f0ec9fb	0.5577695
36	0xbe585e1c	-0.2112965
37	0x3f4f68ce	0.81019294
38	0x3d1ec738	0.03876421
39	0xbe2a0b18	-0.16605794
40	0x3eef2be7	0.46713182
41	0xbe785d2f	-0.24254297
42	0x3fa43b7e	1.2830656
43	0x3e1cc536	0.15309605
44	0xbde79e4e	-0.11309491
45	0xbf324481	-0.6963578
46	0xbd705c1c	-0.058681592
47	0x3f1c85d6	0.6114172
48	0x3e939350	0.28823328
49	0xbf317541	-0.6931954
50	0xbe90376c	-0.28167284
51	0x3d022478	0.03177306
52	0xbf048dd0	-0.5177889
53	0x3d1b0068	0.037842184
54	0xbf489ba8	-0.7836251
55	0xbf5d6173	-0.8647682
56	0x3ca84be0	0.020543993
57	0xbe126397	-0.14295803
58	0xbe882b90	-0.26595736
59	0xbf0bbb3c	-0.5458257
60	0x3ed1a0c5	0.4094297
61	0xbecc8f54	-0.399531
62	0xbd8544ac	-0.06507239
63	0x3f47ecde	0.78095806
64	0x3f4fdb1d	0.81193715
65	0xbe565518	-0.20930898
66	0xbe64691d	-0.22305723
67	0x3d5d9886	0.054100536
68	0x3f464a1a	0.7745682
69	0xbf4eca67	-0.8077759
70	0x3f21cc53	0.632024
71	0x3f60e0f5	0.8784326
72	0xbeea964b	-0.4581779
73	0x3e7892a1	0.24274684
74	0xbe43675c	-0.19082397
75	0xbf0087c0	-0.5020714
76	0xbf03e5ef	-0.51522726
77	0xbe05fea7	-0.13085423
78	0xbec80b65	-0.39071193
79	0xbf1fdb7e	-0.62444293
80	0xbee68fdf	-0.4503164
81	0xbf37405e	-0.7158259
82	0xbf573b1b	-0.8407456
83	0xbef3b41f	-0.4759836
84	0x3f2fb6bb	0.686382
85	0xbf06795f	-0.5252895
86	0x3d4c35f0	0.049856126
87	0x3f09f688	0.538918
88	0xbe198a0f	-0.14994071
89	0x3e33f41c	0.17573589
90	0xbf9a237b	-1.2042078
91	0xbf630523	-0.88679713
92	0x3eaf68c9	0.34259632
93	0xbf17ef50	-0.59349537
94	0x3f37033a	0.714893
95	0x3df95c97	0.12175863
96	0x3f576519	0.8413864
97	0xbf29e9b9	-0.6637226
98	0x3de82978	0.113360345
99	0x3f443a97	0.766519
100	0xbe63d13a	-0.22247782
101	0xbde5c112	-0.11218466
102	0xbf9a5263	-1.2056392
103	0xbf890bce	-1.0706728
104	0x3efd2cd0	0.49448252
105	0xbecf0bdc	-0.40438735
106	0x3f2a83aa	0.66607153
107	0xbd98bd88	-0.07458025
108	0x3f046bce	0.51726997
109	0xbe5e3815	-0.21701081
110	0xbda96662	-0.08271481
111	0x3eae7298	0.34071803
112	0x3ddfbd08	0.10924727
113	0x3e6ca63c	0.23110288
114	0x3dea5d28	0.114435494
115	0xbe363ba4	-0.17796189
116	0x3e8934cf	0.26798102
117	0xbf1c3e96	-0.61033
118	0x3f1affac	0.60546374
119	0x3f5c99b0	0.8617201
120	0x3e897780	0.26848984
121	0x3f5c96ce	0.8616761
122	0xbd2e0f5c	-0.042495117
123	0xbe7acc51	-0.24492003
124	0x3f55f217	0.83572525
125	0xbd90127c	-0.070347756
126	0x3ed928f7	0.42414066
127	0x3f234205	0.6377261
128	0x3e137bd8	0.14402711
129	0xbe2f3f99	-0.17114104
130	0x3e0e4f8a	0.13897529
131	0x3f0401c3	0.5156519
132	0xbebbb722	-0.36663157
133	0xbed54f99	-0.4166229
134	0xbe856fa9	-0.26061752
135	0x3e8a59e9	0.2702172
136	0xbf6738f8	-0.903213
137	0x3b853d80	0.0040661693
138	0x3e94f261	0.2909117
139	0x3e295ed7	0.16540085
140	0xbf010742	-0.504017
141	0xbf2671e4	-0.65017533
142	0xbf0e71d0	-0.55642414
143	0x3f4fd5cd	0.8118561
144	0xbf27662a	-0.65390265
145	0xbf11f7a6	-0.57018507
146	0xbb246b00	-0.002508819
147	0xbf513cb5	-0.81733257
148	0xbfae6f1e	-1.362766
149	0xbdcbb070	-0.09945762
150	0xbea0d8b2	-0.31415325
151	0xbf2aaa1d	-0.6666582
152	0xbed178eb	-0.40912566
153	0xbf36ed0d	-0.7145546
154	0xbf1f9461	-0.62335783
155	0xbeab7511	-0.33487752
156	0x3ec46e0c	0.3836521
157	0xbf0a9aea	-0.5414263
158	0xbdb33b90	-0.08751595
159	0x3f32f70b	0.6990821
160	0xbf09afcf	-0.5378389
161	0xbbe1f780	-0.0068959594
162	0xbf8fb5f6	-1.1227405
163	0xbf62460d	-0.8838814
164	0x3f3dbc01	0.74114996
165	0xbf190fbf	-0.5978965
166	0x3f4ebc78	0.8075633
167	0xbea3c636	-0.3198716
168	0x3d7402f0	0.059573114
169	0xbe8db9fd	-0.2768096
170	0x3dafee08	0.08590323
171	0x3c77d760	0.015127033
172	0x3ccaf3b0	0.024774402
173	0xbe5c478f	-0.21511672
174	0x3dbbb4d8	0.091653526
175	0xbe6b7359	-0.2299322
176	0x3e098efc	0.1343345
177	0xbda2c08e	-0.07946883
178	0x3e687bb4	0.22703439
179	0xbe334abc	-0.17508978
180	0xbf3163dd	-0.69293004
181	0xbce36400	-0.027757645
182	0xbc235300	-0.009968519
183	0xbf1ed70e	-0.620469
184	0xbefb199f	-0.49042985
185	0x3cdbe260	0.026841342
186	0xbe643684	-0.22286421
187	0xbd74cd2c	-0.05976598
188	0xbf0f563d	-0.55990964
189	0x3e1fe330	0.15614009
190	0xbf4e67c2	-0.8062707
191	0xbed8092e	-0.42194504
192	0xbf21219b	-0.629419
193	0xbcebaa10	-0.028767616
194	0xbe8ba7d2	-0.27276474
195	0xbe895cb8	-0.2682855
196	0xbe6bf737	-0.23043524
197	0x3e022778	0.12710369
198	0xbeaceb1a	-0.33773118
199	0xbee08757	-0.43853256
200	0xbf30f244	-0.6911967
201	0xbf2d710f	-0.6775064
202	0xbecdc470	-0.40188932
203	0xbdfb0fbf	-0.12258863
204	0xbd0575f0	-0.032583177
205	0x3e40cc24	0.18827873
206	0xbe76fbb4	-0.24119455
207	0xbe37f561	-0.17964698
208	0x3d45fd80	0.04833746
209	0xbe87c7f5	-0.26519743
210	0x3d3b2f00	0.04569912
211	0xbe0e3b07	-0.13889705
212	0xbe8b40b0	-0.2719779
213	0xbe91bdd3	-0.28465137
214	0x3d2596e8	0.04042712
215	0xbe1f2ec1	-0.15545179
216	0x3f45f5dc	0.77328277
217	0xbf0ed50c	-0.55793834
218	0xbe57737a	-0.21040145
219	0x3f55bba3	0.83489436
220	0xbe4f8205	-0.20264442
221	0xbc174540	-0.009232819
222	0xbf85f4c2	-1.0465319
223	0xbf9d0d52	-1.226969
224	0x3f55f1cf	0.83572096
225	0xbeadef03	-0.33971414
226	0x3f411ba0	0.7543278
227	0xbee62dab	-0.44956717
228	0x3dbc02e0	0.09180236
229	0xbf054395	-0.52056247
230	0x3d129470	0.035786092
231	0xbe302c8e	-0.17204496
232	0xbed963d1	-0.42458966
233	0x3e8ecfc8	0.278929
234	0xbee1a8d1	-0.4407411
235	0xbf45782a	-0.7713648
236	0xbd44d9e0	-0.048059344
237	0xbe4d5d7f	-0.20055197
238	0xbb915540	-0.0044352114
239	0xbeeaba29	-0.45845154
240	0x3f0a44df	0.5401134
241	0xbf52636e	-0.8218297
242	0x3ded13dc	0.115760535
243	0x3ec77d5a	0.38962823
244	0xbdb6d840	-0.08927965
245	0xbe8a2172	-0.26978642
246	0xbf257f5f	-0.6464748
247	0xbf03dae9	-0.51505905
248	0x3f31ded1	0.69480616
249	0xbe27adf0	-0.16374946
250	0x3f0db4a4	0.5535376
251	0xbe53c186	-0.20679292
252	0xbf55f145	-0.83571273
253	0xbe7ffb64	-0.24998242
254	0xbe282625	-0.16420801
255	0xbf1c7e9f	-0.6113071

linear3.bias f4 [1200]
0	0xbdd047f0	-0.10169971
1	0xbe40cf32	-0.18829039
2	0xbe82f2ec	-0.2557596
3	0xbd7bc27f	-0.061464783
4	0xbf2ec70b	-0.68272465
5	0xbf43ebc0	-0.765316
6	0xbf13c093	-0.5771572
7	0xbf5dff7d	-0.8671797
8	0xbf75232a	-0.9575678
9	0xbf422e2b	-0.75851697
10	0x3e5fe2fe	0.21863934
11	0xbf7b3dbf	-0.9814109
12	0xbf758f6d	-0.95921975
13	0xbf5fa402	-0.8735963
14	0xbe3d13ca	-0.1846458
15	0xbef3043e	-0.47464174
16	0xbf21d5f3	-0.63217086
17	0xbe72c085	-0.23706253
18	0xbf7223ba	-0.94585764
19	0xbf217377	-0.6306681
20	0xbdd03503	-0.10166361
21	0xbf7174ff	-0.94319147
22	0x3d34cb48	0.044139177
23	0xbe754632	-0.23952559
24	0xbf70e25a	-0.94095385
25	0xbf873d82	-1.0565646
26	0xbe0e887b	-0.1391925
27	0xbd45861c	-0.0482236
28	0xbf1474d0	-0.5799074
29	0xbe684000	-0.22680664
30	0xbf15975c	-0.5843408
31	0xbf5f80b0	-0.87305737
32	0x3d3ac8af	0.045601543
33	0xbee7411d	-0.45166865
34	0xbf3f5218	-0.7473464
35	0xbf1a761c	-0.6033647
36	0xbf879a2c	-1.0593925
37	0xbf7bc341	-0.9834481
38	0xbd93a6c8	-0.072095454
39	0xbf55f2d8	-0.83573675
40	0xbe475d4e	-0.19469187
41	0xbf82e78e	-1.0226915
42	0xbddd0c2e	-0.10793339
43	0xbf53d845	-0.82751876
44	0xbf329909	-0.69764763
45	0xbe1556fe	-0.14583966
46	0xbf05ed62	-0.5231534
47	0xbf7bcf29	-0.98362976
48	0xbe0f6202	-0.14002231
49	0xbf664764	-0.89952683
50	0xbf227f28	-0.63475275
51	0xbf3069df	-0.68911546
52	0xbf8a3ac8	-1.0799189
53	0xbf49a1e2	-0.7876264
54	0xbf4ebc57	-0.80756134
55	0xbf5e3857	-0.8680472
56	0xbdbff97e	-0.09373759
57	0xbf559e48	-0.83444643
58	0xbd92250e	-0.07135974
59	0xbe190a13	-0.1494525
60	0xbf8355e6	-1.0260589
61	0xbe2eec63	-0.17082362
62	0xbf85f4d7	-1.0465344
63	0xbf3c5af1	-0.73576266
64	0xbef773ac	-0.48330438
65	0xbf40cea8	-0.7531533
66	0xbf0215ce	-0.5081452
67	0xbdba13ac	-0.09085783
68	0xbe6c1f2c	-0.23058766
69	0xbf394005	-0.7236331
70	0xbf8ed788	-1.1159525
71	0xbe625f82	-0.22106746
72	0xbf7320a9	-0.9497171
73	0xbf7a2d8e	-0.9772576
74	0xbf61148d	-0.87921983
75	0xbe65dc42	-0.22447303
76	0xbef95261	-0.48695663
77	0xbf07648b	-0.5288779
78	0xbf65a16e	-0.8969945
79	0xbf378be5	-0.7169784
80	0xbf0bb9b0	-0.5458021
81	0xbef0168e	-0.46892208
82	0xbe5a6932	-0.21329191
83	0xbe37866b	-0.1792237
84	0xbf203056	-0.62573755
85	0xbf572c92	-0.84052384
86	0xbf381a36	-0.71914995
87	0xbec3833b	-0.38186058
88	0xbf5a78a8	-0.85340357
89	0xbf4dfdfa	-0.8046566
90	0xbecca71f	-0.39971253
91	0xbe526d5c	-0.2054953
92	0xbd45a8b4	-0.04825659
93	0xbf767c37	-0.96283287
94	0xbf21e42a	-0.63238776
95	0xbe41f946	-0.18942747
96	0xbec4fd56	-0.3847453
97	0xbef23324	-0.47304642
98	0xbf698e32	-0.912326
99	0xbf3a6224	-0.72806
100	0xbf7b1d33	-0.9809143
101	0xbf62ddfd	-0.8861998
102	0xbf58fdcc	-0.84762263
103	0xbf805560	-1.0026054
104	0xbf40161c	-0.75033736
105	0xbe86ee16	-0.2635352
106	0xbf4e4e32	-0.80588067
107	0xbf5f3702	-0.8719331
108	0xbe9614d3	-0.29312763
109	0xbec57e8c	-0.3857311
110	0xbf1fa022	-0.6235372
111	0xbe0f2992	-0.13980702
112	0xbf0bd6aa	-0.54624426
113	0xbe5d7940	-0.21628284
114	0xbf6d56f1	-0.9271079
115	0xbe38f2c2	-0.18061355
116	0xbe2cfbd9	-0.16892947
117	0xbf626b36	-0.8844484
118	0xbe6332e8	-0.22187388
119	0xbf1a3ec8	-0.60252047
120	0xbf2f3d80	-0.68453217
121	0xbf0ba087	-0.5454182
122	0xbf395143	-0.7238962
123	0xbe4f56e2	-0.20247987
124	0xbf6c2eb5	-0.9225877
125	0xbee05b71	-0.43819764
126	0xbf86671d	-1.0500218
127	0xbf7f4707	-0.99717754
128	0xbf0a5ea2	-0.5405065
129	0xbd8fca08	-0.07020956
130	0xbf804c4b	-1.0023283
131	0xbef14f49	-0.47130802
132	0xbf68137f	-0.9065475
133	0xbe13db0a	-0.14439026
134	0xbf71bbb2	-0.94427025
135	0xbf91ec09	-1.1400157
136	0xbe0f256e	-0.13979122
137	0xbf686807	-0.90783733
138	0xbf15eb15	-0.5856183
139	0xbf83f0e8	-1.0307894
140	0xbe79bed9	-0.24389209
141	0xbf40f3f8	-0.75372267
142	0xbe5b8d28	-0.21440566
143	0xbef9b6ba	-0.48772222
144	0xbf773c40	-0.9657631
145	0xbf520639	-0.82040745
146	0xbf7500d0	-0.95704365
147	0xbe185c5e	-0.14878985
148	0xbdc6ac3e	-0.09700821
149	0xbf56fc4c	-0.83978724
150	0xbf18957b	-0.5960309
151	0xbf255a6d	-0.64591104
152	0xbf5aad86	-0.85421026
153	0xbf9b81de	-1.2149007
154	0xbf2b8663	-0.6700193
155	0xbf471bc5	-0.7777675
156	0xbd2ec58c	-0.042668864
157	0xbf57be60	-0.84274864
158	0xbf759c26	-0.9594139
159	0xbee5c66e	-0.44877952
160	0xbf07c1e1	-0.5303021
161	0xbf49a920	-0.7877369
162	0xbf7d115c	-0.98854613
163	0xbf729671	-0.94760805
164	0xbf5e0efb	-0.8674161
165	0xbf1c1547	-0.60969967
166	0xbf21f44f	-0.6326341
167	0xbf71634a	-0.9429213
168	0xbf0afd07	-0.5429234
169	0xbf2318a2	-0.6370946
170	0xbf30ff6a	-0.6913973
171	0xbf02347e	-0.50861347
172	0xbf83876b	-1.0275701
173	0xbf3fc167	-0.74904484
174	0xbf12fcac	-0.57416797
175	0xbc8334f0	-0.016016454
176	0xbf5a2a5c	-0.85220885
177	0xbf1c793b	-0.61122483
178	0xbf06eacc	-0.5270202
179	0xbe717305	-0.23579033
180	0xbee0e207	-0.43922445
181	0xbf4ac8b3	-0.7921249
182	0xbf0f7c07	-0.56048626
183	0xbf66e1f4	-0.9018853
184	0xbeffde4f	-0.49974295
185	0xbf18202c	-0.5942409
186	0xbe214f47	-0.15752898
187	0xbf5a8813	-0.8536388
188	0xbe3e099c	-0.18558353
189	0xbe6bd98c	-0.23032206
190	0xbf1261a8	-0.5718026
191	0xbed137d5	-0.4086291
192	0xbf0b130a	-0.54325926
193	0xbf61c83d	-0.88196164
194	0xbf0a6805	-0.5406497
195	0xbf5ba53b	-0.85798997
196	0xbf359c2c	-0.70941424
197	0xbe554580	-0.20827293
198	0xbf80f13d	-1.007362
199	0xbf49b903	-0.7879793
200	0xbf3c8817	-0.73645157
201	0xbf231b82	-0.6371385
202	0xbf5cc0d6	-0.86231744
203	0xbdb9a374	-0.09064379
204	0xbe252da6	-0.16130695
205	0x3d75a145	0.05996825
206	0xbf21e40e	-0.6323861
207	0xbf7faa48	-0.99869204
208	0xbf0633ac	-0.52422595
209	0xbf1690bb	-0.5881459
210	0xbf6c6ce3	-0.9235365
211	0xbe5a2279	-0.21302213
212	0xbf706cea	-0.9391619
213	0xbe0c6473	-0.13710193
214	0xbf81e9e6	-1.0149505
215	0xbefd264e	-0.49443287
216	0xbe774af9	-0.24149694
217	0xbf95acd7	-1.1693372
218	0xbd1cf4a9	-0.038319264
219	0xbdca3fa2	-0.09875418
220	0xbf096a01	-0.53677374
221	0xbe9d15e8	-0.30680776
222	0xbf1b5365	-0.60674125
223	0xbf0d78da	-0.5526253
224	0xbc947212	-0.0181208
225	0xbdd35b57	-0.10320156
226	0xbf374509	-0.71589714
227	0xbe58754e	-0.21138498
228	0xbf12cbd4	-0.5734227
229	0xbf1f3fa9	-0.6220651
230	0xbe3be25b	-0.18348067
231	0xbf2a1abf	-0.6644706
232	0xbe17a791	-0.14810015
233	0xbeec138b	-0.4610866
234	0xbe8ca678	-0.27470756
235	0xbf245275	-0.6418832
236	0xbf5572ea	-0.8337847
237	0xbe8aaa16	-0.2708289
238	0xbf48cd3f	-0.7843818
239	0xbf0e9474	-0.5569527
240	0xbf67d239	-0.9055515
241	0xbf3fd753	-0.74937934
242	0xbef4f6ae	-0.47844452
243	0xbf0570e0	-0.5212536
244	0xbf6a1f93	-0.9145443
245	0xbf2a970e	-0.6663674
246	0xbefb4f9a	-0.4908417
247	0xbf829d09	-1.0204173
248	0xbf460e5b	-0.77365655
249	0xbf3cd184	-0.73757195
250	0xbf9353f3	-1.1509994
251	0xbdfe6df8	-0.124233186
252	0xbf5c5e21	-0.8608113
253	0xbf01a887	-0.5064778
254	0xbd2b32f9	-0.04179666
255	0xbdbe81c9	-0.09302098

linear1.weight f4 [12, 1200]
0	0x3bf41348	0.0074485876
1	0x3c521bc8	0.012824006
2	0xbf1e26c7	-0.6177792
3	0xbf2e7547	-0.681477
4	0xbba6372c	-0.005072495
5	0xbefc6d4a	-0.4930213
6	0xbed2ea4d	-0.41194382
7	0xbea75b56	-0.3268687
8	0xbe95bf10	-0.29247332
9	0xbf0a3d38	-0.5399966
10	0xbc67551c	-0.014119413
11	0xbf08859a	-0.5332886
12	0xbf01fd78	-0.5077739
13	0xbecb45f7	-0.39701816
14	0x3c9d4e4c	0.019202374
15	0x3f18f0f0	0.5974264
16	0xbef4013b	-0.4765719
17	0xbc87dc7c	-0.016584627
18	0xbec75d65	-0.38938442
19	0xbc259b7e	-0.010107873
20	0x3f1b6829	0.6070581
21	0xbf04b1e0	-0.51833916
22	0xbb631c60	-0.0034654364
23	0xbcc190d5	-0.023628632
24	0xbf008fa5	-0.50219184
25	0x3e9c4a42	0.30525404
26	0xbc67c3b8	-0.014145784
27	0x3c6b5a30	0.014364764
28	0xbf09970b	-0.537461
29	0xbc3b31ce	-0.011425449
30	0x3f14fd3b	0.581989
31	0x3c9218f0	0.017834157
32	0xbf2cba95	-0.674722
33	0x3f156e64	0.5837157
34	0x3f19416c	0.5986545
35	0xbefe1c48	-0.49630952
36	0xbeeed5b5	-0.4664742
37	0xbedf2de9	-0.43589714
38	0xbcea069e	-0.028567608
39	0x3f1ec653	0.6202137
40	0xbcb27de5	-0.021788547
41	0x3f14479f	0.57921785
42	0xbf10e1e1	-0.56594664
43	0xbf05c1a4	-0.522486
44	0x3cbf43b2	0.02334771
45	0xbf0bab25	-0.5455802
46	0x3f12c90f	0.5733804
47	0xbed98b84	-0.42489254
48	0xbf06cf40	-0.5265999
49	0xbed02a54	-0.40657294
50	0x3f1fc6b8	0.62412596
51	0xbf07776a	-0.52916586
52	0xbeccf160	-0.40027905
53	0x3ce6d944	0.028179772
54	0xbf043abf	-0.5165214
55	0xbca50354	-0.020143189
56	0xbf2486e3	-0.6426832
57	0xbf04f940	-0.51942825
58	0x3f146200	0.57962036
59	0x3f0ab129	0.54176575
60	0xbf0d1542	-0.5511056
61	0xbcd7f8b5	-0.02636371
62	0xbedd540a	-0.4322818
63	0xbf054204	-0.52053857
64	0x3f1612d7	0.586225
65	0xbf0578dd	-0.5213755
66	0xbee5c524	-0.4487697
67	0xbc9d337c	-0.019189589
68	0xbce64d57	-0.02811305
69	0x3f1d6b59	0.61491925
70	0x3eeafe98	0.45897365
71	0x3ca2a194	0.019852437
72	0xbef914f6	-0.48648804
73	0x3f16f671	0.5896979
74	0xbf07d86d	-0.53064615
75	0xbf02a758	-0.51036596
76	0xbf0e7a82	-0.5565568
77	0x3f171adf	0.5902538
78	0xbee742eb	-0.45168242
79	0x3f1ea61d	0.6197222
80	0xbf3a5043	-0.7277872
81	0xbe87e307	-0.26540396
82	0x3c0b1bc4	0.008490507
83	0xbc07938a	-0.008274922
84	0xbef4d7c1	-0.47820857
85	0x3f1c3f7f	0.6103439
86	0xbf48b22c	-0.7839687
87	0xbc79913d	-0.015232381
88	0x3b5ab3b0	0.0033371262
89	0xbf084a86	-0.53238714
90	0xbe65d51b	-0.22444575
91	0x3cd74a42	0.026280526
92	0xbbff46f0	-0.007790439
93	0xbedfd5a6	-0.43717688
94	0xbeead0a1	-0.45862296
95	0x3c629d60	0.013831466
96	0xbe619d5e	-0.22032687
97	0x3f13a006	0.5766605
98	0xbefdd76b	-0.49578413
99	0xbb978bb8	-0.00462481
100	0x3f17795d	0.5916956
101	0xbe56d018	-0.20977819
102	0xbb82e554	-0.003994623
103	0x3eeaa3a4	0.45827973
104	0x3b27f440	0.0025627762
105	0x3c4f8860	0.012666792
106	0x3f1ee55d	0.6206873
107	0xbf0331c4	-0.5124781
108	0xbf2e57d0	-0.6810274
109	0xbf39485d	-0.7237604
110	0xbef3e708	-0.476372
111	0xbeb861d9	-0.36012152
112	0xbce6f236	-0.028191667
113	0x3ce8b3ee	0.02840611
114	0xbf06f073	-0.52710646
115	0xbf3f45c8	-0.7471585
116	0xbf3d18ea	-0.7386614
117	0xbeef5222	-0.4674235
118	0x3a4cbfc0	0.00078105554
119	0x3f18b181	0.5964585
120	0xbef9e6af	-0.4880881
121	0x3f1a0827	0.6016869
122	0xbc148972	-0.009065973
123	0x3c76ec30	0.01507096
124	0xbed70fe4	-0.4200431
125	0xbf1b41d5	-0.60647327
126	0xbee49a33	-0.44648895
127	0xbee9e678	-0.45683646
128	0xbf1ec273	-0.62015456
129	0xbc0406c4	-0.008058254
130	0xbef0bd8c	-0.47019613
131	0x3edf159a	0.43571168
132	0xbee7f2c5	-0.45302406
133	0xbc4ab884	-0.0123730935
134	0xbef5b584	-0.47990048
135	0xbf071313	-0.5276348
136	0xbc386308	-0.01125408
137	0xbee71b2f	-0.45137927
138	0xbef5d655	-0.48015085
139	0x3f1c654a	0.61092055
140	0xba892c30	-0.0010465439
141	0xbce97f3f	-0.028503058
142	0x3c2e7f98	0.010650538
143	0x3ddcb9f4	0.10777655
144	0xbee463a8	-0.44607282
145	0xbc53a5a4	-0.01291791
146	0xbed2cd91	-0.4117246
147	0x3cc80062	0.024414245
148	0xbc5df6c1	-0.0135476
149	0xbcc05ca8	-0.023481682
150	0xbf33c619	-0.7022415
151	0xbbc38ed8	-0.005967956
152	0x3f189bad	0.5961254
153	0xbedc0867	-0.4297516
154	0xbf0b792e	-0.5448178
155	0xbf08b376	-0.53398836
156	0x3ae0eb40	0.0017159954
157	0xbb5e7300	-0.0033943057
158	0xbe852bbc	-0.2600993
159	0xbf01bdfe	-0.5068053
160	0x3f195258	0.5989127
161	0xbb978fe0	-0.0046253055
162	0xbebe9864	-0.3722564
163	0x3f12d60e	0.5735787
164	0xbe4d162c	-0.20027989
165	0xbf0862a0	-0.5327549
166	0xbecbb028	-0.39782834
167	0xbefe4bad	-0.4966711
168	0xbea2cb46	-0.3179571
169	0x3f125f45	0.5717662
170	0xbcdb9b69	-0.026807504
171	0xbee7be30	-0.4526229
172	0xbeda4e9f	-0.42638108
173	0xbf0d70f2	-0.55250466
174	0x3f191790	0.5980158
175	0xbc227ab2	-0.009916948
176	0xbf029ef7	-0.5102381
177	0x3c81d328	0.015847757
178	0xbf37f17a	-0.7185284
179	0x3cbb800e	0.02288821
180	0x3ead8fc8	0.3389876
181	0xbee75271	-0.45180085
182	0x3f11c838	0.56946135
183	0xbeda6d13	-0.42661342
184	0x3f1a4abb	0.6027028
185	0xbf080fe4	-0.5314925
186	0xbf1744ed	-0.5908955
187	0xb9ea6c00	-0.00044712424
188	0xbce624ea	-0.028093774
189	0xbf0fd2dd	-0.56181127
190	0xbf1a6d30	-0.60322857
191	0xbe856710	-0.26055193
192	0xbee6b994	-0.4506346
193	0xbee79d68	-0.4523728
194	0x3f16497a	0.58705866
195	0xbeb39d65	-0.3508102
196	0x3c92a1c4	0.017899401
197	0xbc9217ef	-0.017833678
198	0xbefa8348	-0.48928285
199	0xbefabfa5	-0.48974338
200	0x3f15767c	0.5838392
201	0xbf0b4878	-0.54407454
202	0xbf0422fa	-0.5161587
203	0x3c6d48cc	0.014482688
204	0x3cc007f4	0.023441292
205	0xbf490d2b	-0.7853572
206	0xbc4c5ae0	-0.012472838
207	0xbea3e899	-0.32013395
208	0x3f126c0c	0.57196116
209	0x3f141bab	0.5785472
210	0xbeff67fc	-0.4988402
211	0xbf33ad62	-0.70186436
212	0xbeab5084	-0.33459866
213	0xbca7539c	-0.02042561
214	0x3eee719e	0.46571058
215	0xbf452218	-0.7700515
216	0xbeb6d6d0	-0.35710764
217	0x3f157a46	0.583897
218	0xbf04601b	-0.51709145
219	0x3c8552ae	0.016274776
220	0x3f121062	0.5705625
221	0x3ead2d16	0.3382346
222	0xbc66dc12	-0.014090555
223	0x3f1473bb	0.5798909
224	0xbf46f41c	-0.7771623
225	0x3f203c81	0.6259232
226	0xbf03cca1	-0.51484114
227	0xbc38cb7a	-0.011278981
228	0xbb905914	-0.00440515
229	0x3f1718c2	0.5902215
230	0x3b56c390	0.0032770373
231	0x3ca5a9ea	0.020222623
232	0x3cdbe6c2	0.026843432
233	0xbecfaf63	-0.40563497
234	0xbb5e8dc8	-0.003395902
235	0xbee1d4a6	-0.4410755
236	0xbb417a98	-0.0029522534
237	0xbb088490	-0.0020830967
238	0xbf05887b	-0.5216138
239	0xbebf4f34	-0.37365115
240	0xbee6b7ac	-0.45062006
241	0x3f1dab35	0.61589366
242	0xbf36ee44	-0.71457314
243	0xbeed4b0a	-0.46346313
244	0xbee41120	-0.44544315
245	0xbca436bc	-0.02004563
246	0x3f135e2c	0.5756557
247	0xbe89580f	-0.26824996
248	0xbf0b9b81	-0.54534155
249	0x3ce2c918	0.02768378
250	0x3f1e7e25	0.6191123
251	0x3c846158	0.016159698
252	0x3caf3e48	0.021392003
253	0x3f186295	0.59525424
254	0xbf113634	-0.5672333
255	0x3f16db3b	0.5892827

linear1.bias f4 [12]
0	0xbf084330	-0.5322752
1	0xbc69d36e	-0.0142716
2	0xbf0679b8	-0.5252948
3	0xbf10eee9	-0.5661455
4	0xbedb9d71	-0.42893556
5	0xbf063eaa	-0.5243937
6	0xbf195127	-0.59889454
7	0xbf1b6520	-0.6070118
8	0xbf074b4e	-0.5284928
9	0xbf0a9296	-0.5412992
10	0xbf180b0b	-0.5939185
11	0xbf19d896	-0.6009611

linear2.weight f4 [24, 12]
0	0x3d40bcb8	0.047054976
1	0x3e714edc	0.23565239
2	0xbe4ffd35	-0.20311435
3	0x3dc01460	0.09378886
4	0xbde82084	-0.11334327
5	0x3e740388	0.23829472
6	0xbe5e59c4	-0.2171393
7	0x3e37569e	0.17904136
8	0x3e1605fa	0.14650717
9	0x3e90776a	0.28216106
10	0x3d614c40	0.05500436
11	0xbe6ef3e9	-0.23335232
12	0xbe7f269b	-0.2491707
13	0x3be78d40	0.007066399
14	0xbf056e2b	-0.5212123
15	0xbeb4ae90	-0.3528943
16	0x3f19f377	0.6013712
17	0x3e722eb2	0.23650625
18	0x3ea70fb2	0.32629162
19	0x3f1f2284	0.6216204
20	0xbf4a2ed5	-0.7897771
21	0xbed9e168	-0.42554784
22	0x3e0e41a9	0.13892235
23	0xbe46a9d6	-0.19400725
24	0x3e83a1d9	0.25709417
25	0xbccbb900	-0.024868488
26	0x3efc8e2e	0.49327224
27	0xbde31dbc	-0.11089656
28	0xbeb992e8	-0.36244893
29	0xbee18b75	-0.4405171
30	0xbeda1615	-0.42594972
31	0xbf3a6ed8	-0.72825384
32	0x3f1520c7	0.5825314
33	0x3e47b538	0.19502723
34	0xbf5a532a	-0.8528315
35	0xbe8f803e	-0.2802753
36	0xbf2a3e8c	-0.6650169
37	0x3e85c78a	0.261288
38	0xbf62983f	-0.8851356
39	0xbced0770	-0.02893421
40	0xbe92232d	-0.28542462
41	0xbf204cb1	-0.6261702
42	0xbf0c4e93	-0.54807395
43	0xbe9bcf5c	-0.3043164
44	0x3e0ff8b2	0.14059713
45	0x3dc756a8	0.09733325
46	0xbed92885	-0.42413726
47	0xbd052d10	-0.032513678
48	0x3f0e375e	0.55553234
49	0xbb410d00	-0.0029457211
50	0x3e9d2960	0.3069563
51	0x3f11d8c2	0.5697137
52	0x3f3745e0	0.71590996
53	0x3e9ddd20	0.30832767
54	0x3e92a7e6	0.2864372
55	0xbd18dc30	-0.037319362
56	0xbde38288	-0.11108881
57	0x3f3ff14a	0.7497755
58	0xbe0fe443	-0.14051919
59	0xbe787b9d	-0.24265905
60	0x3f41254e	0.7544755
61	0xbbd10a80	-0.0063794255
62	0x3f35c0c6	0.70997274
63	0x3f156fef	0.5837392
64	0xbc6e2260	-0.014534563
65	0x3e661e08	0.22472394
66	0x3e89ceb6	0.2691552
67	0x3dc651c8	0.09683567
68	0xbe12dc5d	-0.14341874
69	0x3f4aea91	0.7926417
70	0x3e8888ec	0.26666963
71	0xbc9a0010	-0.018798858
72	0x3eb5b471	0.35489228
73	0x3bab4a40	0.005227357
74	0x3e9ac921	0.30231574
75	0x3f006c65	0.50165397
76	0xbe8fa70b	-0.2805713
77	0x3caabe70	0.02084276
78	0xbd88999a	-0.06669922
79	0xbe8f2526	-0.2795803
80	0x3de51dc0	0.11187315
81	0x3f4dd461	0.8040219
82	0xbe044ed7	-0.129207
83	0xbe87ea9b	-0.26546177
84	0xbef8beed	-0.48583165
85	0xbd15fd38	-0.03661844
86	0xbefca787	-0.49346563
87	0xbf073443	-0.5281412
88	0xbea4db03	-0.32198343
89	0xbf46ac02	-0.77606213
90	0x3ecb5266	0.39711303
91	0x3eca5293	0.39516124
92	0x3eba8ff2	0.36437947
93	0xbec0d37c	-0.3766135
94	0x3f04114e	0.51588905
95	0x3cd8b129	0.026451664
96	0xbee2fbc8	-0.4433272
97	0xbe43a818	-0.19107091
98	0xbf5b057f	-0.8555526
99	0xbe1957b0	-0.14974856
100	0xbe6038f0	-0.2189672
101	0xbe706da0	-0.23479319
102	0x3db48eed	0.088163234
103	0xbedd7d7b	-0.43259797
104	0x3e586244	0.21131235
105	0x3dd0849c	0.10181543
106	0xbf194337	-0.59868187
107	0xbece866a	-0.40336925
108	0xbe2df182	-0.16986659
109	0xbe810dd7	-0.2520587
110	0xbe48980c	-0.19589251
111	0xbe6e6ee5	-0.2328449
112	0xbdb5e7d8	-0.08882111
113	0xbd7ff5b0	-0.062490165
114	0x3e92d2da	0.28676492
115	0x3e0a9638	0.13533866
116	0x3e909c38	0.28244185
117	0x3d92f990	0.071765065
118	0xbe78a29a	-0.24280778
119	0x3e0aa384	0.13538939
120	0xbf2c8208	-0.6738591
121	0xbe751830	-0.23935008
122	0xbf0166f8	-0.5054774
123	0xbdf33e62	-0.11877133
124	0xbe8b9343	-0.2726079
125	0xbdd0af20	-0.101896524
126	0xbd971e15	-0.073787846
127	0xbf477f63	-0.7792875
128	0xbdc97d28	-0.09838325
129	0xbc2303c0	-0.009949625
130	0xbf35a74d	-0.70958406
131	0xbe0154a3	-0.12629943
132	0x3f4327dc	0.76232696
133	0x3e92f25e	0.28700536
134	0x3f06ad4b	0.52608174
135	0x3f54b283	0.8308489
136	0xbf428370	-0.7598181
137	0xbdb3227a	-0.0874681
138	0x3df06d5c	0.11739609
139	0x3e0f8950	0.14017224
140	0xbee12654	-0.43974555
141	0x3f417bff	0.7557983
142	0xbe3a31ab	-0.1818301
143	0xbd60b3d4	-0.054858997
144	0xbdbb4e7e	-0.091458306
145	0xbe31a310	-0.1734736
146	0xbde8f1b2	-0.11374225
147	0x3e7e358c	0.24825114
148	0xbe7b9f79	-0.24572553
149	0xbeee451c	-0.465371
150	0x3d7e6660	0.06210935
151	0x3e6f533c	0.23371595
152	0xbcaf24e0	-0.021379888
153	0x3e0d90ea	0.13824812
154	0x3e8f4812	0.27984673
155	0xbd362c30	-0.044475734
156	0xbf09ec36	-0.53876054
157	0x3e2aa02c	0.16662663
158	0xbeaaa9f9	-0.33332804
159	0xbf408ffc	-0.752197
160	0xbf4c1381	-0.7971726
161	0x3e08b3ea	0.13349882
162	0x3e74dd14	0.2391246
163	0x3f1fbed1	0.6240054
164	0xbee7f23d	-0.45302
165	0xbed671ae	-0.41883606
166	0x3ee19e9a	0.44066316
167	0xbd4040d1	-0.046936814
168	0xbee84e76	-0.4537236
169	0xbd1a46c0	-0.03766513
170	0xbeee5654	-0.46550238
171	0xbeaa5f36	-0.33275765
172	0x3f381cc4	0.7191889
173	0x3eaddb17	0.33956215
174	0xbeb9b79c	-0.36272895
175	0xbebbe05c	-0.3669461
176	0x3e3f00ce	0.1865265
177	0xbf39f5a6	-0.72640455
178	0xbf31cb59	-0.6945091
179	0x3dc5efc1	0.0966487
180	0xbe4c7cc9	-0.19969477
181	0x3e167ed2	0.14696816
182	0xbf0e2713	-0.5552837
183	0xbf06697e	-0.5250472
184	0x3f0c4475	0.5479196
185	0x3ea1970d	0.31560555
186	0xbe709dab	-0.23497646
187	0x3f2715fe	0.6526793
188	0xbef5520f	-0.47914168
189	0xbec72bf5	-0.38900724
190	0x3e95def0	0.2927165
191	0x3e24f515	0.16109116
192	0xbe3ee908	-0.18643582
193	0xbde18fb8	-0.1101374
194	0x3d8b8d84	0.06814101
195	0x3e83982c	0.25702035
196	0xbe0f20ad	-0.13977309
197	0x3e617e1c	0.22020763
198	0xbe3da690	-0.1852057
199	0x3e75060c	0.23928088
200	0xbd48cd88	-0.049024135
201	0xbd3ed51c	-0.046589956
202	0x3c939d10	0.01801923
203	0xbe93bcda	-0.2885502
204	0xbe8bc7d7	-0.27300903
205	0xbdc15658	-0.09440297
206	0xbecedf95	-0.40404955
207	0xbeab48f1	-0.33454087
208	0xbe545a62	-0.20737603
209	0xbe074f80	-0.1321392
210	0x3f1ae84d	0.6051071
211	0x3ec35d16	0.38156956
212	0xbeccf8e0	-0.40033627
213	0xbf062549	-0.5240064
214	0x3e54c60a	0.20778671
215	0xbe14c623	-0.14528708
216	0xbf5b538b	-0.8567435
217	0x3de33a14	0.11095062
218	0xbf5479a8	-0.8299813
219	0xbe0cf1de	-0.1376414
220	0xbecf5153	-0.40491733
221	0xbeff2a6a	-0.49837047
222	0xbeba88d5	-0.3643252
223	0xbed36870	-0.41290617
224	0x3e8c038a	0.2734645
225	0xbdef2e2e	-0.1167873
226	0xbea88d6c	-0.32920396
227	0xbe3c4057	-0.18383919
228	0x3e2dce68	0.16973269
229	0x3c12d140	0.008961022
230	0xbe3a27be	-0.18179223
231	0x3e877fae	0.264646
232	0xbd87a934	-0.0662407
233	0x3e1cd914	0.15317184
234	0x3e71e7cc	0.2362358
235	0xbda6224a	-0.08112009
236	0xbd8512d8	-0.06497735
237	0x3da658d0	0.081224084
238	0x3c979650	0.018504292
239	0x3e6ab950	0.22922254
240	0xbf204dc3	-0.62618655
241	0x3e7b03d8	0.24513185
242	0xbf1a9a43	-0.60391635
243	0xbd1f06f4	-0.03882499
244	0xbe80b2b7	-0.2513635
245	0xbea75f3e	-0.32689852
246	0xbe80c909	-0.25153378
247	0xbf5a5083	-0.852791
248	0xbe8900cd	-0.26758423
249	0x3e1926bc	0.14956182
250	0xbf13e3d8	-0.57769537
251	0xbc938c69	-0.018011289
252	0x3ec5400a	0.3852542
253	0x3e0b1ee8	0.13586009
254	0x3f34ff3d	0.7070196
255	0x3f3d8285	0.7402728

linear2.bias f4 [24]
0	0xbe3b7e36	-0.18309864
1	0xbe166e86	-0.14690599
2	0xbacf6a95	-0.0015824611
3	0xbf308fee	-0.6896962
4	0xbd291434	-0.041279033
5	0xbee2ad13	-0.4427267
6	0xbf1d5624	-0.61459565
7	0xbedb2bc4	-0.42806828
8	0xbefd6af7	-0.4949567
9	0xbda45e56	-0.08025806
10	0xbf10f274	-0.56619954
11	0xbf00af4f	-0.502675
12	0xbf1ad351	-0.60478693
13	0xbeb81e90	-0.35960817
14	0xbe9bf485	-0.3045999
15	0xbdaa2d41	-0.08309413
16	0xbdf32364	-0.118719846
17	0xbeafea41	-0.3435841
18	0xbb228cbc	-0.0024803123
19	0xbd161750	-0.036643326
20	0xbf3f7652	-0.7478992
21	0xbec56c1f	-0.38559052
22	0xbca9d3ac	-0.020730816
23	0xbec4374a	-0.38323432

linear3.weight f4 [48, 24]
0	0xbd4a30a8	-0.04936281
1	0xbf00c8d0	-0.50306416
2	0x3ea001be	0.3125133
3	0x3eb35c8d	0.35031548
4	0xbf1f4b0f	-0.62223905
5	0xbee72465	-0.45144954
6	0xbf2f9aba	-0.6859547
7	0xbf0780bb	-0.529308
8	0x3f1679d1	0.5877963
9	0xbdc5fda2	-0.09667517
10	0x3f447ecf	0.76755995
11	0xbf2f0423	-0.6836569
12	0xbf304068	-0.68848276
13	0xbed8ca0d	-0.42341653
14	0xbe8d1d9f	-0.27561662
15	0xbf12f9a2	-0.5741216
16	0x3e045084	0.1292134
17	0xbece67ec	-0.4031366
18	0x3e2e929e	0.17048118
19	0x3daa1c5c	0.0830619
20	0x3e803bfd	0.25045767
21	0xbf1585f3	-0.58407515
22	0x3ec12d0b	0.37729678
23	0xbeb5b6d8	-0.3549106
24	0xbdfa9096	-0.12234609
25	0xbede2070	-0.43384123
26	0x3e05c738	0.13064277
27	0xbe59131a	-0.21198693
28	0xbf0383ae	-0.513728
29	0xbeed1f09	-0.4631274
30	0xbf377ff3	-0.7167961
31	0xbebbf224	-0.36708176
32	0x3f273bde	0.65325725
33	0x3e0608fe	0.13089368
34	0x3f3b0288	0.7305074
35	0xbeaea61e	-0.34111112
36	0xbec8319a	-0.39100343
37	0xbed0a31d	-0.40749446
38	0xbf1afed5	-0.6054509
39	0xbf1c87a0	-0.6114445
40	0xbe2e2c22	-0.17009023
41	0xbec4b691	-0.38420537
42	0x3e1054ae	0.14094803
43	0x3d370600	0.044683456
44	0xbe218650	-0.15773892
45	0xbf3b9126	-0.73268354
46	0x3d7a30da	0.061081745
47	0xbedb503e	-0.42834657
48	0x3d26def8	0.040739983
49	0xbf006121	-0.50148207
50	0xbe4763fc	-0.19471735
51	0x3e4ea139	0.20178689
52	0xbf20e0f1	-0.62843233
53	0xbed8bbe4	-0.4233085
54	0xbefd1d71	-0.49436525
55	0xbf17e55a	-0.5933434
56	0x3f315969	0.69277054
57	0xbd5b3c80	-0.053524494
58	0x3ed850f4	0.42249262
59	0xbed46bcb	-0.4148849
60	0xbf1e63fc	-0.61871314
61	0xbe85f6ca	-0.26164848
62	0xbec10299	-0.37697294
63	0xbf1909c5	-0.5978053
64	0x3db3ffdc	0.08789036
65	0xbef2874f	-0.47368857
66	0x3e180870	0.14846969
67	0xbd94eeba	-0.07272096
68	0x3ddd0c21	0.10793329
69	0xbf05ba5f	-0.52237505
70	0x3d725a92	0.059168406
71	0xbec84d22	-0.39121348
72	0x3de98c18	0.11403674
73	0xbf04472c	-0.516711
74	0x3e58d618	0.2117542
75	0x3e4bc455	0.19899113
76	0xbeb963c4	-0.36208928
77	0xbf3a88f6	-0.72865236
78	0xbf087e65	-0.5331786
79	0xbe59ac54	-0.21257144
80	0x3f22f24c	0.63650966
81	0x3c9f82b0	0.019471496
82	0x3f3767d9	0.71642834
83	0xbebd42f7	-0.36965153
84	0xbf34e6b5	-0.7066453
85	0xbee0360d	-0.43791237
86	0xbf16dc0a	-0.589295
87	0xbe83c351	-0.25734952
88	0xbd229d28	-0.039700657
89	0xbf226d76	-0.63448274
90	0x3dfce11c	0.12347624
91	0xbdba46fd	-0.09095571
92	0x3e5092a1	0.20368434
93	0xbeca5da5	-0.3952457
94	0x3ee759f3	0.45185813
95	0xbee1ca04	-0.44099438
96	0xbdff881d	-0.124771334
97	0x3ed98bfb	0.4248961
98	0xbe30daa3	-0.17270903
99	0x3dc396b7	0.09550231
100	0x3f1c0ae5	0.60954124
101	0x3f20265e	0.62558544
102	0x3f13b62c	0.5769985
103	0x3f1c6ff4	0.61108327
104	0xbf0290ac	-0.51002
105	0x3d293a58	0.041315407
106	0xbed008e2	-0.40631777
107	0x3f393e1d	0.723604
108	0x3f2d20a7	0.6762795
109	0x3f18f49a	0.5974823
110	0x3ee85e22	0.45384318
111	0x3eb59430	0.3546462
112	0xbd476988	-0.048684627
113	0x3f09d738	0.5384402
114	0x3dcdce82	0.10049154
115	0x3d34b29c	0.044115648
116	0x3e80bcd6	0.2514407
117	0x3eb7e1ff	0.3591461
118	0xbef0359a	-0.46915895
119	0x3eac4678	0.33647513
120	0xbccb8da0	-0.024847806
121	0x3ef5cafa	0.4800642
122	0xbec76d1f	-0.3895044
123	0xbca95a35	-0.020672897
124	0x3f042acb	0.51627797
125	0x3f2115d5	0.6292394
126	0x3f1a3da4	0.60250306
127	0x3ef15db4	0.47141802
128	0xbf3fefa3	-0.7497503
129	0x3b2cb3c0	0.0026352257
130	0xbf3cfd3c	-0.73823905
131	0x3f20a3a0	0.6274967
132	0x3f2b595e	0.6693324
133	0x3e8abc2e	0.27096695
134	0x3f04b614	0.5184033
135	0x3f1a11be	0.6018332
136	0xbe4e7cd0	-0.201648
137	0x3ecc1b0e	0.3986439
138	0xbeb80c77	-0.3594701
139	0x3dc27314	0.09494606
140	0x3e2ad5b3	0.16683082
141	0x3f29a1de	0.66262615
142	0xbeb49d63	-0.35276327
143	0x3f0d59cb	0.5521514
144	0x3e0548d2	0.1301606
145	0xbf0a4949	-0.54018074
146	0x3e851e2f	0.2599959
147	0x3f2e4fdb	0.680906
148	0xbf04e254	-0.5190785
149	0xbf10dcea	-0.5658709
150	0xbf30ee44	-0.69113564
151	0xbf000c82	-0.50019085
152	0x3f0745a1	0.5284062
153	0xbe436228	-0.19080412
154	0x3f44b2d1	0.7683535
155	0xbeb06b2e	-0.34456772
156	0xbebf177e	-0.3732261
157	0xbe94680b	-0.28985628
158	0xbef50473	-0.47854957
159	0xbecd46fa	-0.40093213
160	0xbcaf4f08	-0.02139999
161	0xbf0f288c	-0.55921245
162	0x3eee1139	0.46497515
163	0x3d741690	0.05959183
164	0x3eb3c2fa	0.35109693
165	0xbeb14da1	-0.3462954
166	0x3ea0b04e	0.3138451
167	0xbf06be4a	-0.5263411
168	0xbde93b18	-0.11388224
169	0xbe86d28c	-0.2633251
170	0x3cd76fe3	0.026298469
171	0xbe06a502	-0.13148883
172	0xbef03e4d	-0.46922532
173	0xbf30e581	-0.69100195
174	0xbf364e53	-0.71213263
175	0xbe91f071	-0.28503755
176	0x3f0ff117	0.5622725
177	0xbc1ee380	-0.009697795
178	0x3f1f866b	0.6231448
179	0xbf0feee1	-0.56223875
180	0xbeaa74ef	-0.33292338
181	0xbf172b73	-0.59050673
182	0xbee4db09	-0.4469836
183	0xbe97f7c9	-0.29681233
184	0xbe36207d	-0.17785831
185	0xbf1a6e37	-0.60324425
186	0xbdf27909	-0.11839492
187	0xbce546b0	-0.027987808
188	0xbe92e732	-0.28692013
189	0xbf055668	-0.5208497
190	0x3e8b0faf	0.27160403
191	0xbe783257	-0.24237953
192	0x3d4e36b0	0.050345123
193	0xbed8bdf4	-0.42332423
194	0x3dad07a1	0.08448721
195	0xbe421990	-0.18955064
196	0xbecb3753	-0.39690647
197	0xbeefb25d	-0.46815768
198	0xbeca05b2	-0.3945747
199	0xbee3d213	-0.4449621
200	0x3f1f2c78	0.6217723
201	0xbde358cf	-0.11100923
202	0x3f3d41fa	0.739288
203	0xbf0e8dbc	-0.5568502
204	0xbec2f9d0	-0.38081217
205	0xbedb382c	-0.42816293
206	0xbf12cc49	-0.57342964
207	0xbf0f449e	-0.55964077
208	0xbd926728	-0.07148582
209	0xbe9fb294	-0.31190932
210	0x3d360677	0.04443976
211	0xbc9c79b8	-0.019101009
212	0xbe8ab44a	-0.27090675
213	0xbf0152d7	-0.5051703
214	0x3ea40321	0.32033637
215	0xbf0fa516	-0.56111276
216	0xbdc8bbd2	-0.09801449
217	0xbefc6625	-0.4929668
218	0x3e63fb0d	0.22263737
219	0x3e1b5046	0.1516734
220	0xbee8e0e0	-0.45484066
221	0xbefd42ac	-0.4946493
222	0xbf043c32	-0.5165435
223	0xbe215f1d	-0.15758939
224	0xbf230add	-0.6368845
225	0xbe4ba912	-0.19888714
226	0xbecf0806	-0.4043581
227	0xbeafd5ac	-0.34342706
228	0x3edfd45e	0.4371671
229	0xbf3a058a	-0.726647
230	0xbf07feb1	-0.53123003
231	0xbf1cb338	-0.61210966
232	0x3dea9b28	0.11455375
233	0xbf055706	-0.5208591
234	0x3db3427d	0.08752916
235	0x3daaa014	0.08331314
236	0x3e3000d2	0.17187813
237	0xbf13b77c	-0.5770185
238	0x3e121921	0.14267398
239	0xbf075635	-0.52865916
240	0x3d18ed90	0.037335932
241	0xbef1155e	-0.47086614
242	0xbde3d7d0	-0.11125147
243	0x3dd817ff	0.10551452
244	0xbf0ea940	-0.55727005
245	0xbec48564	-0.3838302
246	0xbf10710f	-0.56422514
247	0xbe8729ca	-0.2639907
248	0x3f3ef420	0.74591255
249	0x3d907c34	0.0705494
250	0x3f1d52f3	0.61454695
251	0xbf37afe5	-0.7175277
252	0xbf26470d	-0.64952165
253	0xbef02d01	-0.46909335
254	0xbf064836	-0.52453935
255	0xbeff7486	-0.49893588

linear3.bias f4 [48]
0	0x3e6688dc	0.22513145
1	0x3d8bdfa4	0.068297654
2	0x3e547672	0.20748308
3	0x3eabf8ea	0.33588344
4	0x3e66c51a	0.22536126
5	0x3d8bb600	0.06821823
6	0x3e55ec08	0.2089082
7	0x3eac0d7f	0.33604047
8	0x3e66eed4	0.22552043
9	0x3d8bd923	0.06828525
10	0x3e549a7f	0.2076206
11	0x3eac061c	0.3359841
12	0x3e67192b	0.22568195
13	0x3d8b91e3	0.06814935
14	0x3e55fbfc	0.20896906
15	0x3eabe6d6	0.3357455
16	0x3e670e12	0.22563961
17	0x3d8b4b5a	0.068014815
18	0x3e551376	0.20808205
19	0x3eabca92	0.33552986
20	0x3e670c93	0.2256339
21	0x3d8b8879	0.068131395
22	0x3e551f1f	0.20812653
23	0x3eabeb28	0.33577847
24	0x3e671b60	0.22569036
25	0x3d8b5bda	0.06804629
26	0x3e558f93	0.2085555
27	0x3eabfc7b	0.33591065
28	0x3e672a01	0.22574617
29	0x3d8b578b	0.06803807
30	0x3e5482a7	0.20752965
31	0x3eac0cd0	0.33603525
32	0x3e67491e	0.22586486
33	0x3d8b93f6	0.06815331
34	0x3e5492eb	0.2075917
35	0x3eac11c8	0.33607316
36	0x3e67432d	0.2258422
37	0x3d8b8d7c	0.068140954
38	0x3e54d8a6	0.2078577
39	0x3eabf4e4	0.33585274
40	0x3e672ba5	0.22575243
41	0x3d8bd47e	0.06827639
42	0x3e54b61a	0.20772591
43	0x3eabec9e	0.33578962
44	0x3e6702eb	0.22559707
45	0x3d8bcc73	0.06826105
46	0x3e54610a	0.20740142
47	0x3eac1b00	0.3361435
