epoch_60_model/세정/model.pth (torch, 54880 bytes, 18 tensors)

linear1.weight f4 [6, 12]
0.43951368 0.4524079 0.63108593 0.442033 0.6645169 0.49744046 0.5410075 0.22782506
0.3274955 0.49423417 0.2853792 0.4054296 -0.067607 0.07350652 -0.17495126 -0.11843002
0.015765533 -0.2439057 -0.117693976 0.1559025 -0.04598356 -0.07876464 0.045331605 0.037281953
0.15985736 -0.46792784 0.526849 -0.4886526 0.49575517 0.2734512 0.22826758 -0.329507
0.549862 0.50354004 0.124127306 0.13404757 0.055621684 -0.040988684 -0.11067508 -0.1265355
0.024913669 -0.20309421 -0.14883879 -0.25473285 0.005696833 0.1616467 -0.24286242 0.013640225
-0.014113827 0.0012634427 -0.03897951 -0.03251854 0.045338932 -0.06866991 -0.0729461 -0.15986638
-0.07734533 -0.07022903 -0.035397884 0.040812917 -0.056082886 -0.017348709 -0.05827454 0.097047426
-0.12766358 -0.14733174 -0.061415102 0.11461476 -0.25295585 -0.18923283 0.15740775 0.010918623
00000000: f007 e13e 02a2 e73e d98e 213f 2652 e23e
00000010: c81d 2a3f 84b0 fe3e 787f 0a3f f94a 693e
00000020: 7dad a73e 430c fd3e 391d 923e 7894 cf3e
00000030: 8a75 8abd 968a 963d 6c26 33be 708b f2bd
00000040: b826 813c 6ac2 79be 8a09 f1bd e8a4 1f3e
00000050: 4259 3cbd 5b4f a1bd a2ad 393d f6b4 183d
00000060: a6b1 233e 3d94 efbe 93df 063f ac30 fabe
00000070: 9fd3 fd3e cc01 8c3e fabe 693e 24b5 a8be
00000080: c2c3 0c3f 00e8 003f 7536 fe3d c443 093e
00000090: 90d3 633d c0e3 27bd 9ea9 e2bd 8692 01be
000000a0: c017 cc3c eef7 4fbe 3269 18be 586c 82be
000000b0: 80ac ba3b b686 253e edb0 78be 407b 5f3c
000000c0: ae3d 67bc 1a9a a53a fba8 1fbd 2932 05bd
000000d0: 51b5 393d cfa2 8cbd c464 95bd 03b4 23be
000000e0: 3a67 9ebd 3dd4 8fbd 5ffd 10bd 722b 273d
000000f0: 2bb7 65bd e11e 8ebc 49b1 6ebd cdc0 c63d
00000100: 3eba 02be 22de 16be 678e 7bbd 25bb ea3d
00000110: 6e83 81be 40c6 41be 7f2f 213e 06e4 323c

linear1.bias f4 [6]
0.1896616 0.24663892 -0.010114576 -0.017118692 0.37118778 0.47886398
00000000: a736 423e ea8e 7c3e 9bb7 25bc 803c 8cbc
00000010: 530c be3e a92d f53e

linear2.weight f4 [3, 6]
1.5899625 -0.65079075 1.3477707 0.16441834 -0.43192127 -1.1410564 -0.07434651 0.25449497
-0.20612924 0.30784166 -0.30293453 -0.3636765 0.6535073 -0.27767834 0.8569851 -0.38261446
0.3655065 -0.04736998
00000000: e483 cb3f 399a 26bf c083 ac3f 485d 283e
00000010: c924 ddbe 230e 92bf fc42 98bd 2a4d 823e
00000020: 8b13 53be 6c9d 9d3e 3c1a 9bbe ce33 babe
00000030: 414c 273f db2b 8ebe 6063 5b3f 0be6 c3be
00000040: ab23 bb3e 0607 42bd

linear2.bias f4 [3]
0.6461103 -0.13935408 0.48916268
00000000: 7c67 253f d6b2 0ebe 8873 fa3e

linear3.weight f4 [1200, 3]
-0.3958444 0.5438547 0.023071844 0.0588672 -0.2692008 -0.011760692 -0.42268854 -0.30632544
-0.49663693 -0.012778878 -0.53668207 -0.48112276 -0.04312081 0.19577426 0.027683262 -0.23517746
-0.51182795 -0.18613866 0.027618945 0.5233512 -0.197218 0.17374738 0.3859381 0.024540588
-0.4154992 0.36564744 0.06182981 0.22135939 -0.29464108 0.84740996 -0.5295342 0.14805627
-0.086060375 -0.4603979 -0.13700104 0.02289921 0.01573539 -0.09173292 -0.07145974 0.48179567
0.4004907 0.16809383 -0.43243304 0.05537361 -0.043423474 -0.10792208 0.32337588 0.17654085
0.27503195 -0.19343632 -0.72616076 -0.22338976 -0.56775117 -0.031323295 -0.4999475 -0.5535349
0.23413628 -0.381665 0.16869235 -0.32836103 0.026715716 -0.029313326 -0.014320867 -0.23845083
0.52795327 -0.23190013 -0.54730374 0.5436915 0.48406714 -0.12113 0.2181248 0.327373
0.5790514 0.55609024 0.78024477 0.23030265 0.38626122 0.03530416 0.5564109 0.5229051
0.6705218 -0.39967522 0.44607508 0.041996483 -0.16723302 -0.15034515 0.40777487 0.06313825
-0.11606872 -0.23740424 0.0029223561 -0.15273833 -0.5373907 -0.32701886 -0.38211417 -0.47244227
-0.2028045 -0.25145072 -0.053915203 -0.007878972 0.37847757 0.051149286 0.020272216 0.42882216
-0.39628157 -0.51119167 0.085419714 0.20474161 0.7362724 0.4014743 0.13959514 -0.45984113
0.47045064 0.1206944 1.1084971 -0.10619095 -0.015840717 0.10748276 -0.19341236 -0.29189327
-0.28655908 -0.42909747 0.25215846 -0.40955538 -0.48733097 0.37839997 0.41524982 -0.12491679
0.05349879 -0.084395625 -0.46424744 0.08804524 0.329572 0.03625703 -0.51210093 -0.13133341
0.047046065 -0.1272203 -0.104128845 0.088311195 0.106657974 0.10091897 0.008920431 -0.3004322
0.20258315 -0.30444965 -0.50271595 -0.4188497 -0.5034447 0.17506422 -0.123742685 0.4885981
0.10302021 0.17137574 0.25240368 -0.4049434 -0.28466734 -0.11763078 -0.11216122 0.49730402
-0.5158667 1.0562152 0.20690386 -0.21192613 -0.082102425 0.4477459 0.46071184 -0.323388
0.5877908 -0.5766104 0.4112486 -0.44271788 0.56389606 -0.057119478 -0.5501433 0.47195745
0.10635281 -0.23534526 0.13681346 -0.2748982 0.021092057 0.096748054 -0.34214228 0.64226526
0.31377453 -0.04590269 -0.1052255 0.19784248 0.7477148 -0.059770703 -0.12475684 -0.20667814
0.10454043 -0.15357435 -0.43831554 -0.52045745 -0.14081776 -0.46080706 0.016725821 -0.38483766
-0.16972688 -0.4165364 0.19017637 0.18417327 0.7189327 0.2303868 -0.20020747 0.3020404
0.4490949 0.09041682 0.02370669 -0.42845196 -0.5069271 -0.56968427 0.0845772 -0.46337473
-0.09589793 0.33794832 -0.41508403 -0.15869719 0.2247076 0.019236803 0.01497215 0.1713621
0.21249016 -0.37100285 -0.4388256 0.19757617 -0.3230429 0.4163201 0.32391998 -0.282357
0.14389968 -0.22837424 -0.41428638 -0.24675667 0.052802995 -0.33731538 -0.36429173 0.21914184
0.20039937 -0.48916152 -0.47584048 -0.60886073 -0.07754865 0.21990953 -0.29471698 0.17059642
-0.38453254 0.091176674 0.19794458 -0.15527125 -0.49647284 0.18746173 -0.17254281 -0.50036603
00000000: 1eac cabe 103a 0b3f 2a01 bd3c bc1e 713d
00000010: b0d4 89be ebaf 40bc a26a d8be b0d6 9cbe
00000020: 3247 febe 805e 51bc ff63 09bf b955 f6be
00000030: 729f 30bd 0c79 483e 02c8 e23c 5cd2 70be
00000040: 2807 03bf 229b 3ebe 2041 e23c 58fa 053f
00000050: 84f3 49be d5ea 313e ae99 c53e 5809 c93c
00000060: 50bc d4be 2436 bb3e 4141 7d3d 09ac 623e
00000070: 32db 96be dcef 583f 8e8f 07bf 109c 173e
00000080: 6c40 b0bd 46b9 ebbe 004a 0cbe 2097 bb3c
00000090: 81e7 803c 78de bbbd 7c59 92bd ecad f63e
000000a0: 1e0d cd3e ca20 2c3e dd67 ddbe 70cf 623d
000000b0: d0dc 31bd 4006 ddbd 8691 a53e 20c7 343e
000000c0: fdd0 8c3e 2c14 46be ace5 39bf 49c0 64be
000000d0: 2458 11bf db4c 00bd 1ef9 ffbe 77b4 0dbf
000000e0: 6cc1 6f3e 9869 c3be b0bd 2c3e f01e a8be
000000f0: ebda da3c 8022 f0bc 12a2 6abc 742c 74be
00000100: f227 073f 3a77 6dbe 191c 0cbf 5e2f 0b3f
00000110: a6d7 f73e 0113 f8bd 1c5c 5f3e 6f9d a73e
00000120: b63c 143f ee5b 0e3f 1fbe 473f 75d4 6b3e
00000130: 08c4 c53e 189b 103d f270 0e3f 1cdd 053f
00000140: 51a7 2b3f 3ba2 ccbe f463 e43e 8104 2c3d
00000150: 223f 2bbe 14f4 19be dec7 d03e a04e 813d
00000160: 70b5 edbd 191a 73be 0085 3f3b 7067 1cbe
00000170: 7092 09bf 046f a7be 78a4 c3be f4e3 f1be
00000180: fcab 4fbe 26be 80be 30d6 5cbd ce16 01bc
00000190: d0c7 c13e ea81 513d eb11 a63c 948e db3e
000001a0: 6be5 cabe 75dd 02bf 88f0 ae3d c9a7 513e
000001b0: 597c 3c3f 0a8e cd3e 07f2 0e3e 4c70 ebbe
000001c0: e8de f03e a02e f73d 3ce3 8d3f a47a d9bd
000001d0: 64c4 81bc ec1f dc3d e40d 46be 0973 95be
000001e0: dfb7 92be aab2 dbbe ea1a 813e 3eb1 d1be
000001f0: 7283 f9be a4bd c13e a09b d43e 60d4 ffbd
00000200: 8c21 5b3d 9dd7 acbd d7b1 edbe 1051 b43d
00000210: a9bd a83e 4082 143d 0c19 03bf 447c 06be
00000220: 60b3 403d 0a46 02be 8141 d5bd 80dc b43d
00000230: 7f6f da3d 9bae ce3d 0027 123c 40d2 99be
00000240: f571 4f3e d3e0 9bbe feb1 00bf 7873 d6be
00000250: c0e1 00bf 0944 333e ce6c fdbd 8829 fa3e
00000260: 43fc d23d 1f7d 2f3e 0e3b 813e be54 cfbe
00000270: ebbf 91be 68e8 f0bd c8b4 e5bd a29e fe3e
00000280: d70f 04bf 0f32 873f 9bde 533e 2a03 59be
00000290: 5125 a8bd f33e e53e 6ce2 eb3e 1d93 a5be
000002a0: 7579 163f bd9c 13bf 2d8f d23e ebab e2be
000002b0: 7e5b 103f 1df6 69bd 31d6 0cbf 68a4 f13e
000002c0: 81cf d93d 59fe 70be d418 0c3e 75bf 8cbe
000002d0: 40c9 ac3c d823 c63d 462d afbe 7f6b 243f
000002e0: 0ea7 a03e 7604 3cbd 7880 d7bd 3897 4a3e
000002f0: 3d6a 3f3f 20d2 74bd 8480 ffbd 6fa3 53be
00000300: 4b19 d63d 9842 1dbe e56a e0be b33c 05bf
00000310: 8832 10be e7ee ebbe 9704 893c 7109 c5be
00000320: e2cc 2dbe 4244 d5be 98bd 423e eb97 3c3e
00000330: f90b 383f 84ea 6b3e 3003 4dbe 0aa5 9a3e
00000340: c4ef e53e 742c b93d 8834 c23c 0e5e dbbe
00000350: f9c5 01bf d4d6 11bf d036 ad3d 743f edbe
00000360: 2266 c4bd 9007 ad3e e585 d4be 8481 22be
00000370: c019 663e 8096 9d3c c04d 753c 8c79 2f3e
00000380: 0597 593e 16f4 bdbe c0ad e0be 6851 4a3e
00000390: e165 a5be e827 d53e d7d8 a53e 1991 90be
000003a0: 705a 133e f0da 69be 581d d4be c8ad 7cbe
000003b0: f447 583d 9ab4 acbe 7284 babe b866 603e
000003c0: 7e35 4d3e 6173 fabe 5da1 f3be 4cde 1bbf
000003d0: d4d1 9ebd f72f 613e 25e5 96be d4b0 2e3e
000003e0: 73e1 c4be d6ba ba3d fcb1 4a3e 6dff 1ebe
000003f0: b031 febe f8f5 3f3e 10af 30be fd17 00bf

linear3.bias f4 [1200]
0.49852812 -0.54499567 -0.49036294 -0.3178029 0.27831322 -0.18885782 -0.14524642 -0.50662345
0.3307673 -0.10723382 -0.4347489 -0.33415663 0.18201438 -0.25941357 -0.15460041 0.20662983
0.3070393 0.24704798 -0.25778383 -0.26561582 -0.20259881 -0.57097745 -0.53505796 -0.34071457
0.17528193 -0.30548543 -0.14975102 0.32321855 -0.3132014 0.37860447 -0.43159592 -0.45448956
-0.4064061 0.14066245 0.48776296 0.19307372 -0.12528914 0.24537848 -1.1815674 0.1729583
-0.33820784 -0.49644902 0.28419816 -0.02598535 -0.20900187 -0.46240944 0.48052144 0.03675766
0.09777221 0.13576333 0.67271996 0.1975672 -0.3579869 0.05876762 -0.35482025 -0.33068988
-0.25200772 0.4175405 0.39961237 0.53270775 -0.021511912 -0.70146734 -0.041414905 0.35810366
0.19006948 0.0520707 0.6015125 0.18281907 -0.41547433 -0.30292824 0.27304876 -0.1275146
0.064928174 -0.13598269 -0.812004 -0.40446684 -0.41505718 0.55465823 0.46748176 0.3681744
0.25313511 0.227491 0.5593488 -0.17099065 0.0097904205 -0.363408 0.50751 -0.8951103
0.46527356 -0.56621736 0.2516784 0.5797917 0.45847058 -0.21649879 0.15408865 0.48534077
-0.079046845 0.41068545 0.32024777 0.1962433 -0.36264473 -0.35034478 0.15166599 0.049716096
0.06817907 -0.12913045 -0.7653186 -0.06422227 -0.24717501 -0.27530894 -0.76348174 0.099593684
-0.14837646 -0.67494154 0.29107857 -0.34330016 0.25512877 0.36456057 -0.29491273 -0.38779414
-0.056955617 0.19643262 0.19123319 0.36124897 0.48204488 -0.37640965 -0.52426493 -0.6202407
0.44651702 -0.16514751 -0.00481987 0.2912717 -0.31121927 -0.268325 0.4160009 0.30697423
0.41812435 -0.2639386 -0.16612819 0.117877156 -0.02464428 0.28511512 0.23951973 0.6038725
-0.23032647 0.11855679 0.571925 -0.26531005 -0.06697564 -0.5431424 0.09876602 -0.21379551
-0.2733276 0.27106085 -0.054581646 0.026781008 -0.2802715 0.09142195 0.025592681 0.6293257
-0.2583277 -1.4253751 0.59874636 0.52726495 -0.5309397 0.10502635 -0.19192821 -0.47703713
-0.02079623 -0.36149544 -0.05552149 0.3764764 0.25642145 0.25626558 0.19933884 0.37855443
0.32751325 -0.76444334 -0.25355843 0.3472875 0.074564606 0.32447684 0.12520061 -0.51771814
-0.11034116 -0.16022496 0.02412831 0.17853709 -0.7661983 -0.989901 -0.820822 0.103928216
-0.19877717 -0.6331906 0.36413687 0.007933275 -0.11972371 -0.060869765 0.01387753 0.39667487
0.11374355 -0.50269705 0.11336704 -0.8782521 0.05919991 0.32933342 0.49799615 -0.033459403
-0.43243924 0.2550178 -0.16766034 -0.056292474 -0.42853352 0.24658924 -0.46861738 0.084027246
-0.012111306 -0.015769005 0.5541761 0.3913235 -0.44856516 -0.2997427 0.30458072 -0.0012786196
-0.38318205 -0.4093931 0.3280185 0.5833463 -0.29293594 -0.006448321 -0.47012514 0.013375065
0.42094633 -0.0015461553 0.1254544 -0.1418571 -0.31421202 -0.27829543 0.37786815 -0.26865053
0.43506488 -0.052845605 0.07800897 0.32579333 0.28792158 -0.16060409 0.59107804 -0.25870252
-0.51367944 -0.49099058 -0.037366565 0.21424967 0.35477722 -0.10004565 -0.09981194 -0.31979313
00000000: 143f ff3e d684 0bbf da10 fbbe 10b7 a2be
00000010: 127f 8e3e f263 41be 7abb 14be 13b2 01bf
00000020: 555a a93e 689d dbbd 6897 debe 9416 abbe
00000030: fa61 3a3e dbd1 84be 924f 1ebe c596 533e
00000040: 4134 9d3e 25fa 7c3e 3efc 83be ccfe 87be
00000050: 1076 4fbe 942b 12bf 8ff9 08bf 2472 aebe
00000060: 1b7d 333e 9668 9cbe 5558 19be e77c a53e
00000070: ef5b a0be 72d8 c13e 24fa dcbe dbb2 e8be
00000080: 7614 d0be d109 103e 11bc f93e 1eb5 453e
00000090: cc4b 00be 7f44 7b3e 9a3d 97bf fb1b 313e
000000a0: 9429 adbe 912e febe 6c82 913e 3bdf d4bc
000000b0: 9604 56be eec0 ecbe e806 f63e 338f 163d
000000c0: cc3c c83d 8b05 0b3e 6037 2c3f 0e4f 4a3e
000000d0: 0f4a b7be 51b6 703d 00ab b5be 2f50 a9be
000000e0: 2807 81be dec7 d53e fe99 cc3e 895f 083f
000000f0: c039 b0bc 5d93 33bf ada2 29bd 5d59 b73e
00000100: 93a1 423e 1648 553d b9fc 193f ec34 3b3e
00000110: 0db9 d4be 6919 9bbe 0ccd 8b3e 3093 02be
00000120: 10f9 843d 0c3f 0bbe 7fdf 4fbf 4716 cfbe
00000130: 6082 d4be 15fe 0d3f c559 ef3e 5b81 bc3e
00000140: ed9a 813e 67f3 683e 7c31 0f3f 2c18 2fbe
00000150: 0068 203c 9d10 babe 2dec 013f f325 65bf
00000160: 5638 ee3e 9ff3 10bf fedb 803e 3b6d 143f
00000170: a8bc ea3e dcb1 5dbe 6ac9 1d3e 967e f83e
00000180: 50e3 a1bd 5d45 d23e 84f7 a33e 01f4 483e
00000190: 92ac b9be 6460 b3be 544e 1b3e 1ba3 4b3d
000001a0: 78a1 8b3d c63a 04be ebeb 43bf f786 83bd
000001b0: 721b 7dbe 4bf5 8cbe 8a73 43bf c6f7 cb3d
000001c0: 00f0 17be f8c8 2cbf 4008 953e 0ac5 afbe
000001d0: 3da0 823e afa7 ba3e cdfe 96be f48c c6be
000001e0: 4b4a 69bd a225 493e a2d2 433e a0f5 b83e
000001f0: 96ce f63e c4b8 c0be 3a36 06bf 18c8 1ebf
00000200: e19d e43e 6e1c 29be 00f0 9dbb 9021 953e
00000210: 2258 9fbe e561 89be 12fe d43e ba2b 9d3e
00000220: 6514 d63e f622 87be 821d 2abe 9469 f13d
00000230: cde2 c9bc 9cfa 913e a944 753e 6397 1a3f
00000240: b4da 6bbe e7cd f23d ad69 123f b8d6 87be
00000250: 862a 89bd 610b 0bbf d745 ca3d 36ed 5abe
00000260: 98f1 8bbe 7dc8 8a3e 0191 5fbd d863 db3c
00000270: bf7f 8fbe 6e3b bb3d bea7 d13c 7d1b 213f
00000280: 8743 84be b172 b6bf 7147 193f d6fa 063f
00000290: aaeb 07bf 0e18 d73d d488 44be 363e f4be
000002a0: db5c aabc ee15 b9be 806a 63bd 84c1 c03e
000002b0: ac49 833e 3e35 833e 7b1f 4c3e e3d1 c13e
000002c0: d1af a73e 8fb2 43bf 69d2 81be abcf b13e
000002d0: 54b5 983d d421 a63e 9734 003e 2d89 04bf
000002e0: 8cfa e1bd 0312 24be bca8 c53c 6dd2 363e
000002f0: 9225 44bf 276a 7dbf 6421 52bf 51d8 d43d
00000300: 3e8c 4bbe c718 22bf 2670 ba3e 91fa 013c
00000310: b431 f5bd 9352 79bd 945e 633c f818 cb3e
00000320: 61f2 e83d c1b0 00bf fb2c e83d 21d5 60bf
00000330: 9b7b 723d 649e a83e 5af9 fe3e ba0c 09bd
00000340: ad68 ddbe b191 823e 27af 2bbe f092 66bd
00000350: bf68 dbbe e481 7c3e 9eee efbe 7a16 ac3d
00000360: 806e 46bc 002e 81bc 7cde 0d3f 8e5b c83e
00000370: 55aa e5be e077 99be 01f2 9b3e 5b97 a7ba
00000380: 7030 c4be f99b d1be 0af2 a73e 2f56 153f
00000390: b3fb 95be 704c d3bb 3eb4 f0be 1723 5b3c
000003a0: 4786 d73e 5da8 caba 1e77 003e fd42 11be
000003b0: 66e0 a0be bd7c 8ebe ef77 c13e 908c 89be
000003c0: d3c0 de3e a274 58bd 2bc3 9f3d 62ce a63e
000003d0: 756a 933e 6675 24be e450 173f a874 84be
000003e0: 7f80 03bf 1e63 fbbe af0d 19bd 4464 5b3e
000003f0: 5ca5 b53e bce4 ccbd 346a ccbd edbb a3be

linear1.weight f4 [3, 1200]
-0.089751944 -0.013165358 0.012808412 -0.0009199288 -0.2641278 0.004234366 -0.028369326 0.035394717
-0.023369811 0.4086777 -0.02473388 -0.0026862454 -0.20427494 0.09837914 -0.011198506 -0.09776926
-0.06534494 -0.05515538 0.005970504 -0.011469483 0.064026706 -0.028845627 0.0040685292 0.04507844
0.2023364 -0.007337581 0.29634094 -0.19425844 0.042503227 -0.41345382 -0.012082608 0.015423682
-0.01526882 -0.084652536 -0.03400722 -0.042337354 0.012435447 -0.020056928 -0.029911444 -0.027002154
-0.01902682 -0.012896212 0.0035708689 -0.064381026 -0.041694038 0.012441888 -0.5134137 -0.31054187
-0.03607658 -0.011417782 -1.7254401 -0.20884968 0.027608104 0.23384154 -0.029870452 -0.036630303
0.074034855 -0.04548245 -0.18137349 -0.11278554 0.007080637 -0.02861477 0.61312634 -0.07049266
-0.11210256 -0.0045736544 -0.6962732 -0.038807984 -0.076845005 -0.0066587273 -0.07354633 0.0020187795
-0.051013958 0.0064297467 0.0686853 0.004106775 0.0131431855 -0.03022101 -0.11600953 0.01025317
-0.15152207 0.008218971 -0.15603308 0.015298896 -0.027513633 -0.018022984 -0.04243601 0.046423476
-0.15073654 0.023947744 -0.28321737 -0.5577193 -0.050432805 0.008889387 -0.036273003 -0.42149067
0.0048613884 -0.08793183 -0.032047708 -0.19091202 -0.011100467 0.0073064044 -0.022657348 0.47366405
-0.04016519 -0.01329349 -0.0010353877 -0.050170902 -0.07067177 0.044923596 0.0009549731 -0.051217366
0.01155004 0.019280331 -0.014355695 0.016069807 -0.116557345 -0.040700294 -0.021679118 -0.015395517
0.02678497 0.029086266 -0.14746943 -0.04677753 -0.06294278 -0.017504472 -0.021056516 0.012632848
-0.05205345 0.0045302026 0.023326222 -0.30600584 -0.011323238 -0.048599053 -0.026873786 -0.31855446
-0.040306576 0.046335723 -0.025790462 0.45436352 0.09289538 -0.27274826 -0.20602272 -0.15130132
0.053268254 0.21732648 -0.049938507 -0.014048213 -0.033883557 -0.018142 -0.044837113 -0.02562081
-0.0019550547 -0.1606171 0.012260122 0.087935634 0.01221543 -0.11342166 0.009948868 -0.23598999
-0.06310921 0.04952639 -0.056077212 -0.033181094 0.00867714 0.023019556 -0.11733571 0.0056138583
-0.029353105 0.0072325394 -0.026855335 -0.047228824 -0.04467294 -0.16218509 -0.19768193 -0.0037384043
-0.04320032 0.0077590896 -0.025221402 -0.04962769 -0.048107225 -0.024043083 0.06599944 0.027427327
0.019544913 0.025037989 0.29047063 -0.057219718 0.03611658 -0.023159387 0.043784358 -0.022994297
-0.01571221 -0.0648528 -0.06423993 0.5007363 -0.0040181912 -0.03531589 0.025474615 -0.33385772
0.012363799 -0.030696956 -0.040144615 0.04287545 -0.19854887 -0.03026136 -0.0632279 0.19240417
-0.027624039 -0.07407005 -0.0010066846 -0.02726946 0.004101582 -0.058120996 0.018784769 -0.39426076
-0.0015997626 0.018160298 -0.08755606 -0.055267643 0.035903826 -0.023875114 -0.2312706 0.038257312
-0.0041852556 0.17181544 -0.1018457 -0.043335102 0.10168053 -0.09414787 -0.0072328765 -0.3977697
0.013612356 0.007217386 -0.028874682 -0.22679889 -0.021828964 -0.019889284 -0.14040212 -0.016132373
-0.063119255 -0.084518455 -0.1266174 -0.23793165 -0.09167421 -0.4979564 -0.5537253 0.045197956
0.0022588633 -0.21346617 -0.03702261 -0.17172702 -0.0393626 0.010222144 -0.012136485 0.007792156
00000000: decf b7bd 84b3 57bc 60da 513c 6027 71ba
00000010: c23b 87be 70c0 8a3b ca66 e8bc 0dfa 103d
00000020: 0c72 bfbc 343e d13e b59e cabc b80b 30bb
00000030: 732d 51be 017b c93d f079 37bc 403b c8bd
00000040: 91d3 85bd 9cea 61bd 38a4 c33b 80ea 3bbc
00000050: 6f20 833d aa4d ecbc 4c51 853b 2ca4 383d
00000060: 4631 4f3e 1770 f0bb 00ba 973e afeb 46be
00000070: dd17 2e3d 38b0 d3be 22f6 45bc 9cb3 7c3c
00000080: 132a 7abc 4f5e adbd 284b 0bbd ef69 2dbd
00000090: 0cbe 4b3c 6d4e a4bc d808 f5bc 9f33 ddbc
000000a0: 22de 9bbc a24a 53bc 3d05 6a3b 33da 83bd
000000b0: 5ec7 2abd 10d9 4b3c 156f 03bf 58ff 9ebe
000000c0: 09c5 13bd a611 3bbc 39db dcbf b1dc 55be
000000d0: 642a e23c 2874 6f3e e1b2 f4bc a809 16bd
000000e0: 969f 973d ce4b 3abd f9b9 39be 1bfc e6bd
000000f0: b004 e83b 8669 eabc d9f5 1c3f 755e 90bd
00000100: 0796 e5bd 98de 95bb f63e 32bf 1ff5 1ebd
00000110: ea60 9dbd 7431 dabb 759f 96bd 804d 043b
00000120: 03f4 50bd a0b0 d23b e1aa 8c3d 2092 863b
00000130: 8456 573c 0d92 f7bc 6896 edbd e9fc 273c
00000140: 9a28 1bbe dda8 063c 23c7 1fbe 38a8 7a3c
00000150: 4564 e1bc f0a4 93bc 62d1 2dbd 8b26 3e3d
00000160: ae5a 1abe 0f2e c43c de01 91be b1c6 0ebf
00000170: a192 4ebd cba4 113c 0093 14bd a0cd d7be
00000180: 484c 9f3b 9a15 b4bd 7544 03bd 717e 43be
00000190: bcde 35bc 906a ef3b e79b b9bc 1884 f23e
000001a0: 4184 24bd f0cc 59bc d9b5 87ba 0180 4dbd
000001b0: 5cbc 90bd ce01 383d 2957 7a3a 4dc9 51bd
000001c0: 613c 3d3c c9f1 9d3c 2634 6bbc d4a4 833c
000001d0: 9eb5 eebd 5ab5 26bd 6898 b1bc 7b3d 7cbc
000001e0: 276c db3c 5246 ee3c 3a02 17be cc99 3fbd
000001f0: 25e8 80bd 8a65 8fbc b77e acbc 01fa 4e3c
00000200: 0036 55bd 1872 943b a216 bf3c ccac 9cbe
00000210: 1a85 39bc cd0f 47bd 6a26 dcbc 9219 a3be
00000220: 8218 25bd 87ca 3d3d 8546 d3bc 56a2 e83e
00000230: ef3f be3d a9a5 8bbe 9ff7 52be bcee 1abe
00000240: d02f 5a3d d58a 5e3e 528c 4cbd 7a2a 66bc
00000250: 7cc9 0abd 889e 94bc 1fa7 37bd bce2 d1bc
00000260: 6020 00bb cf78 24be aede 483c 9917 b43d
00000270: 3a23 483c 9e49 e8bd 9400 233c 5ca7 71be
00000280: 673f 81bd 2fdc 4a3d 38b1 65bd e6e8 07bd
00000290: 902a 0e3c 8293 bc3c b44d f0bd 75f4 b73b
000002a0: ec75 f0bc f0fe ec3b b8ff dbbc 0373 41bd
000002b0: f9fa 36bd d913 26be 226d 4abe 0400 75bb
000002c0: d2f2 30bd f63f fe3b 1d9d cebc 6846 4bbd
000002d0: 150c 45bd 00f6 c4bc b72a 873d 46af e03c
000002e0: a71c a03c 781c cd3c 91b8 943e 395f 6abd
000002f0: fbee 133d c1b8 bdbc 3a57 333d 895e bcbc
00000300: e5b6 80bc 8bd1 84bd 3990 83bd 4130 003f
00000310: 08ab 83bb 65a7 10bd 24b0 d03c 66ef aabe
00000320: 8891 4a3c 2f78 fbbc ae6e 24bd 2b9e 2f3d
00000330: 6550 4bbe ace6 f7bc a17d 81bd 9905 453e
00000340: cf4b e2bc 0ab2 97bd bbf2 83ba 3464 dfbc
00000350: 9066 863b 4810 6ebd 84e2 993c 8cdc c9be
00000360: 20af d1ba e8c4 943c 9750 b3bd 5360 62bd
00000370: e40f 133d be95 c3bc 33d2 6cbe b3b3 1c3d
00000380: 7824 89bb 63f0 2f3e 7a94 d0bd 2680 31bd
00000390: e23d d03d 99d0 c0bd c401 edbb 78a8 cbbe
000003a0: 5c06 5f3c d27f ec3b 998a ecbc f83d 68be
000003b0: a8d2 b2bc daee a2bc 93c5 0fbe 0a28 84bc
000003c0: ab44 81bd 0318 adbd fea7 01be 5ba4 73be
000003d0: b0bf bbbd 24f4 febe f1c0 0dbf 7e21 393d
000003e0: 7009 143b e096 5abe 05a5 17bd 35d9 2fbe
000003f0: ad3a 21bd c87a 273c 1cd8 46bc 5855 ff3b

linear1.bias f4 [3]
-0.3019559 -0.61385846 0.009711914
00000000: f799 9abe d425 1dbf b81e 1f3c

linear2.weight f4 [6, 3]
-0.26613122 0.08977225 0.35594884 -0.6319066 0.25131178 -0.25449947 -4.84068e-05 0.18471792
-0.040209655 0.6577557 -0.20215268 -0.14638764 -0.10133636 0.3299743 0.3002271 -0.004451471
-0.55737066 0.4817114
00000000: 5a42 88be 83da b73d ed3e b63e a2c4 21bf
00000010: f0ab 803e c14d 82be 6808 4bb8 b226 3d3e
00000020: e1b2 24bd ad62 283f 1d01 4fbe a4e6 15be
00000030: 7089 cfbd 64f2 a83e 5eb7 993e a5dd 91bb
00000040: d8af 0ebf e0a2 f63e

linear2.bias f4 [6]
0.14557885 0.37462533 -0.27567098 0.27767253 -1.1495425 -0.024650369
00000000: 9f12 153e e4ce bf3e bf24 8dbe 182b 8e3e
00000010: 3524 93bf 92ef c9bc

linear3.weight f4 [12, 6]
-0.0068083215 -0.0050831456 -0.26083705 -0.089455955 0.2911882 0.17761745 0.048357856 0.69383013
-0.20650572 -0.55534303 0.2571701 -0.0932906 -0.04168011 -0.3451201 0.38681492 0.085279524
-0.07214517 -0.230277 -0.1864276 0.7722132 0.34823292 -0.33991852 -0.17378335 0.0005062553
0.05855444 -0.32523286 -0.23524852 0.22505118 0.316047 0.3086373 -0.18652366 0.22479932
0.33647463 -0.32558474 -0.017586125 -0.29649916 0.033379856 0.04225087 -0.3326402 -0.21087702
0.3961104 0.25643745 0.227134 0.6393769 0.20072645 -0.45266646 -0.052832786 -0.19412349
-0.051091474 0.00664298 0.072994225 -0.2465725 0.16998416 -0.11930064 0.2024173 0.0146145355
0.13846783 -0.102179654 0.123384625 0.26143348 -0.005917157 -0.07912482 0.13779442 0.4635978
-0.13317132 -0.24562754 -0.00791187 -0.04411745 0.3065324 0.256296 -0.16842276 0.27379325
00000000: 5718 dfbb 8490 a6bb 6f8c 85be af34 b7bd
00000010: 9f16 953e 59e1 353e e312 463d da9e 313f
00000020: 3c76 53be f62a 0ebf cdab 833e 240f bfbd
00000030: c3b8 2abd 95b3 b0be 9b0c c63e 08a7 ae3d
00000040: d9c0 93bd bccd 6bbe e0e6 3ebe c4af 453f
00000050: 964b b23e cd09 aebe 43f4 31be 38b6 043a
00000060: c8d6 6f3d ec84 a6be fde4 70be d173 663e
00000070: ead0 a13e b505 9e3e 0f00 3fbe cb31 663e
00000080: 6746 ac3e 0bb3 a6be c710 90bc bdce 97be
00000090: 51b9 083d 400f 2d3d d14f aabe 25f0 57be
000000a0: fbce ca3e c54b 833e d195 683e 34ae 233f
000000b0: 3c8b 4d3e e6c3 e7be 3167 58bd 4fc8 46be
000000c0: 4b45 51bd 5bad d93b ff7d 953d 807d 7cbe
000000d0: 5410 2e3e e553 f4bd 7b46 4f3e ce71 6f3c
000000e0: 83ca 0d3e 9143 d1bd 14b1 fc3d 9cda 853e
000000f0: b6e4 c1bb 320c a2bd fb19 0d3e b15c ed3e
00000100: 105e 08be c985 7bbe caa0 01bc 80b4 34bd
00000110: d1f1 9c3e 3b39 833e 0477 2cbe a12e 8c3e

linear3.bias f4 [12]
0.068643436 -0.0027063927 -0.39923486 -0.09048983 -0.25928304 -0.5499546 -0.16218133 0.044583023
-0.4574898 -0.6388381 0.37138408 0.056819957
00000000: ee94 8c3d bc5d 31bb 8368 ccbe bb52 b9bd
00000010: bfc0 84be d3c9 0cbf dd12 26be b09c 363d
00000020: 1a3c eabe e58a 23bf 0e26 be3e 0bbc 683d

linear1.weight f4 [3, 1200]
0.008464542 0.01838236 -0.022534791 0.015399653 -0.027161147 0.028122697 0.016751733 0.014573971
-0.0060125873 0.02404388 -0.016988784 -0.0038570259 -0.017574683 -0.00873363 0.007952735 -0.011188836
-0.017056134 -0.009707023 -0.022343133 -0.025602637 -0.019527756 0.0011637602 -0.02318573 0.007847091
-0.012843415 0.0030816237 0.025248822 -0.03724959 -0.020535236 -0.022260629 -0.026962375 0.025948804
-0.013630497 -0.027351802 0.007622151 0.012415814 -0.03311555 0.0026135407 -0.021246398 -0.027653726
-0.0011002757 -0.0035479888 -0.022514474 0.002340193 -0.03748436 -0.00045495108 -0.03608797 -0.0040325825
-0.009480622 0.011798159 -0.02567446 0.00033157837 -0.023475092 0.00929369 0.005595559 -0.034263596
-0.020849448 -0.023452347 0.004202139 -0.04083601 -0.0048353877 -0.0026931483 -0.026463706 -0.030150356
-0.024879307 0.02189368 -0.04246074 -0.036686074 -0.006785761 0.007925839 0.0127639705 -0.005219493
-0.019605078 -0.007933589 -0.007682124 0.01474309 0.008939024 -0.0433648 0.00887927 -0.026206193
-0.011251294 -0.01991423 -0.020315595 -0.036891975 0.014216512 0.027227648 -0.009100876 0.013608792
-0.026269963 0.022285964 -0.01907867 -0.03489047 -0.009245332 -0.024300445 -0.005740853 0.012665457
-0.014366486 -0.033099715 -0.024838312 -0.0406485 -0.0060233716 -0.004633613 -0.0013399685 -0.019926272
0.0050605685 -0.01583392 0.019540742 -0.010976693 0.027897146 0.0055535305 0.027148902 -0.03221099
0.024600696 0.014619583 0.0018664121 -0.010390092 0.010784513 -0.037563104 -0.033271164 -0.0032640025
0.022359237 -0.032222226 0.0040176627 -0.026676193 -0.0034002254 0.028451622 -0.022772659 0.024910599
-0.038811315 -0.0037043504 0.010738976 -0.024642032 -0.010164548 0.005173964 -0.036340993 -0.0141160935
-0.020411719 0.0025740063 -0.0027330238 -0.01876444 0.026985615 -0.0276992 0.004377133 -0.015014979
0.010737658 -0.027185738 -0.023412328 -0.011187671 -0.017999368 -0.016818127 -0.033867285 -0.028291492
-0.02062646 0.010180042 0.025289852 -0.0040328354 -0.0354528 -0.015361352 -0.023273544 -0.014372783
-0.0068514 0.025335371 -0.03184939 -0.028898636 -0.025563892 -0.041865446 -0.005492638 -0.025066083
0.001244001 -0.016728766 -0.019151736 -0.030097103 -0.0018904048 -0.009575635 -0.017574823 -0.026758261
-0.038604394 0.014770962 -0.012590472 -0.005610663 -0.020985696 -0.014709251 -0.022233477 0.009602465
-0.026940787 -0.008171529 0.0016038138 -0.037769828 -0.024132121 -0.019984335 -0.016343927 -0.03225079
0.028167091 0.0016725366 -0.03440203 0.016620636 0.012436997 -0.021961698 0.023321219 -0.034431875
-0.026461462 -0.015878255 -0.006821802 -0.042094577 -0.0037472975 -0.018032765 0.012339989 -0.02153212
0.0071261562 -0.022429375 -0.02265792 -0.008856043 0.0049994327 -0.02488309 -0.009905757 0.0044080527
0.015226487 0.014235903 0.010987243 0.0038436865 0.0027927924 0.0011942983 0.008403264 -0.008525819
0.019265994 -0.0036744066 0.0006896375 -0.017333249 -0.011191597 0.013900652 0.025540285 -0.017322505
-0.027053049 -0.011249628 0.015848346 -0.021412643 -0.010232182 0.0016654637 -0.0048839916 -0.004345998
-0.029061552 -0.035379797 -0.022656702 -0.029458746 -0.00608236 -0.0019321543 0.007711604 0.024778882
-0.027326927 -0.0041972767 -0.0038359363 -0.02826109 -0.03456899 0.013223406 0.00061551295 0.013850715
00000000: ddae 0a3c 9a96 963c e29a b8bc d44e 7c3c
00000010: 0e81 debc 9261 e63c ee3a 893c aac7 6e3c
00000020: 3d05 c5bb acf7 c43c 102c 8bbc 28c6 7cbb
00000030: c8f8 8fbc 8017 0fbc 304c 023c 6151 37bc
00000040: 4eb9 8bbc 350a 1fbc f208 b7bc 9fbc d1bc
00000050: acf8 9fbc 5089 983a 00f0 bdbc 1691 003c
00000060: 306d 52bc 11f5 493b 9ed6 ce3c 0793 18bd
00000070: 8339 a8bc ec5b b6bc 33e0 dcbc 9692 d43c
00000080: 7352 5fbc e310 e0bc 3dc3 f93b b36b 4b3c
00000090: 2ca4 07bd f047 2b3b ed0c aebc 118a e2bc
000000a0: 2037 90ba 6085 68bb 4670 b8bc ec5d 193b
000000b0: 3389 19bd 8086 eeb9 fbd0 13bd c123 84bb
000000c0: 9c54 1bbc 114d 413c 3f53 d2bc b2d7 ad39
000000d0: d64e c0bc 9044 183c f35a b73b fc57 0cbd
000000e0: 76cc aabc 231f c0bc 19b2 893b a943 27bd
000000f0: 2c72 9ebb 887f 30bb 6aca d8bc e1fd f6bc
00000100: b0cf cbbc 605a b33c 50eb 2dbd 2344 16bd
00000110: 175b debb 61db 013c f91f 513c 4808 abbb
00000120: d49a a0bc e2fb 01bc 54ba fbbb 008d 713c
00000130: fc74 123c 4a9f 31bd 5c7a 113c 5fae d6bc
00000140: 5957 38bc 2b23 a3bc e46c a6bc 0a1c 17bd
00000150: 60ec 683c 840c df3c d71b 15bc 69f7 5e3c
00000160: 1b34 d7bc 0e91 b63c df4a 9cbc 4fe9 0ebd
00000170: bc79 17bc ba11 c7bc c41d bcbb c782 4f3c
00000180: 6961 6bbc 9193 07bd b779 cbbc 0b7f 26bd
00000190: b45f c5bb 90d5 97bb e2a1 afba 6c3c a3bc
000001a0: 20d3 a53b 23b6 81bc e813 a03c 96d7 33bc
000001b0: 8e88 e43c 64fa b53b 6067 de3c acef 03bd
000001c0: 6687 c93c fa86 6f3c 66a2 f43a 343b 2abc
000001d0: 87b1 303c c5db 19bd 5847 08bd e0e8 55bb
000001e0: b82a b73c 74fb 03bd 99a6 833b 0888 dabc
000001f0: 51d6 5ebb 6013 e93c ba8d babc 5011 cc3c
00000200: 9df8 1ebd b0c4 72bb 88f2 2f3c 16de c9bc
00000210: 3489 26bc 5b8a a93b 4bda 14bd 3047 67bc
00000220: 7a36 a7bc a9b0 283b 881c 33bb e2b7 99bc
00000230: f010 dd3c 6fe9 e2bc 0e6e 8f3b 6301 76bc
00000240: 00ed 2f3c a0b4 debc 36cb bfbc 7e4c 37bc
00000250: 6973 93bc 2bc6 89bc 6cb8 0abd 8fc3 e7bc
00000260: d2f8 a8bc 31ca 263c aa2c cf3c e025 84bb
00000270: f536 11bd 2eae 7bbc 29a8 bebc d27b 6bbc
00000280: b581 e0bb 208c cf3c 8274 02bd d5bc ecbc
00000290: 5e6b d1bc 1a7b 2bbd 96fb b3bb 6357 cdbc
000002a0: bf0d a33a c40a 89bc 1ae4 9cbc 338e f6bc
000002b0: 76c7 f7ba 20e3 1cbc 13f9 8fbc 2434 dbbc
000002c0: a41f 1ebd e801 723c 4448 4ebc a7d9 b7bb
000002d0: 32ea abbc 12ff 70bc fb22 b6bc a853 1d3c
000002e0: edb2 dcbc e0e1 05bc 1037 d23a 89b4 1abd
000002f0: bab0 c5bc 30b6 a3bc b3e3 85bc 6819 04bd
00000300: acbe e63c 0439 db3a 25e9 0cbd 0028 883c
00000310: 8cc4 4b3c 05e9 b3bc 240c bf3c 7008 0dbd
00000320: b5c5 d8bc 1d13 82bc 6c89 dfbb 5d6b 2cbd
00000330: 3895 75bb 73b9 93bc aa2d 4a3c 2164 b0bc
00000340: 8882 e93b cfbd b7bc 1a9d b9bc f018 11bc
00000350: 48d2 a33b 9fd7 cbbc c24b 22bc 6d71 903b
00000360: 8478 793c b43d 693c d603 343c 5ce6 7b3b
00000370: 4807 373b 008a 9c3a d8ad 093c e0af 0bbc
00000380: b8d3 9d3c 50ce 70bb cac8 343a 75fe 8dbc
00000390: f65c 37bc 8fbf 633c dc39 d13c ede7 8dbc
000003a0: 5b9e ddbc 5c50 38bc 64d4 813c 9169 afbc
000003b0: e2a4 27bc b04b da3a e409 a0bb e068 8ebb
000003c0: 7e12 eebc 68ea 10bd 8c9a b9bc 7853 f1bc
000003d0: 894e c7bb 5740 fdba 9fb1 fc3b 15fd ca3c
000003e0: b8dc dfbc 4f89 89bb 5564 7bbb cd83 e7bc
000003f0: 3798 0dbd fca6 583c 605a 213a 1cee 623c

linear1.bias f4 [3]
-0.038081348 -0.71875787 -0.0183465
00000000: 30fb 1bbd 8400 38bf 664b 96bc

linear2.weight f4 [6, 3]
-0.15182847 -0.011594534 0.10146165 0.4500662 0.16102402 -0.015164896 -0.17007494 -0.33257723
-0.5284755 -0.09611812 -0.1475955 0.15316212 -0.24109057 0.053307477 0.34907463 -0.14005888
-0.31910896 0.27674854
00000000: ec78 1bbe 00f7 3dbc 20cb cf3d 146f e63e
00000010: 7be3 243e 2f76 78bc 2028 2ebe 9047 aabe
00000020: 2c4a 07bf 94d9 c4bd 4623 17be 88d6 1c3e
00000030: 72e0 76be f158 5a3d e9b9 b23e 986b 0fbe
00000040: 4062 a3be fcb1 8d3e

linear2.bias f4 [6]
-0.27343702 -0.9651447 0.35674408 -0.14943904 0.22162323 0.49057978
00000000: f0ff 8bbe b913 77bf 29a7 b63e 8c06 19be
00000010: 33f1 623e 462d fb3e

linear3.weight f4 [12, 6]
0.02130732 0.08328486 0.116429396 -0.33985114 0.043410037 -0.30503088 0.14940196 -0.026470765
0.09515779 0.3265891 0.07703189 -0.36642107 0.29930788 0.16035877 -0.13534626 -0.18541704
0.07681148 0.26922575 0.39520675 -0.07743917 -0.2249323 0.15101719 0.20017147 -0.07693829
0.26182157 0.2486002 0.1472138 0.02827251 -0.18147866 -0.21395786 -0.3379771 0.12494049
-0.26493183 -0.045675963 0.040223416 0.04663571 -0.35619092 0.0018761142 -0.28516772 0.058330894
0.38858017 0.2681478 0.09271026 -0.06336975 0.029833436 -0.24793388 0.1346404 0.14516522
0.013594985 0.26231286 0.25485474 0.09848368 -0.2949081 0.2109555 -0.39812022 0.29693756
0.33535874 0.2808202 -0.36522812 -0.2773051 0.011903852 0.023044772 -0.12290531 -0.39767867
0.05832267 -0.36903307 0.22417486 -0.05338986 -0.38808024 0.07323977 0.40188655 -0.2524934
00000000: b08c ae3c 4191 aa3d 8972 ee3d f800 aebe
00000010: b9ce 313d 022d 9cbe d4fc 183e 38d9 d8bc
00000020: 16e2 c23d b036 a73e e5c2 9d3d 8b9b bbbe
00000030: e23e 993e 1735 243e 3698 0abe f7dd 3dbe
00000040: 564f 9d3d f5d7 893e 8a58 ca3e 6d98 9ebd
00000050: a754 66be 40a4 1a3e c0f9 4c3e d291 9dbd
00000060: 7a0d 863e 0d91 7e3e 37bf 163e c09b e73c
00000070: 8bd5 39be c517 5bbe 560b adbe cde0 ff3d
00000080: 25a5 87be b816 3bbd 4fc1 243d 1605 3f3d
00000090: a85e b6be f2e7 f53a 8101 92be 60ec 6e3d
000000a0: fbf3 c63e ab4a 893e e0de bd3d 00c8 81bd
000000b0: 4065 f43c 61e2 7dbe 2cdf 093e 31a6 143e
000000c0: 80bd 5e3c df4d 863e 527c 823e d0b1 c93d
000000d0: 32fe 96be b804 583e 6ad6 cbbe 3308 983e
000000e0: 24b4 ab3e aac7 8f3e 2eff babe effa 8dbe
000000f0: 6008 433c 64c8 bc3c c7b5 fbbd 8a9c cbbe
00000100: c1e3 6e3d e7f1 bcbe 188e 653e 53af 5abd
00000110: 74b2 c6be bcfe 953d 13c4 cd3e d146 81be

linear3.bias f4 [12]
-0.054658223 0.59444165 -0.6449813 0.62276846 -0.54545635 -0.31880134 -0.4208207 0.71006596
-0.33867365 -0.37981802 0.30219275 -0.09020369
00000000: 4de1 5fbd 542d 183f 7f1d 25bf c16d 1f3f
00000010: 07a3 0bbf ee39 a3be d075 d7be e2c6 353f
00000020: a266 adbe 8277 c2be 02b9 9a3e b6bc b8bd
