epoch_60_model/건조/model.pth (torch, 201120 bytes, 18 tensors)

linear1.weight f4 [24, 48]
0.010841772 0.13186759 -0.0062283576 -0.04783342 0.056308463 0.1279979 0.084540665 -0.055398427
0.08793035 0.12082061 -0.100122765 -0.11946396 -0.059093826 -0.09303795 -0.08708723 0.03596759
0.051267028 -0.080737144 0.0065387487 -0.028305471 -0.044098794 -0.12503468 0.012379721 0.044251934
0.13753676 0.122754425 -0.078415595 -0.12528886 -0.114147805 -0.07423742 -0.10020621 0.020502806
0.06546152 -0.0094648 -0.025815897 -0.0073284507 0.0815279 0.03546028 -0.120606355 0.083454445
-0.061507523 0.10972029 -0.062435187 -0.055375718 -0.005266845 -0.13299058 -0.13795164 -0.12560491
0.14396656 0.061555427 -0.39553314 -0.0058034575 0.1635562 0.06749716 -0.20780252 -0.15527298
0.17423463 0.21870653 -0.26573962 0.03822141 0.2402691 0.24888988 -0.5544706 -0.052786477
-0.07838075 0.11911751 -0.15198007 0.08755951 0.13806829 0.1020301 -0.11646073 0.111875385
0.25774133 0.12775725 -0.49958208 -0.13800979 0.03624511 -0.1180129 -0.2455207 -0.050674338
0.20813401 0.053993 -0.1342166 0.11450143 0.039473366 -0.043354467 0.016309032 0.17713338
0.112828955 0.19457226 -0.24316142 0.056133896 -0.048445035 0.00089820294 -0.22047278 0.048037544
0.009406253 0.046257444 -0.042376373 0.0034796025 -0.035993226 0.058099866 -0.12368139 0.064618774
0.116351254 -0.05483206 0.08036591 -0.02873701 0.08930318 -0.060739934 -0.006897613 -0.02260026
0.0011732074 -0.016146472 0.12626494 -0.101613015 0.12839115 -0.019507088 -0.12418663 0.052998714
-0.03550566 -0.05604055 -0.09473824 0.025041971 0.11716471 -0.085704654 0.102868795 -0.0055712624
-0.062193926 -0.06961198 0.11558943 -0.080116436 0.13386497 0.035373352 -0.13192064 0.02263777
-0.080482066 0.104018286 0.121386945 -0.13402039 0.06776554 -0.14026779 -0.027633995 -0.09067836
0.31220093 0.17927317 -0.2646421 0.012331201 0.09316872 0.11596866 -0.14931247 0.12047237
0.11222394 0.029122978 -0.34705842 0.13420385 -0.06018589 -0.16848588 -0.23177083 0.23186946
0.15581821 0.07434326 -0.26046973 -0.0021687797 -0.019357862 -0.048229344 -0.13528362 0.03782115
0.050936334 0.13650814 -0.18627864 0.121228315 0.06555682 0.15171497 -0.19101894 0.116994075
-0.0026636499 0.12976834 -0.17905007 0.08346439 0.16701776 0.20378889 -0.07887222 -0.02771159
-0.1598815 -0.12548657 -0.08331899 0.25764146 -0.020385167 0.048241753 -0.045694 0.21103026
-0.047563426 -0.10887751 0.009286578 0.08066861 -0.038374733 0.0877596 0.038025048 -0.030996637
-0.09406008 0.056198385 -0.1345606 -0.046266817 -0.011451128 0.04388901 -0.12803473 0.03497557
0.048881795 -0.11098359 -0.08803541 0.06285785 -0.12505443 -0.14102593 0.052372903 0.07819204
-0.05866188 -0.11571758 -0.12968493 -0.09632299 -6.097984e-05 0.12214277 -0.005489125 0.06962438
0.09396312 -0.09106014 0.12651053 -0.12777448 0.10091106 0.10090257 -0.11652193 -0.13856502
0.13412322 -0.04534217 0.06923829 0.087728515 -0.1157684 0.12975253 -0.019375063 0.07916813
0.052439526 -0.051830567 0.021860152 0.06061603 0.02450946 0.029852703 0.051995993 0.12696493
-0.10290898 -0.07942456 0.026200727 -0.033287063 -0.043320015 -0.08035626 -0.12256497 -0.006410584
00000000: b0a1 313c 4c08 073e 4017 ccbb faec 43bd
00000010: b4a3 663d e211 033e a823 ad3d 76e9 62bd
00000020: d414 b43d cc70 f73d 2a0d cdbd 85a9 f4bd
00000030: 5e0c 72bd ae8a bebd ca5a b2bd c052 133d
00000040: 60fd 513d 8459 a5bd 0043 d63b e0e0 e7bc
00000050: f0a0 34bd 1709 00be 50d4 4a3c 8441 353d
00000060: 70d6 0c3e ac66 fb3d 5b98 a0bd b94b 00be
00000070: 53c6 e9bd ca09 98bd ea38 cdbd 80f5 a73c
00000080: b010 863d 4012 1bbc dc7b d3bc 8023 f0bb
00000090: 1af8 a63d cc3e 113d 7700 f7bd 2aea aa3d
000000a0: 50ef 7bbd 08b5 e03d 0abc 7fbd a6d1 62bd
000000b0: 8095 acbb af2e 08be 3243 0dbe 939e 00be
000000c0: f86b 133e 8b21 7c3d 5283 cabe ee2a bebb
000000d0: 477b 273e f33b 8a3d 2fca 54be e1ff 1ebe
000000e0: 906a 323e 9bf4 5f3e 060f 88be 0e8e 1c3d
000000f0: 1a09 763e fddc 7e3e c9f1 0dbf a236 58bd
00000100: 1686 a0bd e2f3 f33d aaa0 1bbe 6652 b33d
00000110: c661 0d3e 28f5 d03d f782 eebd ec1e e53d
00000120: acf6 833e ccd2 023e 39c9 ffbe 7052 0dbe
00000130: c175 143d bfb0 f1bd c769 7bbe e58f 4fbd
00000140: 1521 553e c427 5d3d 1470 09be ba7f ea3d
00000150: d3ae 213d 7494 31bd 859a 853c 7462 353e
00000160: de12 e73d f33d 473e 4fff 78be a8ec 653d
00000170: 4d6e 46bd 6175 6b3a 9ec3 61be 04c3 443d
00000180: af1c 1a3c 7278 3d3d d992 2dbd 0b0a 643b
00000190: a26d 13bd 20fa 6d3d ab4c fdbd d956 843d
000001a0: 9149 ee3d 9597 60bd e296 a43d e169 ebbc
000001b0: 96e4 b63d 70ca 78bd 5f05 e2bb 2e24 b9bc
000001c0: 4fc6 993a 9b45 84bc 994b 013e 7c1a d0bd
000001d0: f878 033e 54cd 9fbc 8f55 febd 2e15 593d
000001e0: 626e 11bd c78a 65bd 1f06 c2bd d224 cd3c
000001f0: 0df4 ef3d ec85 afbd e0ac d23d 238f b6bb
00000200: 0fbf 7ebd ba90 8ebd 27ba ec3d 1614 a4bd
00000210: e613 093e a6e3 103d 3416 07be d872 b93c
00000220: c8d3 a4bd 8a07 d53d b899 f83d a43c 09be
00000230: a9c8 8a3d 5ca2 0fbe b060 e2bc 93b5 b9bd
00000240: cdd8 9f3e 6393 373e 2b7f 87be ce08 4a3c
00000250: 3ecf be3d fa80 ed3d 5ee5 18be 38ba f63d
00000260: aad5 e53d 5093 ee3c a4b1 b1be bc6c 093e
00000270: 7b85 76bd 9087 2cbe 5555 6dbe 306f 6d3e
00000280: cf8e 1f3e 4741 983d 4a5c 85be 1622 0ebb
00000290: 6194 9ebc 228c 45bd ca87 0abe 5aea 1a3d
000002a0: 9ea2 503d cac8 0b3e d4bf 3ebe 8d46 f83d
000002b0: a742 863d 2b5b 1b3e 789a 43be 979a ef3d
000002c0: a190 2ebb fee1 043e e758 37be 61ef aa3d
000002d0: b406 2b3e 09ae 503e c287 a1bd 6b03 e3bc
000002e0: fab7 23be 8d7f 00be 26a3 aabd 95e9 833e
000002f0: cbfe a6bc 2599 453d a229 3bbd 5118 583e
00000300: ded1 42bd 2cfb debd bb26 183c 9635 a53d
00000310: d32e 1dbd 4ebb b33d 27c0 1b3d a9ec fdbc
00000320: 92a2 c0bd 4730 663d 41ca 09be 4682 3dbd
00000330: 839d 3bbc f6c4 333d 891b 03be 8b42 0f3d
00000340: 4738 483d 5d4b e3bd e94b b4bd 9ebb 803d
00000350: 450e 00be 1a69 10be f884 563d 2623 a03d
00000360: 7147 70bd 57fd ecbd 20cc 04be fd44 c5bd
00000370: 9bc4 7fb8 fd25 fa3d 1ede b3bb 3a97 8e3d
00000380: bc6f c03d bd7d babd fa8b 013e 50d7 02be
00000390: 75aa ce3d 02a6 ce3d 0da3 eebd fde3 0dbe
000003a0: 9957 093e b6b8 39bd cecc 8d3d 02ab b33d
000003b0: fc17 edbd d9dd 043e 74b8 9ebc e722 a23d
000003c0: d4ca 563d 4a4c 54bd 1014 b33c 8448 783d
000003d0: 10c8 c83c a88d f43c c0f9 543d 1803 023e
000003e0: f1c1 d2bd 58a9 a2bd e8a2 d63c 0458 08bd
000003f0: 5470 31bd d391 a4bd 5803 fbbd e00f d2bb

linear1.bias f4 [24]
-0.03971895 -0.18608114 -0.11539403 -0.11286213 -0.12039039 -0.034689903 0.084271826 0.061300535
0.04426267 -0.12755024 0.015981602 -0.05420062 -0.15085796 -0.111141615 -0.0058476473 0.06037031
-0.06123603 -0.053933293 0.11936769 0.1082743 -0.022911152 -0.1895551 0.16965961 0.020644829
00000000: 56b0 22bd 0e8c 3ebe b553 ecbd 4324 e7bd
00000010: 3d8f f6bd 0017 0ebd b596 ac3d 4516 7b3d
00000020: c64c 353d 889c 02be d9eb 823c 7801 5ebd
00000030: 827a 1abe 379e e3bd 9f9d bfbb dc46 773d
00000040: a2d2 7abd 28e9 5cbd 0c77 f43d ebbe dd3d
00000050: 2bb0 bbbc bb1a 42be 40bb 2d3e 581f a93c

linear2.weight f4 [12, 24]
0.04937446 0.78103626 0.11435463 0.118713036 -0.036540437 -0.0032911003 -0.06200222 -0.016806187
0.049234197 -0.063812226 0.008868849 0.052981913 -0.018228916 0.43065897 0.086993374 -0.04269873
0.466436 0.6072474 0.115763575 -0.0052291867 0.03596071 0.4410556 -0.13468948 0.09360418
-0.09829406 0.16507703 -0.107478276 0.34212467 -0.07586093 0.15677047 0.041691184 0.005878761
-0.044784818 -0.047671363 0.25785613 0.20388648 0.065214634 0.11455247 0.464299 0.14624661
0.22191133 -0.10945079 0.08687385 -0.07933059 -0.16906513 -0.14334056 0.058817275 -0.12955844
-0.005930394 0.53268987 -0.08367182 0.5104456 -0.15212889 -0.056451082 0.08476337 -0.0482373
-0.0066001206 0.1402426 -0.26110357 0.1613318 0.07767672 0.19541553 -0.49497163 0.19283819
0.46933866 0.5783088 0.25636852 0.032576423 -0.02140218 0.6106325 0.2014682 -0.017447263
0.046648294 0.16213341 -0.16981252 -0.15509574 0.19302487 -0.10715914 -0.20930271 0.1685541
0.103254884 0.11821464 -0.19008678 0.022552805 0.16152745 -0.08511702 -0.031677928 0.16556962
-0.017943408 0.03209387 0.060170263 -0.059981227 0.034417585 0.018180046 -0.11646375 -0.20301057
0.09932396 0.11257535 -0.048507407 -0.08834397 -0.08750198 0.038241908 -0.15985388 0.07909885
-0.12514585 -0.1719314 -0.029091597 0.010408774 0.017986104 -0.052415177 0.10211882 0.14996612
-0.15153039 -0.12137547 -0.05235775 0.101329505 -0.1936719 0.18373775 -0.076514795 0.18695349
-0.12284249 -0.036823966 0.054791953 0.4291268 0.09218291 -0.058944 -0.09235221 -0.09638734
-0.13705178 0.03202127 0.5947973 -0.21580203 -0.17763112 0.21809073 0.16581374 -0.06306803
0.24714035 0.07395259 0.11521047 0.011944144 0.079368144 0.07354283 0.045720357 0.16417581
-0.00807707 -0.14480758 -0.16859417 0.21710393 0.07505028 -0.12946352 0.12044534 0.060282886
0.14231345 0.023625076 -0.18273896 -0.18638118 0.03332742 -0.16850902 -0.4665714 -0.108063266
0.075564645 0.2594502 0.31893396 -0.15259646 -0.14547789 0.14649619 0.24956952 0.17027065
0.18671581 0.109892555 0.10512351 -0.26377794 -0.00837773 -0.067193076 0.03616926 0.1819823
-0.04901555 -0.16232456 -0.38512015 -0.17557526 0.03038677 0.08351722 0.2919255 -0.18477203
-0.10179053 0.12918665 0.25934255 0.023528362 0.07515913 -0.04340612 0.1639227 0.10485375
-0.001690954 0.016202323 -0.14583309 0.34232074 -0.13849913 0.18153068 -0.11885343 0.022940144
-0.10079518 0.10376525 -0.1456227 -0.11854336 -0.09401224 0.023368934 -0.16690572 0.1421342
-0.008410373 0.38676015 0.45470485 -0.096364796 -0.040661443 0.14609058 0.24603285 -0.057428002
0.17638204 -0.055692438 -0.014739069 0.08022899 -0.03006494 -0.10296154 -0.09045936 -0.06735301
0.12808701 0.0156195015 -0.08093837 -0.06455887 0.04035343 -0.17159018 0.11050556 -0.01085685
-0.2511408 -0.11640607 0.09220523 -0.09359343 -0.20087065 0.07010439 -0.08634653 0.09150571
-0.04363887 0.1447443 0.026549771 0.0032027513 0.12476927 -0.11826115 0.07398608 -0.07883765
-0.050841913 -0.18196301 0.04216145 -0.16844057 -0.18139304 0.068633646 -0.12515624 0.10233313
00000000: e03c 4a3d fef1 473f c332 ea3d d21f f33d
00000010: 6dab 15bd 80af 57bb 0af6 7dbd 21ad 89bc
00000020: cca9 493d fcaf 82bd a64e 113c 9003 593d
00000030: cf54 95bc 557f dc3e 9529 b23d dde4 2ebd
00000040: b3d0 ee3e 9174 1b3f 7415 ed3d 9959 abbb
00000050: 8a4b 133d 0ad2 e13e 0aec 09be 8cb3 bf3d
00000060: 654e c9bd f409 293e 921d dcbd f72a af3e
00000070: fa5c 9bbd 7088 203e 60c4 2a3d 9fa2 c03b
00000080: 4970 37bd 0c43 43bd b805 843e 9ec7 503e
00000090: 408f 853d 7c9a ea3d 99b8 ed3e acc1 153e
000000a0: b93c 633e bc27 e0bd ebea b13d 1478 a2bd
000000b0: 691f 2dbe dec7 12be 62ea 703d f8aa 04be
000000c0: c053 c2bb 5d5e 083f 225c abbd 90ac 023f
000000d0: adc7 1bbe 4039 67bd 6b98 ad3d 7a94 45bd
000000e0: d345 d8bb c29b 0f3e 5eaf 85be 2a34 253e
000000f0: f914 9f3d 021b 483e ec6c fdbe 6077 453e
00000100: 284d f03e 0c0c 143f bc42 833e db6e 053d
00000110: a053 afbc 6952 1c3f ae4d 4e3e 90ed 8ebc
00000120: 4812 3f3d 4d06 263e 55e3 2dbe 6bd1 1ebe
00000130: 50a8 453e 4076 dbbd 7353 56be 7299 2c3e
00000140: 4c77 d33d 841a f23d 1ca6 42be a9c0 b83c
00000150: 7467 253e d551 aebd b7c0 01bd 158b 293e
00000160: 0efe 92bc dd74 033d 1875 763d e0ae 75bd
00000170: 74f9 0c3d 52ee 943c 8c84 eebd 01e2 4fbe
00000180: 5c6a cb3d e88d e63d b4af 46bd afed b4bd
00000190: 3d34 b3bd 8ca3 1c3d bcb0 23be 94fe a13d
000001a0: 3c26 00be c90e 30be 8051 eebc 9089 2a3c
000001b0: 9857 933c 4cb1 56bd ac23 d13d b890 193e
000001c0: c82a 1bbe b493 f8bd 1475 56bd d885 cf3d
000001d0: ed51 46be c025 3c3e cab3 9cbd bc70 3f3e
000001e0: d894 fbbd bad4 16bd 876d 603d 82b6 db3e
000001f0: 65ca bc3d 446f 71bd 2823 bdbd ba66 c5bd
00000200: 4d57 0cbe bc28 033d a344 183f 35fb 5cbe
00000210: efe4 35be 2d53 5f3e 14cb 293e d029 81bd
00000220: 5c12 7d3e 7574 973d 78f3 eb3d 5fb1 433c
00000230: c48b a23d a09d 963d 4545 3b3d b41d 283e
00000240: b055 04bc 7048 14be f3a3 2cbe 7e50 5e3e
00000250: f6b3 993d 1692 04be 0cac f63d 30eb 763d
00000260: 9eba 113e 6089 c13c ec1f 3bbe b5da 3ebe
00000270: 5582 083d a18d 2cbe 72e2 eebe 4650 ddbd
00000280: a3c1 9a3d a8d6 843e 504b a33e 3f42 1cbe
00000290: 28f8 14be 1903 163e 278f 7f3e 6e5b 2e3e
000002a0: 6e32 3f3e 590f e13d ff4a d73d e70d 87be
000002b0: bf42 09bc 869c 89bd 3826 143d 9159 3a3e
000002c0: 88c4 48bd 6938 26be 782e c5be 00ca 33be
000002d0: aded f83c 140b ab3d 4277 953e e134 3dbe
000002e0: 8e77 d0bd 8149 043e 8cc8 843e 8dbe c03c
000002f0: 08ed 993d 9eca 31bd 5adb 273e 90bd d63d
00000300: 00a3 ddba bcba 843c 4555 15be aa44 af3e
00000310: b7d2 0dbe 2ee3 393e 6d69 f3bd f8ec bb3c
00000320: b46d cebd e082 d43d 1e1e 15be dcc6 f2bd
00000330: 7d89 c0bd 3570 bf3c 55e9 2abe a18b 113e
00000340: a9cb 09bc 6d05 c63e 13cf e83e e85a c5bd
00000350: 9d8c 26bd c598 153e 09f0 7b3e a039 6bbd
00000360: 7e9d 343e c11d 64bd 237c 71bc 194f a43d
00000370: c04a f6bc 80dd d2bd c242 b9bd 60f0 89bd
00000380: 3e29 033e f0e8 7f3c 04c3 a5bd 7137 84bd
00000390: a349 253d 56b5 2fbe bd50 e23d eee0 31bc
000003a0: 8795 80be 4e66 eebd 18d6 bc3d eaad bfbd
000003b0: 09b1 4dbe e492 8f3d 73d6 b0bd 5867 bb3d
000003c0: acbe 32bd da37 143e e87e d93c 40e5 513b
000003d0: 0887 ff3d e732 f2bd 0486 973d a275 a1bd
000003e0: 9c3f 50bd 8354 3abe 7cb1 2c3d af7b 2cbe
000003f0: 19bf 39be cc8f 8c3d f528 00be 0894 d13d

linear2.bias f4 [12]
0.06917054 0.047458522 0.19226472 -0.0021511375 -0.20330039 0.23003055 0.35288954 0.026446514
0.17400588 -0.07016096 -0.19271205 -0.13010038
00000000: 49a9 8d3d de63 423d 0be1 443e 19fa 0cbb
00000010: fa2d 50be 218d 6b3e f0ad b43e 5ca6 d83c
00000020: 992e 323e 8db0 8fbd 4f56 45be 0939 05be

linear3.weight f4 [1200, 12]
0.13193968 0.22606267 0.04909982 -0.23125751 -0.17778075 -0.1443015 -0.24798971 0.18140396
0.1159363 -0.048029695 -0.09376244 0.15406351 -0.35500863 0.0015659082 -0.2356454 -0.01847943
-0.090907425 0.16646957 -0.12859488 -0.28783432 0.15555407 -0.1259972 0.062601686 -0.40468422
0.16965537 -0.22739935 -0.19888487 0.03829152 -0.25536558 -0.17909364 -0.27596658 0.29692093
0.097754166 0.19611861 0.18664092 0.05534626 0.19630761 0.227829 0.34700274 0.0015150618
0.27056515 0.25202593 -0.10024959 -0.09135408 -0.0885532 0.14784612 -0.21513245 0.05745275
0.1399439 -0.29781157 0.08780915 0.14726537 -0.15305969 0.09554642 0.024974551 -0.106799155
-0.15988225 0.21370822 0.22113657 -0.05150257 -0.20781076 -0.18442833 0.008005961 0.0908325
0.09041965 0.28505966 -0.04266821 0.18975657 0.010140545 0.2700064 -0.13592216 -0.35056287
-0.20362534 0.001295419 0.036733065 -0.25306216 0.20617786 0.18606363 0.23262903 -0.16996907
0.040722072 -0.017489491 0.04529205 -0.18654364 0.028982472 0.10074149 0.082731694 0.14605808
-0.22508273 -0.40899336 -0.3730163 0.11919411 0.19103818 -0.21450035 0.16227478 -0.09073204
0.033639636 0.07338963 0.10430657 -0.07890559 -0.04354343 0.044440866 -0.0033558041 -0.22510538
-0.13844894 -0.23463315 -0.2516979 0.055792 0.16178554 0.06773427 0.039605238 -0.21273522
-0.21804659 -0.17035502 -0.15119879 -0.11908762 -0.051378366 0.0869888 0.08381316 0.0109977
-0.11272505 0.25965124 0.13534808 -0.092531264 -0.25861898 -0.20170838 -0.18355682 -0.26422206
-0.22704233 -0.18164241 0.10101619 0.012422979 -0.27302384 -0.030024726 -0.025482941 -0.14907604
-0.27097383 0.13778083 0.28764105 -0.1578684 -0.058313407 -0.098731704 0.09803924 -0.28165677
0.41153848 -0.34505734 0.31931543 0.072294414 0.26084203 -0.31371844 -0.06285153 -0.11838473
0.34572446 0.15987131 -0.12979484 0.2790761 -0.3143325 0.20259432 -0.10576834 0.2205408
-0.23778534 0.052295487 -0.06458743 -0.22678654 -0.23260726 0.071531884 -0.18795006 -0.22739927
0.20137295 0.19645499 -0.06655697 -0.25732538 -0.23052563 -0.20646437 0.05436886 -0.13343538
-0.19127549 -0.0039266255 -0.25617287 -0.2016902 0.20312752 -0.08538944 0.01803102 0.27714345
0.06759423 0.040569037 -0.14955519 0.17694269 -0.0034805809 0.1742377 -0.14779158 0.05831408
-0.11790853 -0.1702781 0.091122575 0.29415601 0.1844913 0.09662562 -0.21841238 -0.16186398
0.11887406 0.17624095 -0.0078986585 0.15158987 0.074849516 -0.067086056 -0.18793014 -0.18621582
0.08504617 -0.092175975 0.2293725 -0.21802144 -0.28342944 -0.1922311 -0.1088182 0.21920139
0.13269153 -0.03410753 -0.3455567 -0.22351108 -0.09181389 -0.15920967 -0.36197978 0.30729324
-0.09024813 0.026346987 -0.12184322 0.11850787 -0.11947636 0.20915097 -0.22446391 -0.067936756
0.2749887 -0.14919244 0.03213233 -0.20601724 0.08947696 -0.12531005 -0.0024199486 -0.07733842
-0.07999417 -0.20728892 -0.060471848 0.2826169 0.081888676 0.09508404 -0.0072957575 0.17873147
-0.25663936 0.04102564 0.09211138 -0.20553273 0.15357718 -0.22632687 -0.14913169 0.15134872
00000000: 321b 073e f97c 673e e51c 493d c5ce 6cbe
00000010: 280c 36be c6c3 13be 04f1 7dbe f6c1 393e
00000020: 0370 ed3d c9ba 44bd 8606 c0bd d3c2 1d3e
00000030: b1c3 b5be 293f cd3a 074d 71be 2c62 97bc
00000040: ac2d babd 0077 2a3e 60ae 03be 055f 93be
00000050: 9149 1f3e 6905 01be 5035 803d c532 cfbe
00000060: 23ba 2d3e 60db 68be 7aa8 4bbe 92d7 1c3d
00000070: 47bf 82be 5364 37be 7e4b 8dbe 0506 983e
00000080: 5633 c83d 51d3 483e cc1e 3f3e c3b2 623d
00000090: dd04 493e 014c 693e 58aa b13e 0a95 c63a
000000a0: 8487 8a3e 8b09 813e a84f cdbd d917 bbbd
000000b0: 615b b5bd f964 173e ae4b 5cbe 9353 6b3d
000000c0: 744d 0f3e c27a 98be 49d5 b33d bccc 163e
000000d0: aebb 1cbe d7ad c33d 6e97 cc3c 84b9 dabd
000000e0: 2cb8 23be 54d6 5a3e a071 623e 5cf4 52bd
000000f0: 58cc 54be c8da 3cbe 6f2b 033c 6406 ba3d
00000100: f02d b93d 57f3 913e dcc4 2ebd 8c4f 423e
00000110: 8724 263c 473e 8a3e 2e2f 0bbe fa7c b3be
00000120: 2983 50be 0ccb a93a 6975 163d 5d91 81be
00000130: 4a20 533e 7787 3e3e 4e36 6e3e 5f0c 2ebe
00000140: 30cc 263d 1f46 8fbc 2884 393d 4c05 3fbe
00000150: a66c ed3c 8e51 ce3d 3c6f a93d 4090 153e
00000160: 167c 66be 9467 d1be fefb bebe 0b1c f43d
00000170: 839f 433e fba5 5bbe 5c2b 263e b8d1 b9bd
00000180: b7c9 093d 4d4d 963d af9e d53d 4199 a1bd
00000190: 985a 32bd a007 363d 0ded 5bbb 0682 66be
000001a0: 8fc5 0dbe ac43 70be 8cde 80be 2786 643d
000001b0: 1cab 253e 44b8 8a3d 1a39 223d 43d7 59be
000001c0: 9b47 5fbe 8c71 2ebe dbd3 1abe 36e4 f3bd
000001d0: 1f72 52bd 2f27 b23d 3ca6 ab3d b22f 343c
000001e0: 64dc e6bd 02f1 843e b098 0a3e 0881 bdbd
000001f0: b569 84be a48c 4ebe 52f6 3bbe 1d48 87be
00000200: c97d 68be 7800 3abe 94e1 ce3d c089 4b3c
00000210: c8c9 8bbe 6af6 f5bc 9ac1 d0bc 64a7 18be
00000220: 15bd 8abe 6b16 0d3e b045 933e 41a8 21be
00000230: 0ada 6ebd d933 cabd ccc8 c83d 5135 90be
00000240: 2cb5 d23e 5bab b0be 507d a33e 180f 943d
00000250: 168d 853e b49f a0be 4eb8 80bd b173 f2bd
00000260: cc02 b13e 4eb5 233e f0e8 04be 10e3 8e3e
00000270: 30f0 a0be e374 4f3e 129d d8bd 73d5 613e
00000280: 007e 73be cb33 563d 6a46 84bd bb3a 68be
00000290: 9930 6ebe 4f7f 923d fb75 40be 5bdb 68be
000002a0: b634 4e3e 7f2b 493e 054f 88bd 27c0 83be
000002b0: e90e 6cbe 656b 53be e2b1 5e3d 49a3 08be
000002c0: b9dd 43be ecaa 80bb 1729 83be e087 4ebe
000002d0: a900 503e a9e0 aebd cab5 933c bfe5 8d3e
000002e0: d86e 8a3d b82b 263d ff24 19be 7730 353e
000002f0: 751a 64bb 5e6b 323e ad56 17be bfda 6e3d
00000300: 077a f1bd 625d 2ebe 799e ba3d 9e9b 963e
00000310: 4aeb 3c3e a7e3 c53d 7fa7 5fbe acbf 25be
00000320: 3e74 f33d 8278 343e 6069 01bc 603a 1b3e
00000330: b44a 993d 6a64 89bd c270 40be 5caf 3ebe
00000340: b02c ae3d c2c6 bcbd a0e0 6a3e 0341 5fbe
00000350: aa1d 91be 3bd8 44be 14dc debd 5476 603e
00000360: 4ae0 073e 56b4 0bbd cfec b0be 17e0 64be
00000370: ec08 bcbd dc07 23be 6a55 b9be 8a55 9d3e
00000380: 03d4 b8bd a3d5 d73c f088 f9bd 41b4 f23d
00000390: 06b0 f4bd ac2b 563e ded9 65be 6d22 8bbd
000003a0: 52cb 8c3e e7c5 18be 319d 033d 2ff6 52be
000003b0: b23f b73d 4751 00be 0098 1ebb 9b63 9ebd
000003c0: fcd3 a3bd 8c43 54be 54b1 77bd 2ab3 903e
000003d0: 40b5 a73d 6cbb c23d 4011 efbb 6205 373e
000003e0: 3c66 83be 800a 283d e4a4 bc3d 2c77 52be
000003f0: 5643 1d3e 3bc2 67be fab5 18be 29fb 1a3e

linear3.bias f4 [1200]
-0.44863924 0.23395786 0.18042688 -0.108245395 -0.052286167 0.31668207 0.16703786 -0.056423124
-0.0289193 0.057866216 -0.15798005 0.2696445 -0.35457447 0.18819302 0.12008394 -0.37211627
0.016471313 -0.19458762 0.13415249 0.01637809 -0.19414663 0.063774265 -0.14606471 -0.11507238
-0.044610605 0.035387635 0.14638564 0.046292745 -0.20236167 0.28717908 -0.43734744 -0.22295244
-0.044709202 -0.26332033 0.1710551 0.035907485 0.010123516 -0.19610888 0.2528883 -0.08335853
0.07999427 0.10585595 -0.15336426 0.26069614 0.04732479 0.13485013 -0.10708927 -0.07060407
0.17092262 -0.017007202 -0.15826073 0.20761684 -0.1146671 0.04358054 0.268941 -0.35715473
-0.004462494 -0.19395168 0.1550544 0.034857865 0.10463049 0.20269513 -0.057976272 -0.16873999
-0.2520488 -0.005141288 -0.26403582 -0.058353174 -0.36910546 0.1125551 -0.25107083 -0.06537672
-0.09325878 0.08110494 0.5542578 -0.36971393 0.06831327 -0.39699247 0.082218714 0.6109529
-0.032931518 0.08233013 -0.063909814 -0.25698516 -0.23988456 -0.13076885 0.15904474 0.110751994
0.18272753 0.054442793 -0.09063429 0.020614505 -0.033823393 -0.016543565 -0.17841473 0.31283927
-0.41218913 0.019994438 -0.0043450366 -0.06802606 -0.081696324 -0.17367153 0.030590948 -0.325331
0.21327884 -0.009059131 -0.24121192 0.047960337 -0.2781956 0.09663548 0.079324275 -0.14551662
-0.2338853 0.18218356 -0.037042696 0.12355909 0.07147788 0.16213556 0.05339148 0.2555349
-0.3205016 0.056312203 0.07680856 0.49856618 -0.031101488 -0.113704756 0.37425283 0.06543194
0.1354875 -0.063815705 0.13962257 -0.04173532 -0.22391888 0.09343718 0.009392798 0.11187841
-0.3060363 -0.23165041 -0.12197524 -0.08389982 0.11354108 -0.16970506 -0.060800113 -0.23763828
0.07732792 0.3185526 -0.030158212 -0.26305357 -0.21091534 -0.3784354 -0.20634145 0.03507641
0.044528224 0.24406876 -0.23183136 0.14173284 -0.10332891 0.22944804 -0.10339217 0.20173235
-0.31658277 -0.22280952 0.24796103 0.05557744 0.06389983 -0.06423136 -0.006195645 -0.18302794
-0.009456922 0.27627715 -0.06555746 -0.23840909 -0.22523957 -0.08275079 -0.014538317 0.08912152
-0.16237204 -0.13283865 0.16952427 0.13140884 0.10911615 -0.243063 -0.32976437 0.12023493
-0.09718336 0.2796602 -0.19113427 0.085714035 0.20235346 0.10148743 -0.28270248 -0.01691595
0.17567563 -0.2801522 0.22751035 0.03147268 -0.107741825 0.1823062 -0.089531526 -0.06700036
0.29659072 -0.27398363 -0.15673515 -0.20339325 -0.0418274 -0.08353069 -0.1437597 0.21818544
0.15486401 0.1761381 -0.23889291 -0.15266958 0.15543817 -0.06424797 0.14588922 -0.007872214
0.3815337 -0.050345376 0.22690721 -0.2688615 -0.31628793 0.30185637 0.13414693 0.046950947
-0.15090959 0.15132967 -0.042797122 -0.18192765 0.08141816 -0.008155781 -0.057397306 0.013772528
-0.33985204 -0.26482424 -0.17389956 0.14912906 -0.08505581 0.29597545 0.03164175 0.07083148
-0.22666974 0.27364618 0.27087167 0.0030229008 0.074591324 -0.22178869 -0.02606003 0.18970993
-0.22913714 -0.19063957 -0.13984843 -0.31623164 0.2321733 0.06466284 -0.009544589 -0.05749704
00000000: 0bb4 e5be a692 6f3e d3c1 383e c3af ddbd
00000010: 052a 56bd 2724 a23e f90b 2b3e ef1b 67bd
00000020: 2be8 ecbc 2005 6d3d 86c5 21be d80e 8a3e
00000030: c98a b5be acb5 403e 92ee f53d 0686 bebe
00000040: d9ee 863c fa41 47be 455f 093e 582b 863c
00000050: 60ce 46be 159c 823d fd91 15be 11ab ebbd
00000060: 9cb9 36bd a0f2 103d 1ee6 153e 769d 3d3d
00000070: e637 4fbe 2309 933e 01ec dfbe a54d 64be
00000080: ff20 37bd ecd1 86be 1129 2f3e ba13 133d
00000090: 1bdd 253c c4d0 48be 937a 813e e1b7 aabd
000000a0: 09d4 a33d 01cb d83d 850b 1dbe f779 853e
000000b0: a4d7 413d 2716 0a3e 9f51 dbbd de98 90bd
000000c0: 5706 2f3e b052 8bbc 1a0f 22be 8299 543e
000000d0: 96d6 eabd 8281 323d a2b2 893e fcdc b6be
000000e0: 1d3a 92bb 459b 46be 95c6 1e3e 1fc7 0e3d
000000f0: 8348 d63d 508f 4f3e 8778 6dbd 2dca 2cbe
00000100: 8a0c 81be 4078 a8bb b42f 87be bd03 6fbd
00000110: 64fb bcbe 4a83 e63d 5b8c 80be 3be4 85bd
00000120: 76fe bebd 591a a63d d7e3 0d3f 254b bdbe
00000130: d4e7 8b3d 9942 cbbe 4962 a83d 6967 1c3f
00000140: 33e3 06bd b39c a83d 26e3 82bd 8f93 83be
00000150: 4ca4 75be 45e8 05be a0dc 223e f1d1 e23d
00000160: ed1c 3b3e 68ff 5e3d 789e b9bd c0df a83c
00000170: 668a 0abd 5f86 87bc 5ab2 36be 782c a03e
00000180: 740a d3be 60cb a33c cf60 8ebb 3f51 8bbd
00000190: 6750 a7bd f3d6 31be de99 fa3c c991 a6be
000001a0: c565 5a3e c06c 14bc 4200 77be 0f72 443d
000001b0: a76f 8ebe d3e8 c53d c474 a23d 4f02 15be
000001c0: a17f 6fbe 548e 3a3e 15ba 17bd 8c0c fd3d
000001d0: ff62 923d dd06 263e 06b1 5a3d 78d5 823e
000001e0: c918 a4be a0a7 663d ce4d 9d3d 1144 ff3e
000001f0: 8cc8 febc 0ade e8bd 119e bf3e 2e01 863d
00000200: 3cbd 0a3e cfb1 82bd 38f9 0e3e a8f2 2abd
00000210: fe4a 65be fe5b bf3d 40e4 193c 8220 e53d
00000220: cab0 9cbe c435 6dbe 28ce f9bd abd3 abbd
00000230: 3a88 e83d 2ac7 2dbe 8a09 79bd 7357 73be
00000240: 1a5e 9e3d 5419 a33e 5b0e f7bc f5ae 86be
00000250: 31fa 57be 49c2 c1be 2c4b 53be 48ac 0f3d
00000260: 3a63 363d 29ed 793e 3365 6dbe 6a22 113e
00000270: 1c9e d3bd 6df4 6a3e 46bf d3bd ed92 4e3e
00000280: 2317 a2be 2e28 64be 7fe9 7d3e 2ba5 633d
00000290: eadd 823d bb8b 83bd d604 cbbb ad6b 3bbe
000002a0: 35f1 1abc 3374 8d3e fd42 86bd 8321 74be
000002b0: 34a5 66be 3f79 a9bd 1f32 6ebc 5885 b63d
000002c0: db44 26be db06 08be c597 2d3e 0a90 063e
000002d0: 4a78 df3d 82e5 78be e0d6 a8be bb3d f63d
000002e0: 1208 c7bd 9f2f 8f3e b4b8 43be d78a af3d
000002f0: bf35 4f3e a4d8 cf3d 61be 90be 5293 8abc
00000300: 50e4 333e 1c70 8fbe 79f8 683e 7fe9 003d
00000310: bfa7 dcbd 7aae 3a3e 4e5c b7bd 7c37 89bd
00000320: bdda 973e 9547 8cbe 2e7f 20be 5246 50be
00000330: 3553 2bbd 2312 abbd be35 13be 016c 5f3e
00000340: ac94 1e3e 8c5d 343e 58a0 74be 6a55 1cbe
00000350: 2f2b 1f3e 7194 83bd fc63 153e 75fa 00bc
00000360: 6358 c33e f436 4ebd 5d5a 683e 37a8 89be
00000370: 7ef0 a1be eb8c 9a3e d05d 093e a34f 403d
00000380: 0b88 1abe 2af6 1a3e 094c 2fbd 3e4b 3abe
00000390: 90be a63d d39f 05bc 7019 6bbd 2ba6 613c
000003a0: 1601 aebe 0b97 87be ba12 32be 4ab5 183e
000003b0: be31 aebd 188a 973e c89a 013d 1810 913d
000003c0: 1d1c 68be 5a1b 8c3e b1af 8a3e dc1b 463b
000003d0: 56c3 983d 931c 63be d87b d5bc 5243 423e
000003e0: eda2 6abe 0537 43be 6d34 0fbe 1de9 a1be
000003f0: d6be 6d3e f36d 843d e860 1cbc 0482 6bbd

linear1.weight f4 [12, 1200]
-0.004997203 -0.018216044 -0.02667965 -0.013408201 -0.02508149 0.0044187307 0.007847392 0.01051411
-0.02271995 -0.0054367143 0.0058212094 0.010593151 -0.00084364973 0.015473046 -0.030662227 -0.011343802
-0.023432039 0.011478618 -0.008545144 -0.018756215 0.0046267956 -0.029039567 -0.007071983 0.0117286
-0.0041584745 0.02071393 -0.012013057 -0.036457036 -0.010414965 -0.021975202 0.0005480498 -0.027843894
-0.006900707 -0.0023240522 -0.010538282 -0.005174338 -0.03588045 0.020620827 0.01223254 0.020118488
-0.011763649 0.013650532 -0.019598069 -0.03472783 0.013777135 0.0066489894 0.00667941 -0.0150507735
0.019955916 0.011605717 -0.02294624 -0.013132887 -0.0013212726 0.0101037 -0.023189552 0.0071587637
-0.0072710547 0.003365159 -0.030963197 -0.024496378 -0.025759742 0.019900609 -0.023386423 -0.0012828317
-0.0035512764 -0.003481917 0.0043588765 -0.007866436 -0.01762047 -0.011750875 -0.0039158612 -0.017951302
-0.02899072 0.010808416 -0.012241353 0.02606703 -0.020110266 -0.0250992 -0.005299054 0.012885475
-0.004564274 -0.034476846 -0.015580142 0.014767244 -0.004499685 -0.022123419 0.019947056 0.0072104386
-0.015462959 -0.02556808 0.028466567 -0.013672752 -0.0150332395 -0.030498134 -0.018770935 0.006737906
-0.0019975603 -0.00025273673 -0.020957548 0.011613027 0.0024110451 -0.018591138 -0.019005977 -0.022920111
0.014115929 0.02771698 -0.012385653 -0.032450076 0.028408878 0.01718933 0.011876249 -0.00025685318
0.024797034 0.0003563948 -0.019853452 0.01770223 -0.035524286 0.011508046 -0.023340464 -0.025716813
-0.027601419 0.0038578175 -0.02707936 -0.0056474824 -0.0029265871 -0.011972642 -0.026543746 -0.016900241
0.009058175 0.019770024 0.013600219 -0.0057893326 -0.00014675409 -0.0052989814 -0.014684247 -0.0036135055
-0.014639432 -0.021297395 0.0141911805 0.009138509 0.01532857 0.008241363 -0.004458013 -0.006282538
0.018466078 -0.03452572 -0.0029736105 0.013524242 -0.027872948 -0.007972449 0.009482 -0.025650403
-0.004470406 -0.0059914924 -0.0067642713 0.008153883 0.009712558 -0.03141974 -0.0011666827 0.0021722617
0.0033896863 -0.012877643 -0.013918911 0.013329731 -0.032328825 0.017396953 -0.006697573 -0.019223072
0.013490891 -0.017057253 0.012042478 0.018203132 0.020093694 -0.02870078 -0.02605129 0.012302307
0.007283967 0.014623888 -0.001954386 -0.019484228 0.009439981 -0.010840597 0.018539544 0.017025
-0.0017340183 -0.009548148 -0.020868234 0.008822165 -0.0118468 -0.030794691 0.019900903 0.0107900705
0.01695255 0.01811754 -0.009931693 0.017653834 0.0059862696 -0.018967886 0.00022580661 0.0151141845
-0.020735668 0.023197047 0.012891833 -0.010652775 0.0051803514 0.0039242553 0.016516358 -0.014736364
-0.02737612 0.0039334055 0.023062263 0.018360432 -0.03624437 0.009143495 -0.017173277 -0.016669288
-0.02160142 -0.016834063 -0.037163485 0.00021122955 0.0056425445 -0.0050708083 -0.019217037 0.022619652
-0.024509437 0.008593774 -0.036610644 -0.015097699 0.016225727 -0.012147977 0.007928364 -0.014288529
-0.010899598 -0.015421258 -0.019476254 0.014672872 6.542761e-05 0.01449101 0.028227955 -0.01593886
-0.0218135 -0.023610167 -0.015062781 -0.031604327 0.013271219 0.023517605 -0.03193616 -0.006184235
-0.0029470026 -0.016758325 -0.008754911 0.014264363 -0.030467175 -0.022581387 -0.025091937 0.011499733
00000000: 94bf a3bb d039 95bc 488f dabc 12ae 5bbc
00000010: b277 cdbc 00cb 903b 5992 003c 6043 2c3c
00000020: 301f babc 7726 b2bb d8bf be3b e58e 2d3c
00000030: 6028 5dba a982 7d3c 5a2f fbbc 5bdb 39bc
00000040: 8cf4 bfbc d010 3c3c ef00 0cbc a2a6 99bc
00000050: 609c 973b 63e4 edbc 18bc e7bb 5029 403c
00000060: d043 88bb 42b0 a93c 6ad2 44bc f953 15bd
00000070: 88a3 2abc 5705 b4bc 00ab 0f3a e118 e4bc
00000080: 531f e2bb 204f 18bb c2a8 2cbc 7e8d a9bb
00000090: 61f7 12bd 02ed a83c fe6a 483c 87cf a43c
000000a0: 52bc 40bc 7ba6 5f3c 218c a0bc c53e 0ebd
000000b0: 7eb9 613c c4df d93b f4de da3b 8597 76bc
000000c0: 977a a33c e825 3e3c c1f9 bbbc 522b 57bc
000000d0: 8d2e adba fd89 253c 04f8 bdbc 1094 ea3b
000000e0: 0742 eebb 008a 5c3b 88a6 fdbc a1ac c8bc
000000f0: 1806 d3bc 9a06 a33c e294 bfbc b024 a8ba
00000100: 88bc 68bb e030 64bb e8d4 8e3b 39e2 00bc
00000110: ce58 90bc be86 40bc a050 80bb 9c0e 93bc
00000120: f27d edbc c815 313c f58f 48bc 868a d53c
00000130: 49be a4bc d69c cdbc b0a3 adbb 991d 533c
00000140: e88f 95bb 9837 0dbd da43 7fbc 50f2 713c
00000150: 1872 93bb 2c3c b5bc 0268 a33c 8b45 ec3b
00000160: 5a58 7dbc 2674 d1bc b832 e93c ae03 60bc
00000170: fa4d 76bc 39d7 f9bc 81c5 99bc a7c9 dc3b
00000180: 80e9 02bb c081 84b9 2aaf abbc 9144 3e3c
00000190: a002 1e3b 714c 98bc 6cb2 9bbc f5c2 bbbc
000001a0: 7f46 673c b80e e33c 32ed 4abc 5fea 04bd
000001b0: bcb9 e83c a3d0 8c3c 9994 423c 40aa 86b9
000001c0: 2623 cb3c 80da ba39 b5a3 a2bc 4404 913c
000001d0: ea81 11bd 3e8c 3c3c 8034 bfbc 11ac d2bc
000001e0: 5f1c e2bc 70d3 7c3b 89d5 ddbc 840e b9bb
000001f0: fccb 3fbb e628 44bc 4572 d9bc 6072 8abc
00000200: bd68 143c bff4 a13c 74d3 5e3c 71b4 bdbb
00000210: 00e2 19b9 14a3 adbb 3296 70bc 90d0 6cbb
00000220: 3ada 6fbc e077 aebc 2082 683c afb9 153c
00000230: af24 7b3c c806 073c 8614 92bb c0dd cdbb
00000240: 2c46 973c d76a 0dbd e8e0 42bb c894 5d3c
00000250: cf55 e4bc e09e 02bc 645a 1b3c cb20 d2bc
00000260: 7c7c 92bb 4854 c4bb d2a6 ddbb dd97 053c
00000270: 6c21 1f3c fcb1 00bd 60eb 98ba 815c 0e3b
00000280: 8025 5e3b c0fc 52bc 250c 64bc f264 5a3c
00000290: 3b6b 04bd 0e84 8e3c 5077 dbbb b479 9dbc
000002a0: e608 5d3c a7bb 8bbc d04d 453c bc1e 953c
000002b0: 889b a43c e61d ebbc 8469 d5bc 9e8f 493c
000002c0: 58ae ee3b 0899 6f3c 2815 00bb 639d 9fbc
000002d0: 26aa 1a3c c29c 31bc 3ee0 973c 0378 8b3c
000002e0: 0048 e3ba d66f 1cbc dcf3 aabc d88a 103c
000002f0: 1519 42bc 2645 fcbc 3807 a33c d6c8 303c
00000300: 13e0 8a3c 3c6b 943c 8ab8 22bc c69e 903c
00000310: 7828 c43b 8a62 9bbc 80c6 6c39 7ca1 773c
00000320: d9dd a9bc bc07 be3c 4438 533c fa88 2ebc
00000330: f0bf a93b 0a97 803b 504d 873c ca70 71bc
00000340: e343 e0bc cce3 803b 12ed bc3c 9e68 963c
00000350: fa74 14bd 99ce 153c f9ae 8cbc 088e 88bc
00000360: 76f5 b0bc 97e7 89bc bd38 18bd 807d 5d39
00000370: 18e5 b83b 0629 a6bb 0c6d 9dbc d94c b93c
00000380: 04c8 c8bc e7cc 0c3c 0bf5 15bd 575c 77bc
00000390: d1eb 843c 4f08 47bc f8e5 013c 6f1a 6abc
000003a0: 3a94 32bc 72a9 7cbc aa8c 9fbc 7c66 703c
000003b0: 2e36 8938 b46b 6d3c 503e e73c 3692 82bc
000003c0: 3ab2 b2bc 1c6a c1bc e2c9 76bc 8a73 01bd
000003d0: 876f 593c fea7 c03c 7ecf 02bd 20a5 cabb
000003e0: 8022 41bb c148 89bc c270 0fbc 13b5 693c
000003f0: 4c96 f9bc 9afc b8bc 9b8d cdbc 6069 3c3c

linear1.bias f4 [12]
0.006051193 -0.04146863 -0.011513466 0.13563924 0.013169225 0.00842097 0.14924374 -0.019498844
-0.013810724 -0.14111643 -0.13881098 0.05461654
00000000: 1649 c63b 03db 29bd faa2 3cbc 03e5 0a3e
00000010: bcc3 573c 1cf8 093c 5ad3 183e 0abc 9fbc
00000020: 6046 62bc d380 10be 7724 0ebe 98b5 5f3d

linear2.weight f4 [24, 12]
-0.022333235 -0.13935319 0.074647166 0.22107649 0.214827 0.28493568 -0.076831035 -0.013100265
-0.1348377 0.068054095 0.38581192 -0.21471304 0.18188529 0.04030309 0.07602738 0.14733978
-0.07846727 -0.140439 -0.075294845 0.037895758 -0.19520295 -0.11195054 0.27530295 -0.09985586
-0.1511615 0.24202016 -0.13015427 0.009086259 0.005774544 -0.24273717 -0.08217058 0.2533802
-0.21793576 0.019391295 0.33775708 0.16038421 0.27433896 0.22946785 0.051343452 0.08923436
-0.10297994 -0.01869139 -0.21832462 0.2534309 0.102297366 -0.026516382 0.11314156 -0.26410785
-0.26733243 -0.15515605 0.19113547 -0.24849749 0.045241535 -0.09041804 -0.1563609 -0.18059732
-0.14793645 -0.003281802 -0.21835738 -0.019619226 -0.11034331 -0.13899474 0.24184096 -0.06596774
0.25977838 -0.2844969 -0.14897989 -0.2818782 -0.23556352 -0.027077228 0.07314041 -0.095838055
0.2581091 0.095705055 -0.05849556 -0.18972535 -0.07154382 -0.1757362 0.058092605 -0.23487517
-0.26310048 0.17881495 -0.032849994 -0.102447346 -0.12028105 0.029380836 0.23557582 0.12620413
0.19109435 -0.012434793 -0.08794648 -0.006155863 0.17537132 0.20295072 0.15244988 0.000368084
-0.054028198 0.14043382 0.20080909 0.11306469 0.23327756 0.09424883 -0.28855267 -0.098117694
-0.059671134 -0.28785187 0.033139322 0.12949121 -0.09144401 0.06738126 0.2558651 -0.023401149
0.17166087 0.25819677 0.019490568 0.14237912 0.055225704 -0.056637518 -0.07716735 0.1459579
0.2620564 -0.034400254 -0.035941303 0.081138015 -0.20583811 -0.05580862 -0.107078046 -0.17593431
-0.09662552 -0.28251553 -0.104778856 -0.013700187 -0.09419954 0.08516407 -0.24390587 -0.05708025
-0.07471988 0.20073725 0.23928542 -0.20793433 -0.04252305 -0.13677418 0.04975582 0.016329395
-0.25533912 -0.021312386 -0.13689081 -0.1411549 -0.27220732 -0.021538109 0.027685344 -0.10271788
0.032981843 -0.09533766 -0.2378956 -0.03143713 -0.040186886 -0.18437338 -0.2525461 0.12184304
0.23921782 -0.234595 -0.28011203 -0.16350327 -0.03817913 -0.2931196 -0.20897287 -0.26831967
0.22488417 -0.15778103 -0.024464041 0.09964379 0.086072534 0.013699204 -0.3371395 0.18084356
0.119804315 0.20277996 -0.12890542 -0.22343147 -0.20873636 -0.05645919 -0.10282236 0.04960933
-0.018707871 -0.112241715 -0.20898992 0.14222136 -0.10541284 -0.06538516 0.1390546 -0.05072448
0.15236685 0.054039165 -0.27269274 -0.032795597 0.041032523 0.19441071 -0.13857724 0.08813128
0.016161442 -0.21354763 -0.13332708 0.1061184 -0.018251002 -0.122098945 0.13388813 -0.033374537
0.088754915 -0.060985126 0.049784318 0.27931476 -0.07735453 0.06905208 -0.26049438 0.081967734
-0.20212993 -0.24509412 -0.11389197 0.154884 -0.047078893 0.24038815 0.084268264 0.11901322
0.17324601 0.09913819 -0.01868636 -0.36904612 0.038897544 -0.05252216 0.24358416 0.14762652
-0.1348805 -0.16218846 -0.17154263 -0.044093654 -0.22467613 -0.23412089 -0.13518508 0.15351264
0.019550597 -0.28498986 0.18821362 -0.01757757 0.123701364 -0.26287973 0.044832367 -0.20319106
-0.19598186 -0.1720568 -0.26754248 -0.07292941 -0.174869 -0.021797908 -0.07831542 -0.052005053
00000000: 30f4 b6bc 9ab2 0ebe 9de0 983d e061 623e
00000010: 9cfb 5b3e 17e3 913e 9759 9dbd 7ea2 56bc
00000020: e512 0abe f25f 8b3d 2489 c53e bcdd 5bbe
00000030: 2340 3a3e da14 253d 3eb4 9b3d 3de0 163e
00000040: 73b3 a0bd 3ecf 0fbe 2f34 9abd 9538 1b3d
00000050: 48e3 47be 5346 e5bd 82f4 8c3e 3b81 ccbd
00000060: 15ca 1abe 22d4 773e 2947 05be 88de 143c
00000070: 6338 bd3b 1890 78be 0d49 a8bd 0dbb 813e
00000080: 8d2a 5fbe 7eda 9e3c 7fee ac3e c23b 243e
00000090: 2876 8c3e 9ff9 6a3e 834d 523d 81c0 b63d
000000a0: 26e7 d2bd b01e 99bc 7d90 5fbe b2c1 813e
000000b0: 4881 d13d e238 d9bc c3b6 e73d 2539 87be
000000c0: ccdf 88be 3ae1 1ebe 04b9 433e 2076 7ebe
000000d0: 304f 393d 182d b9bd 121d 20be 81ee 38be
000000e0: a77c 17be 8013 57bb 1499 5fbe 80b8 a0bc
000000f0: acfb e1bd a354 0ebe 28a5 773e 181a 87bd
00000100: ac01 853e 94a9 91be 2f8e 18be 5752 90be
00000110: 9037 71be 10d1 ddbc a4ca 953d be46 c4bd
00000120: e026 843e 0301 c43d 0a99 6fbd 5d47 42be
00000130: 9185 92bd 31f4 33be 83f2 6d3d 1e83 70be
00000140: 1bb5 86be 441b 373e b78d 06bd eacf d1bd
00000150: e955 f6bd 14b0 f03c ca3a 713e a83b 013e
00000160: 3dae 433e 4dbb 4bbc 491d b4bd 1fb7 c9bb
00000170: 8a94 333e 50d2 4f3e d21b 1c3e 66fb c039
00000180: ac4c 5dbd e2cd 0f3e e6a0 4d3e 768e e73d
00000190: 50e0 6e3e 8805 c13d 2dbd 93be eef1 c8bd
000001a0: b869 74bd 5261 93be 19bd 073d 5899 043e
000001b0: ff46 bbbd 30ff 893d c000 833e c4b3 bfbc
000001c0: dec7 2f3e 5e32 843e afaa 9f3c d5cb 113e
000001d0: 5934 623d befc 67bd ea09 9ebd fd75 153e
000001e0: 422c 863e 48e7 0cbd 3037 13bd b02b a63d
000001f0: 3ac7 52be 9497 64bd bc4b dbbd 2028 34be
00000200: 9ae3 c5bd e0a5 90be 4c96 d6bd c076 60bc
00000210: b0eb c0bd 806a ae3d 76c2 79be fbcc 69bd
00000220: bd06 99bd 118e 4d3e 3d07 753e bdec 54be
00000230: a62c 2ebd 880e 0cbe c2cc 4b3d 39c5 853c
00000240: cfbb 82be 5097 aebc 1b2d 0cbe e98a 10be
00000250: c25e 8bbe b070 b0bc 60cc e23c c05d d2bd
00000260: f817 073d 6440 c3bd e79a 73be 38c4 00bd
00000270: 019b 24bd 60cc 3cbe b94d 81be d888 f93d
00000280: 84f5 743e ac39 70be d86a 8fbe 676d 27be
00000290: b861 1cbd c613 96be fcfc 55be 3261 89be
000002a0: 0948 663e 5a91 21be d068 c8bc 0b12 cc3d
000002b0: cc46 b03d a072 603c 8c9d acbe 0e2f 393e
000002c0: f75b f53d 8da5 4f3e c8ff 03be 38cb 64be
000002d0: fcbe 55be c041 67bd 8894 d2bd 2733 4b3d
000002e0: 4041 99bc fcde e5bd 7401 56be 7aa2 113e
000002f0: b0e2 d7bd a8e8 85bd 5464 0e3e 79c4 4fbd
00000300: 0e06 1c3e 2c58 5d3d 629e 8bbe ad54 06bd
00000310: b811 283d 9a13 473e 31e7 0dbe 2c7e b43d
00000320: 0065 843c 3bac 5abe e586 08be 9b54 d93d
00000330: 2083 95bc 030f fabd f819 093e bdb3 08bd
00000340: 23c5 b53d 8acb 79bd a4ea 4b3d 5802 8f3e
00000350: 0d6c 9ebd 2d6b 8d3d 855f 85be b3de a73d
00000360: 26fb 4ebe f4f9 7abe 3140 e9bd e999 1e3e
00000370: ccd5 40bd 5028 763e d794 ac3d 34bd f33d
00000380: 6767 313e f708 cb3d 2314 99bc 9df3 bcbe
00000390: 0853 1f3d 7a21 57bd 206e 793e 682b 173e
000003a0: 1d1e 0abe bb14 26be dfa8 2fbe 8c9b 34bd
000003b0: 8011 66be 63bd 6fbe f56d 0abe 6b32 1d3e
000003c0: 9328 a03c 31ea 91be 12bb 403e d6fe 8fbc
000003d0: 2457 fd3d 2c98 86be 25a2 373d 5111 50be
000003e0: 78af 48be a82f 30be 54fb 88be 045c 95bd
000003f0: dc10 33be 8791 b2bc d663 a0bd 4003 55bd

linear2.bias f4 [24]
-0.043343637 0.28278786 -0.40345052 -0.05902539 -0.20506603 -0.2664855 -0.29619282 0.15078993
-0.03074452 0.39728805 -0.021664083 0.26283962 0.0037451684 0.22420667 -0.08908079 -0.2656434
-0.2661293 0.097486235 -0.2511387 -0.060027353 0.15640688 -0.050096598 -0.28789875 0.03810177
00000000: 1989 31bd 92c9 903e 1191 cebe 9bc4 71bd
00000010: d4fc 51be ca70 88be 96a6 97be ad68 1a3e
00000020: eedb fbbc 5769 cb3e e078 b1bc ea92 863e
00000030: 8071 753b 6f96 653e fd6f b6bd 6902 88be
00000040: 1a42 88be dda6 c73d 4095 80be 3edf 75bd
00000050: 2029 203e 1732 4dbd 7767 93be 9a10 1c3d

linear3.weight f4 [48, 24]
0.1945812 -0.07846696 0.06356726 -0.06917813 -0.13467762 -0.20406896 0.19540596 -0.010325367
-0.18842176 -0.085828125 -0.052932218 0.04185817 -0.15016522 -0.15834032 -0.05378164 -0.18386859
-0.07035347 -0.023124315 0.38199952 -0.16633262 0.16672246 0.07181524 -0.11558451 0.17083889
0.18050253 -0.045788944 0.0039570034 -0.12724115 -0.11885808 0.18885472 0.055898592 0.033245523
-0.113740854 -0.0665373 -0.09744577 0.010579684 -0.16819695 -0.13076171 -0.023284892 0.19199131
-0.11072893 0.067402795 0.3835228 -0.13528916 0.1091824 -0.0488218 -0.16619354 -0.12256855
-0.11431826 0.050045215 0.096664995 0.028215505 -0.041664347 0.022653148 -0.11377103 -0.13309339
-0.07044599 0.10966478 -0.075406045 -0.10131255 -0.1504242 -0.036212258 0.07741407 0.08655256
0.06602486 -0.02077981 -0.2323609 -0.12979867 -0.17681465 0.04589785 0.1543994 -0.024566542
0.23605272 0.018115513 0.1672037 -0.09097426 0.066946745 0.07960892 -0.11789681 0.16463666
0.13699432 0.023706004 0.18237126 0.10993653 0.13990545 -0.017479587 -0.040943325 0.15751912
0.0010585377 0.10115792 -0.2141233 0.10783062 -0.020175744 0.20500936 0.16164035 0.03241553
0.086314626 -0.18931659 0.09589114 -0.1305933 0.20323625 -0.10626953 0.25416017 0.07516025
0.19965966 0.024185821 -0.19876654 0.01037784 -0.073471844 -0.18251684 0.0003009729 -0.118860774
-0.26202932 -0.05778649 0.013546381 0.076234184 0.06612232 0.2171284 -0.113803826 -0.16631994
0.027722688 -0.039435487 -0.02510108 0.17635158 0.10008928 0.18249929 0.18929838 0.16926095
0.19976604 -0.117796384 0.2025896 0.031565033 -0.13968295 0.10746579 -0.00026628067 -0.073607236
0.04524311 -0.20561266 -0.019649465 0.066403754 0.09680119 0.1523041 -0.043266375 0.11508472
-0.06516791 0.20540999 -0.040092867 0.0053553446 0.01800476 -0.018692285 -0.11602749 -0.14301214
-0.17290221 -0.117950656 0.19212252 -0.033350497 0.17917511 0.054185286 0.004884479 0.07259772
-0.071436204 -0.15308891 -0.0013937475 0.16924624 0.03853373 0.068251394 0.20039421 -0.19851895
0.38212937 0.22598214 0.06537948 -0.10786677 0.11010149 0.17167315 -0.11059989 0.1633144
0.1800523 0.15925533 0.14367816 0.13231081 0.030042455 0.034534365 -0.08981572 -0.16772638
0.13370714 0.0725384 -0.045535784 -0.13543583 -0.15949279 -0.07093451 0.14526004 -0.19333297
-0.05981985 -0.11598452 -0.005736211 -0.11567447 -0.11356547 0.19268635 -0.06605689 0.00078922784
0.14459652 0.032875963 -0.019194677 0.07038876 0.066434056 -0.19025438 -0.11546869 0.09647741
0.06700827 0.12068001 0.053938292 0.18414892 -0.16308677 -0.14454174 0.090546444 -0.10663038
-0.039697014 -0.028198987 0.0121140685 0.041999094 0.17536446 0.006115049 -0.055666395 0.030325143
-0.025807232 -0.066410035 -0.17297238 0.0787036 0.1922785 0.202322 -0.100106955 -0.15762652
0.16089153 0.031248508 0.048792347 0.106280506 0.15919523 -0.14488506 0.13196816 -0.11396424
-0.00937321 -0.008716569 -0.016172213 -0.074158 0.009703398 0.1696634 0.024087336 -0.1333686
-0.075358 -0.18593447 0.19534275 -0.11129995 -0.0064787865 -0.018892158 0.11158435 -0.18636653
00000000: 4b40 473e 49b3 a0bd 8d2f 823d 43ad 8dbd
00000010: eee8 09be 74f7 50be 8018 483e ba2b 29bc
00000020: a2f1 40be a8c6 afbd 74cf 58bd 7973 2b3d
00000030: e9c4 19be f723 22be 234a 5cbd 0c48 3cbe
00000040: 7b15 90bd 346f bdbc 7195 c33e 1953 2abe
00000050: 4bb9 2a3e de13 933d 92b7 ecbd 64f0 2e3e
00000060: a8d5 383e 308d 3bbd c0a9 813b 814b 02be
00000070: dd6b f3bd 2263 413e ecf5 643d 752c 083d
00000080: f7f0 e8bd b544 88bd a691 c7bd 6956 2d3c
00000090: d23b 2cbe 66e6 05be f5bf bebc 5f99 443e
000000a0: d9c5 e2bd 7a0a 8a3d 1a5d c43e 3e89 0abe
000000b0: 069b df3d 5ef9 47bd a42e 2abe 3805 fbbd
000000c0: b11f eabd 36fc 4c3d 4cf8 c53d 3424 e73c
000000d0: 3ca8 2abd 1893 b93c c900 e9bd a249 08be
000000e0: fd45 90bd ee97 e03d 7c6e 9abd f47c cfbd
000000f0: cd08 1abe 4e53 14bd 458b 9e3d 7842 b13d
00000100: 0b38 873d 6c3a aabc 04f0 6dbe f1e9 04be
00000110: e60e 35be 62ff 3b3d e01a 1e3e c63f c9bc
00000120: ceb7 713e fc66 943c 7237 2b3e b650 babd
00000130: 601b 893d 000a a33d e273 f1bd 8396 283e
00000140: 3d48 0c3e 1833 c23c 88bf 3a3e 6726 e13d
00000150: 6043 0f3e 5a31 8fbc 30b4 27bd b14c 213e
00000160: a2be 8a3a e22b cf3d 2343 5bbe 4dd6 dc3d
00000170: 9a47 a5bc f9ed 513e 0c85 253e 26c6 043d
00000180: b9c5 b03d 35dc 41be 9362 c43d 40ba 05be
00000190: 2a1d 503e d7a3 d9bd 4821 823e 9eed 993d
000001a0: 9573 4c3e 5821 c63c 7589 4bbe d107 2a3c
000001b0: 6878 96bd b2e5 3abe e6cb 9d39 476d f3bd
000001c0: b528 86be 87b1 6cbd a4f1 5d3c ab20 9c3d
000001d0: 246b 873d e856 5e3e fb11 e9bd c64f 2abe
000001e0: b11a e33c 1b87 21bd c8a0 cdbc 8295 343e
000001f0: 9cfb cc3d 18e1 3a3e 6fd7 413e be52 2d3e
00000200: 788f 4c3e 3b3f f1bd a673 4f3e 564a 013d
00000210: 0c09 0fbe 0617 dc3d 969b 8bb9 64bf 96bd
00000220: d750 393d 208c 52be eaf7 a0bc b1fe 873d
00000230: b43f c63d 9bf5 1b3e 1538 31bd 8ab1 eb3d
00000240: c176 85bd ff56 523e 6b38 24bd e37b af3b
00000250: b87e 933c 9020 99bc d29f edbd c671 12be
00000260: 470d 31be 1d90 f1bd c4bb 443e 889a 08bd
00000270: ae79 373e 64f1 5d3d fb0d a03b 1dae 943d
00000280: 254d 92bd 57c3 1cbe 68ae b6ba e34e 2d3e
00000290: 8bd5 1d3d 63c7 8b3d 2434 4d3e 8d48 4bbe
000002a0: 76a6 c33e dd67 673e ade5 853d 41e9 dcbd
000002b0: e47c e13d 16cb 2f3e 3282 e2bd e43b 273e
000002c0: a15f 383e d413 233e 5e20 133e 7c7c 073e
000002d0: 981b f63c e873 0d3d 4ef1 b7bd 77c0 2bbe
000002e0: 86ea 083e 038f 943d bb83 3abd b1af 0abe
000002f0: 1452 23be 1d46 91bd 0cbf 143e 14f9 45be
00000300: a905 75bd 4b89 edbd d3f6 bbbb bde6 ecbd
00000310: 0395 e8bd 924f 453e d648 87bd 2fe4 4e3a
00000320: 1c11 143e f2a8 063d 283e 9dbc fb27 903d
00000330: 940e 883d 0bd2 42be d97a ecbd f395 c53d
00000340: a23b 893d 1527 f73d 66ee 5c3d 8991 3c3e
00000350: 3800 27be c002 14be 6a70 b93d 0761 dabd
00000360: 5699 22bd 9001 e7bc 167a 463c 3e07 2c3d
00000370: be92 333e c060 c83b 7202 64bd 6f6c f83c
00000380: b069 d3bc fc01 88bd ac1f 31be 5a2f a13d
00000390: a8e4 443e 802d 4f3e e004 cdbd d968 21be
000003a0: c0c0 243e dffc ff3c 7cda 473d 98a9 d93d
000003b0: 1304 233e c05c 14be a922 073e 1566 e9bd
000003c0: 1892 19bc f1cf 0ebc 977b 84bc 26e0 97bd
000003d0: 00fb 1e3c 3ebc 2d3e ce52 c53c c791 08be
000003e0: 4c55 9abd 9b65 3ebe ee07 483e 3af1 e3bd
000003f0: 004c d4bb bac3 9abc 5686 e43d ded6 3ebe

linear3.bias f4 [48]
-0.265408 -0.13962533 -0.12648489 0.4295478 -0.1970211 -0.20035633 -0.22016191 0.2702862
0.098488264 0.009562982 -0.12030578 0.3830075 -0.17310894 0.16350235 -0.0820041 0.069802456
-0.2134613 0.052653633 0.10486577 0.44040197 0.193164 0.2929707 -0.2791316 0.37101287
0.09277985 0.06163392 -0.33585495 0.023663461 0.12910539 -0.181586 -0.22989827 0.20411865
0.24918802 -0.0948655 -0.20031133 0.20639007 -0.2688268 -0.31690866 0.13788594 0.57702285
0.10501145 0.15882532 -0.26585457 0.18973891 -0.051540162 -0.1096302 -0.3759698 0.08557798
00000000: 8fe3 87be f1f9 0ebe 4185 01be b0ed db3e
00000010: e6bf 49be 362a 4dbe 2072 61be f462 8a3e
00000020: 37b4 c93d 0eae 1c3c e062 f6bd 8f19 c43e
00000030: 7843 31be 296d 273e c4f1 a7bd 97f4 8e3d
00000040: 9995 5abe 56ab 573d ddc3 d63d 5e7c e13e
00000050: c9cc 453e 4100 963e 56ea 8ebe 66f5 bd3e
00000060: 5d03 be3d d973 7c3d 2ef5 abbe e0d9 c13c
00000070: 3434 043e aef1 39be 746a 6bbe 7b04 513e
00000080: 252b 7f3e d848 c2bd 6a1e 4dbe eb57 533e
00000090: aba3 89be da41 a2be f931 0d3e c5b7 133f
000000a0: 3e10 d73d 1ba3 223e 171e 88be eb4a 423e
000000b0: c71b 53bd cc85 e0bd 1d7f c0be 8243 af3d
