epoch_20_model/건조/model.pth (torch, 201120 bytes, 18 tensors)

linear1.weight f4 [24, 48]
000000 47 5e e7 bd 4c ea 1e bd 1a 7a 00 be 49 de 04 be
       -0.11297279 -0.03879766 -0.12546578 -0.1297542
000010 ca 84 d6 bc 64 9b 30 bd a0 94 b1 3d e1 41 95 bd
       -0.026186366 -0.043116942 0.08670926 -0.07287956
000020 92 d0 6d 3d 10 b1 a5 bd 15 79 bd 3d df d3 ee bd
       0.058060236 -0.080904126 0.0925161 -0.11661505
000030 72 3d fa 3b cd dc 85 bd 58 dd e7 bb 02 66 ee bd
       0.0076367194 -0.06536255 -0.007075947 -0.1164055
000040 79 db d5 bd 61 3e 83 3c 48 14 e9 3c a2 5e 3c bd
       -0.10442252 0.016020956 0.028452054 -0.045988686
000050 94 41 c5 3d 57 02 48 3c 46 26 63 3d 0c c4 09 3e
       0.09631649 0.012207589 0.055456422 0.13453692
000060 93 90 eb 3b 65 d5 dc bd 90 85 96 3c ce 47 03 3c
       0.0071888654 -0.10782889 0.018374234 0.008012725
000070 ff 9c a6 3c ed 54 24 bd 5f e0 25 3d e3 31 59 3d
       0.020338533 -0.040120054 0.04049718 0.05302609
000080 ca 4d 08 be 51 11 20 3d 2f 54 08 3e 11 ef 60 3d
       -0.13310924 0.039079014 0.13313363 0.05491549
000090 2e 1f 9d bd c2 17 10 be bf 3d fa 3d c1 ed 93 3d
       -0.07671963 -0.14071563 0.122188084 0.07223082
0000a0 58 20 80 bc 80 0a 8d bd 57 7c 6b bc c4 9d 09 3e
       -0.015640423 -0.06886768 -0.014372907 0.13439089
0000b0 68 83 5d 3d da 13 06 3a 85 5f f1 bd cd f4 5e bd
       0.054080397 0.00051146524 -0.11785797 -0.05443268
0000c0 68 d5 fd 3d a8 44 e5 3d 54 50 49 3d 2a 00 9a bd
       0.1239422 0.11194736 0.049148872 -0.075195625
0000d0 7c f8 01 be 40 7a 7b bc 5e 59 32 bd 60 e3 d3 3d
       -0.12692446 -0.015348971 -0.04354226 0.10346103
0000e0 7e 7e 05 3e 0c 38 aa bc 59 43 9f bd a4 dc 65 3d
       0.13036534 -0.020778678 -0.077765174 0.056118622
0000f0 2e c5 b7 bd 2c ab c6 3d f6 b4 99 3d 98 bd 9a 3c
       -0.08973156 0.09700617 0.07505219 0.018889233
000100 74 53 b1 bd 68 a5 d5 3c 18 0b 97 bd ba 31 00 be
       -0.086584955 0.026079848 -0.07375163 -0.12518969
000110 2a 2f 8f 3d 94 95 08 3e ee 67 0a 3e 94 52 11 be
       0.06991418 0.1333831 0.13516209 -0.14191657
000120 e8 2a de 3c c2 27 26 bd 00 8b 14 3a 85 94 ec bd
       0.027120069 -0.04056526 0.00056664646 -0.11551765
000130 1c 2b e4 bd cc 3d 0e 3e 6e 91 11 be 3f 52 a4 bd
       -0.11141035 0.13890761 -0.14215633 -0.080235
000140 52 50 bb 3d 30 69 63 3c 02 2e f0 bd 6d 70 86 bd
       0.09146179 0.013880059 -0.11727525 -0.06564412
000150 c0 ea e0 bc d5 29 8c bd bb 66 bb bd ea d8 d1 3d
       -0.027455688 -0.06843916 -0.09150454 0.10246451
000160 88 d3 2d 3d 1e f5 dd bd 80 bb df 3a e0 99 5d 3c
       0.04243806 -0.10837768 0.0017069429 0.013525456
000170 f0 f0 e3 3d 8a 71 b4 3d a6 18 cc bd 9b 2e 10 be
       0.111299396 0.08810718 -0.09965639 -0.14080279
000180 5d e6 8e 3d 39 82 2c 3d 24 78 ed bd 4f af 2a 3e
       0.06977532 0.042116378 -0.11595181 0.16668437
000190 b9 5a 08 3e e1 4c 0a 3e 47 c9 1d be 0c 05 42 3e
       0.13315858 0.1350589 -0.15408812 0.18947238
0001a0 8b 76 1f 3c ca bb 0d 3e ad a1 ae bd 1b 79 1d bd
       0.009732853 0.13841167 -0.08526931 -0.038445573
0001b0 b5 1f 21 bd 0a 42 6f bc 27 eb 51 be eb b4 d8 3d
       -0.03933688 -0.014603147 -0.2049986 0.10581382
0001c0 34 fa 8f 3c c2 be 1f bd d0 70 8e 3c 31 12 ae 3c
       0.01757536 -0.03900028 0.017387778 0.021248909
0001d0 5d 2e 2f 3e 93 70 f7 3d f8 67 5d bd f0 d8 2c 3e
       0.1710753 0.12082019 -0.05405423 0.1687963
0001e0 fc d9 52 3d 95 ff 90 3c 27 f4 09 3c e7 ee 81 3b
       0.051477417 0.017699996 0.008420027 0.003965247
0001f0 44 d6 ba bd 69 05 fd 3d 05 67 3a bc 1a 00 28 3d
       -0.09122899 0.123545475 -0.011377101 0.04101572
000200 c2 2d 89 bd 53 1c 21 3e d9 49 c3 bd 97 1e 9f 3d
       -0.06698181 0.15733461 -0.0953557 0.077695064
000210 2a 40 c7 3d b0 fe a9 bd 99 d7 2c be d4 e7 2c 3e
       0.09729035 -0.08300531 -0.16879119 0.1688531
000220 6a 5c a7 3d 79 f3 c3 3c d5 5d c8 bc 6e 57 65 3d
       0.081719235 0.023919808 -0.024458805 0.055991583
000230 c2 33 82 bd a3 64 89 3d 3d 05 6f bd 11 7f 99 3c
       -0.06357528 0.06708648 -0.058354605 0.018737348
000240 37 c0 d1 bc 4d d4 d7 bd 3f a9 65 bd b8 8c 71 3e
       -0.02560435 -0.1053854 -0.05606961 0.23588836
000250 16 00 a4 bc a5 8e 0d bc 0c 6e e8 bd f8 88 32 3e
       -0.020019572 -0.008639966 -0.11349115 0.17435062
000260 d3 d2 c0 3d 3d d5 77 bd 14 2b 46 be d2 91 2a 3e
       0.094152115 -0.060506094 -0.1935237 0.16657189
000270 3d 92 2c 3e 03 a8 03 3d a6 d5 3e be e2 57 f8 3d
       0.1685266 0.03214265 -0.18636188 0.12126137
000280 19 74 f7 3d 1a d9 ab 3d 43 87 a6 be ab d2 13 3e
       0.12082691 0.08391018 -0.32525072 0.14435832
000290 f9 21 da 3d 9d a2 c0 bd 7a b5 f1 bc a5 7c 59 3e
       0.10651011 -0.09406016 -0.02950548 0.21238954
0002a0 7a 51 ac bd 38 2e e0 3c 21 aa 94 bc ca dd 6d 3e
       -0.08413978 0.027365789 -0.01814753 0.23229137
0002b0 4a 05 e2 bd c5 bf 41 bd 4b 57 45 bd d7 bd a6 3d
       -0.11036165 -0.047302026 -0.048178952 0.08141678
0002c0 8c 64 c3 3d 31 56 24 3c d1 bb e7 bd 6b ef ac 3d
       0.09540662 0.010030315 -0.1131512 0.08444103
0002d0 23 75 14 3e 32 e8 62 3d ee 56 05 bd 42 6b 16 3e
       0.14497809 0.05539722 -0.032553606 0.14689353
0002e0 52 b6 07 3d 39 43 ed 3d 68 04 2c be 00 36 d1 3d
       0.03313286 0.11585087 -0.16798556 0.10215378
0002f0 04 0e ac 3c 5a 6a 80 3d d1 4b 18 be ca b2 c4 bc
       0.021002777 0.06270285 -0.14872672 -0.024011035
000300 71 4d 9f bd 32 aa c4 bd 4e fb 33 bd 26 58 c6 bd
       -0.07778443 -0.09602775 -0.043940835 -0.09684782
000310 61 c5 55 bc 70 80 08 3d 96 a7 a2 3d 84 eb ff 3d
       -0.013047547 0.033325613 0.07942121 0.12496093
000320 e9 ba 7b 3d d6 57 75 bd e5 f3 25 bd 36 25 94 3d
       0.06145755 -0.05989822 -0.0405158 0.0723366
000330 4e fa a9 bc f6 88 15 bb 6c 9c 3f b8 b7 5d 92 3a
       -0.020749237 -0.002281723 -4.5683628e-05 0.0011166845
000340 c6 6d b1 bd 1c 9e 02 be 4d e0 89 3d 38 81 a1 bd
       -0.08663516 -0.12755626 0.06732235 -0.07885975
000350 6a e1 21 be 22 97 b5 3d 94 e6 ba 3d e5 cc ad bd
       -0.15808645 0.08866717 0.091260105 -0.08486346
000360 28 a5 f5 3d ee 3a 18 be b6 1c e4 bd a2 47 b1 bd
       0.11994392 -0.1486623 -0.11138289 -0.08656241
000370 bc 24 50 3d e1 76 a1 3d bb 02 b2 bd 14 fd 2d bd
       0.050816283 0.078840025 -0.08691927 -0.042477682
000380 90 14 bc bd 11 54 b8 bc 03 0a 46 3d eb f8 01 3e
       -0.091836095 -0.022501023 0.04834939 0.12692611
000390 83 73 00 bc 81 0f 87 bd 5d 70 c8 3a 8b 72 95 3d
       -0.00784004 -0.06594754 0.0015292276 0.07297238
0003a0 73 b9 fb 3d 69 4d 10 3d f1 04 c7 3d f7 46 0c be
       0.12291231 0.035230074 0.097177394 -0.13698946
0003b0 ca 9d 96 bd 50 ca f4 bd 28 b3 51 bd aa df 7c bd
       -0.073543146 -0.119526505 -0.051196247 -0.06173674
0003c0 68 f5 9a 3d b4 a0 50 bd d8 ec 1d 3d 24 0d 9e bd
       0.07566339 -0.05093451 0.03855595 -0.0771735
0003d0 90 ac 31 3d 84 af 46 3d 68 3f 74 3d 66 23 a7 3d
       0.04337746 0.04850723 0.05963078 0.081610486
0003e0 c8 c8 f5 3d 5a 8a 54 bd f8 1b 77 3d 93 2b 8d bd
       0.120011866 -0.051889755 0.060329407 -0.06893077
0003f0 cc e0 10 3e ec c3 11 3d c4 a6 5c 3d 72 0c 2c bd
       0.14148253 0.035587236 0.053869978 -0.042004056

linear1.bias f4 [24]
000000 6c 13 23 3d 3b 4d 12 be 53 7f d8 bd 09 40 54 bd
       0.039813444 -0.14287274 -0.1057116 -0.05181888
000010 cc d0 06 3d df d8 8f bd a0 90 19 bd bb 31 83 bd
       0.032913968 -0.07023787 -0.03749144 -0.0640597
000020 09 45 a9 3d a4 d9 ae 3d 6a b1 86 3c 19 61 76 3d
       0.082651205 0.085376054 0.01644202 0.060151193
000030 e0 a9 5b 3d d5 67 0a be 88 dd 09 be 83 da 5b bd
       0.053628802 -0.13516171 -0.13463414 -0.053675186
000040 1c 5c 90 3d 8c cb 95 3d 04 47 f3 3d 53 12 43 3d
       0.070488185 0.07314214 0.118787795 0.047624897
000050 fd 4f c5 bd 5c 84 9f bc 3d d3 a1 3d 0f a9 66 bd
       -0.09634397 -0.019472294 0.07901619 -0.05631357

linear2.weight f4 [12, 24]
000000 68 02 b3 bd 58 12 f9 3d ea c1 5a be 88 d4 79 be
       -0.08740693 0.12161702 -0.21363035 -0.2439748
000010 88 49 ab bd 1c 8e 88 bd 18 f5 1e 3d 5e 8b 28 3e
       -0.08363634 -0.0666773 0.03880796 0.16459414
000020 9c 14 0c 3d 7d 96 11 be c4 93 8b bb 48 c7 61 3b
       0.034199342 -0.14217563 -0.0042595584 0.0034451056
000030 74 02 86 3d 20 57 ea 3b 88 dc 44 be 98 44 c1 bd
       0.06543437 0.0071514994 -0.19224751 -0.09436911
000040 87 98 dc bd 5e d0 4c 3e ae 9e 2f 3e fb c8 8f 3d
       -0.1077128 0.20001361 0.17150375 0.07020756
000050 80 63 43 be 9c 09 c8 bd 0e bb 1b be 8c 00 d7 3d
       -0.19080925 -0.09767458 -0.15208074 0.10498151
000060 df e4 ee 3d 56 e8 2c be 99 aa a5 bd a5 f7 25 be
       0.116647474 -0.16885504 -0.080891795 -0.1620775
000070 a6 27 1f be 48 55 3e 3d ab 40 d6 bd 83 32 1a 3e
       -0.15542468 0.04646805 -0.10461553 0.15058331
000080 40 36 96 bc 9d 87 ed 3d c0 46 27 3d 46 e1 8d 3d
       -0.018336415 0.11598132 0.040838957 0.06927733
000090 4f 00 ad 3d 08 c6 1a bd d9 93 19 be 81 7a 0e 3d
       0.084473245 -0.037786514 -0.14997806 0.034784798
0000a0 73 81 39 3d 44 c8 1f 3d a0 83 83 3c 48 bf 1b 3d
       0.045289468 0.039009348 0.016053975 0.038024217
0000b0 af 13 30 3e a2 8c 46 3e b6 88 0f be 37 83 d0 bd
       0.17195009 0.19389585 -0.14016995 -0.10181277
0000c0 c8 71 f2 3d 64 ee 90 3d f8 1f 4b 3d 9a 1a 54 3d
       0.11838108 0.070767194 0.049591035 0.05178318
0000d0 ea 65 3c 3e bb e5 ad bd 10 2b 85 bd 68 c0 32 bd
       0.18398252 -0.08491083 -0.06502354 -0.043640524
0000e0 10 7e 21 be b0 3e ed 3c e8 37 2e 3e c4 f0 6c bc
       -0.15770745 0.028960556 0.17013514 -0.0144617
0000f0 7a d6 87 3d d6 d9 c5 bd 8e 34 91 bd a8 87 87 bd
       0.06632705 -0.096606895 -0.07090102 -0.06617671
000100 0c 9b c5 bd 80 e1 d8 3c b2 2f 41 3e d1 e7 db bd
       -0.096487135 0.026474714 0.1886585 -0.10737575
000110 9e 4c 0e be ac 30 36 be e2 c3 c9 bd 46 39 27 be
       -0.13896415 -0.17792004 -0.09851815 -0.16330442
000120 70 f0 aa bd 28 52 b7 3d 2b 55 83 3c 73 4f 97 bd
       -0.08346641 0.08951217 0.016031822 -0.073882006
000130 d7 8b a4 bd 68 df 31 3e 3d fc f9 3d e9 76 87 3e
       -0.08034485 0.17370379 0.12206314 0.2645791
000140 c8 34 40 be a0 76 14 be 62 a2 1f be 70 09 b3 bd
       -0.18770134 -0.14498377 -0.15589288 -0.087420344
000150 08 d5 a9 bd db ff 3c be 9a e0 1c 3e 60 b2 94 3d
       -0.082925856 -0.18456976 0.15320054 0.07260585
000160 4d b3 7f bd db 43 1e 3e 8f d6 3c 3e 77 e0 7a 3e
       -0.062426854 0.15455572 0.18441223 0.24499689
000170 cb 83 f8 bd 09 1f 88 3d aa 2c 2f 3e 25 76 6d 3c
       -0.121345125 0.066465445 0.17106882 0.0144935
000180 97 eb 0b be 44 82 bd bd f4 a5 9a 3d 01 66 be 3d
       -0.13664089 -0.09253362 0.07551184 0.092967995
000190 2d 6d 4c bd 80 68 a5 3d f1 5f ef 3d bf f1 37 bd
       -0.049908806 0.080765724 0.11688221 -0.04490828
0001a0 99 4c ff bd 29 85 c1 3b dc 7d 2c 3e 3e 16 18 3e
       -0.12465782 0.0059057665 0.16844887 0.14852235
0001b0 64 ee 15 be 3a b4 49 3e 50 89 29 bc 43 e5 27 bc
       -0.1464172 0.19697657 -0.010347679 -0.010247531
0001c0 2e 14 5a 3d 91 94 40 3e 96 a1 c5 3d 4f 46 81 be
       0.0532419 0.18806674 0.09649961 -0.25248954
0001d0 93 02 ff bd 08 75 cd 3c 82 d9 42 be 7c 2f 11 be
       -0.12451663 0.025080219 -0.19028285 -0.1417827
0001e0 ee 52 04 be 5c e8 bc 3d b1 c4 03 3d ca 51 e1 3d
       -0.1292226 0.092240065 0.03217 0.11001928
0001f0 92 bb fc 3d 38 9e 36 bd 71 cd 88 bd c6 4c 2b 3d
       0.12340464 -0.044584483 -0.0667981 0.041821264
000200 02 7c 4e bd fa 8e 56 be c2 31 48 be 54 33 fd b9
       -0.05041123 -0.20952979 -0.19550231 -0.00048294163
000210 b9 f2 1f be 32 7f 9c bd 20 2a 37 be 76 10 85 3d
       -0.15619935 -0.07641448 -0.17887163 0.0649728
000220 16 e6 2b be 80 6e 1f 3d cc 1f 29 3d 45 f3 ea 3d
       -0.1678699 0.03892374 0.04129009 0.11472181
000230 6c 89 52 bd 40 22 94 bc a1 98 0d be 6d 12 24 3d
       -0.051400587 -0.018082738 -0.13827755 0.040056635
000240 c2 65 1b 3e a7 00 cc bd 14 12 5b be 34 f4 4b 3d
       0.15175536 -0.09961062 -0.21393615 0.049793437
000250 b5 9f 37 be 78 2b c5 3d ab 23 19 be f7 fd 7d 3d
       -0.17932017 0.09627432 -0.14955013 0.062009778
000260 cd 02 fe bd a7 5f 1e 3e de 06 9c 3d 9a 29 52 be
       -0.12402878 0.15466176 0.07618497 -0.20523682
000270 e0 0d ec 3d e4 40 57 bd 60 37 92 bc 97 24 4a bd
       0.11526084 -0.05255212 -0.01784867 -0.0493513
000280 ae e9 db 3c b5 03 44 be 57 7b 4d 3e 5d 82 34 3d
       0.026844826 -0.19142039 0.20066582 0.044069637
000290 ba ff 25 bb 6d 06 80 bd 23 00 dc bd c2 f4 6f 3a
       -0.0025329427 -0.062512256 -0.107422136 0.0009153598
0002a0 06 a2 1d 3d ba b5 0d be 1e 58 b2 bd db fb 99 bd
       0.038484596 -0.13838854 -0.08708213 -0.07518741
0002b0 00 c1 f2 bd 30 3e 6d bc 4d de 6e 3d bb b5 63 3e
       -0.11853218 -0.014480159 0.05831747 0.22237293
0002c0 f1 eb 40 be 95 1a db bd 06 54 f0 3d ee b2 a8 bd
       -0.18840005 -0.106984295 0.11734776 -0.08237253
0002d0 ff 11 47 3e e0 82 82 bd c0 b2 11 3b 0d ae bf bd
       0.19440459 -0.06372619 0.0022231787 -0.093593694
0002e0 04 b7 d3 3d 7c 02 44 bd 4e de 4c be 84 a7 e9 3d
       0.10337642 -0.04785393 -0.20006678 0.11408904
0002f0 b6 41 81 3d 08 41 61 bd c6 78 39 be fb dc 33 bd
       0.063113615 -0.05499366 -0.18112478 -0.043911915
000300 b8 d0 30 be 94 3d 14 be e7 7b 12 3e 4f ed 74 bc
       -0.1726712 -0.14476615 0.14305077 -0.014949157
000310 30 99 1a be 24 26 ba 3d 46 54 bd 3d da 2b d5 bd
       -0.15097499 0.09089306 0.092445895 -0.10408755
000320 25 d1 18 be a9 67 4b be cb 7d 40 bc 98 5c d2 3c
       -0.14923532 -0.19863762 -0.011748741 0.025678918
000330 04 91 79 bd 88 5d af 3d b2 a3 0c 3e 7b e4 e6 bd
       -0.060929313 0.085627615 0.1373432 -0.11274048
000340 ba a8 02 3e 76 f0 36 bd 79 9e 7f bd 28 c3 92 bd
       0.12759677 -0.044662915 -0.06240699 -0.07166129
000350 92 66 46 be 2c 1c 21 3e ae 32 7b 3e 02 5f 5f bd
       -0.19375065 0.15733403 0.24531052 -0.054533966
000360 94 83 24 bd 9a 30 2e 3e 0a 74 58 3c 1a d7 0f 3d
       -0.040164545 0.17010728 0.01321126 0.035117246
000370 92 67 4b 3e 38 be 70 3d 3b 99 59 be c2 96 8b bd
       0.19863728 0.058775157 -0.21249859 -0.06815864
000380 1c a3 03 bd 94 cf e0 3d f0 f1 70 3d 78 89 5d bd
       -0.032137975 0.109770924 0.05882448 -0.05408618
000390 cb 02 87 3d d0 fd 9f bc 98 dd fa bc 00 03 1c be
       0.065923296 -0.019530207 -0.030623242 -0.1523552
0003a0 d3 d3 0d 3e d5 48 16 3e 75 3c 66 39 c5 25 e7 bd
       0.13850336 0.1467622 0.00021957031 -0.11286501
0003b0 c8 33 88 3d 76 03 df 3d 00 69 ad bd 88 f8 09 be
       0.066505015 0.10889332 -0.08467293 -0.13473713
0003c0 ec a1 8c 3b b4 e2 00 be d3 8b a4 bd 98 1e 04 3e
       0.0042917635 -0.1258648 -0.08034482 0.12902296
0003d0 54 46 66 3c d0 2d c8 3c 80 9e 58 be b4 92 1c 3d
       0.0140548535 0.024435908 -0.21154213 0.038225845
0003e0 6b a3 ef bd bd 3b 77 bd 62 15 9b bd 7f d8 96 3c
       -0.117010914 -0.060359705 -0.07572438 0.01841378
0003f0 70 b7 8a 3d 78 09 9c 3d 60 75 a5 3b 7b e2 0d bd
       0.06773269 0.076189935 0.0050493926 -0.034639817

linear2.bias f4 [12]
000000 9e 5a 93 3d c8 dd 4d 3e c0 12 ab bd e0 49 0c 3e
       0.07195018 0.20104134 -0.08353186 0.13700056
000010 7c 56 03 be 6b 1a c2 bd 28 ec d7 3d ef 33 1c 3e
       -0.1282596 -0.09477695 0.1054309 0.15254186
000020 47 42 f5 bd d7 83 38 bd b0 4e 70 3b df e7 65 3d
       -0.11975532 -0.045047607 0.0036667995 0.056129333

linear3.weight f4 [1200, 12]
000000 8e fe 66 be 66 26 5a be 65 e2 57 3e 35 70 71 bd
       -0.22558042 -0.2130371 0.21082456 -0.0589449
000010 4a 83 ad bd 78 dc 83 3c df 9a ce bd 78 e0 d3 3b
       -0.08472307 0.016096339 -0.10088133 0.0064659677
000020 90 1c 5e bd 6e 07 15 3e b4 bc 49 be 15 5d 8e be
       -0.054226458 0.14553615 -0.19700891 -0.2780539
000030 e4 0c 90 be 65 1b 17 be 9b bd 24 bd 44 31 9a 3d
       -0.28134835 -0.14756544 -0.040219884 0.07528928
000040 a3 e9 b1 be 07 42 08 3e 5f 90 a3 bd 21 09 f0 3d
       -0.34748563 0.13306437 -0.07986521 0.11720491
000050 6d c0 9b bc 53 b2 2e 3e 50 15 73 bd af 1a 64 3e
       -0.019012654 0.17060213 -0.059346497 0.22275804
000060 80 de a9 3b ee 66 80 3e e8 d6 84 bd 2a b2 8b 3e
       0.005183995 0.2507853 -0.064863026 0.27284366
000070 48 b2 2a be 16 ff 08 3e 10 22 3c 3d cc d6 eb 3d
       -0.16669571 0.13378558 0.045930922 0.11515579
000080 00 fb 6c bb 00 c0 cf bb c8 03 5b be 80 dc bb bd
       -0.003616035 -0.006340027 -0.21388161 -0.091729164
000090 55 0e 16 be aa ee 8f 3e 6c 56 34 3e d8 b3 e2 bd
       -0.14653905 0.28111774 0.17611092 -0.11069459
0000a0 30 d6 85 3d 64 1f 08 3e 78 28 38 bd 80 1b 4a 3c
       0.06534994 0.13293225 -0.04496047 0.012335658
0000b0 18 e7 50 3d 4c 71 61 bd 94 a4 97 3d 40 69 12 3c
       0.05100164 -0.05503969 0.07404438 0.008936226
0000c0 ed 8f 53 3d f4 8a e7 bd 11 58 87 3e 1c 82 fe 3d
       0.05165093 -0.113058 0.26434377 0.1242716
0000d0 3a ff 53 be d0 17 b2 bd 20 ae 63 bd 02 67 0f 3d
       -0.2070283 -0.08695948 -0.05558598 0.035010345
0000e0 d3 5b cd 3d 83 11 6a be ea 02 60 be 34 c7 49 3e
       0.1002728 -0.22858243 -0.21876112 0.19704896
0000f0 17 0e 80 be 09 f5 48 be b8 58 5c 3e 1c b0 f7 3d
       -0.2501075 -0.19624723 0.21518219 0.12094137
000100 ad f4 60 bc bf ce 31 3e 62 5a 59 3e 06 ea e9 3b
       -0.01373021 0.17364024 0.21225885 0.0071384935
000110 dd dd 76 3e 89 70 1a 3e b4 61 91 3e 97 d2 c3 3d
       0.24108072 0.15081991 0.28394854 0.09561651
000120 d6 10 27 be f0 ff e4 3c a4 bf 5b 3e 26 36 55 3e
       -0.16315016 0.027954072 0.21459824 0.20821437
000130 a2 86 10 be b8 29 85 be 60 45 7b bc 3c e9 6c bd
       -0.14113858 -0.2600839 -0.0153363645 -0.057839617
000140 56 4d 49 be 00 26 1e be 18 e6 95 bd a6 36 b3 bd
       -0.19658408 -0.15444183 -0.073192775 -0.08750658
000150 e0 7f 1e 3e 1f 91 1c be 53 3b 01 be 16 31 89 3e
       0.15478468 -0.15289734 -0.12620287 0.26795262
000160 ab 22 2b be c3 3d 75 bd cb 37 b5 be c3 be fe 3d
       -0.16712444 -0.059873354 -0.3539413 0.12438729
000170 a1 73 06 3c 98 25 95 3e 4b 53 33 3d 5b 38 8d be
       0.008206279 0.29130244 0.043780606 -0.27582058
000180 2a 42 79 3d 4a ff 7c be ff a3 8a 3e 31 30 e0 bd
       0.060854115 -0.2470676 0.27078244 -0.10946692
000190 1a 9e 31 be 11 33 95 be 75 8d 11 bf a9 87 89 bd
       -0.17345467 -0.29140523 -0.5685647 -0.06715328
0001a0 c9 1b 61 be 96 b9 87 bd d3 ef a1 bd c0 45 d8 be
       -0.21983255 -0.066271946 -0.07907071 -0.42240715
0001b0 a1 2c ad 3b a7 51 92 3e 57 bd 1e 3d c9 8a 20 3d
       0.005284861 0.2857792 0.038754787 0.039194856
0001c0 25 cb 2d be cf 40 5e be 03 10 b9 3e d4 73 6d bd
       -0.16972025 -0.2170441 0.36145028 -0.05797179
0001d0 d9 0d 2b be 55 45 81 be 66 e1 9d 3c 2e 51 85 bc
       -0.16704501 -0.2524821 0.019272517 -0.016274061
0001e0 56 7d 57 3e fb 17 5e bd f9 d3 26 bb 04 7a 95 3e
       0.21043906 -0.05422209 -0.0025455935 0.29194653
0001f0 38 4f ac 3d 1a 10 c6 3d 7f cd f9 bd ef e0 42 3d
       0.08413547 0.0967104 -0.121973984 0.047577795
000200 ee a6 7f bd 79 e5 5b 3e a0 40 32 be 19 cc de 3d
       -0.062415056 0.21474256 -0.17407465 0.10878772
000210 00 52 cd ba 6c 2d 81 3e 3d b1 02 be 64 17 1a 3e
       -0.0015664697 0.25229967 -0.12762924 0.15047985
000220 94 21 a5 bd 78 ef 3f be 9a 23 8a be 1c b7 dd 3d
       -0.08063045 -0.18743694 -0.26980287 0.10825941
000230 22 80 2f 3c 60 97 4c 3d c4 d9 db bd 6c d3 f9 3d
       0.010711702 0.04994905 -0.10734895 0.12198529
000240 9e ab 35 3e 48 30 84 be 0a 96 7c be ba c0 2f be
       0.17741248 -0.25818086 -0.2466661 -0.17163363
000250 5e 5c 05 3e fb 75 33 be a4 a4 eb 3e dc 7d fb 3d
       0.13023517 -0.17525475 0.46024048 0.12279865
000260 19 8c d5 bd 22 2d cd bd f2 59 50 be 50 30 62 be
       -0.10427112 -0.10018374 -0.20346811 -0.22088742
000270 40 22 3d 3e 82 ee 82 3e 8f 80 56 be b6 ab 51 be
       0.18470097 0.25572592 -0.20947479 -0.20475659
000280 88 6b 01 3d 42 bc 35 3e 78 8d 27 be 80 d2 81 3b
       0.03159669 0.17747596 -0.1636256 0.003961861
000290 2c 48 19 3e 39 d4 5a be c6 4f 32 3e ee 83 84 be
       0.14968938 -0.21370019 0.17413244 -0.25881904
0002a0 07 36 a8 be 4e 2a 51 be bf 68 2a be 6e af cf bc
       -0.3285372 -0.20426294 -0.1664152 -0.025352206
0002b0 59 7c 9c 3d 48 1a 34 be 79 1d da bd fb fd 37 be
       0.07640905 -0.1758815 -0.10650153 -0.1796798
0002c0 68 98 31 3d ff e1 8c be 55 1a 8a 3e e5 39 4a 3e
       0.043358237 -0.2751617 0.26973215 0.19748648
0002d0 4a 79 4d 3e 48 04 23 be 19 e7 52 be 53 a8 4e 3e
       0.200658 -0.15919602 -0.2059597 0.20181398
0002e0 db 36 6b be 89 1f 69 3e 11 31 ea bd df 70 8f be
       -0.22970144 0.22765936 -0.1143514 -0.280158
0002f0 8c c8 b8 3d e0 c1 2a be 3f fd 52 3e e5 e4 4c be
       0.09022626 -0.1667552 0.20604418 -0.20009191
000300 58 e9 0d 3e f8 ab 8f 3e 1f c1 43 3e 57 c4 8c be
       0.13858545 0.2806089 0.19116639 -0.27493545
000310 78 d4 fb bd 78 4c 0f be 13 e0 96 bc 2c 54 0c bc
       -0.122963846 -0.13994014 -0.018417394 -0.00856499
000320 ed 7a 85 be 14 5b 0f be 5a 17 3d be 55 ff 80 3d
       -0.26070347 -0.13999587 -0.18465939 0.06298701
000330 66 2a 0a be 77 0e 1d be 98 d1 c9 bd a7 65 dc 3d
       -0.13492736 -0.15337549 -0.0985443 0.10761576
000340 56 cd 6d 3e e5 ae d3 3d fc 5b 43 be a6 6a 2f 3e
       0.2322286 0.10336093 -0.19078058 0.17130527
000350 62 f7 85 be 96 01 42 3d 16 1f c9 bc 1d 44 1e be
       -0.261653 0.047364794 -0.024550956 -0.1545567
000360 4b ab 4c 3e 95 8d 6d 3e 76 80 81 be eb f0 27 be
       0.19987218 0.2319854 -0.2529332 -0.16400497
000370 95 90 12 be 68 41 32 bd 63 ad cf bc bf 85 1f 3e
       -0.14312966 -0.043519408 -0.025351232 0.15578364
000380 cc 5f 93 be d4 e0 c6 bd 95 b1 17 be d3 96 75 3e
       -0.28784025 -0.09710851 -0.14813836 0.23983316
000390 f9 12 07 3e 52 02 cd bb a9 7d 83 3e 5c 4b a2 3d
       0.13190831 -0.00625638 0.2568181 0.0792453
0003a0 25 f5 54 be 0b 35 17 bd d5 b3 87 3e 00 69 e2 bb
       -0.2079664 -0.03691582 0.26504388 -0.0069094896
0003b0 39 17 9b be c1 f6 f1 3d 8a bc c7 bd f5 29 9b be
       -0.30291155 0.11814643 -0.09752758 -0.30305448
0003c0 0a f8 fd bd f8 1d cd be bd 25 c5 bd f4 eb 72 3e
       -0.12400825 -0.40061927 -0.09626339 0.23722821
0003d0 c7 35 f6 3d cf 33 43 be 49 1d 0c be 3f 4e 75 be
       0.12021976 -0.19062732 -0.13683046 -0.2395563
0003e0 db c3 7f be 39 71 a2 3d 04 81 21 3e 39 54 65 be
       -0.24977057 0.07931752 0.15771872 -0.2239541
0003f0 36 76 09 3e af 2b b7 3d 7b 0e fe 3d 4b 8c 28 be
       0.13424 0.08943879 0.12405106 -0.16459768

linear3.bias f4 [1200]
000000 6b e6 3c 3e 27 6c e2 3d 57 ab 7e be 9a 85 b5 bd
       0.18447272 0.11055785 -0.24870048 -0.08863373
000010 f2 6d 33 3e 5e 67 7f bd 88 30 6e be 3f 66 1a 3e
       0.1752241 -0.062354438 -0.232607 0.15078066
000020 cb 50 41 3e 97 28 83 3e 04 92 2c 3e d2 e4 43 be
       0.18878476 0.25616905 0.16852576 -0.19130257
000030 bb 2c 3a 3e 8c 3f 41 be 3a 2a 58 3e 60 dc 90 3e
       0.18181126 -0.18871897 0.21109858 0.28293133
000040 55 33 6e 3d 3f a5 8e 3e 3c aa ce bc 93 0b 9e 3e
       0.058154423 0.27860448 -0.025227658 0.30868205
000050 53 eb 81 3e 81 b4 52 3e 0f 8d 01 bd 21 5e 28 be
       0.2537485 0.2057667 -0.031628665 -0.16442157
000060 0a 88 56 be 73 06 3e 3d 4b 20 20 3d fd 92 f0 bd
       -0.20950332 0.04639287 0.039093297 -0.11746786
000070 3c 65 5e bb b3 11 0d be d1 f0 56 3d f0 ce 9e bc
       -0.0033934852 -0.13776283 0.052475754 -0.019385785
000080 ce 4b 89 3e 89 08 8c be fe 7f 68 3e 4e ff 8a bd
       0.26815647 -0.27350262 0.22705075 -0.06786977
000090 47 5f 81 3d 78 be 7d bd 2e 96 b0 bd 4c 87 ea bd
       0.06317001 -0.061949223 -0.086223945 -0.11451587
0000a0 0a 4b 69 be 76 a0 38 3e f8 7a 04 3e ae dc 2f be
       -0.22782531 0.18029961 0.12937534 -0.17174026
0000b0 93 b5 2b bc 45 93 ff 3d 3e 5a 88 3e 50 10 d8 bc
       -0.010480302 0.12479261 0.2663135 -0.026374966
0000c0 5e 2e 7a 3e 82 0a 77 bd f5 c3 8b 3e e9 dd 0b be
       0.2443175 -0.060312755 0.2729794 -0.13658871
0000d0 8c 6b 0b be 03 25 88 3d 08 a3 84 bd 1f 4b 87 be
       -0.13615245 0.066476844 -0.06476408 -0.264245
0000e0 10 55 f2 bc 1a 1e d7 bd 1d 13 75 3e d7 2a 90 bd
       -0.029581577 -0.10503788 0.23933072 -0.07039421
0000f0 ab 3a 8a be a1 7e 49 be 02 5f 42 3e d5 fb 4b 3d
       -0.26997885 -0.19677211 0.18981555 0.049800713
000100 bd ed e2 3d 52 5a df bd c0 18 41 bc a5 66 39 bd
       0.11080501 -0.10905899 -0.011785686 -0.045263905
000110 f0 28 0c bb a0 4b 9b 3e f4 ba 3d 3e 0c 19 e7 bd
       -0.0021386705 0.30331135 0.18528348 -0.11284074
000120 1a 8e 61 3e a4 14 97 be fa c5 a9 bd 8a 64 08 3d
       0.22026864 -0.29507935 -0.08289714 0.033299007
000130 f7 c4 3e 3e 14 62 11 be 00 97 ba bb b3 c9 cf 3d
       0.18629824 -0.1419757 -0.00569427 0.10145893
000140 3a 58 fe bd 29 37 06 be 75 6b 54 be b2 79 7d be
       -0.12419172 -0.1310698 -0.20744117 -0.24753454
000150 5d 36 33 be 86 eb 84 3e 4f f2 88 be 47 9b 72 be
       -0.17501207 0.2596094 -0.26747367 -0.23692046
000160 f1 31 ed 3d 88 51 51 bd 10 02 1a 3e 49 97 92 3e
       0.11581791 -0.051103145 0.1503985 0.28631046
000170 f0 28 17 3c d9 59 3a 3e 87 6f 2f bc f4 42 4b be
       0.009226069 0.18198337 -0.010707743 -0.1984976
000180 06 a2 72 be 78 13 d0 bd 59 b8 19 3e 0e a7 13 3e
       -0.2369462 -0.10159963 0.1501173 0.14419195
000190 1f 67 87 be e7 a9 8f bd 77 1b 86 be 7a 0a 91 be
       -0.26445863 -0.07014828 -0.2619283 -0.28328305
0001a0 7b 9b da 3d 31 28 40 3c 95 6a 5d 3e f2 32 7a 3e
       0.10674187 0.011728332 0.21622689 0.24433497
0001b0 2c aa 6f be 5e e8 e5 bd c7 77 82 bc c8 2c c1 3d
       -0.23404759 -0.11225961 -0.015926255 0.094323695
0001c0 56 39 7b 3c b5 fb 6b 3e 3f 0b fe bd 61 be 39 bd
       0.015333494 0.23045237 -0.12404489 -0.045347575
0001d0 8b 72 0c be 05 57 7d 3e eb 6f 84 3d 00 6e b6 3c
       -0.1371557 0.24740227 0.06466659 0.022269249
0001e0 a1 3f 27 be 4a d0 4f be b1 b7 96 be bf 98 8d be
       -0.16332866 -0.202943 -0.2943702 -0.276556
0001f0 4f 77 a6 be bb a8 8e 3e 72 ab e9 3d 4c 68 82 3d
       -0.325129 0.27863106 0.11409654 0.06367549
000200 72 55 8e be dd bf 25 bd 9c ff d7 bd 65 1a c3 bd
       -0.27799565 -0.04046618 -0.105468005 -0.09526519
000210 d5 a1 26 be af 19 88 bd 38 4f 08 be 93 0a 26 3e
       -0.16272672 -0.06645524 -0.1331147 0.16214971
000220 c2 f5 ff bc 7f 52 de 3d 22 b8 81 be 68 79 83 3e
       -0.031245116 0.10855579 -0.25335795 0.25678563
000230 2c b2 f9 3d 7c 3a 8a 3e 56 89 f7 bd 60 7b 43 be
       0.12192187 0.26997745 -0.120867416 -0.19090033
000240 95 3e 2b 3e 94 ab d4 3d a6 13 e0 bd 5c 91 f4 bd
       0.16723092 0.103842884 -0.10941248 -0.119417876
000250 e9 65 30 bc ca ca 56 3e 82 1a 81 be 56 01 bc 3d
       -0.010766485 0.20975795 -0.25215536 0.09179942
000260 af 80 86 be e3 68 d8 bd 72 24 06 3e e8 42 71 3c
       -0.26270053 -0.105668806 0.1309984 0.014725424
000270 cd 84 87 3e b8 90 8a 3e 34 a0 5d bd a8 49 0e 3e
       0.26468506 0.27063537 -0.05410786 0.13895285
000280 7d 57 90 bc ad 1d 33 3e 39 29 6a 3e 7d e8 3d 3e
       -0.017619843 0.17491789 0.22867288 0.18545718
000290 a0 1a c2 3e c8 1a 28 bd 18 f5 70 be 2e 44 f1 3d
       0.37910938 -0.041041166 -0.23530996 0.11780582
0002a0 84 77 8d bd e8 b3 83 be f4 ba 3d 3d 40 6d 80 be
       -0.069075614 -0.25723195 0.04632087 -0.2508335
0002b0 d8 31 7b 3e 14 65 d3 3d b8 d5 28 be fe 2a 0d 3e
       0.24530733 0.103220135 -0.16487777 0.13785931
0002c0 10 7a 3f be 09 ea 5c bd 51 f8 71 3e 20 cd a5 3d
       -0.18698907 -0.05393413 0.23629881 0.08095765
0002d0 31 b4 4f bc 46 60 89 3e 89 d5 4d 3e eb 93 3b 3e
       -0.012677238 0.26831263 0.20100988 0.18318145
0002e0 90 f6 43 3e c0 7a 26 3c 38 cf a4 bd e0 00 2f bc
       0.19137025 0.010161102 -0.08047336 -0.010681361
0002f0 18 e7 a4 3d 3e 60 57 bc 52 a4 19 3e 08 33 46 3d
       0.0805189 -0.0131455045 0.1500409 0.04838851
000300 8c b6 06 3e 09 44 31 3e 06 58 6f 3e da e4 a2 bd
       0.13155574 0.1731111 0.23373422 -0.07953806
000310 1f 25 81 3d e1 7e 8c be 29 74 39 3e 86 6a ea bd
       0.063059084 -0.2744055 0.18110718 -0.11446099
000320 5e 23 b8 3d d6 d1 29 be 6b 5e b4 3d 68 d1 90 3d
       0.08991121 -0.16583952 0.08807071 0.07071191
000330 b6 c4 7b 3d 01 77 24 3e f1 da 62 3e 2b 57 36 3e
       0.061466895 0.16061021 0.22153832 0.1780669
000340 25 8b 8d 3d ef 0a 17 3d 40 c1 5f be 52 26 af bd
       0.06911305 0.03687566 -0.21851063 -0.08552231
000350 ee f6 8f be 4a a0 09 bd 08 31 4e 3d 4c d6 27 bd
       -0.2811808 -0.03360013 0.05033973 -0.040975854
000360 00 49 9a 3d 45 88 05 be 35 c7 9d 3d c0 2a 85 bd
       0.07533455 -0.13040264 0.07704011 -0.065022945
000370 86 59 86 be f9 18 b9 3d d4 32 51 be 20 a5 8f 3e
       -0.26240176 0.09037966 -0.20429546 0.28055668
000380 fe be 88 be 1c bb 84 be d4 5c 03 bd 8f 1b 34 3e
       -0.26708215 -0.25924003 -0.03207095 0.17588638
000390 32 ca cf bc 70 72 bc bc 5c 72 03 3e 90 24 67 be
       -0.025364969 -0.023003787 0.12836593 -0.22572541
0003a0 fd 86 fa 3d d8 ee 22 3e ca e0 2a be 43 a3 82 be
       0.12232778 0.15911424 -0.16687313 -0.25515184
0003b0 e3 c4 59 3e 6a 35 47 3e 7c 20 aa 3c d8 f3 72 be
       0.21266513 0.1945397 0.020767443 -0.23725832
0003c0 61 73 4a 3e 43 77 6f 3e de 87 e2 3c f8 a9 a2 3e
       0.19770576 0.23385338 0.027652677 0.317703
0003d0 15 22 4d be e3 e4 30 3e d5 7f 90 3d 0d 53 28 be
       -0.20032533 0.17274813 0.07055632 -0.16437931
0003e0 e6 e6 11 be b6 75 ca 3d 5a 3e 99 3d 14 b0 b3 bd
       -0.14248237 0.09885733 0.07482596 -0.087738186
0003f0 b1 c7 0c 3e 12 80 96 3d 09 f4 39 be ed 16 02 3e
       0.13748051 0.07348646 -0.18159498 0.12704058

linear1.weight f4 [12, 1200]
000000 30 7e e0 3c 9c 08 cf 3c 5c 92 82 3c 88 19 b3 3c
       0.02740392 0.02527266 0.01593893 0.02186276
000010 2a 16 ae 3c ea c9 c7 3c 66 54 dd bc 20 bf 9d 3b
       0.021250803 0.024388272 -0.027017783 0.0048140436
000020 25 9e db bc 0c 27 fd bb a0 14 61 bc 70 c0 c8 bc
       -0.026808808 -0.007725602 -0.013737828 -0.024505824
000030 68 db 6a 3c 84 d1 da bc 30 76 63 3c 78 23 a5 3c
       0.014334537 -0.026711233 0.013883159 0.020158514
000040 32 94 d5 3c 38 1d 03 3c 98 e3 45 3c d8 46 5c 3c
       0.026071642 0.008002572 0.012078188 0.013444625
000050 12 21 a3 bc 70 96 2b 3c b4 ac b7 bc 78 fa 92 bb
       -0.01991323 0.010472879 -0.022421218 -0.0044854246
000060 20 e6 88 bc 28 4c b7 3b 08 47 ad 3c cc f5 5f 3c
       -0.016711295 0.0055937953 0.021152034 0.013669442
000070 d6 97 3b bc 68 03 87 3c 7e 64 46 bc 95 21 c9 bc
       -0.011449775 0.016481116 -0.01210892 -0.024552146
000080 90 41 96 3c fc 48 dd 3c 0e 5c eb bc 30 7a ab bc
       0.01834181 0.02701234 -0.028730419 -0.020932287
000090 6c a8 8a 3c b8 10 a1 3b 00 d5 40 3b 12 dd a4 3c
       0.016926013 0.004915323 0.0029423833 0.020124946
0000a0 ea 21 cd 3c 33 b8 88 bc f0 78 4d 3c 08 c0 83 3b
       0.025040586 -0.016689396 0.012541041 0.0040206946
0000b0 80 4b 92 bb 01 4e b5 bc 30 da 44 3c 9c f9 49 bc
       -0.0044645667 -0.022131922 0.012014911 -0.012327578
0000c0 6c fe 10 3c 80 56 87 3b 22 c5 a9 3c 38 e5 37 3c
       0.008849721 0.0041301847 0.020723883 0.011224084
0000d0 2c 6b 84 3c 30 83 c2 3b b0 87 41 3c 7c 16 82 bc
       0.016164385 0.005936049 0.011812136 -0.015879862
0000e0 f6 ce af 3c e1 b2 74 bc 7a 8d cb 3c ff a2 cb bc
       0.021460991 -0.014935226 0.024847735 -0.024857996
0000f0 0e 8b de bc ca cf 3e bc fa 7e a5 3c 76 c5 2d bc
       -0.027165916 -0.01164622 0.020202149 -0.01060616
000100 54 fa bd bc b2 5c 8a bc 82 58 be 3c f6 78 cf bc
       -0.023190655 -0.016889904 0.023235563 -0.025326233
000110 5a 15 b4 bc 96 9b cb bc 68 90 18 bc 00 f0 bd b6
       -0.021982837 -0.024854463 -0.009311773 -5.6605786e-06
000120 ce 38 77 bc 0a 94 99 3c 28 0f 80 bb cc d7 b2 bc
       -0.015089227 0.018747348 -0.0039080568 -0.021831416
000130 0e 2f a6 3c 80 e2 34 ba 4c 20 e2 3c 6a b4 af bc
       0.02028611 -0.0006900206 0.027603291 -0.021448333
000140 d8 fc d5 3c 10 30 9a ba e0 12 1e 3c e8 12 7a 3c
       0.026121542 -0.0011763591 0.009648055 0.015263297
000150 70 7f 81 ba a8 11 4e bb 14 da 73 3c 58 37 03 3b
       -0.0009879898 -0.003144363 0.014883537 0.0020022
000160 b9 10 71 bc f8 c4 de 3b 92 6d cb bc ba a4 8e bc
       -0.01471346 0.006798383 -0.02483252 -0.017412532
000170 dc 2d 14 3c 16 a8 90 3c 08 78 d3 3c 98 97 95 3c
       0.009044137 0.017658275 0.025814071 0.018260762
000180 d4 ba 14 3c 06 49 cc 3c b2 48 a7 bc 3a 92 88 bc
       0.009077746 0.024937164 -0.020420406 -0.016671289
000190 60 a4 e1 ba d0 29 b1 bc d2 72 a1 3c 91 b1 97 bc
       -0.0017215125 -0.021626383 0.01970807 -0.018517287
0001a0 54 36 ba 3c 56 ea 9a 3c a0 c1 ab bc 62 13 9e 3c
       0.022730984 0.018910568 -0.020966351 0.019296352
0001b0 50 e5 2b 3b e8 29 32 bb 14 64 82 bc 8c c3 9e 3c
       0.002622921 -0.0027185623 -0.015916862 0.019380353
0001c0 b2 e8 6c bc 40 d3 6b ba 3e bf c8 3c 90 f7 80 3b
       -0.014459776 -0.0008996017 0.024505254 0.0039357617
0001d0 d8 59 58 bc 50 6b be bc c0 b4 29 3b 48 49 43 bb
       -0.013205014 -0.02324453 0.002589509 -0.0029798318
0001e0 dc ee a6 bc e7 f7 9c bc 9c 00 5f 3c 72 0f ea bc
       -0.020377569 -0.019161178 0.013610985 -0.028571818
0001f0 fc 1e 14 3c 08 4a b1 3c 20 84 0b bc 68 d8 90 bc
       0.00904059 0.021641746 -0.008515388 -0.017681316
000200 1e 8e 94 3c 32 29 9b 3c ec ed 49 3c 54 43 ae bc
       0.018134173 0.018940542 0.012324791 -0.021272339
000210 14 cc 3e 3c 0e dc c5 bc 7a 6e aa bc e4 4e de 3c
       0.011645336 -0.024152782 -0.020804632 0.027137227
000220 5c 93 24 bc 80 ba 20 3b ee 18 b3 3c ae f7 b0 bc
       -0.010044899 0.0024525225 0.021862473 -0.021602478
000230 46 04 0c bc de bd 93 3c 5a 63 9e bc 74 a1 d3 bb
       -0.008545941 0.018034872 -0.019334484 -0.0064584557
000240 b0 dc 03 bb 5f fd e5 bc 68 ce ad bc ba 3a 3a bc
       -0.0020120554 -0.028074918 -0.021216586 -0.011366541
000250 48 c9 4f 3c e2 e7 a8 bc 26 f5 9c bc b0 32 ce bc
       0.0126822665 -0.020618383 -0.019159865 -0.025170654
000260 88 32 b4 3c 50 17 86 3a b4 71 63 3c 77 21 cf bc
       0.021996751 0.0010230336 0.013882089 -0.025284512
000270 70 1d b8 3c b6 f2 55 bc cc 82 fa bb 62 f5 d2 3c
       0.022474974 -0.013058355 -0.0076449867 0.025751773
000280 00 e1 97 38 a4 a8 86 bc a0 a1 bf bc 04 c8 32 3c
       7.2421506e-05 -0.016437836 -0.023392498 0.010911945
000290 98 87 98 bc 12 60 80 3c af b0 ca bc f2 55 cf 3c
       -0.018619344 0.01567081 -0.024742452 0.025309537
0002a0 88 9b 1f bb 36 74 84 bc c2 7a aa 3c 39 df cd bc
       -0.0024354178 -0.016168695 0.020810489 -0.025130855
0002b0 be 80 7c bc c4 1d b3 bb 11 6a a7 bc 50 8f 79 3b
       -0.015411554 -0.005466195 -0.020436319 0.0038079806
0002c0 40 ee 30 3b 7a db c4 bc 7a 2d 9b bc b8 1d f3 3b
       0.0026997477 -0.024030436 -0.018942583 0.0074193142
0002d0 ac 0c 84 3c 48 91 9a bb 5c 03 c2 bb c0 01 d5 bb
       0.016119324 -0.004717026 -0.0059208106 -0.0065004528
0002e0 54 97 91 bc be 08 ae bc 62 b4 a3 3c 70 d1 b2 3a
       -0.017772354 -0.021244403 0.019983474 0.001364274
0002f0 ae ec d0 bc f2 18 8c bc 9e 44 49 bc 70 09 eb 3b
       -0.025503483 -0.017101739 -0.012284426 0.007172756
000300 c0 fd 70 3a 78 07 de 3c 00 e1 9f b9 2c 20 c1 bc
       0.0009193085 0.02710317 -0.0003049448 -0.023574911
000310 6c ca ce bb b8 46 ab bc 88 47 b0 bc e8 b5 ab bc
       -0.0063107517 -0.020907745 -0.021518484 -0.020960763
000320 da 35 c4 3c b4 8b c7 bc 50 18 5e 3b 10 1b ac 3c
       0.02395146 -0.024358608 0.0033889003 0.021008998
000330 50 a0 bb ba 4e 07 c7 3c df 83 e9 bc 2e 09 a4 3c
       -0.0014314745 0.024295475 -0.028505264 0.020023908
000340 40 e2 2f 3b c8 50 a6 bc bc 53 e1 bb 60 20 c0 3a
       0.0026837736 -0.020302191 -0.006876437 0.0014658086
000350 b4 a4 ad 3c 4c a3 89 bc e3 e3 8c bc 9e ee c5 3c
       0.0211967 -0.016801499 -0.017198509 0.024161633
000360 38 f8 2e bc f0 a2 b6 3b fc 61 c9 3c f0 13 df 3a
       -0.010679297 0.005573623 0.024582855 0.0017019492
000370 d8 5e 2e bc 5f e1 bd bc 38 7a b0 bc a0 f8 3c bc
       -0.01064273 -0.023178754 -0.021542653 -0.011533886
000380 54 ce 31 3c 30 dd c6 bc a0 7c 70 3c 64 2a 24 bc
       0.010852415 -0.024275392 0.01467815 -0.010019872
000390 b8 14 4f 3c 44 8e 23 3c 06 40 bf bc 00 34 02 b8
       0.012639217 0.009982649 -0.023345958 -3.1042844e-05
0003a0 25 ee 7d bc 80 c4 b5 b9 e4 c5 c4 bc 52 87 e1 bc
       -0.015498673 -0.00034669414 -0.024020143 -0.027530346
0003b0 98 87 be 3c 88 2c 2b bb 6e 01 ac bc 58 06 d9 3c
       0.023258016 -0.0026119072 -0.020996775 0.026492283
0003c0 e0 cc 4b bc fa 5f d6 bc 58 78 99 bc 1d 0f d8 bc
       -0.012438983 -0.026168812 -0.018734142 -0.026374394
0003d0 c4 f5 71 3c c3 9a cb bc 9c f3 d5 bc a6 6c ab bc
       0.014768068 -0.02485407 -0.026117139 -0.020925831
0003e0 f8 66 e8 bb 45 dd cc bc 00 f3 ce b9 00 74 dd 3a
       -0.007092353 -0.025007853 -0.0003947243 0.0016895533
0003f0 70 c5 f7 bb 72 e5 be bc e4 96 cf bb d2 08 dd bc
       -0.007561378 -0.023302767 -0.0063351262 -0.026981745

linear1.bias f4 [12]
000000 32 e4 c8 bc 6b 94 bf bc 04 5e bd bc 72 70 81 3d
       -0.024522875 -0.0233862 -0.02311612 0.06320275
000010 f7 cd ec bc 7a 0f 46 3c d6 82 8d 3c c8 2f 8f 3c
       -0.028906805 0.012088651 0.017274301 0.017478839
000020 3a c8 83 bc 05 bc fa 3c 6e 71 e0 bc f1 96 0a 3d
       -0.016086686 0.030607233 -0.027397837 0.033835355

linear2.weight f4 [24, 12]
000000 56 cc 8b bd e0 8e 2e bd d4 06 14 be ac 6a 8f 3e
       -0.06826083 -0.042616725 -0.1445573 0.28011072
000010 00 58 1d bc 82 4c 02 3e 28 d4 3e be 38 18 38 be
       -0.0096035 0.12724498 -0.18635619 -0.17977989
000020 64 b9 b2 3c 42 1b b2 3e 5e 0e 04 be d5 7c 93 be
       0.021816917 0.3478642 -0.12896106 -0.28806177
000030 a6 96 56 3e b8 22 bd 3d e6 58 ec bd 56 e3 5e be
       0.20955905 0.09235138 -0.115403935 -0.2176641
000040 f8 88 f7 3d 5c 10 84 3e 18 45 a2 bd 28 88 c6 3d
       0.120866716 0.2579373 -0.07923335 0.096939385
000050 84 6b 36 bd 40 29 bc 3b c0 30 d9 bb 24 05 58 bd
       -0.04453613 0.005742222 -0.006628126 -0.052739277
000060 4b 31 19 be dc aa 90 3e 4e 0e 96 bd 3f 07 0c 3e
       -0.1496021 0.28255355 -0.07326947 0.13674639
000070 00 53 ae 3a a0 7e 8c be 7c ed e2 bd 5c 4a 23 bd
       0.0013299882 -0.27440357 -0.11080453 -0.039865837
000080 47 06 ef 3d eb 67 b6 3e 98 23 f8 bd 5c 5f 95 be
       0.11671119 0.35626158 -0.12116164 -0.29174316
000090 0e c5 3c be 3c d1 9b bd 62 f1 8a 3e a5 a0 74 3e
       -0.18434545 -0.07608268 0.27137285 0.23889406
0000a0 e8 7d 06 3d 58 3b 19 3d 5c 6f 4d 3e e8 82 76 bd
       0.032834917 0.03741011 0.20062011 -0.060183436
0000b0 1a 0c 6a 3e 72 2f aa 3e 14 65 7e 3e 86 ae 5b 3e
       0.22856179 0.33239323 0.24843246 0.21453294
0000c0 2a 5f 0a 3e 6c 2b 0b 3e d4 61 a6 3d c9 3a ad 3d
       0.13512865 0.13590783 0.08124128 0.08458478
0000d0 b0 fb 81 3e d8 ad 51 be d8 5b 41 3e 00 3e 0a 3b
       0.25387335 -0.20476472 0.18882692 0.0021094084
0000e0 26 93 cc bd 75 b8 3d 3e e8 aa a3 bd 7a f1 27 be
       -0.09989004 0.18527396 -0.07991582 -0.1640071
0000f0 ac a8 f7 3d e8 ed 76 3e 70 bb f9 3d 91 5a 79 3e
       0.120927185 0.24114192 0.12193954 0.24350955
000100 82 13 0f 3e 5b 81 8e be e0 4f 14 3d d0 7b ca 3d
       0.13972285 -0.27833065 0.036208987 0.098868966
000110 0e 25 38 3e 10 9f 24 3e 38 36 4f 3e 3c 13 f9 bc
       0.17982885 0.16076303 0.20235527 -0.03040468
000120 8c 65 73 3e ac 55 80 3e b4 ac 1f be 54 00 80 bd
       0.23769206 0.25065362 -0.15593225 -0.062500626
000130 b2 b4 51 be c0 7d 83 be 5c 69 00 be d7 f2 35 3c
       -0.20479086 -0.25681877 -0.12540191 0.011105261
000140 f0 33 a9 bd 4e 10 be bd 6e 2c 33 3e 61 1b 64 be
       -0.082618594 -0.092804536 0.17497417 -0.22276069
000150 78 0f 0d 3d 8c c2 05 3e 8c 7a 02 3e 16 ab 26 3e
       0.03443858 0.13062495 0.1274206 0.16276202
000160 91 b4 26 be 08 ce 51 be a4 3c 77 3e 3a 1d 65 be
       -0.16279818 -0.20488751 0.24144226 -0.2237443
000170 42 04 3b 3e 63 4e 95 3d 7c 01 54 bd 91 e0 e9 3e
       0.18263343 0.07290342 -0.051759228 0.45679143
000180 48 aa 96 bd 80 a4 e1 bc d9 6b 75 3e d3 00 60 be
       -0.07356697 -0.02754426 0.23966922 -0.21875314
000190 78 84 7d 3e 67 8b e1 3d e0 85 37 bc 3a 4b 72 3d
       0.24757564 0.11012917 -0.011201352 0.059153773
0001a0 50 db 94 be f5 e2 6c be 0a 4d 86 3e 92 a5 48 3e
       -0.29073572 -0.23133452 0.2623065 0.1959441
0001b0 b4 ea 19 3e f8 4f 75 3d 3e 94 e4 3d b1 60 74 3e
       0.15030938 0.059890717 0.111610875 0.2386501
0001c0 e3 c3 10 3e 16 94 82 3e ef d2 25 be 49 16 69 be
       0.14137225 0.25503606 -0.16193746 -0.22762407
0001d0 58 11 ea bc 83 ab 37 bb 28 0a 87 be 87 ce ee 3e
       -0.028572723 -0.0028025813 -0.26374936 0.46641943
0001e0 c8 fe d2 3d 24 3c 7c 3e 73 ed 9c 3d d8 6f 15 3e
       0.10302502 0.24632317 0.07662477 0.14593446
0001f0 b1 d5 5c 3e 8f d6 46 3d a0 b5 1e bc b2 49 49 3e
       0.21565892 0.048544463 -0.009686857 0.19657019
000200 0a 15 e6 3d d1 09 20 be 9a 9e 90 be b9 ae d3 3d
       0.11234482 -0.15628745 -0.28246003 0.1033606
000210 16 8f a6 bd f7 92 7f be f0 71 6a 3d e9 16 5f 3e
       -0.0813276 -0.24958406 0.057237566 0.21786083
000220 60 a2 c9 3c b4 39 df 3d 38 9d 86 3d a0 41 92 3e
       0.02461356 0.10899678 0.06572956 0.28565693
000230 82 41 dd 3c 49 67 a5 3e d8 30 ba bd 81 24 bd be
       0.027008776 0.32305363 -0.090913475 -0.36941913
000240 82 28 56 3e 06 bc ec bd 31 a7 29 bc d5 10 9a 3d
       0.2091389 -0.115593 -0.010354803 0.07522742
000250 a2 b1 0c be 5d a1 47 bd 28 49 27 3e 9e 66 8b be
       -0.13739637 -0.048737872 0.163365 -0.27226728
000260 3e 36 3a be 01 6a 28 3e bd d4 5a 3e fe cb 33 3e
       -0.18184754 0.16446687 0.21370216 0.17558286
000270 f1 7f 6a be 56 58 66 be 4c fd d8 3d 07 e9 78 3e
       -0.22900368 -0.22494635 0.105951875 0.24307643
000280 d4 82 d7 3d 3d 71 6d be 28 41 5d 3d 14 9a ba bd
       0.10523 -0.23187728 0.054017216 -0.09111419
000290 6b 44 78 be 6f ab c1 3e cb 7a 06 3e ad ec e2 be
       -0.2424485 0.37826106 0.1313278 -0.44321194
0002a0 e3 13 1f be fa d3 97 bd 70 46 fa 3c 23 56 da 3b
       -0.1553493 -0.07413478 0.030551165 0.0066631003
0002b0 1c c7 4a bd 5c b4 56 be cc 91 56 3e 88 30 90 bd
       -0.04950629 -0.20967239 0.20954055 -0.070405066
0002c0 44 6a 8d 3e c3 a6 a1 3e 58 a8 4c 3e de 20 d4 3e
       0.27620137 0.31572542 0.19986093 0.41431326
0002d0 a8 b6 64 3d 28 3a 87 be b0 a5 95 bc 08 4e 0a 3d
       0.055838257 -0.26411557 -0.018267483 0.033765823
0002e0 20 c3 79 3e 20 58 5a 3c 40 b9 e3 3d 60 cd e6 3c
       0.2439084 0.013326675 0.11119318 0.028174102
0002f0 40 75 d0 3d 38 84 84 be 5d 07 89 be 76 a4 63 be
       0.10178614 -0.25882125 -0.2676343 -0.22230706
000300 10 0e 1d bd 0a 04 c8 bd 98 5a 01 3e 10 6d db bd
       -0.03834349 -0.097663954 0.12632215 -0.107141614
000310 24 6a 53 be 30 9a 8c 3c ba 6c 3c 3e 44 52 5d bd
       -0.20645958 0.017163366 0.18400851 -0.054033533
000320 68 f4 fc 3d a0 96 a9 bc 50 20 45 bd 34 10 63 bd
       0.12351304 -0.020701706 -0.04812652 -0.055435374
000330 40 fb 3d 3d 9c 93 f3 3d 12 26 4b be 2f bd a2 3e
       0.04638219 0.11893389 -0.19838741 0.3178496
000340 73 60 6d bd 69 ef b6 bd a8 b4 22 be 0a 87 04 bd
       -0.05795331 -0.089323826 -0.15889227 -0.032355346
000350 05 7c cb 3d 71 f8 13 be 21 12 90 3e aa 33 2b 3e
       0.09935764 -0.14450242 0.2813883 0.16718927
000360 98 94 42 3d d8 59 0d 3e 1a 62 55 be aa 4b 0c 3f
       0.04750499 0.13803804 -0.20838204 0.54802954
000370 94 59 b1 bb 4b 02 55 3e 3c ce 6d bd 0e f1 88 be
       -0.00541229 0.20801656 -0.05805801 -0.2674641
000380 71 72 e9 bd 2d a1 ba be 59 c5 3d be 1e 7c b0 be
       -0.11398781 -0.36451092 -0.18532313 -0.34469694
000390 4c 0c 5a be a0 0d bb 3d d4 9d ab bd 40 0f a0 3e
       -0.21293753 0.09133458 -0.08379713 0.31261635
0003a0 d4 55 c2 3d e4 1c e7 bd 88 5f 76 3e 6e d3 36 3e
       0.09489027 -0.11284807 0.2405988 0.17854092
0003b0 45 69 02 3e 77 6d 98 3e 34 e4 90 3d eb e8 dc bd
       0.1273547 0.29771015 0.07074776 -0.10786613
0003c0 3c ae aa 3d d6 34 4b be 30 55 e9 3c fd 05 0b 3d
       0.08334014 -0.19844374 0.028483003 0.033941258
0003d0 80 49 63 3d b5 8a 83 be 60 36 c4 bd 82 a4 8b be
       0.055490017 -0.25691763 -0.09580684 -0.27273947
0003e0 54 b1 30 3e 21 9f 63 3d 42 31 84 3e 47 aa dd 3e
       0.17255145 0.05557168 0.2581883 0.43293974
0003f0 84 fc 67 3e 7a f1 01 3e c4 a3 43 bd 7c be 91 be
       0.22654921 0.12689772 -0.0477636 -0.2846564

linear2.bias f4 [24]
000000 ac 53 74 be b0 ba a1 bd 58 fc 38 be aa ba 76 be
       -0.23860043 -0.07896936 -0.18065012 -0.24094644
000010 8b 09 27 3d c4 d5 2e be 25 ae 7c 3d 3a f5 7d be
       0.040780585 -0.17073733 0.061689515 -0.24800578
000020 08 37 84 3e a1 b1 6e 3e 1d 89 37 3e dc f2 58 be
       0.25823236 0.23309948 0.17923398 -0.21186393
000030 48 51 e7 3d 95 50 56 3e db 78 fa 3c 4a 65 80 be
       0.112948 0.20929177 0.030575207 -0.25077277
000040 f9 4f 93 be e7 d5 89 3e c3 df 5a 3e 53 cd 2f be
       -0.28771952 0.26921007 0.21374421 -0.17168169
000050 28 c0 06 be ec d6 92 be b1 7f 56 3e 48 1c 76 bd
       -0.1315924 -0.28679597 0.20947148 -0.060085565
