epoch_50_model/소입/model.pth (torch, 552224 bytes, 18 tensors)

linear1.weight f4 [60, 120]
-0.008098468 0.059288815 0.008691534 0.044323623 -0.020709448 -0.009105086 -0.055867482 -0.03465167
0.055988014 -0.09034472 0.07310465 -0.07239973 0.0784397 0.040377915 -0.056959353 0.061426654
-0.019764453 -0.06439435 -0.0015417561 -0.020209484 -0.083982855 0.003847219 0.08482987 -0.02732195
-0.07259005 0.009997331 -0.043625362 -0.03638528 0.06874086 0.058559835 -0.010765046 -0.069153115
-0.044725258 0.038704157 -0.060825594 -0.05668793 -0.05581051 -0.032464694 0.058677465 -0.022445604
-0.07531485 -0.067068815 -0.035219703 -0.083041824 -0.0048721656 0.0279748 0.027601123 0.06136389
-0.015995726 0.060967714 -0.0897705 0.0826132 0.03184373 0.0028018802 -0.0882033 0.06256287
-0.040256876 -0.008417338 -0.05469484 0.022129342 0.012125321 0.06099069 0.006532103 0.055698544
0.03304416 0.007944636 0.08159037 0.0059477687 -0.035593443 -0.0654209 0.06644578 0.032182604
-0.07473126 -0.022436082 0.025656126 0.035330072 0.0029151216 -0.04145164 -0.070778266 0.07073067
-0.07714406 0.04510589 -0.043630663 -0.011749215 -0.01375927 -0.03368046 -0.06726614 0.05948639
0.027265035 0.026146978 -0.005458787 -0.052338142 -0.064274795 -0.057123262 0.011335067 0.033901244
-0.016347446 -0.036012728 0.07775287 0.054654807 -0.038910262 -0.04296308 -0.050781425 -0.085793115
0.049918473 0.029775783 -0.024034262 -0.044473767 0.065461725 0.04109867 -0.014576443 0.046010002
0.063423544 -0.017004453 -0.08552378 -0.066109866 -0.08697094 0.06645252 0.0011840463 0.06862955
-1.1382388 -1.030605 -1.007041 -1.0255461 -1.1021866 -0.96504694 -0.96358794 -1.1336861
-1.1315408 -1.0667921 -1.0761151 -1.1359595 -1.1181977 -0.97020507 -1.0323868 -1.0999568
-1.047534 -0.96239835 -0.9720703 -1.010464 -1.0758504 -1.095042 -1.0587956 -1.0446202
-1.0233232 -1.0091807 -1.1396852 -1.005293 -0.98820895 -1.0525386 -1.0641761 -1.0875849
-1.1057173 -1.0123008 -0.998074 -0.97324383 -0.9656018 -1.0828488 -1.0521628 -0.9873794
-1.1011977 -1.0224985 -1.0738637 -0.9972321 -1.0298116 -1.0856409 -1.0765722 -1.0351696
-0.97731155 -0.98795086 -1.070064 -1.052525 -1.0106496 -0.9965778 -1.0158032 -1.053985
-1.0615425 -0.9800791 -1.1218107 -1.1380111 -0.9663292 -1.0946013 -1.0460322 -1.0310144
-1.046145 -0.9645947 -1.025774 -1.0209943 -1.0288067 -0.9892322 -1.0214643 -1.0167278
-1.0675575 -1.0687014 -1.080299 -1.0220377 -1.1182631 -0.9724393 -1.0752181 -1.0878094
-1.0274642 -1.1154047 -1.0190115 -1.0462064 -1.0071919 -0.96870536 -1.0926727 -1.0276548
-1.0435215 -1.1058962 -1.0440829 -0.9757999 -1.0576395 -1.0009397 -1.0001136 -1.0389589
-1.0598458 -1.0512106 -1.0458614 -1.0407894 -1.0874423 -1.0268974 -0.98831415 -1.0324423
-1.0489427 -1.0478456 -1.0409913 -1.0474365 -1.065896 -1.1130761 -1.0852103 -1.0981239
-1.1421597 -1.0374125 -1.1136189 -0.96209455 -1.0971642 -1.1263494 -1.0604346 -1.0529305
-0.5051215 -0.6748409 -0.59872806 -0.58670956 -0.5065127 -0.56727695 -0.6396154 -0.5585623
-0.56284904 -0.6436808 -0.62850064 -0.621198 -0.6442098 -0.5845336 -0.5187463 -0.6122465
00000000: 70af 04bc d4d8 723d f066 0e3c b08c 353d
00000010: dca6 a9bc 802d 15bc 4dd5 64bd e9ee 0dbd
00000020: b053 653d a706 b9bd e4b7 953d 4f46 94bd
00000030: fea4 a03d 5063 253d 364e 69bd 849a 7b3d
00000040: 10e9 a1bc 2fe1 83bd c014 caba 5c8e a5bc
00000050: 34ff abbd a021 7c3b 48bb ad3d 48d2 dfbc
00000060: 18aa 94bd d8cb 233c 82b0 32bd bb08 15bd
00000070: 02c8 8c3d 70dc 6f3d e05f 30bc 26a0 8dbd
00000080: d531 37bd 4088 1e3d 4224 79bd 9a31 68bd
00000090: 9099 64bd b3f9 04bd c857 703d d8df b7bc
000000a0: ac3e 9abd 605b 89bd 8942 10bd d511 aabd
000000b0: b0a6 9fbb 682b e53c c01b e23c b458 7b3d
000000c0: 7809 83bc 48b9 793d 99d9 b7bd 1c31 a93d
000000d0: 926e 023d c09f 373b efa3 b4bd f620 803d
000000e0: 65e4 24bd e0e8 09bc b207 60bd 9848 b53c
000000f0: 48a9 463c 60d1 793d 400b d63b 2824 643d
00000100: 5059 073d 382a 023c da18 a73d 80e5 c23b
00000110: 6eca 11bd 65fb 85bd ba14 883d e8d1 033d
00000120: b40c 99bd e0cb b7bc cc2c d23c 44b6 103d
00000130: a00b 3f3b 32c9 29bd 32f4 90bd 3edb 903d
00000140: b4fd 9dbd f4c0 383d 11b6 32bd c87f 40bc
00000150: 906e 61bc 86f4 09bd d4c2 89bd 00a8 733d
00000160: ec5a df3c 3032 d63c a0df b2bb 8560 56bd
00000170: 81a2 83bd 15fa 69bd b8b6 393c 08dc 0a3d
00000180: 14eb 85bc 1582 13bd e63c 9f3d b8dd 5f3d
00000190: 5e60 1fbd 0efa 2fbd 2f00 50bd 4db4 afbd
000001a0: 5077 4c3d 58ec f33c 80e3 c4bc 202a 36bd
000001b0: cc10 863d 1457 283d 08d2 6ebc fc74 3c3d
000001c0: 34e4 813d ec4c 8bbc 1727 afbd 9c64 87bd
000001d0: d21d b2bd 4218 883d 0032 9b3a a68d 8c3d
000001e0: cfb1 91bf ddea 83bf b8e6 80bf 1845 83bf
000001f0: 7314 8dbf 510d 77bf b3ad 76bf a01c 91bf
00000200: 54d6 90bf a58c 88bf 24be 89bf 1f67 91bf
00000210: 1a21 8fbf 5c5f 78bf 4025 84bf 62cb 8cbf
00000220: 9815 86bf bd5f 76bf 99d9 78bf e256 81bf
00000230: 77b5 89bf 562a 8cbf 9d86 87bf 1db6 85bf
00000240: 41fc 82bf d52c 81bf 34e1 91bf 71ad 80bf
00000250: 43fb 7cbf 96b9 86bf ec36 88bf fb35 8bbf
00000260: 2588 8dbf 1393 81bf c781 7fbf 8226 79bf
00000270: ae31 77bf ca9a 8abf 45ad 86bf e5c4 7cbf
00000280: 0cf4 8cbf 3be1 82bf 5e74 89bf 9a4a 7fbf
00000290: ded0 83bf 48f6 8abf 1ecd 89bf 7080 84bf
000002a0: 1731 7abf 59ea 7cbf dbf7 88bf 24b9 86bf
000002b0: f75c 81bf b91f 7fbf d705 82bf fbe8 86bf
000002c0: a0e0 87bf 77e6 7abf 7e97 8fbf 59aa 91bf
000002d0: 5a61 77bf e51b 8cbf 62e4 85bf 48f8 83bf
000002e0: 14e8 85bf aeef 76bf 904c 83bf f1af 82bf
000002f0: f0af 83bf 523e 7dbf 58bf 82bf 2324 82bf
00000300: b9a5 88bf 35cb 88bf 3d47 8abf 22d2 82bf
00000310: 3f23 8fbf c8f1 78bf bfa0 89bf 573d 8bbf
00000320: f283 83bf 95c5 8ebf f86e 82bf 17ea 85bf
00000330: aaeb 80bf 13fd 77bf b3dc 8bbf 318a 83bf
00000340: 1d92 85bf 028e 8dbf 82a4 85bf 06ce 79bf
00000350: bb60 87bf cb1e 80bf b903 80bf 9bfc 84bf
00000360: 07a9 87bf 128e 86bf c9de 85bf 9638 85bf
00000370: 4f31 8bbf 6071 83bf 2802 7dbf 1227 84bf
00000380: c143 86bf ce1f 86bf 343f 85bf 6612 86bf
00000390: 486f 88bf 4779 8ebf 2ce8 8abf 538f 8cbf
000003a0: 4a32 92bf efc9 84bf 108b 8ebf d44b 76bf
000003b0: e06f 8cbf 382c 90bf 52bc 87bf 6dc6 86bf
000003c0: a54f 01bf 60c2 2cbf 3e46 19bf 9932 16bf
000003d0: d1aa 01bf 1039 11bf d6bd 23bf f0fd 0ebf
000003e0: e016 10bf 44c8 24bf 6be5 20bf d506 1fbf
000003f0: efea 24bf fea3 15bf 8fcc 04bf 30bc 1cbf

linear1.bias f4 [60]
0.0010477751 -1.125086 -0.68629944 -0.29713437 -1.0391934 -0.3126846 -0.98553026 -0.99095225
-0.57850826 -0.01616662 -0.11804243 0.06273624 -0.39732042 -0.5926071 -0.42403504 0.084097445
-0.9860658 -0.63846827 -0.05653896 -0.655703 0.031646863 -1.0620042 -0.56987375 -0.031512048
-0.40066856 -0.68200046 -0.054678135 -0.5431085 -0.6314117 -0.076857515 -0.523305 -0.299185
-0.59162456 -1.1378077 -0.5736907 -0.5927794 -0.75917125 -0.68620366 -1.1087384 -0.5251504
-0.55597866 0.028044634 -0.13166413 -0.52123994 -1.0903865 0.12257983 -1.1108911 -0.5888733
-0.53061914 -1.0917354 -0.5596497 -0.5939801 -0.3765858 -1.0937868 -0.98347384 -0.48747912
-0.39547098 -0.56129503 -0.49460942 -1.0844942
00000000: 8055 893a d102 90bf 52b1 2fbf ff21 98be
00000010: 4a04 85bf 3218 a0be b64b 7cbf 0caf 7dbf
00000020: 1e19 14bf dc6f 84bc 3bc0 f1bd dc7b 803d
00000030: 956d cbbe 19b5 17bf 1f1b d9be 483b ac3d
00000040: cf6e 7cbf a872 23bf 6695 67bd 27dc 27bf
00000050: 24a0 013d c1ef 87bf 3fe3 11bf c712 01bd
00000060: 6e24 cdbe 9597 2ebf 2ef6 5fbd 2909 0bbf
00000070: 32a4 21bf 7967 9dbd 51f7 05bf c72e 99be
00000080: b574 17bf afa3 91bf 65dd 12bf 64c0 17bf
00000090: 0c59 42bf 0bab 2fbf 24eb 8dbf 4270 06bf
000000a0: 9e54 0ebf dcbd e53c f6d2 06be fb6f 05bf
000000b0: c991 8bbf 220b fb3d ae31 8ebf 67c0 16bf
000000c0: a8d6 07bf fcbd 8bbf 3445 0fbf 140f 18bf
000000d0: dbcf c0be 3501 8cbf f1c4 7bbf dd96 f9be
000000e0: 2c7b cabe 08b1 0fbf 723d fdbe b5d0 8abf

linear2.weight f4 [30, 60]
-0.015578099 -0.59253377 -0.07020974 -0.6354267 -0.671659 0.062002927 -0.6172648 -0.7177932
-0.08529778 -0.06624808 0.010711119 0.084223196 -0.042741835 -0.00979124 -0.11203333 0.0973282
-0.58527136 -0.09947181 0.079686984 -0.09525916 -0.42399874 -0.48348004 -0.04232651 0.06768744
-0.5573689 0.10094172 -0.124515146 -0.123944506 -0.09568682 0.07060972 -0.045797847 -0.52276176
-0.060434848 -0.5729563 0.031043127 0.024186298 -0.5244886 0.029424012 -0.5206569 0.04122673
-0.045436077 -0.04019942 -0.008055218 0.0108445585 -0.68227005 -0.43727076 -0.68510497 -0.0751977
0.08809152 -0.4993692 0.07710455 0.048233047 0.003137365 -0.70184624 -0.55659354 -0.039865322
0.0689736 0.05877261 0.08458161 -0.6216198 0.05333124 -0.011012067 0.033068985 0.5753335
0.13239038 -0.09235221 0.03930137 0.054502916 -0.06503716 -0.04561629 -0.09909283 0.12245907
-0.032327384 -0.08803324 0.0953568 0.06225434 0.073254034 0.0054997355 0.07140005 0.034517154
0.5985976 0.104719006 -0.07914861 0.073194504 -0.52536714 0.06258957 -0.030666009 -0.022036009
-0.004979633 -0.12089983 0.107260525 -0.6409796 0.037202016 0.13938288 0.020175606 -0.043075092
-0.044003997 0.0055816174 0.07465171 0.08851136 0.10822661 -0.092249334 0.075750604 0.058156878
-0.0145508945 -0.66843367 0.084161766 -0.11856238 0.027894631 0.14466165 -0.045122646 0.10543586
-0.12110448 0.04712268 -0.002390296 -0.096099645 -0.10920837 0.12732984 0.10205755 -0.025678204
-0.012375228 -0.55491114 0.10346786 -0.01561089 -0.4764038 -0.086194664 -0.44761133 -0.5883624
-0.6679096 -0.07035905 -0.04925997 -0.09309217 -0.12037907 -0.5391877 0.10881019 -0.018921532
-0.45071608 -0.53685814 -0.04137229 -0.49708027 -0.048204005 0.5262064 0.39007914 -0.086363494
-0.5492738 -0.49504423 0.05114086 -0.49203467 -0.6824053 0.122631475 -0.60785097 -0.080259226
-0.6319384 -0.51836133 -0.54819137 -0.3587197 -0.49355537 -0.6459081 -0.6196123 -0.49653682
-0.6125846 -0.019938804 -0.11337299 -0.6252998 -0.5009097 -0.10459109 -0.47985905 -0.62898374
-0.71510094 -0.47164574 -0.66327655 -0.47012013 -0.119057804 -0.59781903 -0.61967534 -0.023825385
-0.2833159 -0.47801152 -0.55953014 -0.63382655 -0.043627 -0.9197974 0.624516 -0.41048467
-0.9316173 0.15775825 -1.0899923 -0.9331828 0.50919753 -0.009605527 0.041973826 -0.061779425
0.03800117 0.5141144 0.09157455 0.049823567 -1.0147918 0.5815849 -0.05543851 0.6827036
0.040137127 -1.070721 0.4308865 -0.07310715 -0.046972375 0.48110926 0.11702296 0.52179235
0.68305916 -5.6028366e-05 0.576126 -0.16975701 0.65285033 -0.9744085 0.4967114 0.4972772
-0.9543624 0.51376057 -1.0469867 0.5300589 0.4759386 0.101480335 0.063724406 0.6569587
-0.96633875 -0.6484755 -1.0448408 0.6149858 0.538642 -0.9576351 0.68736756 0.5077014
-0.05530859 -1.0084821 -0.9884182 0.021510378 0.45732206 0.6810575 0.50465053 -0.9754348
-0.0990329 -0.9711037 0.57055837 -0.57415843 -0.93384284 0.26479322 -1.019886 -1.0011246
0.6548768 0.041989118 -0.019191422 -0.06969719 0.03556248 0.5112516 0.12865351 -0.05429186
00000000: 483b 7fbc 4bb0 17bf 20ca 8fbd 53ab 22bf
00000010: d8f1 2bbf c8f6 7d3d 1105 1ebf 4cc1 37bf
00000020: 9ab0 aebd 13ad 87bd b07d 2f3c 367d ac3d
00000030: 1012 2fbd 706b 20bc bb71 e5bd 0254 c73d
00000040: 58d4 15bf e0b7 cbbd ee32 a33d 3c17 c3bd
00000050: 5d16 d9be b28a f7be 905e 2dbd b69f 8a3d
00000060: baaf 0ebf 88ba ce3d cc01 ffbd 9ed6 fdbd
00000070: 74f7 c3bd d49b 903d 8696 3bbd b7d3 05bf
00000080: 888a 77bd 44ad 12bf 284e fe3c 5822 c63c
00000090: e344 06bf a00a f13c c549 05bf 5cdd 283d
000000a0: 2e1b 3abd 26a8 24bd 08fa 03bc 60ad 313c
000000b0: 40a9 2ebf f4e1 dfbe 0a63 2fbf 4001 9abd
000000c0: 5469 b43d 52ad ffbe fee8 9d3d 0490 453d
000000d0: 409c 4d3b 32ac 33bf ea7c 0ebf d249 23bd
000000e0: 0842 8d3d 8cbb 703d 2039 ad3d 7a22 1fbf
000000f0: dc71 5a3d f56b 34bc 5873 073d 0e49 133f
00000100: 5891 073e 2823 bdbd 79fa 203d 733e 5f3d
00000110: 3432 85bd 26d8 3abd 2ff1 cabd d2cb fa3d
00000120: b869 04bd c54a b4bd 6d4a c33d 68fe 7e3d
00000130: 3606 963d 2037 b43b 303a 923d dc61 0d3d
00000140: b13d 193f eb76 d63d ab18 a2bd 00e7 953d
00000150: 767e 06bf f62e 803d 4837 fbbc dc84 b4bc
00000160: 302c a3bb 549a f7bd 68ab db3d 3d17 24bf
00000170: 2461 183d 63ba 0e3e 5047 a53c 826f 30bd
00000180: 893d 34bd 00e6 b63b ffe2 983d 7245 b53d
00000190: eaa5 dd3d 38ed bcbd 2223 9b3d e835 6e3d
000001a0: e066 6ebc 781e 2bbf 015d ac3d d5d0 f2bd
000001b0: 4883 e43c 2f22 143e 86d2 38bd c2ee d73d
000001c0: a005 f8bd b603 413d 83a6 1cbb e4cf c4bd
000001d0: a3a8 dfbd c162 023e 8c03 d13d 195b d2bc
000001e0: 78c1 4abc a80e 0ebf f5e6 d33d d2c4 7fbc
000001f0: 33eb f3be d486 b0bd 502d e5be eb9e 16bf
00000200: 20fc 2abf 6818 90bd d3c4 49bd 1ca7 bebd
00000210: 4d89 f6bd 3508 0abf e0d7 de3d 5401 9bbc
00000220: 42c4 e6be 896f 09bf fe75 29bd 4e81 febe
00000230: 9071 45bd 76b5 063f 74b8 c73e 58df b0bd
00000240: 359d 0cbf 7076 fdbe 1479 513d f8eb fbbe
00000250: 1db2 2ebf 3626 fb3d 1f9c 1bbf f35e a4bd
00000260: b7c6 21bf 54b3 04bf 4556 0cbf 1caa b7be
00000270: 4ab3 fcbe 3c5a 25bf e99e 1ebf 133a febe
00000280: 58d2 1cbf b456 a3bc 1930 e8bd a613 20bf
00000290: 9e3b 00bf da33 d6bd 16b0 f5be 1405 21bf
000002a0: db10 37bf 8d7b f1be 7ecc 29bf 96b3 f0be
000002b0: 94d4 f3bd ab0a 19bf 0ba3 1ebf 742d c3bc
000002c0: c80e 91be edbd f4be 5e3d 0fbf 7542 22bf
000002d0: 3ab2 32bd d877 6bbf 48e0 1f3f 0c2b d2be
000002e0: 797e 6ebf 618b 213e de84 8bbf 11e5 6ebf
000002f0: c55a 023f 8060 1dbc bfec 2b3d 6c0c 7dbd
00000300: 1da7 1b3d 009d 033f 708b bb3d cc13 4c3d
00000310: b3e4 81bf bfe2 143f 7e13 63bd aac5 2e3f
00000320: d466 243d 630d 89bf 289d dc3e 34b9 95bd
00000330: 1b66 40bd f453 f63e bca9 ef3d 2f94 053f
00000340: f7dc 2e3f 0000 6bb8 fe7c 133f c8d4 2dbe
00000350: 3321 273f d672 79bf f550 fe3e 1e9b fe3e
00000360: 1851 74bf d085 033f a903 86bf f1b1 073f
00000370: 39ae f33e ecd4 cf3d f181 823d 722e 283f
00000380: fa61 77bf 7e02 26bf 58bd 85bf b66f 1d3f
00000390: 71e4 093f 9327 75bf 52f7 2f3f b8f8 013f
000003a0: 438b 62bd f115 81bf fa08 7dbf 8836 b03c
000003b0: 1e26 ea3e c959 2e3f c730 013f 18b6 79bf
000003c0: c3d1 cabd 419a 78bf 1d10 123f 0cfc 12bf
000003d0: 5310 6fbf fa92 873e a08b 82bf da24 80bf
000003e0: 02a6 273f c8fc 2b3d 5437 9dbc 66bd 8ebd
000003f0: f7a9 113d 63e1 023f bfbd 033e 2461 5ebd

linear2.bias f4 [30]
-0.981927 -0.17457278 -0.62666535 -1.1116467 -1.266733 -0.7673094 -0.6465668 -0.9656901
-0.7023435 -1.0375316 -0.2203795 -0.8396075 -1.014709 -0.5417089 -0.9696761 -0.4765202
-0.70385504 -0.06530594 -0.60781676 -0.7391984 -0.9520251 -0.6897433 -0.64189494 -0.6749526
-0.45721927 -0.67624927 -1.1440619 -0.672874 -0.042377915 -0.40202945
00000000: 915f 7bbf 35c3 32be 246d 20bf 704a 8ebf
00000010: 4f24 a2bf 646e 44bf 6785 25bf 7737 77bf
00000020: c9cc 33bf d6cd 84bf 2aab 61be 84f0 56bf
00000030: fce1 81bf 6fad 0abf b13c 78bf 75fa f3be
00000040: d82f 34bf 1fbf 85bd e199 1bbf 1b3c 3dbf
00000050: ebb7 73bf 0493 30bf 3a53 24bf b2c9 2cbf
00000060: a518 eabe ac1e 2dbf 9f70 92bf 7841 2cbf
00000070: 7794 2dbd ced6 cdbe

linear3.weight f4 [1200, 30]
-0.533431 -0.61065423 0.04971023 -0.73227924 -0.5419221 -0.060908258 -0.048133865 -0.024846181
0.17779535 -0.017842978 -0.09795327 -0.6111368 -0.66934985 -0.13144931 -0.4730154 -0.13285498
-0.0717808 -0.75755715 -0.45685905 -0.70982784 -0.44141096 -0.039633244 0.014973834 -0.05294624
-0.46611983 -0.67809445 -0.7494378 -0.04744573 0.055677667 -0.0888479 -0.06372735 0.0413312
-0.08605492 -0.14013712 0.033000335 -0.07196895 0.058589786 0.05073884 -0.5050133 -0.07875263
-0.34005645 0.029780075 0.13853621 0.07812822 -0.060250096 -0.11287155 -0.10121165 -0.08303637
-0.11181915 0.055296004 0.1553157 -0.03410688 0.020988509 -0.019942477 0.037673593 0.16626695
-0.1744206 0.10989699 0.10689294 -0.4808904 0.6101915 -0.3174518 0.121363014 0.20550306
-0.06616175 -0.17004812 -0.15912867 0.17335561 -0.048535287 -0.4318832 -0.4704973 0.48124108
0.048039746 0.10129976 0.019019006 -0.13165607 -0.22514392 -0.073748805 0.04759109 0.6849339
0.17978708 0.06721382 -0.116947375 -0.13994305 0.5303259 0.5809842 0.19088124 -0.021246135
0.12453204 -0.6843904 0.56723803 -0.43939638 -0.08700738 0.1700335 0.1362581 -0.02156426
0.18117991 0.062769845 0.15050149 0.025396794 0.016226918 0.7603462 0.2935909 -0.07991834
0.04386088 -0.177565 -0.56197894 -0.14715298 0.63851106 0.48398986 -0.0043553077 -0.08923757
0.018180937 -0.08226042 0.42215216 0.49926293 -0.07275618 0.14233664 -1.1273879 -0.34531128
0.097158104 -0.13596389 -0.5558106 -0.36372674 -0.5914904 -0.42150947 -0.43239182 0.15512449
-0.42117217 0.14175472 -0.0541607 -0.11952553 0.060221888 -0.5812633 -0.6328687 -0.65126985
-0.078712955 0.06426111 -0.22762406 -0.11770738 -0.5301043 -0.6083077 -0.0170715 -0.36483508
-0.05804624 0.027302936 -0.56053025 0.072066955 0.13499969 -0.086057335 -0.052725226 0.40556702
-0.020936862 -0.018317498 0.19326796 -0.18021509 -0.31973138 0.37422237 -0.30370712 -0.12745038
0.019959569 -0.1197894 0.0060458067 -0.40641165 -0.21886393 -0.2132453 0.6981604 0.63948786
0.64581096 0.1818837 -0.15275961 -0.24248075 0.687331 -0.039675187 0.64795053 0.15190718
-0.4023136 0.1471648 0.063850015 0.7611005 0.66568625 -0.7055865 0.23040882 0.28145167
0.05265259 -0.29712245 0.38149488 -0.15421443 -0.17487441 0.091259256 0.13297081 0.43103644
0.06758733 -0.41398177 0.010005232 -0.1788757 -0.48380566 -0.79943186 0.31730154 0.5375859
0.15856887 0.54827285 0.05660647 0.02205796 0.6062131 0.7234182 -0.15403256 -0.11744041
-1.1281927 -0.5813033 -0.0077796876 -0.119697236 -0.592176 -0.46290824 -0.5305765 -0.58258104
-0.7445782 0.052582946 -0.654765 -0.2786646 -0.5976913 -0.5152957 -0.6466504 -0.4502703
-0.62255734 -0.5395913 -0.36499277 -0.09133501 -0.38974574 -0.06976474 -0.50661147 -0.9340155
-0.17763104 -0.6561976 -0.1369957 0.17750624 -0.50087804 -0.43432173 -0.08807245 -0.346877
-0.73709214 -0.5843419 -0.030659854 -0.5437356 -0.49756214 -0.12548716 -0.034147754 -0.10333002
-0.059220046 0.06910175 0.11945766 -0.41783887 -0.69522434 -0.023692012 -0.5321138 0.14639509
00000000: ef8e 08bf d653 1cbf f49c 4b3d a776 3bbf
00000010: 68bb 0abf f07a 79bd 0428 45bd 388a cbbc
00000020: fc0f 363e 702b 92bc b99b c8bd 7673 1cbf
00000030: 835a 2bbf a69a 06be 132f f2be 230b 08be
00000040: d001 93bd 44ef 41bf 6ee9 e9be 47b7 35bf
00000050: 9e00 e2be 7856 22bd d054 753c 28de 58bd
00000060: 42a7 eebe 9997 2dbf 28db 3fbf 7456 42bd
00000070: 440e 643d e3f5 b5bd 7c83 82bd e84a 293d
00000080: 903d b0bd 1b80 0fbe 5c2b 073d 7564 93bd
00000090: d8fb 6f3d 88d3 4f3d 8d48 01bf 0f49 a1bd
000000a0: e11b aebe 58f5 f33c 70dc 0d3e b001 a03d
000000b0: cec8 76bd 3329 e7bd 0e48 cfbd f90e aabd
000000c0: 7001 e5bd 107e 623d 140b 1f3e a8b3 0bbd
000000d0: 18f0 ab3c 685e a3bc a04f 1a3d e241 2a3e
000000e0: 509b 32be ac11 e13d b0ea da3d 4437 f6be
000000f0: 8335 1c3f 0b89 a2be 2c8d f83d 656f 523e
00000100: d07f 87bd 1821 2ebe a0f2 22be 2284 313e
00000110: f0cc 46bd cb1f ddbe 06e5 f0be 3b65 f63e
00000120: 53c5 443d 4076 cf3d bfcd 9b3c d9d0 06be
00000130: 218c 66be 9d09 97bd e0ee 423d d457 2f3f
00000140: 1b1a 383e 66a7 893d 1b82 efbd 3b4d 0fbe
00000150: 70c3 073f 61bb 143f 5f76 433e 600c aebc
00000160: a70a ff3d 3634 2fbf 8336 113f 90f8 e0be
00000170: ed30 b2bd 431d 2e3e 3e87 0b3e 88a7 b0bc
00000180: 3a87 393e 7a8d 803d 101d 1a3e f00c d03c
00000190: 50ee 843c 0ca6 423f 8c51 963e 3aac a3bd
000001a0: 77a7 333d 99d3 35be dadd 0fbf 45af 16be
000001b0: 7675 233f 85cd f73e f8b6 8ebb 30c2 b6bd
000001c0: 30f0 943c 2778 a8bd 5424 d83e 649f ff3e
000001d0: 3101 95bd b2c0 113e 3f4e 90bf a4cc b0be
000001e0: d4fa c63d 1e3a 0bbe 9a49 0ebf 643a babe
000001f0: ea6b 17bf 17d0 d7be 7662 ddbe f4d8 1e3e
00000200: e1a3 d7be 2628 113e 9cd7 5dbd cdc9 f4bd
00000210: 3aab 763d accd 14bf af03 22bf 9fb9 26bf
00000220: 4234 a1bd 549b 833d 4816 69be 9110 f1bd
00000230: eab4 07bf 0eba 1bbf 88d9 8bbc aacb babe
00000240: e5c1 6dbd 68aa df3c e97e 0fbf d797 933d
00000250: 5c3d 0a3e d43e b0bd 68f6 57bd 7ba6 cf3e
00000260: c883 abbc 940e 96bc 09e8 453e 4e8a 38be
00000270: d5b3 a3be 139a bf3e 807f 9bbe 5a82 02be
00000280: 4082 a33c 2554 f5bd e71b c63b 3015 d0be
00000290: de1d 60be fa5c 5abe a4ba 323f 7ab5 233f
000002a0: de53 253f b83f 3a3e 046d 1cbe e04c 78be
000002b0: edf4 2f3f 7382 22bd 16e0 253f 8e8d 1b3e
000002c0: 0cfc cdbe 5fb2 163e ccc3 823d 7bd7 423f
000002d0: 6a6a 2a3f 51a1 34bf 4af0 6b3e 6f1a 903e
000002e0: 3eaa 573d 6f20 98be 4c53 c33e 63ea 1dbe
000002f0: 4712 33be 22e6 ba3d 8029 083e cfb0 dc3e
00000300: 3a6b 8a3d 6bf5 d3be fcec 233c 312b 37be
00000310: 60b5 f7be 91a7 4cbf 5975 a23e 3b9f 093f
00000320: e15f 223e 9c5b 0c3f 30dc 673d e5b2 b43c
00000330: c830 1b3f ef31 393f b6ba 1dbe 9984 f0bd
00000340: 9e68 90bf 4bd0 14bf c0ec febb d323 f5bd
00000350: d998 17bf 4f02 edbe ddd3 07bf 0824 15bf
00000360: ad9c 3ebf 3761 573d ae9e 27bf 20ad 8ebe
00000370: 4c02 19bf 6bea 03bf e18a 25bf d489 e6be
00000380: eb5f 1fbf a822 0abf 55e0 babe da0d bbbd
00000390: c18c c7be d1e0 8ebd 4ab1 01bf a41b 6fbf
000003a0: e9e4 35be 91fc 27bf 9a48 0cbe 32c4 353e
000003b0: 8b39 00bf 6b5f debe 545f b4bd dd99 b1be
000003c0: 12b2 3cbf 6e97 15bf 602a fbbc 4232 0bbf
000003d0: 77c0 febe b57f 00be 84de 0bbd b19e d3bd
000003e0: b890 72bd 3885 8d3d 38a6 f43d faee d5be
000003f0: 39fa 31bf c015 c2bc 9c38 08bf 98e8 153e

linear3.bias f4 [1200]
-0.7364504 -0.616913 -0.33873332 -0.5889772 -0.56560826 0.6672232 -0.98489916 -0.8215166
-0.7015463 -0.9927488 -0.85394686 -0.6834453 -0.15819868 -1.0505295 -0.5905285 -0.29411426
-0.0661625 -0.56332743 -0.59147686 -1.061684 -0.87465173 -0.6974737 -1.0070249 -0.13664408
-0.6285379 -0.8433346 -0.53878695 -0.6531133 -0.5375729 -1.2644804 -0.5809014 -1.0747491
-0.87643665 -0.57526636 -0.16576867 -0.8113514 -0.067493424 -1.0209712 0.56988716 -0.527233
-0.29201585 -0.6713673 -0.5724361 -0.6387539 -1.0079952 -0.5668094 -0.65395 -0.6681865
-0.6194716 -0.62092793 -0.7236342 -0.9825188 -0.66062397 -0.50406355 0.5630735 -0.11245855
-0.9518678 -0.57736176 -0.097998016 -0.5698047 -0.74488 -0.8550694 -0.5730237 -0.6275687
-0.9051898 -1.0142868 -0.2011002 -0.6414184 0.33281213 -0.8002969 -0.5174368 -0.1066504
-0.0844625 0.30255565 -0.7581611 -0.526 -1.1001726 -0.98086494 -0.7083502 -0.5120525
-0.144738 -0.67253375 -1.1123353 -0.5547127 -0.09615475 -0.90142894 -1.0067226 -1.1315242
-0.6973592 -0.50831723 -0.6917379 -0.17353646 -0.5572834 -0.76373917 -0.9194956 -0.25767085
-0.8810811 -1.0106887 -0.70877093 -0.8771478 -1.0465404 -1.0734338 -0.9574316 -0.5303646
-0.7578372 -0.5637275 -1.1312937 -0.8409851 -0.58451265 -0.35166615 -1.1981024 -0.6562974
-0.12072698 -0.4918821 -0.7247947 -0.5440945 -0.9749476 -0.71955675 -0.7652907 -0.302616
0.24328217 -1.0813875 -0.5174847 -0.9681322 -0.5209213 -0.047740653 -0.69349134 -1.073344
-1.0828184 -0.7014236 -0.5116102 -1.0873582 -0.7538159 -0.7720673 -0.5426332 -0.983318
-0.7943041 -0.713764 -1.1245556 0.18907435 -1.0209816 -0.070290625 -0.5627806 -1.0671277
-1.0294976 -0.705819 -0.138388 -0.49230587 -0.13915028 -0.09003267 -0.31789577 -0.76136225
-0.55165166 -0.51180935 -0.7389458 -1.080995 -0.660204 -0.49688786 -0.50899255 -0.56692857
-0.4576402 -0.7437886 -0.05444634 -0.9354653 -0.6301498 -0.91642094 -0.64454174 -0.48161826
-0.7322681 -0.45470023 -0.867891 -0.646817 -0.6927783 -0.89439684 -1.0840752 -0.09755869
-0.6437213 -1.0395486 0.11220917 -0.11366106 -0.14988211 -1.1245875 -0.50936824 -0.70532316
-0.49528143 -0.9500984 0.4160044 -0.6166504 -0.92857116 -0.99127007 -0.6463069 -1.1212362
-0.5023687 -0.13622099 -0.61292064 -0.48739323 -0.8404072 -0.82773054 -0.57691973 -0.5044502
-0.9634377 -0.63038504 -1.1370426 -1.0044582 -0.9891188 -0.7661267 -0.7688974 -0.7605818
-0.75917506 -0.74879485 -0.49937108 -0.16062655 -0.8854226 -0.74770755 -0.07609945 -0.56270057
-1.0499821 -0.5209364 -0.64184874 -1.052551 -0.73573065 -0.4657732 0.10920034 -0.74200857
-0.17814845 -1.0090785 -0.59158725 -0.6082706 -0.5566773 -0.73116124 -0.5891385 -0.9586232
-0.5428762 -0.57612115 -0.049831867 -1.0203079 0.03651586 -0.9346607 -1.0315694 -0.6926184
-0.65750253 -1.0749545 -1.0827404 -0.9475017 -0.4727017 -0.17891277 -0.8985144 -0.61801875
-0.16896223 -0.84973717 -0.7062894 -1.1255493 -0.62471074 -0.5386411 -0.6422709 -0.69354737
00000000: 0388 3cbf 03ee 1dbf 746e adbe 36c7 16bf
00000010: b4cb 10bf 24cf 2a3f 5a22 7cbf e94e 52bf
00000020: 8a98 33bf c924 7ebf 439c 5abf 45f6 2ebf
00000030: d6fe 21be c077 86bf e02c 17bf 2596 96be
00000040: 3480 87bd 3a36 10bf 076b 17bf 43e5 87bf
00000050: 2de9 5fbf a38d 32bf 31e6 80bf 6dec 0bbe
00000060: dce7 20bf c7e4 57bf f1ed 09bf 6f32 27bf
00000070: 619e 09bf 7eda a1bf f4b5 14bf 6191 89bf
00000080: 275e 60bf a844 13bf 43bf 29be bab4 4fbf
00000090: fe39 8abd 2faf 82bf 20e4 113f bef8 06bf
000000a0: 1a83 95be bade 2bbf 2c8b 12bf 6085 23bf
000000b0: fd05 81bf 6c1a 11bf 4469 27bf 450e 2bbf
000000c0: b195 1ebf 22f5 1ebf 1740 39bf 5a86 7bbf
000000d0: a71e 29bf 4f0a 01bf 9625 103f ab50 e6bd
000000e0: 9cad 73bf fbcd 13bf 2fb3 c8bd b9de 11bf
000000f0: 75b0 3ebf d4e5 5abf aeb1 12bf 58a8 20bf
00000100: 85ba 67bf 26d4 81bf 36ed 4dbe ff33 24bf
00000110: 5a66 aa3e 42e0 4cbf bd76 04bf 866b dabd
00000120: adfa acbd 93e8 9a3e d916 42bf f0a7 06bf
00000130: 75d2 8cbf f719 7bbf 7056 35bf df15 03bf
00000140: 3336 14be 2c2b 2cbf 0161 8ebf a701 0ebf
00000150: c8ec c4bd 0cc4 66bf 49dc 80bf c9d5 90bf
00000160: 2286 32bf 1421 02bf bc15 31bf 8bb3 31be
00000170: 20aa 0ebf 6984 43bf 1064 6bbf 6fed 83be
00000180: 888e 61bf 3f5e 81bf 0372 35bf c28c 60bf
00000190: 09f5 85bf 4766 89bf 3d1a 75bf f9c5 07bf
000001a0: 9e01 42bf 7250 10bf 3bce 90bf cd4a 57bf
000001b0: 9fa2 15bf 960d b4be 6b5b 99bf 1b03 28bf
000001c0: b53f f7bd f8d7 fbbe 258c 39bf c749 0bbf
000001d0: 2a96 79bf df34 38bf 17ea 43bf 7cf0 9abe
000001e0: f61e 793e e86a 8abf e179 04bf 83d7 77bf
000001f0: 195b 05bf b48b 43bd a688 31bf 5663 89bf
00000200: cb99 8abf 7f90 33bf e3f8 02bf 8e2e 8bbf
00000210: 14fa 40bf 34a6 45bf 02ea 0abf baba 7bbf
00000220: 8357 4bbf 3db9 36bf 70f1 8fbf b59c 413e
00000230: 86af 82bf 88f4 8fbd 6412 10bf a497 88bf
00000240: 94c6 83bf 8eb0 34bf 95b5 0dbe 840f fcbe
00000250: 697d 0ebe 0c63 b8bd 3cc3 a2be a3e8 42bf
00000260: 0b39 0dbf f005 03bf 8d2b 3dbf 0b5e 8abf
00000270: 2103 29bf 1668 febe 564d 02bf 3b22 11bf
00000280: d14f eabe ee68 3ebf 2003 5fbd a77a 6fbf
00000290: 7f51 21bf 909a 6abf b000 25bf ab96 f6be
000002a0: ec75 3bbf 78ce e8be 1b2e 5ebf cd95 25bf
000002b0: eb59 31bf 31f7 64bf fac2 8abf dacc c7bd
000002c0: ebca 24bf ee0f 85bf eccd e53d 21c7 e8bd
000002d0: b27a 19be 7cf2 8fbf f565 02bf 0f90 34bf
000002e0: 8795 fdbe a639 73bf 87fe d43e cddc 1dbf
000002f0: d7b6 6dbf e0c3 7dbf 5e74 25bf ab84 8fbf
00000300: 3c9b 00bf 847d 0bbe 5ee8 1cbf 9b8b f9be
00000310: ed24 57bf 26e6 53bf 03b1 13bf a623 01bf
00000320: daa3 76bf ea60 21bf 9d8a 91bf 1692 80bf
00000330: e436 7dbf e120 44bf 76d6 44bf 7db5 42bf
00000340: 4c59 42bf 05b1 3fbf 91ad ffbe 497b 24be
00000350: 0eab 62bf c369 3fbf 07da 9bbd 250d 10bf
00000360: d065 86bf 175c 05bf 3350 24bf feb9 86bf
00000370: d858 3cbf d379 eebe 6ea4 df3d 46f4 3dbf
00000380: 8c6c 36be 7c29 81bf 4372 17bf 9fb7 1bbf
00000390: 6782 0ebf 622d 3bbf c8d1 16bf 5468 75bf
000003a0: eff9 0abf ad7c 13bf 801c 4cbd 7399 82bf
000003b0: a891 153d ec45 6fbf 770a 84bf 714f 31bf
000003c0: 1652 28bf 1c98 89bf 3d97 8abf 798f 72bf
000003d0: f505 f2be e934 37be 0a05 66bf 7a36 1ebf
000003e0: 6f04 2dbe 6088 59bf 62cf 34bf 0012 90bf
000003f0: 0bed 1fbf 62e4 09bf de6b 24bf 528c 31bf

linear1.weight f4 [30, 1200]
-0.026343994 -0.023468668 -0.580552 -0.5351809 0.016585764 -0.025179233 -0.5211322 0.5009155
0.028203301 -0.5123143 -0.55973834 -0.5536734 -0.011664297 -0.5338564 0.025302604 0.04756383
0.007488854 0.5233791 0.35850713 -0.4475127 -0.5783382 -0.023660611 -0.4131585 0.024683036
-0.42376912 0.37288198 -0.54958624 0.4975669 0.0021303836 -0.42408672 0.46110606 -0.48057562
-0.41636723 0.3297701 0.0027075969 -0.52637714 -0.012902716 0.5743664 -0.5661584 -0.33147526
0.24316497 -0.012558674 -0.39963242 0.016949091 -0.5302166 -0.11762354 0.025401097 0.5093633
-0.0074152946 0.01666686 -0.012176273 -0.4373758 0.019308824 -0.0046492987 -0.50919807 0.01021773
-0.45545578 0.53951085 -0.0065156557 0.37203094 0.02255952 -0.3147302 -0.39794526 0.480011
-0.57781345 -0.4573914 -0.29690456 0.004301071 -0.57336235 -0.53601414 0.018720526 0.009708814
0.3656929 -0.70911294 -0.4924949 0.5606443 -0.39597353 -0.43877777 0.010282557 0.025874622
-0.4451964 -0.018899903 -0.0050199293 0.083899565 -0.010100495 0.38627324 -0.4679649 0.004452478
-0.013416701 0.3365911 0.008832376 0.016686376 0.49319747 -0.027793407 -0.433126 0.016754784
-0.43465963 -0.4473788 0.004938241 -0.5328175 -0.44056052 -0.46170923 -0.43768257 -0.46397388
0.027104758 -0.18968864 -0.46898755 -0.26152843 0.31781432 -0.5821045 -0.49799418 0.512163
-0.012554485 -0.028748283 0.008868512 0.5203921 -0.4620548 0.013299335 -0.01234154 -0.46671024
-0.7070144 -0.584112 0.5012081 -0.2587743 0.47556025 -0.012204371 -0.023559447 -0.4869725
-0.5698636 -0.021030296 0.5401181 -0.47185054 -0.022964582 0.026575048 -0.39183185 -0.42864218
-0.40201464 -0.016538925 -0.4565419 -0.5303648 -0.5231346 -0.013415404 0.5690443 0.30950466
0.2616467 0.008692957 -0.46945477 0.5145461 -0.009619208 0.01145022 0.00782498 -0.575719
-0.0022184812 -0.5307839 0.023230162 0.5174415 0.031186376 0.55167514 0.022290144 0.4811256
0.5603304 0.018657308 -0.021627052 -0.5442383 0.45257512 -0.024295913 -0.0021318737 0.49721998
-0.54579955 -0.0019215123 -0.29307798 -0.012251327 0.5202398 0.444869 -0.47287962 0.028039098
0.5655672 -0.44330037 -0.63698304 -0.02281761 -0.02004077 -0.49282587 0.5564899 0.0047941096
0.5155709 -0.35876837 -0.7197435 0.31429374 -0.41732943 -0.43476245 0.2540001 -0.025037648
0.51877755 0.002704952 0.41920343 0.51795816 -0.5489816 -0.5283565 0.5419428 -0.39333183
0.4866423 0.01870026 -0.5104265 -0.42740035 -0.45793825 -0.56779546 -0.015994102 -0.01117149
-0.5602339 -0.5826036 0.52653885 0.017768707 -0.4207321 -0.0231231 -0.0022488087 -0.1954148
-0.5551738 0.5423582 -0.51286894 -0.43491715 -0.013460319 0.4662702 0.5305927 -0.015000635
-0.027719393 -0.4384678 -0.03839282 -0.49452806 0.027615663 -0.25997028 0.47503704 0.036070548
0.34967798 0.5558721 -0.02359594 -0.46871474 -0.63077307 -0.41253015 -0.5514695 0.020070322
-0.0040785596 -0.44518122 -0.2933677 -0.44627944 0.1256917 0.0052197017 -0.16620499 -0.017767692
0.018565498 -0.5302924 -0.016979296 -0.5059757 -0.1773109 -0.538683 0.3902309 0.2475039
00000000: 5ccf d7bc 5d41 c0bc 0e9f 14bf 9e01 09bf
00000010: dede 873c ae44 cebc eb68 05bf 003c 003f
00000020: 9c0a e73c 0827 03bf 034b 0fbf 8abd 0dbf
00000030: 9c1b 3fbc d0aa 08bf 6847 cf3c 4ad2 423d
00000040: 1065 f53b 2cfc 053f 3f8e b73e 6220 e5be
00000050: f90d 14bf e6d3 c1bc 8389 d3be 1434 ca3c
00000060: 44f8 d8be 63ea be3e afb1 0cbf 17c1 fe3e
00000070: e89d 0b3b e521 d9be 1816 ec3e 020e f6be
00000080: 162e d5be a0d7 a83e f071 313b a7c0 06bf
00000090: ea65 53bc ad09 133f c2ef 10bf 20b7 a9be
000000a0: 3d00 793e e6c2 4dbc 9f9c ccbe d2d8 8a3c
000000b0: 46bc 07bf 9ce4 f0bd f615 d03c a265 023f
000000c0: 00fc f2bb f088 883c fe7e 47bc b9ef dfbe
000000d0: 8a2d 9e3c 2559 98bb ce5a 02bf 4468 273c
000000e0: 8031 e9be 621d 0a3f 4881 d5bb d77a be3e
000000f0: bece b83c 5124 a1be 7bbf cbbe 00c4 f53e
00000100: 95eb 13bf 352f eabe e003 98be 00f0 8c3b
00000110: e0c7 12bf 3938 09bf ca5b 993c b811 1f3c
00000120: 1a3c bb3e 6d88 35bf 4b28 fcbe 6386 0f3f
00000130: 0bbd cabe 7ba7 e0be 2c78 283c 04f7 d33c
00000140: c8f0 e3be f8d3 9abc 387e a4bb 89d3 ab3d
00000150: 8c7c 25bc 9bc5 c53e 1899 efbe 18e6 913b
00000160: b9d1 5bbc ab55 ac3e acb5 103c deb1 883c
00000170: 6184 fc3e 00af e3bc b1c2 ddbe 5441 893c
00000180: b58b debe d60e e5be f8d0 a13b ba66 08bf
00000190: 2691 e1be 2765 ecbe ee17 e0be fc8d edbe
000001a0: cc0a de3c bd3d 42be 231f f0be 0ee7 85be
000001b0: 8fb8 a23e cd04 15bf 18f9 febe 1d1d 033f
000001c0: 54b1 4dbc 8581 ebbc 3c4d 113c 6b38 053f
000001d0: 7292 ecbe 74e5 593c 2c34 4abc a5f4 eebe
000001e0: e5fe 34bf 5d88 15bf 2d4f 003f 117e 84be
000001f0: a27c f33e d8f4 47bc beff c0bc 7654 f9be
00000200: 95e2 11bf ba47 acbc 2e45 0a3f 6596 f1be
00000210: 3820 bcbc eab3 d93c 2f9e c8be fd76 dbbe
00000220: ddd4 cdbe a47c 87bc dcbf e9be fdc5 07bf
00000230: 26ec 05bf 48cc 5bbc e3ac 113f 6577 9e3e
00000240: 8ef6 853e e86c 0e3c 605c f0be 4bb9 033f
00000250: e299 1dbc b499 3b3c 5834 003c 5262 13bf
00000260: f063 11bb 74e1 07bf 2e4d be3c 0c77 043f
00000270: 927a ff3c 953a 0d3f d299 b63c 1856 f63e
00000280: d071 0f3f 36d7 983c 372b b1bc 3453 0bbf
00000290: edb7 e73e 3908 c7bc e8b6 0bbb 9e93 fe3e
000002a0: 85b9 0bbf 41db fbba 510e 96be cab9 48bc
000002b0: 6f2e 053f dfc5 e33e 471d f2be 40b2 e53c
000002c0: 03c9 103f 44f8 e2be 5211 23bf ffeb babc
000002d0: 8a2c a4bc ac53 fcbe 1f76 0e3f e817 9d3b
000002e0: 74fc 033f 7db0 b7be 1c41 38bf 1ceb a03e
000002f0: 34ac d5be 2f99 debe 4d0c 823e c11b cdbc
00000300: 9bce 043f 9045 313b d5a1 d63e e898 043f
00000310: 0f8a 0cbf 5f42 07bf c3bc 0a3f ca62 c9be
00000320: 2e29 f93e 4a31 993c 50ab 02bf 38d4 dabe
00000330: e276 eabe 0b5b 11bf 1006 83bc a008 37bc
00000340: 7d6b 0fbf 8225 15bf 40cb 063f ae8f 913c
00000350: 336a d7be a86c bdbc c060 13bb d11a 48be
00000360: df1f 0ebf fdd7 0a3f 614b 03bf 76ad debe
00000370: ab88 5cbc f8ba ee3e ecd4 073f 39c5 75bc
00000380: c813 e3bc da7e e0be ca41 1dbd c832 fdbe
00000390: 3e3a e23c d31a 85be 0e38 f33e b6be 133d
000003a0: fe08 b33e a24d 0e3f 464c c1bc 61fb efbe
000003b0: 587a 21bf 2737 d3be 1b2d 0dbf 846a a43c
000003c0: 70a5 85bb cbee e3be 4b34 96be bd7e e4be
000003d0: 53b5 003e 080a ab3b a431 2abe 8d8d 91bc
000003e0: ac16 983c 3ec1 07bf 2a18 8bbc a087 01bf
000003f0: fd90 35be 21e7 09bf 58cc c73e aa71 7d3e

linear1.bias f4 [30]
-0.61875725 -0.5770425 -0.61976755 -0.61904305 -0.59993553 -0.5735824 -0.5140323 -0.6441088
-0.43784493 -0.57888 -0.6191414 -0.6227317 0.0033763088 -0.5316905 -0.5523699 -0.5356776
-0.54145974 -0.5409891 -0.59364474 -0.6364119 -0.5070617 -0.62142926 -0.6563442 -0.570129
-0.5309382 -0.62676066 -0.5556153 -0.2729433 -0.6673574 0.29042888
00000000: e066 1ebf 0fb9 13bf 16a9 1ebf 9b79 1ebf
00000010: 6095 19bf 4cd6 12bf 9f97 03bf 50e4 24bf
00000020: 362d e0be 7b31 14bf 0d80 1ebf 586b 1fbf
00000030: 1045 5d3b de1c 08bf 1d68 0dbf 2b22 09bf
00000040: 1b9d 0abf 437e 0abf 1af9 17bf e4eb 22bf
00000050: ccce 01bf fd15 1fbf 2c06 28bf f9f3 11bf
00000060: 91eb 07bf 6373 20bf ce3c 0ebf 39bf 8bbe
00000070: efd7 2abf 18b3 943e

linear2.weight f4 [60, 30]
0.096894115 -0.10097077 0.14748412 0.12826675 -0.010266066 0.056180373 -0.519426 -0.06570631
-0.40282574 -0.12611568 -0.5878216 -0.1338051 0.052224666 0.12923229 -0.047141507 -0.17175446
0.11354861 -0.45410034 -0.091352366 -0.050786003 -0.659706 -0.11836418 -0.16492581 -0.02099444
-0.61503994 0.08814126 -0.0012692362 -0.029064119 -0.10311801 -0.6302226 0.0067263693 0.034571365
-0.11676087 0.1551474 0.15553707 0.10700026 -0.5065908 -0.510889 -0.52929604 0.14355871
-0.59379333 -0.039683223 0.10143927 -0.13133644 0.09730965 -0.06606475 0.044487566 -0.48519427
0.05591327 -0.5650145 -0.026529819 0.104174346 -0.71430784 -0.08115616 0.15118411 -0.09106529
-0.008365944 0.10785386 -0.64377785 0.022721782 -0.21643333 -0.055393204 0.165225 0.17550185
0.026413724 0.38663992 -0.51765573 -0.43729627 -0.6389128 0.010134324 -0.3400205 0.14728197
-0.11771368 -0.06574891 0.6094869 -0.1947965 0.06576571 -0.32535034 -0.0983948 -0.36543766
0.052133143 0.057020128 -0.31008467 0.7285835 0.16473088 0.16144687 0.12222111 -0.14928062
-0.26663253 -0.65678173 -0.28504136 -0.78081995 -0.5140441 -0.44092956 -0.25744137 -0.14246508
-0.014880747 -0.68613464 -0.14278284 -0.466196 0.01411663 -0.57441944 -0.04276769 0.012682062
0.0373649 0.036336184 0.17186251 -0.049444422 -0.6069014 -0.5100275 0.0058074594 -0.5613133
-0.42442456 0.0541081 -0.10726518 0.14571196 -0.04152766 0.15758362 -0.7322065 0.07671043
-0.18389761 0.03960289 0.14364612 0.0026899725 0.12784788 0.53730106 -0.32064247 -0.42114446
-0.67919034 0.15531817 -0.3864529 -0.047468856 0.15399921 0.06583053 0.6400985 -0.23009913
0.086973876 -0.54429376 -0.015892297 -0.3760701 -0.04953985 -0.112194605 -0.40561834 0.6508829
-0.0018474609 0.0027216375 -0.16071832 -0.1035814 -0.48640934 -0.62307775 0.061845258 -0.008661613
0.032975763 0.11671206 -0.10130483 -0.15915656 -0.08150064 -0.06366062 0.09008446 0.084887564
-0.11904528 -0.00837265 0.009489864 0.04257971 -0.020392329 -0.04656236 0.025971323 -0.0074923933
-0.08748235 -0.08340206 -0.17369209 -0.108260386 -0.03469947 -0.045780405 -0.07082812 0.08812541
-0.093076855 -0.009351715 -0.10214229 0.102425724 -0.2487727 -0.6246614 -0.57959896 -0.4978163
-0.12894815 0.057828233 -0.035337314 -0.76896906 -0.06263958 -0.77261305 0.0782578 -0.6056445
-0.07490007 0.099690236 -0.05928617 0.071342975 0.029351458 -0.012013987 -0.68010795 -0.5548625
-0.15764895 -0.4799059 -0.48183113 0.12609154 0.16968101 -0.17594941 0.047409236 -0.17846914
-0.5823849 -0.015336707 -0.075731434 0.07628974 0.13721877 -0.11804126 0.14869687 0.07187846
-0.55100316 -0.38657895 -0.67170924 -0.103624344 -0.4247989 -0.1610128 0.05165778 -0.14500564
-0.05344273 0.019402653 -0.15249924 -0.53214544 0.10019791 -0.69553214 -0.0022697598 -0.03671038
-0.60814095 0.1724526 -0.07837935 -0.16425684 -0.0893468 0.072431654 -0.6786622 0.12338027
-0.14876774 0.07718766 0.08057761 0.06735195 0.062173143 0.55724245 0.07719714 -0.44595593
0.61822927 0.14491755 -0.20224907 -0.16808248 0.14669326 -0.13488731 0.4422771 0.013077216
00000000: 6c70 c63d c3c9 cebd 1406 173e 5c58 033e
00000010: 0033 28bc 641d 663d 1af9 04bf 0891 86bd
00000020: 2d3f cebe 7824 01be 7a7b 16bf 3404 09be
00000030: 88e9 553d 7855 043e 7417 41bd 67e0 2fbe
00000040: 2c8c e83d d77f e8be f316 bbbd fc04 50bd
00000050: 7ee2 28bf eb68 f2bd 50e2 28be 88fc abbc
00000060: 4273 1dbf 6883 b43d 805c a6ba e017 eebc
00000070: 892f d3bd 4556 21bf e068 dc3b b49a 0d3d
00000080: 5320 efbd f6de 1e3e 1c45 1f3e f422 db3d
00000090: efaf 01bf 9fc9 02bf f27f 07bf 0e01 133e
000000a0: d702 18bf e08a 22bd 64bf cf3d 0f7d 06be
000000b0: 484a c73d f54c 87bd 9838 363d 626b f8be
000000c0: 5005 653d caa4 10bf 1055 d9bc 5c59 d53d
000000d0: e1dc 36bf 3335 a6bd 02d0 1a3e 7080 babd
000000e0: 5011 09bc 7ce2 dc3d a0ce 24bf 0823 ba3c
000000f0: b3a0 5dbe fce3 62bd be30 293e c2b6 333e
00000100: 9861 d83c abf5 c53e 1685 04bf 4ce5 dfbe
00000110: ca8f 23bf 700a 263c 2b17 aebe 16d1 163e
00000120: df13 f1bd 5da7 86bd 5507 1c3f bc78 47be
00000130: 2cb0 863d 5294 a6be 3783 c9bd a51a bbbe
00000140: 9089 553d f08d 693d 6bc3 9ebe 7384 3a3f
00000150: 36af 283e 5452 253e 104f fa3d 05dd 18be
00000160: 0f84 88be d922 28bf f1f0 91be d1e3 47bf
00000170: 6598 03bf 85c1 e1be 5bcf 83be 5ee2 11be
00000180: 60ce 73bc 85a6 2fbf aa35 12be 3eb1 eebe
00000190: 7049 673c 270d 13bf 2c2d 2fbd 6cc8 4f3c
000001a0: f00b 193d 40d5 143d bafc 2f3e 3c86 4abd
000001b0: e45d 1bbf 2a91 02bf 804c be3b 3ab2 0fbf
000001c0: 2d4e d9be 74a0 5d3d d9ad dbbd 8435 153e
000001d0: e818 2abd 9a5d 213e e371 3bbf 5c1a 9d3d
000001e0: a84f 3cbe a436 223d f817 133e 404a 303b
000001f0: 8eea 023e 908c 093f 402b a4be 3fa0 d7be
00000200: 6bdf 2dbf ba0b 1f3e 28dd c5be b46e 42bd
00000210: f8b1 1d3e 28d2 863d 7fdd 233f 1b9f 6bbe
00000220: 5c1f b23d d656 0bbf 9030 82bc 438c c0be
00000230: 4cea 4abd 49c6 e5bd 35ad cfbe 43a0 263f
00000240: 8026 f2ba 805d 323b 5893 24be 7c22 d4bd
00000250: a50a f9be 0682 1fbf 7451 7d3d 70e9 0dbc
00000260: 9811 073d bc06 ef3d e878 cfbd f0f9 22be
00000270: cfe9 a6bd 8060 82bd 347e b83d 88d9 ad3d
00000280: 03ce f3bd 702d 09bc 607b 1b3c 1068 2e3d
00000290: d00d a7bc 2cb8 3ebd d0c1 d43c c082 f5bb
000002a0: f229 b3bd b3ce aabd 57dc 31be 9fb7 ddbd
000002b0: 0821 0ebd 3c84 3bbd 550e 91bd 187b b43d
000002c0: 149f bebd f037 19bc fa2f d1bd 94c4 d13d
000002d0: 45be 7ebe cfe9 1fbf 9960 14bf c7e1 febe
000002e0: fc0a 04be 4cdd 6c3d dcbd 10bd 28db 44bf
000002f0: 2e49 80bd f8c9 45bf a045 a03d 850b 1bbf
00000300: 3565 99bd 652a cc3d 0ed6 72bd 441c 923d
00000310: 7872 f03c 50d6 44bc 8e1b 2ebf 780b 0ebf
00000320: ba6e 21be 3ab6 f5be 92b2 f6be 241e 013e
00000330: dcc0 2d3e 152c 34be 3030 423d 9dc0 36be
00000340: 2d17 15bf d046 7bbc 1519 9bbd cc3d 9c3d
00000350: 1483 0c3e 9ebf f1bd fe43 183e 0435 933d
00000360: 8b0e 0dbf aded c5be 23f5 2bbf 0039 d4bd
00000370: 3e7f d9be 8ae0 24be 1c97 533d 5c7c 14be
00000380: c4e6 5abd 50f2 9e3c c328 1cbe af3a 08bf
00000390: 9034 cd3d 650e 32bf 40c0 14bb a05d 16bd
000003a0: 20af 1bbf 6a97 303e 5a85 a0bd f232 28be
000003b0: 75fb b6bd 0c57 943d cebc 2dbf ccae fc3d
000003c0: 9256 18be 9014 9e3d e005 a53d d2ef 893d
000003d0: 44a9 7e3d 71a7 0e3f 8919 9e3d 5654 e4be
000003e0: 4644 1e3f 4465 143e 611a 4fbe d01d 2cbe
000003f0: c236 163e e61f 0abe 2572 e23e d241 563c

linear2.bias f4 [60]
-0.58685106 -0.55911434 -0.7830465 -0.5036227 -0.7075989 -0.13054174 -0.48219216 -0.5912023
-0.27434826 -0.5336035 -0.5386172 -0.5298642 -0.61615443 -0.30894756 -0.52344817 -0.58626544
-0.4952691 -0.54049385 -0.27390635 -0.5225192 -0.7541602 -0.44729763 -0.53602976 -0.014984148
-0.6516282 -0.16492957 -0.5902557 -0.70768857 -0.6631795 -0.6369638 -0.44442105 -0.5258246
-0.6500454 -0.5767359 -0.13610551 -0.5304268 -0.42708153 -0.17936884 -0.15234996 -0.66476
-0.40073922 -0.50498164 -0.03213076 -0.37596 -0.53009766 -0.5021259 -0.18636176 -0.56227815
-0.73992175 -0.6195217 -0.55145115 -0.3967719 -0.7800296 -0.40457124 -0.5021718 -0.5015963
-0.59464896 -0.35813162 -0.36871797 -0.021083051
00000000: df3b 16bf 1e22 0fbf bc75 48bf 6bed 00bf
00000010: 3425 35bf bcac 05be e4e1 f6be 0959 17bf
00000020: 6077 8cbe 3d9a 08bf d1e2 09bf 2ea5 07bf
00000030: 4cbc 1dbf 602e 9ebe b300 06bf 7e15 16bf
00000040: e993 fdbe ce5d 0abf 743d 8cbe d1c3 05bf
00000050: a510 41bf 3204 e5be 3f39 09bf 1280 75bc
00000060: 1bd1 26bf 4ce3 28be ff1a 17bf 142b 35bf
00000070: 22c6 29bf 0f10 23bf 288b e3be 719c 06bf
00000080: 6069 26bf f7a4 13bf 3e5f 0bbe 0dca 07bf
00000090: 6eaa dabe 77ac 37be a101 1cbe b62d 2abf
000000a0: b12d cdbe 7a46 01bf 8b9b 03bd d47d c0be
000000b0: 7bb4 07bf 538b 00bf 9ed5 3ebe 76f1 0fbf
000000c0: 836b 3dbf f998 1ebf e72b 0dbf b025 cbbe
000000d0: 05b0 47bf f623 cfbe 558e 00bf 9d68 00bf
000000e0: ea3a 18bf 075d b7be 9ac8 bcbe 5db6 acbc

linear3.weight f4 [120, 60]
-0.41981623 0.56807137 0.49461928 0.5352733 0.51798785 0.120994344 0.6746744 0.41528672
0.6164018 0.6812491 0.8447168 0.69420666 -0.67800915 0.053525563 0.5696036 0.48900723
0.7305576 0.4979829 0.046937898 0.38977572 0.6619716 0.5547928 0.44506866 0.24829459
0.49129158 0.23095007 0.52095413 -0.44855735 0.6684819 0.41047826 0.23558323 0.4188403
0.631613 0.58734405 0.1151074 0.6295236 0.4190758 0.07168418 -0.020145074 -0.48337743
0.01956508 0.4991313 0.012376412 0.52393055 0.42764473 0.98831356 0.7004359 0.5599759
0.7002197 0.4118963 -0.48253384 0.15760612 0.67723596 0.8628286 0.74908525 0.3166309
0.38469613 0.57631445 -0.18701075 0.6323022 -0.5533527 -0.49456656 -0.07730195 0.5852234
0.06859312 -0.0048843846 0.5440562 -0.5690491 0.086877264 -0.5150593 -0.5475072 0.63242894
-0.54801196 -0.60547674 -0.41983014 0.24007024 -0.6405966 0.71076226 -0.3861666 -0.4596042
-0.10071764 -0.43623617 -0.5161405 -0.1744945 -0.29919377 0.22884883 -0.6238966 -0.45934042
0.06000915 -0.5514298 0.28169838 -0.4945437 -0.54833454 -0.53169227 0.03240727 0.5402075
-0.8960644 -0.036490403 -0.036541343 -0.55478287 -0.39759228 0.36873513 -0.56615585 0.1605552
-0.36246923 0.24912412 0.4007167 -0.45641246 0.1527944 -0.3814872 -0.5159954 -0.5823311
0.19510347 -0.51443404 -0.5130628 -0.121077 -0.4460019 -0.2896602 -0.49389365 0.08188563
-0.63785225 -0.5173455 -0.26254335 0.47366428 -0.1183722 0.0053015947 0.6795152 -0.40751532
-0.007401291 -0.50266886 -0.47053707 0.50621563 -0.61316454 -0.4955854 -0.6208458 0.32126996
-0.30556476 0.7045179 0.3734595 -0.030219037 -0.15543814 -0.5386611 0.5228913 0.376286
0.057431675 0.35411853 -0.42504874 -0.466872 0.010719986 0.66366506 0.39504763 0.37366518
-0.5121403 -0.62184 0.030960321 0.5498662 -0.76341933 -0.10492055 -0.05348316 -0.5989703
0.24329838 0.37280095 -0.29224524 0.003816587 -0.13409622 -0.25411323 -0.07662936 -0.55912954
0.13273089 -0.11524378 -0.51161766 0.30951795 -0.06046475 -0.318723 -0.56782824 -0.16788219
-0.0854803 0.33479178 -0.4838504 0.30775565 0.6058366 -0.46611145 -0.767267 -0.53320694
-0.6313321 -0.046750464 -0.4972243 -0.48990607 -0.17720655 0.24951345 0.21182318 -0.52573264
0.64699733 0.50116533 0.22179173 0.19573684 -0.076630674 -0.5153208 0.30258965 0.38871247
-0.64850724 0.27984664 -0.15816733 0.03908047 0.067454435 -0.123964004 -0.518532 0.62867206
-0.56300443 -0.42046648 -0.32635334 0.24317934 -0.55314857 -0.58551234 0.00083725154 -0.5611821
0.57314694 0.0022845864 -0.058635615 0.5223586 0.18139549 -0.30812413 0.27885905 -0.48075664
0.6304644 0.1912352 0.30421823 0.14408839 -0.65249634 0.28558433 0.4420988 0.33149073
-0.5816334 0.057219002 0.096394524 0.45698443 0.5601282 -0.2106442 0.54123044 -0.18748048
0.6020013 -0.4977126 -0.5128507 -0.5527348 -0.32606596 0.050549403 -0.51964635 -0.50481373
-0.3878661 -0.08142565 -0.025741482 -0.6816767 0.49354166 0.61603206 0.11968477 0.3360015
00000000: 27f2 d6be 206d 113f bd3e fd3e ac07 093f
00000010: da9a 043f e2cb f73d 76b7 2c3f 76a0 d43e
00000020: 82cc 1d3f 5766 2e3f 5c3f 583f 87b7 313f
00000030: 0292 2dbf 9f3d 5b3d 8bd1 113f 285f fa3e
00000040: d305 3b3f 9df7 fe3e f441 403d af90 c73e
00000050: f976 293f e706 0e3f 0ae0 e33e f040 7e3e
00000060: 928a fb3e 2d7e 6c3e 405d 053f 4fa9 e5be
00000070: a121 2b3f 352a d23e bb3c 713e 3c72 d63e
00000080: 64b1 213f 2e5c 163f 6ebd eb3d 7528 213f
00000090: 1a91 d63e 28cf 923d 4807 a5bc 3f7d f7be
000000a0: f246 a03c 238e ff3e 6fc6 4a3c 5020 063f
000000b0: 40f4 da3e 1e02 7d3f c44f 333f 955a 0f3f
000000c0: 9941 333f 12e4 d23e ad0e f7be 8063 213e
000000d0: 565f 2d3f 56e2 5c3f 0dc4 3f3f 721d a23e
000000e0: e4f6 c43e 5889 133f bf7f 3fbe 8fde 213f
000000f0: 86a8 0dbf d437 fdbe 7c50 9ebd 33d1 153f
00000100: 8d7a 8c3d 300d a0bb 4447 0b3f 34ad 11bf
00000110: b5ec b13d edda 03bf 6f29 0cbf dde6 213f
00000120: 834a 0cbf 8600 1bbf faf3 d6be f9d4 753e
00000130: 24fe 23bf 84f4 353f a1b7 c5be 3e51 ebbe
00000140: 0d45 cebd 595a dfbe c921 04bf b0ae 32be
00000150: ed2f 99be 5957 6a3e b0b7 1fbf ab2e ebbe
00000160: 28cc 753d 812a 0dbf c53a 903e d534 fdbe
00000170: a75f 0cbf fc1c 08bf 7cbd 043d 0a4b 0a3f
00000180: 7a64 65bf f676 15bd 60ac 15bd 4006 0ebf
00000190: 3791 cbbe daca bc3e 97ef 10bf 9568 243e
000001a0: 9195 b9be 651a 7f3e bd2a cd3e e5ae e9be
000001b0: 2376 1c3e 4a52 c3be 4618 04bf a713 15bf
000001c0: 34c9 473e f3b1 03bf 1558 03bf 38f7 f7bd
000001d0: 5c5a e4be 574e 94be a1df fcbe a7b3 a73d
000001e0: 494a 23bf c170 04bf 156c 86be 2084 f23e
000001f0: 206d f2bd 00b9 ad3b b5f4 2d3f d9a5 d0be
00000200: 8786 f2bb e8ae 00bf 3cea f0be 5997 013f
00000210: 5af8 1cbf 5fbd fdbe c0ef 1ebf 7f7d a43e
00000220: fc72 9cbe 495b 343f 1536 bf3e ea8d f7bc
00000230: 2d2b 1fbe b2e5 09bf 34dc 053f 8fa8 c03e
00000240: 7a3d 6b3d 064f b53e fd9f d9be d909 efbe
00000250: e1a2 2f3c f4e5 293f af43 ca3e 0b51 bf3e
00000260: a01b 03bf e830 1fbf 80a0 fd3c 08c4 0c3f
00000270: 736f 43bf 96e0 d6bd 2811 5bbd 1e56 19bf
00000280: 3623 793e c4df be3e 2ba1 95be b41f 7a3b
00000290: 8550 09be 211b 82be dbef 9cbd 1d23 0fbf
000002a0: 9bea 073e ee04 ecbd 60f9 02bf 2379 9e3e
000002b0: e3a9 77bd a92f a3be 315d 11bf 4fe9 2bbe
000002c0: 4c10 afbd d469 ab3e 3dbb f7be 2692 9d3e
000002d0: 1b18 1b3f 29a6 eebe 9c6b 44bf 4080 08bf
000002e0: fb9e 21bf 6a7d 3fbd 2f94 febe f8d4 fabe
000002f0: a275 35be 7480 7f3e 2de8 583e 6a96 06bf
00000300: 9ea1 253f 5f4c 003f 5f1d 633e 3d6f 483e
00000310: 8bf0 9cbd 10ec 03bf 08ed 9a3e 5205 c73e
00000320: 9204 26bf 0f48 8f3e 9ef6 21be d812 203d
00000330: 8d25 8a3d d7e0 fdbd 83be 04bf a7f0 203f
00000340: 0f21 10bf 6247 d7be c917 a7be 0104 793e
00000350: 259b 0dbf 23e4 15bf 007b 5b3a a1a9 0fbf
00000360: c2b9 123f 00b9 153b e62b 70bd 4bb9 053f
00000370: bdbf 393e 72c2 9dbe 9dc6 8e3e bc25 f6be
00000380: 1d66 213f 29d3 433e 7ec2 9b3e e88b 133e
00000390: 000a 27bf 1c38 923e c65a e23e 27b9 a93e
000003a0: ede5 14bf 795e 6a3d 7e6a c53d ddf9 e93e
000003b0: 9064 0f3f 1db3 57be 148e 0a3f e2fa 3fbe
000003c0: c21c 1a3f 30d4 febe 2f4a 03bf 0780 0dbf
000003d0: 1ef2 a6be e40c 4f3d 8b07 05bf 793b 01bf
000003e0: 6396 c6be 7ec2 a6bd cddf d2bc 5d82 2ebf
000003f0: 7eb1 fc3e 47b4 1d3f 4a1d f53d 6308 ac3e
