epoch_100_model/소입/model.pth (torch, 552224 bytes, 18 tensors)

linear1.weight f4 [60, 120]
00000000: 4e06 04bf 2708 0fbf 0bd0 10bf b812 07bf
00000010: e43c 0ebf 12d2 04bf 7c72 2cbf 27ef 17bf
00000020: 4333 2abf 0f84 02bf 08fa 06bf 224f 05bf
00000030: d893 0abf 99c8 1abf 41be 0dbf 176c ffbe
00000040: 37f1 10bf d6af 04bf 6d59 25bf ea56 0ebf
00000050: 0fbc 1ebf 3f98 0bbf 2fde 21bf 1659 0dbf
00000060: 6165 27bf d415 05bf 9028 0fbf 8da8 12bf
00000070: 49cf 1dbf a5b9 04bf e0c5 02bf 4b97 2abf
00000080: adb2 17bf 4fe9 02bf 7e19 0fbf 4a7e 20bf
00000090: 83de 09bf cccd fcbe b873 1fbf ef2e 1bbf
000000a0: 0663 17bf 67b5 03bf 363b 01bf 9385 fcbe
000000b0: 7ac5 0fbf 8a52 27bf e654 1dbf 5ea5 09bf
000000c0: def0 0dbf 9016 20bf 8d31 19bf eb27 14bf
000000d0: a872 11bf db94 1bbf 5190 24bf b4e8 20bf
000000e0: 1743 14bf 20ad 0dbf d087 febe ee7a 1dbf
000000f0: 3e5b 2cbf fb8e fbbe 167d 00bf 5aab 13bf
00000100: 5ea1 14bf b0cc 11bf 4471 29bf 5a19 11bf
00000110: 91b4 0cbf 9557 28bf d338 01bf 4a83 25bf
00000120: 2f40 28bf ba8f 22bf 9bae 1fbf 6e0c 0ebf
00000130: d06a 26bf 83aa 23bf f096 13bf d4e5 11bf
00000140: e31b 1bbf 71d3 1fbf c760 1dbf 6513 26bf
00000150: bc3e 07bf 14db 26bf 36bd 11bf 79a6 27bf
00000160: 61a1 13bf ab1c 22bf d0c7 02bf c038 0abf
00000170: b926 1dbf a107 2bbf a509 10bf a46c 06bf
00000180: e69c 10bf e267 2abf 0e93 26bf a67a ffbe
00000190: 3647 1fbf eab5 1dbf 9d0d 00bf de88 03bf
000001a0: 1730 13bf be74 06bf 6efa 0ebf 54d4 0bbf
000001b0: 83cd 1ebf 9257 1dbf c814 04bf 2542 25bf
000001c0: 9011 12bf 8eed 03bf 4747 24bf 2046 febe
000001d0: 64ea 02bf 679d 12bf 018a 23bf 0bad 0cbf
000001e0: 494b b6bd 0150 8cbd 2fa7 b3bd cd40 92bd
000001f0: fbeb aebd a821 c7bc 806e 743a 16e5 ad3d
00000200: 98de 7cbc 006c 01bd e0e9 3b3c 94ae a0bd
00000210: a8c7 4bbc 00bf 76bb 8073 cbbb 64e0 babc
00000220: a8b1 1d3c c0b1 363c 4c10 063d a028 7fbd
00000230: e27f 8a3d 2061 48bb 821b 9fbd 00d7 9ab9
00000240: 1937 92bd e61f 4abd 162d b6bd d012 74bc
00000250: 9c78 8d3d b8ba b9bc 20ca 41bb ec82 4d3d
00000260: 18b1 633d 80b1 013b 3fad 5cbd 58e7 e0bc
00000270: ad93 1dbd e43a 0e3d a79b 98bd 5cd4 9f3d
00000280: 3089 473d c07a 1cbb c609 9a3d 4631 31bd
00000290: 0283 29bd 984f dd3c cb74 b8bd 6cd9 17bd
000002a0: b22f 2fbd 6084 ab3b 1fc3 b1bd b88c 3fbc
000002b0: d687 003d dea2 ba3d 00c5 333d d0f4 823d
000002c0: 3e84 babd f09a 86bb f631 b93d 264c a43d
000002d0: 1813 12bd f901 3ebd 5316 39bd e882 d43c
000002e0: 5041 f83b 3428 b3bc 7881 903d 777e 48bd
000002f0: c855 f9bc d232 063d 84bc e23c fceb 8bbd
00000300: d28e 0dbd d856 7c3c c1de 4dbd f4bb bfbc
00000310: 18d8 7cbd 146f 0fbd c8d3 513c cd55 5fbd
00000320: 8ba3 9fbd 547a 6c3d 8cde 2e3d 88b5 743d
00000330: fa49 933d d04a 23bd 507c 603d a0db b93b
00000340: 203b 9c3d b475 fa3c 3018 db3b d656 a0bd
00000350: 1608 893d 7a09 63bd 60bd c63c 9048 adbd
00000360: f8d5 4b3c 9403 12bd 5833 9c3d bd02 90bd
00000370: e86b 16bd 9406 afbd b065 a63b 3825 17bd
00000380: a838 a53d 9d4c b2bd 7c0d 9dbc 0690 1abd
00000390: 409e 3f3b b0d6 9fbb dc8e 5cbd f026 923d
000003a0: 57e8 a7bd c07a 943a 7601 11bd c037 4e3d
000003b0: 583e 473c 7065 81bb a5a7 1abd 68b0 9a3d
000003c0: e94f 88bd a8dd eabc 8877 6d3c 7880 af3c
000003d0: 6128 85bd 4b5d 1ebd c40c 663d d9ff b2bd
000003e0: f6fa aa3d 1e1b 8bbd 44c6 c03c 0c55 283d
000003f0: 798b a5bd b0e2 b13d 7a0c 813d 9050 be3c
-0.5157212 -0.55871814 -0.5656745 -0.5276294 -0.5556166 -0.5188304 -0.6736219 -0.5934929
-0.6648447 -0.50982755 -0.5272527 -0.5207387 -0.5413184 -0.6046234 -0.5536843 -0.49887154
-0.56618065 -0.51830804 -0.6458958 -0.5560137 -0.62005705 -0.54529184 -0.6322965 -0.5521406
-0.65389067 -0.5198643 -0.5592127 -0.5728844 -0.6164442 -0.5184577 -0.51083183 -0.66637105
-0.5925701 -0.5113725 -0.55898273 -0.626927 -0.5385515 -0.4937576 -0.6228595 -0.6061849
-0.5913547 -0.51448673 -0.50480974 -0.4932066 -0.561607 -0.6536032 -0.6145767 -0.53767955
-0.5544566 -0.6253443 -0.59841233 -0.5787341 -0.56815577 -0.6077401 -0.6428271 -0.62855077
-0.5791487 -0.5534229 -0.49712992 -0.615157 -0.67326725 -0.49132523 -0.50190866 -0.57683337
-0.58058727 -0.56952953 -0.66188455 -0.5667931 -0.5496302 -0.6575864 -0.5047733 -0.64653456
-0.65722936 -0.6350056 -0.623758 -0.55487716 -0.6500673 -0.63932055 -0.5765219 -0.56991315
-0.60589427 -0.6243201 -0.61475796 -0.64873344 -0.528301 -0.65178037 -0.5692934 -0.6548839
-0.5766812 -0.63324994 -0.5108614 -0.53992844 -0.6138721 -0.66808516 -0.56264716 -0.5250952
-0.5648941 -0.6656476 -0.6506814 -0.4989826 -0.62218034 -0.61605704 -0.5002077 -0.5138072
-0.57495254 -0.52521884 -0.55850875 -0.5462086 -0.62032336 -0.61461747 -0.5159421 -0.64554054
-0.5705805 -0.51534355 -0.6417126 -0.49662876 -0.511389 -0.57271427 -0.6388245 -0.5495154
-0.08901078 -0.06851197 -0.08772122 -0.07141266 -0.085411035 -0.02430804 0.0009324327 0.0849096
-0.01543393 -0.031597137 0.011469334 -0.07845798 -0.0124377385 -0.0037650466 -0.006208837 -0.022812076
0.009624876 0.011150777 0.032730386 -0.062294602 0.06762673 -0.003057547 -0.077689186 -0.00029533356
-0.07139415 -0.049346827 -0.08895318 -0.014897063 0.0690777 -0.022672042 -0.0029569939 0.050173685
0.05558881 0.0019789636 -0.053876158 -0.027454063 -0.038470913 0.03472413 -0.07451563 0.07804176
0.048714817 -0.0023876876 0.075213954 -0.04325988 -0.041384704 0.027015492 -0.090066515 -0.037072584
-0.042770095 0.005234286 -0.086797945 -0.011691265 0.031379543 0.09113096 0.043889046 0.063943505
-0.091072544 -0.0041078255 0.090427324 0.08022337 -0.03566274 -0.0463886 -0.045187306 0.025941327
0.007576145 -0.021869756 0.07055944 -0.04894873 -0.030436411 0.03276331 0.027677782 -0.0683212
-0.034560032 0.015401565 -0.050261263 -0.023405053 -0.06172952 -0.03501804 0.01280684 -0.054525185
-0.07794865 0.05773385 0.042692706 0.059743434 0.07191844 -0.03986627 0.054806054 0.0056719333
0.07628465 0.030573703 0.006686233 -0.07829063 0.066909954 -0.05542896 0.024260223 -0.08461106
0.012441151 -0.035647944 0.076269805 -0.07031772 -0.036724 -0.085461766 0.00507804 -0.03690073
0.08067447 -0.08706019 -0.019171469 -0.037735008 0.0029238611 -0.0048778877 -0.05384718 0.07136333
-0.08198612 0.0011328086 -0.035401784 0.050346136 0.01216086 -0.00394886 -0.037757535 0.07553178
-0.06655867 -0.028670147 0.0144938305 0.021423563 -0.06501842 -0.03866319 0.056164518 -0.08740205
0.08348648 -0.067922816 0.02353204 0.041096732 -0.08083243 0.08685815 0.06301208 0.023231775

linear1.bias f4 [60]
00000000: fa38 10bf f8cf 463d c094 89ba 6f79 12be
00000010: e0a6 01bf 42bd 96bd 8291 9b3d 2178 ebbe
00000020: 758e 80bd 9ec7 b83d 5628 823d 069f 25bf
00000030: c7ac 1fbf b462 17bf 6efe 223f 5c55 94bc
00000040: 583c 23bf cef1 0dbf d37c 5bbe e7d1 3b3d
00000050: 6351 51bb bfb9 e1be 31f7 18bf 9c39 e93c
00000060: a8f1 683d 1a21 25bf 7fa0 0abd 72cb 493d
00000070: ef33 22bc 452a 41bd 41b5 0abf 719c 2abf
00000080: 3340 fbbc cc07 a9bc 6383 0ebe f1ed 0abf
00000090: 4f34 84bd 3617 8ebd 46d5 17bf 1561 05bf
000000a0: 9419 b73c 2aad 1fbf a272 74bd 7f6f 4d3f
000000b0: 23ca 27bf 4a38 00bf a8f6 07bf 9449 25bf
000000c0: 888b 16bf 5717 53be e2f0 1bbf 3c95 1cbf
000000d0: 8348 33bd f20a 17bf e03d 1cbf 13dc d7bd
000000e0: 3b61 09bf b5c3 1cbf 9a9f 93be e149 06bf
-0.5633694 0.04853818 -0.0010496601 -0.14304136 -0.50645256 -0.07360317 0.07596113 -0.4599009
-0.062771715 0.09022449 0.0635535 -0.64695776 -0.6237301 -0.59134984 0.6366948 -0.018107109
-0.6376395 -0.5544709 -0.21434335 0.045854475 -0.003193938 -0.44087026 -0.59752184 0.028469853
0.056871086 -0.64503634 -0.033844467 0.049266286 -0.009900077 -0.047159452 -0.5418282 -0.6664496
-0.030670261 -0.0206336 -0.13917308 -0.5426932 -0.064552896 -0.06938021 -0.59309804 -0.5210126
0.022351064 -0.623736 -0.059679635 0.80248255 -0.6554281 -0.5008589 -0.5311074 -0.64565396
-0.5880666 -0.20614372 -0.60914433 -0.61165214 -0.043770324 -0.59001076 -0.61031914 -0.10540023
-0.53663987 -0.61236125 -0.28832704 -0.5245648

linear2.weight f4 [30, 60]
00000000: 1a25 193f 008f 51bc fa79 ad3d 81c6 b83e
00000010: c33c b0be 178b df3e a250 cf3d a1bc 213f
00000020: 394e a13f 3e47 a0bd 4d10 913f d9f1 2e3f
00000030: a000 f93e dc97 173f e31f b2be b376 893f
00000040: ed87 1c3f d5c6 133f b6d1 a53e 37e5 9d3f
00000050: 087a 8a3f da52 debd a5da 71bd 70cb 853f
00000060: 2fcd 933f 8121 a5bd 8cd7 cdbd 0146 983f
00000070: e6b6 853d dad5 913f a7fa 043f 9823 40be
00000080: 453a 9c3f 2067 8dbc 8f77 113f df07 b23d
00000090: ec42 903f 30fa 943f 4776 003f b1c4 363f
000000a0: 14f2 a13f 6408 213f 0ab1 8f3f 735f 84be
000000b0: 6310 2d3f 6d94 073f 5c89 053f 69f0 163e
000000c0: 712d 273f 1544 d63d 9b8e 303f 9e51 0d3f
000000d0: 043a 4d3d 3b92 323f 9e28 053f e299 753f
000000e0: 88a6 063f c9d4 1e3f 3948 1c3f 7934 c03e
000000f0: 9d1c 0fbf 002a cebd d622 c53d 6df0 c2be
00000100: f6c3 cfbe f0fb d1be 346d 31bd 1bfd 623a
00000110: 07ea f7be e6e9 c83d 254d 22bf 6d15 13bf
00000120: 3ca2 91bc 3a75 15bf 0a7e febd 6daa 19bf
00000130: 5f01 34bf d2e2 07bf 136f cfbe c030 1abf
00000140: ebd6 31bf db22 37be 3deb 3bbe 62ab 14bf
00000150: c1b3 2dbf 8cf9 ebbd b136 003e b0cd 0bbf
00000160: 943a be3d 9a14 3abf ce38 fabe eb7e 1cbf
00000170: 8396 32bf d45f cbbd f234 f53c 6224 0cbe
00000180: b63d 20bf c877 33bf a9a2 22bf aa5a 2fbf
00000190: 1cd6 0abf 6eec f3be 72dd edbe ac40 ffbb
000001a0: 9eee 19bf c017 1dbf 90fe 15bf 5820 6abe
000001b0: d3ba 34bf f2da 03be 306a 07bf 79d5 0ebf
000001c0: 1a88 fc3d a6aa 14bf e2b6 06bf 5851 20bf
000001d0: 8fdb 08bf 8330 18bf 3cea 54bd b243 00bf
000001e0: b308 0cbf f8b9 32bd 4e62 c83d a52b eabe
000001f0: 7b53 efbe 85d4 c8be f038 ad3d 5241 0abe
00000200: e462 1bbf a4be b63d a3db 25bf 6b8f 0fbf
00000210: fe0d c33d 6780 38bf 2b67 3d3d 8c64 07bf
00000220: 09ca 09bf 2c00 1dbf 3f3d b6be e5c5 2fbf
00000230: b24d 2fbf 2f04 41be ab19 7ebe 6316 03bf
00000240: 012b 12bf ed8f c7be cc7e c9bd 5d45 26bf
00000250: 6cb7 f53d 3da1 22bf 4610 0fbf a9cc f5be
00000260: 9d07 1bbf 36e7 b3bd c8c8 6abd a1f9 cbbe
00000270: 9a49 1cbf 8058 30bf 74a4 10bf 412d f1be
00000280: e106 0bbf d307 05bf c7c4 09bf 4a94 03be
00000290: 9dd1 27bf 802f 1fbf 333e 24bf 32f1 b2be
000002a0: f9c1 28bf a942 0f3d 43d9 0cbf ea78 2dbf
000002b0: f0c0 17bc e440 12bf d823 05bf 634d 32bf
000002c0: cf79 f5be cc11 00bf 33c2 f2bd 8a50 1abf
000002d0: 1962 1cbf 5e89 e13d ca81 823d a630 e7be
000002e0: b188 8fbd 10d4 d43c 11f0 d5bd 0396 3bbd
000002f0: 31fd 01bf 08c0 d93c 4d43 27bf fe89 11bf
00000300: 5b28 b7bd 4115 ecbe d0f0 16be 42c7 2cbf
00000310: 43f1 29bf 33b5 12bf 555e f5be 6362 1dbf
00000320: 2a3d 03bf 4e33 e03c 3d06 133e e84e 1ebf
00000330: e3f6 28bf 6b60 633d e4cc f13d 4094 f3be
00000340: 6528 6dbc f098 fcbe 4532 1bbf 103f cfbe
00000350: 2e96 16bf 5c19 b5bc 4dfc 733b 03b1 7dbb
00000360: b785 14bf 5a37 f4be 60bb 1ebf 9bf0 1dbf
00000370: 5db5 13bf 1d87 21bf b01c 6abe 3139 51be
00000380: f8fb 03bf c482 30bf 2013 0cbf bc8d debe
00000390: dbd2 f9be 0c20 debd d0a6 10bf b126 f8be
000003a0: 70c4 db3c e6a7 27bf d9d7 fcbe 0d8c 13bf
000003b0: 9648 15bf db72 22bf 1cc4 0abe bc51 e6be
000003c0: f6cf 15bf a2aa a2bd e4f4 3f3d fc0f c9be
000003d0: 907a c7be 59c4 9cbe 52ed 03bd fd12 9fbd
000003e0: 718f 0cbf a2ed 62bd 1460 20bf 2b4e 0fbf
000003f0: 15c6 d53d 794f 28bf eea8 be3b 8f05 31bf
0.5982224 -0.0127904415 0.08470531 0.36088946 -0.34421358 0.43660805 0.10122801 0.6317845
1.2601997 -0.07826088 1.13331 0.6833778 0.4863329 0.59216094 -0.34789953 1.0739349
0.61144906 0.5772527 0.3238656 1.2335576 1.0818491 -0.108556464 -0.059046406 1.0452709
1.1546992 -0.08063031 -0.10050878 1.1896363 0.06529026 1.1393387 0.51944965 -0.18763578
1.2205282 -0.017261088 0.56823057 0.086929075 1.1270423 1.1638851 0.50180477 0.7139388
1.2652001 0.6290343 1.1225903 -0.25854072 0.6760313 0.52960855 0.5216272 0.14740147
0.65303713 0.10462204 0.689676 0.5520266 0.050104156 0.6975438 0.520151 0.9593793
0.52597857 0.62043434 0.61047703 0.37540033 -0.55903035 -0.100666046 0.09625785 -0.38074055
-0.40579194 -0.41012526 -0.043317035 0.00086589315 -0.48420736 0.098102376 -0.63398963 -0.5745457
-0.017777555 -0.58382 -0.12426384 -0.60025674 -0.7031459 -0.53080475 -0.4051443 -0.60230637
-0.69468564 -0.1788439 -0.18351455 -0.5807401 -0.6785241 -0.11522207 0.12520863 -0.5461073
0.09288517 -0.72687685 -0.48871464 -0.6113116 -0.6976091 -0.09930387 0.029932473 -0.13685754
-0.62594163 -0.70104647 -0.6352945 -0.6849772 -0.54232955 -0.4764132 -0.46458012 -0.007789692
-0.60129726 -0.61364365 -0.58591557 -0.228639 -0.7059757 -0.1287649 -0.52896404 -0.55794483
0.12330647 -0.5807289 -0.5262281 -0.6262412 -0.5346002 -0.59449023 -0.051981196 -0.50103295
-0.54700774 -0.043634385 0.09784375 -0.45736423 -0.46743378 -0.3922464 0.084581256 -0.1350148
-0.6069777 0.089230806 -0.64788264 -0.56078213 0.09524153 -0.72070926 0.046240967 -0.528878
-0.53823906 -0.6132839 -0.35593602 -0.6866134 -0.6847793 -0.18849252 -0.24814479 -0.51206034
-0.5709687 -0.38976994 -0.09838638 -0.6494959 0.119978756 -0.6352728 -0.55884206 -0.48007706
-0.6055849 -0.08784334 -0.057320386 -0.3983889 -0.6104981 -0.6888504 -0.56500936 -0.47104838
-0.5430737 -0.51965064 -0.53815883 -0.12849537 -0.6555422 -0.62181854 -0.6415741 -0.34949642
-0.6592098 0.03497568 -0.55019015 -0.67762625 -0.0092623085 -0.57130265 -0.5200782 -0.6964933
-0.47944495 -0.50027156 -0.11853447 -0.6027914 -0.61087185 0.11012529 0.063724115 -0.45154303
-0.07008494 0.025980026 -0.1044618 -0.04579736 -0.50776964 0.026580825 -0.6533707 -0.56851184
-0.08943244 -0.46109965 -0.147403 -0.67491543 -0.6638376 -0.5730774 -0.47923532 -0.6147825
-0.51265204 0.027368214 0.14357848 -0.6183915 -0.6600172 0.055511873 0.11806658 -0.47574043
-0.014474963 -0.49335432 -0.6062358 -0.404778 -0.58822906 -0.022106819 0.003722924 -0.0038710244
-0.5801653 -0.4769848 -0.6200466 -0.6169526 -0.57698613 -0.6309679 -0.22862506 -0.20431973
-0.5155635 -0.6894953 -0.5471668 -0.4346751 -0.48793682 -0.10845956 -0.56504536 -0.4846702
0.026827067 -0.6549057 -0.4938343 -0.57635576 -0.5831388 -0.63456506 -0.13551372 -0.44984233
-0.5852045 -0.07942702 0.046864405 -0.39270008 -0.38960695 -0.3061855 -0.03220875 -0.077672936
-0.54906374 -0.055402406 -0.62646604 -0.5597865 0.10438172 -0.65746266 0.005818478 -0.69149107

linear2.bias f4 [30]
00000000: 9b59 873f 0ea8 07bf 8d2e 37bf e743 29bf
00000010: 7014 05bf 5ecf f63c f7bf 0c3d 0cda c8bd
00000020: fb1f febe a0b5 e43e c8cd d03c 9942 5bbc
00000030: aa02 8abd a888 06bf e2d0 13bd 2c23 9b3d
00000040: 3d3e 87be b100 be3d 856e c5bd 07a0 3abf
00000050: 60d0 00be 8440 05be b0f5 04be faa8 f7be
00000060: b277 483d 883c 2cbf ffda e83e 0de3 08bf
00000070: 0379 74bd 401b 05bf
1.057422 -0.52990806 -0.71555406 -0.66119236 -0.5198431 0.030128177 0.03436276 -0.09807214
-0.49633774 0.4466982 0.02548875 -0.013382577 -0.067387894 -0.5255227 -0.036087878 0.07575068
-0.26414672 0.092774756 -0.096402206 -0.7290043 -0.12579489 -0.13012892 -0.12984347 -0.48371106
0.048942275 -0.67279863 0.4547958 -0.5347145 -0.05968572 -0.51994705

linear3.weight f4 [1200, 30]
00000000: e4f6 1a3f 8823 0a3d 6e15 253e 4e23 0dbe
00000010: 0893 db3c c566 503e a8b4 8d3e 4051 7bbb
00000020: 58e7 f93d 52f6 1e3f c041 e23e 8f07 043f
00000030: 103b 1a3f 207b 5a3d fbd4 eb3e effe c83e
00000040: 0088 5e3a 019a 733e af8e a0bd 90cc 1e3d
00000050: 6afa f4bd 8729 30be b867 823e d06c 063e
00000060: 76f3 c23e 6a59 d0bb ac89 0e3f fc92 4abd
00000070: bc64 883d f163 923d 92d2 a23f 8a02 053f
00000080: ed12 223f d0c6 093f efdb 133f 3036 713f
00000090: e97c 9e3f 8c93 bd3d 06d3 1b3f 5f59 373f
000000a0: 0c36 af3f ab4b 973f d411 9c3f 37b9 25be
000000b0: 4d53 a83f d929 ae3f 3f8b 023f 154c 8d3f
000000c0: c264 733d 17de da3e b7e3 9ebd 158d 1bbe
000000d0: af14 9c3f 1e5e 9d3d 66e0 a13f 4b89 ff3e
000000e0: f087 023f f8f8 143f e0ce 9b3f b3c4 1e3f
000000f0: 0374 e1be 4065 f2be a44f d7be 9ed3 37bf
00000100: dd47 34bf 187e 09bf 2885 36bf 149c c43d
00000110: e98d f7be a1bd 83bd fb62 0ebf d878 12bf
00000120: 0ba9 03bf 46e9 343c c414 40bf d3b2 17bf
00000130: da42 33be 53e0 3dbf 8f24 a9bd 23cd 08bf
00000140: dd2d 7d3d fb42 dabd a7f4 e9be c532 e4bd
00000150: 05c7 1dbf 6df0 34bf 640c 59bc cd4e 1abf
00000160: 21b5 d0be 252d 28bf 8ddc 09bf c968 1dbf
00000170: 8587 13bf 749c 12bf 4f0d ffbe cb62 02bf
00000180: aac4 00bf 58fb 1cbe e494 d5be 9342 c3bd
00000190: 799b 28bf cf5c f0be 3d1f d1be 95be f53c
000001a0: f801 28bf ddfe dcbe 099b 6b3d f54a 1fbf
000001b0: aac1 10be 7df2 16bf 6d9e 193e 70b7 323c
000001c0: 2ce6 fabe c308 0f3e 1f47 27bf 11e6 cbbe
000001d0: 48a2 14bd 472a 16bf e9fc 0abf 1226 cebe
000001e0: f30a 2cbf f122 20bf d7ed 22bf 3dfc 20bf
000001f0: b816 27bf 88e5 03bf 6d84 19bf e255 e3bd
00000200: c964 08bf 105f d4bc 33ad 3cbf bf8b 01bf
00000210: 63d4 1abf 529e 263e ec16 21bf db2f 14bf
00000220: 9962 0cbe f469 18bf 449a 353e 146a e7be
00000230: c6b6 fcbd f896 adbc 7c6d 28bf ec47 0a3e
00000240: 4a60 d8be 724e 0fbf 5f30 7a3c 893a f6be
00000250: e7b1 17bf 7b8b 12bf 14f9 98bd 1ce3 093f
00000260: 58d6 333f 903f 283f 3d86 2c3f 9fd0 81be
00000270: 71aa 2bbe 9cc8 b63d 3a7f 033f bfbe 44bf
00000280: 5d0b e3bd 70bd c3bb 1673 753d 4620 e33d
00000290: da6c b5bd 08ad 9f3d 12b0 0bbf 615d 09be
000002a0: b131 b6bd f2f0 d53e a87b c4bd e4d3 093e
000002b0: 40fd 4bbe 67e7 2f3e f24f 963c 74ad 053f
000002c0: 524b 27bf a683 393f ee3b e53d 86cc f13e
000002d0: caa8 3ebf a605 1dbf c535 00bf b4c3 3fbf
000002e0: c244 3dbf 1c25 24bf abd2 ebbe a873 663d
000002f0: 8d82 2ebf 9caa 07be 131f 2dbf d699 b9be
00000300: 0bf9 2dbf 67f0 103e 9aa4 20bf b437 39bf
00000310: 0554 d7bb 0dcd f2be 9e23 043e 81a7 2bbf
00000320: 0997 413d 938a 8dbd d48c 28bf 4441 39be
00000330: d12f 1abf 425d 11bf b536 96bd e25e 44bf
00000340: bf2b 33bf eb07 e8be 8cfe 413d 6827 c33d
00000350: 202f 85bd 0ccf 313e 70ce e53d 30ba 413c
00000360: b06e c43d 7096 d83d c8fd 323e 2cd0 10bd
00000370: 40f6 36be 8844 05be 54a9 c73d b464 1bbd
00000380: 6902 bcbd ec4b 1dbd 9214 93bd 287c db3d
00000390: 55cf e0bd 1fd0 33be 545c 12bd 9c10 0fbe
000003a0: 70a7 76bd bc47 003d d012 2e3e 6b1c 24be
000003b0: 9a02 ccbd e448 d83d 9d61 a4bd d418 823d
000003c0: 3954 433d 3670 d13e 2e95 153f 3cf8 1c3f
000003d0: d2b1 093f 6c55 a3be 7c7c 82bc dd9a 0fbe
000003e0: 78ab ff3e 5e19 57bf 916f 28be 94a9 a2be
000003f0: cf8d fabd d2aa 793d 9659 c33d 655f 2b3d
0.60532975 0.03372529 0.16121456 -0.13782999 0.026803508 0.20351703 0.27676892 -0.003834799
0.122023284 0.62094605 0.44190788 0.51574033 0.6024637 0.053340077 0.4606093 0.39257
0.00084888935 0.23789217 -0.07839715 0.038769305 -0.11961825 -0.17203341 0.25469756 0.13127446
0.3807637 -0.0063583152 0.5567882 -0.04945658 0.066598386 0.071479686 1.2720511 0.51957
0.6331013 0.5381899 0.5775747 0.9422331 1.238187 0.09256658 0.6086887 0.71620744
1.3688369 1.1819967 1.2192941 -0.16183935 1.3150421 1.3606521 0.5099372 1.1038843
0.059422262 0.42747566 -0.07758277 -0.15190537 1.2193812 0.07683967 1.2646606 0.49909434
0.50988674 0.58192396 1.2172508 0.6201889 -0.44033822 -0.47342873 -0.42052948 -0.7180728
-0.70422155 -0.5370803 -0.7129693 0.09600082 -0.48350456 -0.06432653 -0.5561978 -0.5721564
-0.51429814 0.011041945 -0.75031686 -0.5925724 -0.1750597 -0.74170417 -0.08258926 -0.53438014
0.061811317 -0.10657307 -0.45694467 -0.11142496 -0.61631805 -0.7067936 -0.013247583 -0.6027649
-0.4076319 -0.65693885 -0.5385216 -0.61488014 -0.5762866 -0.5726998 -0.4981484 -0.50931996
-0.50300086 -0.15330255 -0.41715157 -0.095341824 -0.6586223 -0.46945807 -0.40844145 0.029998103
-0.65628004 -0.43163195 0.0575209 -0.6222375 -0.14136377 -0.5896376 0.15001841 0.010907993
-0.49003732 0.13968186 -0.653429 -0.39823964 -0.036287576 -0.5865826 -0.5429216 -0.4026342
-0.6720421 -0.62553316 -0.63644165 -0.62884885 -0.6526904 -0.5152211 -0.5996769 -0.11100365
-0.53278786 -0.025924236 -0.7370178 -0.5060386 -0.60480326 0.16271332 -0.629256 -0.5788552
-0.13709487 -0.5953667 0.17734629 -0.4519812 -0.12339549 -0.021190152 -0.6579206 0.13503999
-0.42260963 -0.55979073 0.015270322 -0.48091534 -0.5925583 -0.5724408 -0.07469383 0.53862166
0.7024894 0.6572199 0.6739233 -0.25354478 -0.16764237 0.08924982 0.5136601 -0.76853555
-0.11086152 -0.0059735104 0.059924208 0.1109014 -0.088586524 0.07796675 -0.54565537 -0.13414527
-0.08896197 0.4178539 -0.09593898 0.13459736 -0.19920826 0.17178117 0.018348668 0.52217793
-0.65349305 0.72466505 0.11193071 0.47226351 -0.744763 -0.61336744 -0.50082046 -0.74907994
-0.7393304 -0.64119124 -0.46059164 0.056262642 -0.68167955 -0.13248676 -0.6762554 -0.3625018
-0.67958134 0.14154206 -0.6275116 -0.7235062 -0.006571295 -0.47422066 0.12904212 -0.67052466
0.04726318 -0.069111966 -0.65839887 -0.18091303 -0.6022921 -0.56782925 -0.07334653 -0.7670728
-0.69988626 -0.4531854 0.047361895 0.095290005 -0.06503129 0.17364138 0.112210155 0.011824176
0.095914245 0.10575569 0.17479622 -0.03535478 -0.17867374 -0.13014424 0.09749094 -0.037937835
-0.09180147 -0.038402483 -0.07181658 0.1071704 -0.109770454 -0.1755986 -0.035732582 -0.1397118
-0.060218275 0.03131841 0.16999364 -0.16026466 -0.09961434 0.10560778 -0.08026431 0.06352392
0.047687743 0.40905923 0.58430755 0.61316276 0.5378696 -0.3190111 -0.0159285 -0.1402392
0.49935508 -0.8402308 -0.16448809 -0.31770003 -0.12234079 0.060953923 0.095385715 0.041839022

linear3.bias f4 [1200]
00000000: aea6 e03d ee29 963f 42be d8be d952 02bf
00000010: d47f f9be e9f7 263e fd7a e2be 4380 15be
00000020: dae4 cd3d 808f 2ebe 7ef7 d3be df98 08be
00000030: b4d6 cd3e 8147 c93d d55d 12bf 70af 133e
00000040: 133f e6bd 07fb ec3e 0e2f 1abe 7572 ffbe
00000050: 7e7f 03bf f4f0 e23e d512 b73e dbef f23e
00000060: f8bc 44bf 2703 d73e 26f6 eabe 8e40 d4bd
00000070: 9221 af3f 25ab 18bf 2774 003f 5a47 8f3f
00000080: c1c7 243d 8b19 cb3e 26f5 8b3e 1ed6 dcbe
00000090: bfbd 1fbf e08e 1fbe e05d 0dbe b806 f1be
000000a0: 9054 e03d e8c0 123e 99d5 1abf 84cf 02bf
000000b0: 16a8 22bf 2922 33be 48ab aabd 0fc4 993f
000000c0: e890 e2be 9fb5 03bf 7132 83bd 5638 923f
000000d0: 1a11 e3be 65a5 0fbf 64ee a83d 79e1 34be
000000e0: fdc3 00bf 5ca0 43bf 004c a83f f3e9 9a3d
000000f0: ddb4 debe ec97 eabe 1ca7 b13d b11d 15bf
00000100: 51d8 edbe d6a4 3ebf a86e 02bf a9a8 f8be
00000110: 8b6a 03bf a8d4 00bf 4aea febe 4434 3cbf
00000120: a869 9d3f fc1e 09bf 94e2 ecbd 607b 18bf
00000130: 569e 36bf b617 123e ed59 eb3d 7974 9a3f
00000140: ca94 9e3f 59de 29be 31f7 29bf 0c95 10be
00000150: 2a53 2bbf 4ba5 af3f 4a62 dfbe 0a9d ae3f
00000160: 8917 ebbd a6e9 d4be aa09 3c3d 3bb9 9e3f
00000170: 9adc f3be baba b4bd 6d57 893e 53b3 983f
00000180: 7fd9 1fbf ab3e a6bd b3ea 0d3e 8b29 06bf
00000190: 0100 983d 0be5 9a3f 2039 dbbc 9722 e0be
000001a0: 0d2f 9e3f b75d 093e 8536 e83e e0b5 12bf
000001b0: d54f 8e3f 179d 39be 4083 a73f cc68 24bf
000001c0: d6f3 f13e d5a7 a2bd 798d d6be afc4 f93e
000001d0: e16b ebbe 2484 0dbf e647 08bf d5c8 37bf
000001e0: 42b2 473e d3c4 cf3e 9618 f8be 9245 2bbf
000001f0: e6ab 00bf 480e e03d 5497 19bf 42f0 d73e
00000200: f930 89bd a934 b3bd 6de5 923f 7060 e0be
00000210: 451e fdbd 8128 2abe 4031 003f 0166 05bf
00000220: aa6d 0abf 806a 19be e6c7 45bf 16dc 0dbf
00000230: fc4c 7c3c 996f 9bbd 5322 fdbe f13c 983d
00000240: a1c8 32bf 48c7 ce3c 64ac 4dbd a5a7 0dbf
00000250: ee3a 30bf 9002 acbe 1606 26bf d1de edbe
00000260: 33c9 253e 5ce6 46bf 0712 00bf b2a8 ea3e
00000270: cb50 fdbe 9aaf 7abd b269 8bbd 10ac fe3e
00000280: 9275 9f3f 6ade 08bf e88a bfbd ae5d db3e
00000290: eec2 a23f f7b5 a23f 1d13 a43f 747f 1ebf
000002a0: 748b dbbe e6db 23bf ac9a 2abe e63f eabe
000002b0: e262 22bf 10a1 0fbf 01a1 26bf e09e 15bd
000002c0: ab92 10bf 268b 17be 9549 3b3f b3f7 9d3f
000002d0: fff1 23bf 453a 14be fba3 a63f 0e41 ab3e
000002e0: 48a6 e6be 0b96 26bf c300 f23e f99e 34bf
000002f0: 8925 e3bd f42d 0cbf ea2c b7bc 9a69 38bd
00000300: 2027 04bf dff5 5d3e c66f 1c3c b136 27be
00000310: 4f10 3abe eda4 713d 406a 29bd c2ba 9d3f
00000320: 24be 063f dee1 a93f 499d e2bd c6cb b73d
00000330: 6997 933f bf24 0cbf 8581 8cbd c071 10bf
00000340: 329d 913f f704 90ba 91e3 2bbe 2cc6 1ebd
00000350: cfbb 9b3f 0860 833d 60dc 0a3c 53d0 073f
00000360: 3e93 b03f ba28 1bbf 7aea 92bd ffe5 3b3f
00000370: 3e40 bfbc ad71 32bf 3406 8c3f afa9 3d3f
00000380: 2154 2e3e f268 dbbe f495 d43d ad13 1c3c
00000390: 15e7 08bf 5bea efbd 7df6 813f 052e a93e
000003a0: b44d fdbe c4e3 f7be d477 20bf 206d efbe
000003b0: 6aa1 30bf f81e f0bd e723 a0bd df85 d83d
000003c0: b51b 0dbf 3198 f23e f71f 09be cf23 b3bd
000003d0: 08a4 a53e 9835 30bf 4876 9c3f b566 f6be
000003e0: 80c4 f7bc 5123 0c3f ef61 5cbd e6e3 20be
000003f0: 8376 cabc 228c 09bf 2d24 9c3e b98f d1bd
0.109692916 1.1731546 -0.42332655 -0.50907665 -0.48730338 0.16305508 -0.44234458 -0.14599709
0.100534156 -0.17046928 -0.4139976 -0.13339566 0.40202868 0.098280914 -0.57174426 0.14422393
-0.11242499 0.4628527 -0.15057012 -0.4989201 -0.5136641 0.44324458 0.35756555 0.4744862
-0.76850843 0.41994593 -0.4589092 -0.10363875 1.368212 -0.59636146 0.50177234 1.119365
0.040229563 0.39667925 0.2733547 -0.43132108 -0.62398905 -0.15581846 -0.13805342 -0.47075438
0.10953629 0.143314 -0.60482174 -0.51097894 -0.6353773 -0.174935 -0.083334506 1.2012957
-0.4425118 -0.51449007 -0.06406105 1.1423442 -0.44348985 -0.5611175 0.082485944 -0.17664136
-0.50299054 -0.76416564 1.3148193 0.075641535 -0.43497363 -0.45819032 0.08674452 -0.5824843
-0.464541 -0.7447027 -0.509501 -0.48566177 -0.51334447 -0.5032449 -0.49788123 -0.7351725
1.2297869 -0.53562903 -0.11566654 -0.59563255 -0.7133535 0.14266858 0.11491761 1.2066795
1.2389157 -0.16588725 -0.6639281 -0.14119357 -0.66923773 1.3722318 -0.43629676 1.3641675
-0.11479098 -0.4158451 0.045907654 1.2400278 -0.47629243 -0.08824678 0.26824513 1.1929725
-0.6244125 -0.08117422 0.13859062 -0.5240714 0.07421876 1.2101148 -0.026760638 -0.4377639
1.2358109 0.13414656 0.45354095 -0.5730877 1.1118113 -0.18126331 1.3086929 -0.6422241
0.47256345 -0.07942168 -0.4190481 0.4878287 -0.45980743 -0.55279756 -0.5323471 -0.7179082
0.19501594 0.40579852 -0.48456258 -0.6690303 -0.50262296 0.10940224 -0.59996533 0.4217549
-0.06698794 -0.087502785 1.1476265 -0.43823576 -0.12359289 -0.16617014 0.5007515 -0.5210877
-0.54073584 -0.14982033 -0.77258146 -0.5541395 0.015399214 -0.07589645 -0.4944025 0.07433499
-0.69837385 0.02524151 -0.050213233 -0.5533393 -0.6883992 -0.33595705 -0.64853036 -0.46459058
0.16190033 -0.7769525 -0.5002751 0.4583183 -0.49475703 -0.061202623 -0.06807269 0.49740648
1.2457755 -0.53464377 -0.09352666 0.4284491 1.2715738 1.2711781 1.2818333 -0.6191323
-0.42879832 -0.64007413 -0.16660565 -0.45751876 -0.63432133 -0.56105137 -0.6508942 -0.036528468
-0.564738 -0.14799175 0.7315915 1.2341217 -0.6404113 -0.14475353 1.3018793 0.3344807
-0.45048738 -0.650727 0.47266206 -0.70555073 -0.11091144 -0.5475762 -0.022360284 -0.045022584
-0.516222 0.21675824 0.009548133 -0.16329457 -0.18170284 0.058995176 -0.041361094 1.2322619
0.5263388 1.3272054 -0.11065156 0.089744136 1.1530582 -0.5474357 -0.068606414 -0.5642357
1.1376097 -0.0010987808 -0.16786028 -0.03876321 1.216669 0.06414801 0.008475393 0.5305225
1.3794935 -0.6060902 -0.07173629 0.7339782 -0.023346063 -0.69704705 1.0939393 0.7408704
0.1702428 -0.42853504 0.10380164 0.009526175 -0.53477603 -0.11714622 1.0153347 0.33042923
-0.49473345 -0.4841596 -0.62682843 -0.46762943 -0.689963 -0.11724657 -0.07819348 0.10572409
-0.551204 0.47381738 -0.133911 -0.08747064 0.32351708 -0.6883178 1.2223597 -0.48125234
-0.030245066 0.5474139 -0.053804334 -0.15711936 -0.024714714 -0.5372945 0.3049635 -0.10232491

linear1.weight f4 [30, 1200]
00000000: b00d b73b 31b8 1dbf f1c5 1cbf 0c72 1fbf
00000010: 8194 17bf 014e 1dbf 6de0 16bf 583c 063b
00000020: 1b43 17bf f29c 833c 7e3d 19bc 245e 853c
00000030: 2092 27bd ef54 17bf a5f7 1cbf 39e9 17bf
00000040: c097 a23b ce04 c8bc 997b 2fbb 2909 16bf
00000050: 2769 13bf d805 123c e03a 38bc 3148 76bc
00000060: 60c6 bf3b f74d d6bc 7e36 15bf e053 62ba
00000070: 0f31 1fbf 2c26 18bf eefb df3c e953 93be
00000080: 0443 1bbf 00d9 74bb 4865 9c3c 6594 20bf
00000090: ab15 22bd a04c c3bc 28dd 363c 13b0 09bf
000000a0: 2634 1abf a33c 1dbf f890 703c 95d5 19bf
000000b0: 7a66 13bf a846 833c a8b3 e8bc 82ab 13bf
000000c0: 4a6e e4be 632f 13bf c8ed b63c ca27 05bf
000000d0: 2de4 1abf f3de 15bf 0e4d 1cbf 7800 3abc
000000e0: c5e6 1bbf 2ef0 33bc fbfb 18bf c619 16bf
000000f0: eca1 1fbf 6a1a 14bf d0fd 13bf 009f 19bf
00000100: 26df 19bf 7197 11bf c0ad 35ba d8ae 18bf
00000110: 635c 1abf 137f efbd adcf 17bf 948f 3c3c
00000120: 4109 18bf bab9 1cbf dcb3 19bf e8ef be3c
00000130: 39d4 13bf 964e 1cbf 3dc9 5bbc dd4e 17bf
00000140: ea95 1abf 9291 8c3c d86e 04bf 8872 a13b
00000150: dfab debc 5493 20bf cfe9 1fbf 43a9 18bf
00000160: 54a7 61bc 0070 b337 2a84 17bf ceab 1dbf
00000170: 658f 12bf 6022 98bb 4017 8339 715b 15bf
00000180: ccd7 1ebf 88b9 c93c 16d6 1fbf efe2 a4bd
00000190: 89bd 16bf 9698 1fbf 0f55 89bc c0b1 1bbf
000001a0: 13ed 14bf 4ae3 9f3c f878 7c3c 0b12 1dbf
000001b0: 0084 9abd ca08 d33c cdd3 1cbf 70a6 99bc
000001c0: 256b 5abc 68b8 fb3b cc97 14bf 4afb a33c
000001d0: ea21 14bf 49df 15bf 6ccd bc3c d8b6 f53b
000001e0: 5cc5 c3bc b82b 99bc a022 17bf e4d3 e5bb
000001f0: 0d82 1ebf 5368 18bf 98f4 1fbf 1b81 37bc
00000200: befc 9c3c 5228 1fbf 9f6a 1cbf 62e6 16bf
00000210: a809 b33c 5076 293b 42ca a5bc a528 17bf
00000220: 61d6 aebe a0de 21bb f35a 14bf 613a 1dbf
00000230: f991 0ebf 9004 1dbf b342 1ebf 0a14 19bf
00000240: f0c2 bb3a f056 85ba e25c 873c 6dfb 1ebf
00000250: e46d 9d3c 33bd 54bd 8c7f 12bf 31d7 13bf
00000260: b72d 13bf 58bd 1a3c 2dad 1ebf a40a 0a3c
00000270: e977 15bf c81b 58bc 2e6b 45bc 7435 7dbc
00000280: 5344 14bf 30a9 20bf cccd 133c 98ea c2bc
00000290: 5233 1ebf 2eb4 13bf 3ae1 1dbf 925f 14bf
000002a0: 0a2d 15bf ca8f 10bf a152 e4bc 8fe4 1cbf
000002b0: 0b4d 13bf d023 1dbf f6fe 14bf c626 50bc
000002c0: 3de6 18bf f0e7 c93b 70ba dc3a 4672 16bf
000002d0: 5837 d13c ece2 a63c 4602 14bf d094 cfbb
000002e0: 1820 20bf 235d 65be 1a20 56bc 86b8 13bf
000002f0: 94c0 143c 03e1 ffbe df51 d8bc 89e8 1a3d
00000300: a264 19bf a8d0 e13b 0108 1abf c4c4 6d3c
00000310: 2bec 6ebc d732 1ebf c8b7 ccbb d661 1bbf
00000320: b8b2 2a3c b9e2 16bf 32f3 c73c 5424 1abf
00000330: 574b 12bf f3e3 d8bc 200b 2bbc 054d 13bf
00000340: 14cd 19bf 1a83 68bc 8083 5eb9 d0fc feba
00000350: ecf7 1fbf c064 1bbf 96c8 af3c ea94 e23c
00000360: 11e1 20bf f815 55bc 58aa bf3c daf4 063c
00000370: e111 e7bb 5fdb 16bf b665 45be 90cc f9bb
00000380: ecbb c5bc 5f21 18bf 68e7 1dbf dc22 2fbc
00000390: 46fb 853c cac0 8d3c b091 edbe 360b babc
000003a0: c0b8 1fbf 165d 19bf 4905 0ebf c4e8 1cbf
000003b0: 2e66 18bf 00b3 953a 4422 9ebc 0896 1ebf
000003c0: 61b6 17bf 2c18 1dbc c81b 6bbb c442 e53c
000003d0: f615 c93c bc5b 673c 5915 1cbf ce3c 12bf
000003e0: ded5 ad3c df69 b1bc 00bd b83b e865 46bb
000003f0: fc9c 1abf a739 13bf 2d8e 69bc e09d 10bc
0.0055863485 -0.6160918 -0.61239535 -0.62283397 -0.59210974 -0.6144715 -0.58936197 0.0020482745
-0.5908677 0.016066048 -0.00935304 0.016280241 -0.04091084 -0.59113973 -0.61315376 -0.59340245
0.0049619377 -0.024416354 -0.002677655 -0.5860773 -0.57582325 0.008912526 -0.011244506 -0.01503186
0.0058525056 -0.026160223 -0.58286273 -0.0008633714 -0.6218423 -0.59433246 0.02734181 -0.28774956
-0.6064913 -0.0037360787 0.019091263 -0.6272643 -0.039571445 -0.023840249 0.011161126 -0.5378429
-0.6023582 -0.6142065 0.014683001 -0.60091525 -0.5757824 0.016024902 -0.02840598 -0.57683575
-0.44615394 -0.5749418 0.02233018 -0.5201384 -0.6050442 -0.5854332 -0.61055076 -0.011352651
-0.60899 -0.010982556 -0.5975949 -0.5863308 -0.6235645 -0.57852805 -0.5780916 -0.6000824
-0.6010612 -0.56871706 -0.0006930493 -0.5964179 -0.6029722 -0.11694159 -0.59301263 0.011508841
-0.5938912 -0.61220896 -0.6004007 0.023307756 -0.577457 -0.6105741 -0.013414678 -0.5910471
-0.60385 0.017159257 -0.51731634 0.0049269833 -0.027181564 -0.62724805 -0.6246614 -0.5963327
-0.013772804 2.1390617e-05 -0.5918604 -0.6159028 -0.5725005 -0.0046427697 0.0002500359 -0.58342654
-0.6204803 0.024624601 -0.62436044 -0.08051097 -0.5888296 -0.623422 -0.016764192 -0.608181
-0.58174247 0.01951756 0.015409701 -0.61355656 -0.07544708 0.025761027 -0.6126068 -0.018756121
-0.013331209 0.007681895 -0.58044124 0.020017285 -0.5786425 -0.5854383 0.023047172 0.0074986033
-0.02389782 -0.018697605 -0.5903721 -0.0070137847 -0.6191719 -0.59534186 -0.62482595 -0.011200215
0.019163486 -0.621709 -0.6110019 -0.58945286 0.02185519 0.0025857873 -0.020238046 -0.59046394
-0.34147933 -0.0024699345 -0.5795128 -0.61417204 -0.55691487 -0.61335087 -0.61820525 -0.597962
0.0014325064 -0.0010173004 0.016523782 -0.62102395 0.019217439 -0.051938247 -0.5722587 -0.5775023
-0.5749163 0.009444557 -0.61982995 0.0084253885 -0.58386093 -0.013190217 -0.012049479 -0.015454639
-0.57916754 -0.6275816 0.009021234 -0.023793504 -0.6179706 -0.5769681 -0.61671793 -0.5795833
-0.5827185 -0.56469405 -0.027871432 -0.6128625 -0.57539433 -0.6138277 -0.5820154 -0.012704557
-0.59726316 0.0061616823 0.0016840231 -0.5876812 0.025539085 0.020371877 -0.5781597 -0.0063348785
-0.6254897 -0.2239881 -0.013069177 -0.57703435 0.009079117 -0.49976358 -0.026406227 0.03781942
-0.5991918 0.006891329 -0.60168463 0.014512245 -0.014582674 -0.61796325 -0.0062474944 -0.6069616
0.010418586 -0.589397 0.024407957 -0.6021168 -0.5714621 -0.026475882 -0.010439664 -0.575394
-0.6007855 -0.014191413 -0.00021220557 -0.0019454006 -0.62487674 -0.6070061 0.021457952 0.027658898
-0.62843424 -0.013005726 0.023396656 0.008237088 -0.007051692 -0.58928484 -0.19277081 -0.0076232627
-0.02413746 -0.5942592 -0.6168122 -0.0106894635 0.016355168 0.017303843 -0.46400213 -0.022710424
-0.6239128 -0.5990766 -0.55476815 -0.6129267 -0.59530914 0.0011421144 -0.019303448 -0.6194768
-0.59262663 -0.009588283 -0.0035874713 0.027985938 0.024546605 0.014120992 -0.60970074 -0.5712403
0.021220144 -0.021656929 0.005637765 -0.0030273143 -0.6039579 -0.57509845 -0.014255089 -0.008826703

linear1.bias f4 [30]
00000000: 0416 17bf 2dd4 18bf c958 1bbf aa65 193f
00000010: 70b8 203f 3022 0dbc a0e9 d63b c90d 1d3f
00000020: de0d 1c3f 3481 0dbc 74b1 783c ba91 133f
00000030: cbc8 13bf b152 0ebf e817 e73b e600 be3c
00000040: 809a e3bc 6f47 03bf 2799 13bf af80 12bf
00000050: 03d8 1d3f 2ec2 1a3f c022 b33c b6d7 8fbc
00000060: 806e 193f f268 dfbc 2090 17bf a29b 14bf
00000070: b4ea 183f b118 14bf
-0.5901797 -0.59698755 -0.6068235 0.5992075 0.6278143 -0.008614108 0.006558612 0.6134916
0.6095866 -0.008636761 0.015179027 0.57644236 -0.5772826 -0.5559493 0.0070524104 0.023193788
-0.027783632 -0.51280874 -0.57655567 -0.57227606 0.6165773 0.60452545 0.021867156 -0.017558914
0.59934235 -0.027271722 -0.5920429 -0.58049977 0.5973313 -0.57850176

linear2.weight f4 [60, 30]
00000000: c495 463d d0f5 bf3d 8e97 26be b37d a3bd
00000010: f444 87be 2696 a7bd a82a 09be e92c 31be
00000020: a7e0 44bc 5057 d6bd 5070 1fbd fa46 253d
00000030: cc86 04be 8fd7 36be 3c16 b43d 0dd1 05be
00000040: 344b 673d e892 efbc a03c f63b 3c0e 15bd
00000050: b832 48be 0f41 c03c 9289 153e 3c1f 04be
00000060: 8a70 88be ed1e 953d 94fc 05be 5e0d 76bd
00000070: 53e8 26be 343e ef3d f95c 20bf c862 02bf
00000080: 0c6f 45bf c342 1dbf 24b0 1fbf 0c3d 7ebd
00000090: a0ef 963b b9dc debe d70a 04be 0048 853d
000000a0: 30c8 393c 5d4d debe 23b4 dcbe 79dc 363e
000000b0: b0b8 873c 1100 bebd 5074 f63d 935e a1bd
000000c0: d7af 10bf 5e14 39bf cb02 d4be a56b 33bf
000000d0: f0e3 80bd eeee 293e 40b9 1abf 2c42 163e
000000e0: 36ad eebe 81d1 18bf c886 1cbf 9167 31bf
000000f0: 4142 bcbd b05a d93d bad4 813d cf1d 713e
00000100: b594 0e3e 8fe6 c9bd 88fe d0bc 937c 063e
00000110: 771f 173e 80a1 f33a 986f d03d ecea 80bd
00000120: 8c16 6bbd 60e5 333d 7496 0d3d 7afa 293e
00000130: f833 68bd afc0 dabd 306a 39bc 6cf1 063e
00000140: 2548 093d acc8 803e b445 f53d 7991 93bd
00000150: 859b 283e 9b68 213e be79 e2bd f4f6 19be
00000160: 310c 833d 052f b9bd 89ce 38be cc3b 53bd
00000170: 6e73 23be 7761 f7bd 851f 03bb 30d6 c23d
00000180: 40e4 37be a3e3 f6bc 8d69 de3b 00f3 04bc
00000190: 2004 dcbc 6c11 353d cc04 e63d 0096 5abc
000001a0: fe66 2ebe 8cbe 973d a034 da3c 4021 97bb
000001b0: 440f 14be 9fa0 38be 9657 cb3b a982 fd3d
000001c0: bcde fe3d a83d 8ebc 195f 493e 096f 0a3e
000001d0: 4a65 273e b56c 08be 9b24 01bd 01b8 c6bd
000001e0: 4450 e73d 700b 7ebd 913a b5bd 6828 fa3d
000001f0: 7e59 623e 7a2b 863d f07e 2cbd 5dfa af3e
00000200: 6dbe 9cbc 220b 1d3e 9d1f d2bd 8fa5 9c3e
00000210: b412 3a3e 801c c43d 44d4 c43d a423 c23d
00000220: e0e1 353d 8eab 70bd 34c1 223e 5cd4 db3d
00000230: 3ca0 553d 4eb1 4b3e 8847 07be 6352 4fbc
00000240: 5a9e 893e 37e9 bc3c 35cf 0abe 78b8 db3c
00000250: 1406 ae3d 5661 0cbe 168f 36bf d3c8 fbbe
00000260: a0fd 41bf b53b cfbe 5d63 19bf 88dc 013e
00000270: 8030 97bb fb84 13bf d34c 01be 4884 2d3d
00000280: 9477 9cbd a3f4 23bf 72c3 d3be 56c1 0fbe
00000290: a08b 53bc 60e2 5f3d dea7 26be c47c 9bbd
000002a0: 0823 39bf 65d4 3abf ef57 1dbf e4ee 01bf
000002b0: 602a 1b3c ecab a4bd f43c 1fbf 2ba9 0cbe
000002c0: 17be d8be 54c5 23bf ac92 ffbe c0e5 06bf
000002d0: 005f 143c 540a 04bd a0bc cb3d 7e30 6a3d
000002e0: 5192 c43d 06bb 2c3e eadf 33be 78d0 9a3e
000002f0: db79 963d 4ca2 dabd bc3d e43d 9389 da3d
00000300: 2a98 37be f8f2 6abd 9edd 84bd 5045 febd
00000310: 1086 b2bd f244 c6bd 66e7 77bd 503d 8d3c
00000320: ea65 8a3e 9649 913e f4dd 58bd edad f73d
00000330: 4a22 223d 27ad 22be c49f f93d c61f 203e
00000340: 5759 993e d58b aabd 234a 8abd eba0 36be
00000350: 26ff 893d cc11 44be de9e 02be 7515 1ebe
00000360: 5890 cc3c e76b 2cbe 0192 343d 9879 fc3d
00000370: 51ee a2bd 4d0c 03bd e23b 0ebe 8c6f d43d
00000380: c427 51bd a8b6 683d e0d8 793d 18f3 d13d
00000390: b86f 75bd 6086 5fbc 7367 05be edd2 c2bd
000003a0: e0bb e3bd 1e73 7c3d 9be0 afbc 8339 c03d
000003b0: 5479 bdbd cc98 2a3d 96a2 88be 4037 2ebd
000003c0: d431 54bd 9065 ca3d 6070 4fbd 40b1 7c3c
000003d0: 0119 99bd dc91 133d 103e aebc f040 95bc
000003e0: c61a 06be baca debd b7c5 19be 3050 263d
000003f0: 2e93 013e 526a 09be 2c37 913d 4653 05be
0.04848267 0.09373057 -0.16268751 -0.079829596 -0.26419795 -0.081829354 -0.13395178 -0.17302288
-0.012016452 -0.10465872 -0.03892547 0.04035089 -0.12942046 -0.17855667 0.08793303 -0.13068028
0.056468204 -0.029244855 0.0075145513 -0.036390528 -0.19550598 0.023468522 0.1460326 -0.1290254
-0.2664836 0.07281289 -0.13084632 -0.06007134 -0.16299562 0.11681786 -0.62641865 -0.5093198
-0.7712257 -0.61429995 -0.62378144 -0.062069938 0.0046062022 -0.43527773 -0.1289476 0.065078735
0.011339232 -0.43418398 -0.43106183 0.17857541 0.016567558 -0.092773564 0.120339036 -0.07879367
-0.5651831 -0.722967 -0.4140838 -0.7008613 -0.06293476 0.1659505 -0.6043892 0.1467368
-0.46616524 -0.5969468 -0.6114316 -0.69298655 -0.091923244 0.106130004 0.063394025 0.23546527
0.13923915 -0.09858429 -0.025511995 0.13133459 0.14758097 0.001858756 0.10177535 -0.06294808
-0.05739455 0.04391992 0.03456731 0.16599455 -0.056690186 -0.10681283 -0.011316821 0.13178033
0.033516068 0.251531 0.119761854 -0.07205481 0.16465576 0.1576256 -0.11058377 -0.15035611
0.0639881 -0.090421714 -0.18047537 -0.0515707 -0.15962002 -0.12079137 -0.00200078 0.09513509
-0.17958164 -0.030137843 0.006787485 -0.008114576 -0.026857436 0.044206068 0.11231384 -0.013341427
-0.17031476 0.07409391 0.026636422 -0.004612118 -0.14458948 -0.18030022 0.0062055094 0.12378437
0.12444827 -0.017363384 0.19665183 0.13518919 0.16347232 -0.13322718 -0.03152905 -0.09703065
0.11294606 -0.062022626 -0.08849061 0.12214738 0.22104451 0.06551261 -0.042113245 0.343707
-0.01913377 0.15336278 -0.10259936 0.3059506 0.18171197 0.095757484 0.09610799 0.09479454
0.044404864 -0.058757357 0.15894014 0.10733864 0.052154765 0.19891855 -0.13210881 -0.01265392
0.26878625 0.023060424 -0.13555606 0.02682136 0.08497253 -0.13709006 -0.7131208 -0.49176654
-0.75777626 -0.4047524 -0.5991724 0.12681782 -0.004613936 -0.5762479 -0.12626962 0.04236248
-0.07639995 -0.6404516 -0.4136005 -0.14038596 -0.012911707 0.054659247 -0.16274974 -0.075921565
-0.7231908 -0.7298034 -0.614623 -0.50755143 0.009470552 -0.08040604 -0.6220238 -0.13736407
-0.42332527 -0.63972974 -0.4991659 -0.5269432 0.009055853 -0.032236412 0.09948087 0.057175152
0.0959822 0.16868219 -0.17565885 0.30237174 0.07347461 -0.10675487 0.111445874 0.106707714
-0.1792914 -0.05736062 -0.064875826 -0.12415564 -0.08716977 -0.09681119 -0.060523413 0.01724115
0.2703088 0.28376454 -0.052946046 0.120937206 0.03958348 -0.15886365 0.12188676 0.1563712
0.29950973 -0.08327452 -0.06752422 -0.17834823 0.06738119 -0.19147414 -0.12755916 -0.15437873
0.024971172 -0.16838036 0.044084553 0.1232788 -0.079556115 -0.031994153 -0.13890031 0.103728384
-0.051063314 0.05681482 0.060997844 0.102514446 -0.059920996 -0.013642877 -0.13027744 -0.09512887
-0.11119819 0.06163322 -0.021469405 0.093859695 -0.09251657 0.041649625 -0.26686543 -0.04253316
-0.051805332 0.09882653 -0.05064428 0.015423119 -0.07475472 0.036027774 -0.021269828 -0.018219441
-0.13096151 -0.10878511 -0.15016828 0.040603817 0.12653801 -0.13419464 0.07090601 -0.13020048

linear2.bias f4 [60]
00000000: 789c 36be 90c3 e2be 1e21 e3bd 3434 1bbe
00000010: 58c9 c0bd bf1a 09bf b128 18bd 8a4c 26be
00000020: ef53 06be f721 f8bd ee90 223f 83a2 e3be
00000030: 0221 eebd a507 02be dca9 363f ebbe d6be
00000040: 5af6 1cbf 43a9 b1bd 06df fdbd c4f9 0bbf
00000050: 2ae5 303f 60b0 e3bc 59c9 15bf 16a2 00be
00000060: d9e4 a7bd f666 05bf 47a9 183f b3a1 11be
00000070: 4106 0cbf d9f3 0abf 87c1 0abf 23c9 06bd
00000080: 1988 03bf 9f4b 453f dfc5 363f 64ca fdbe
00000090: a893 0cbf db88 343f 191a a6bd 47b6 22be
000000a0: 9521 ddbe 0c54 1b3f 5388 31bd a2a6 133f
000000b0: f85a 19be 4341 97bd 77a5 1cbe ca72 0dbe
000000c0: 9b5f 3e3f 80c9 763b 4f11 0fbf 30e9 1d3f
000000d0: 278c 19be 96a0 20be 0020 80bd b821 353f
000000e0: 828f a3bd c230 febd 107b e1bd eaff 213f
-0.17833126 -0.44289827 -0.11090301 -0.15156633 -0.09413403 -0.53556436 -0.03714818 -0.16240135
-0.13117956 -0.12115853 0.63502395 -0.44459924 -0.116273895 -0.12698229 0.71352935 -0.41942534
-0.613134 -0.08674862 -0.12396054 -0.5467799 0.69099677 -0.027794063 -0.5851036 -0.12561831
-0.08197946 -0.5211023 0.59633297 -0.1422184 -0.5469704 -0.5427833 -0.5420155 -0.032906663
-0.51379544 0.77068514 0.7139568 -0.49568474 -0.54912806 0.70521325 -0.081104465 -0.15889846
-0.43189684 0.6067512 -0.0433429 0.57676136 -0.14976108 -0.073854946 -0.15297495 -0.1381332
0.7436463 0.0037656724 -0.55885786 0.6168394 -0.1499487 -0.15686259 -0.062561035 0.70754576
-0.07986356 -0.124116436 -0.110098004 0.6328112

linear3.weight f4 [120, 60]
00000000: 54ef d0bd ac74 0e3f 3c0c 99bd 08ca 39bc
00000010: 40dd 9c3d 590c 1d3f 8095 ba3c 32bc a23d
00000020: 885c b53c 00d1 34ba 296c 363f 5360 363f
00000030: 1c5a f73d 5827 7dbc eda5 0c3f db2b f43e
00000040: f739 7a3e 9e03 fe3d c9a2 ddbd 6f4d 273f
00000050: a151 103f 489e 1bbc 1f9a 383f 7e31 ba3d
00000060: f853 58bc 7cac 233f 1968 303f 403d dc3d
00000070: b144 283f f37c 313f 3ac9 173f 1c7d 4b3d
00000080: 25a8 143f f50d f93e a2a1 123f b273 063f
00000090: eb50 183f 17f1 393f e8fa f6bd 3526 043e
000000a0: 67d9 1d3f 9536 353f 3445 55bd b01b 303f
000000b0: 4c2e ce3d e024 cdbc f819 5dbc d026 6bbd
000000c0: 79c9 173f 38a6 b2bc 994e f43e 7f53 0f3f
000000d0: 90d2 0abd 6cc5 a63d be24 66bd 83cb 1b3f
000000e0: e038 793c 00e0 8938 f085 b13c c5f1 263f
000000f0: bcb8 89bc 2b08 17bf c808 ce3c 4850 16bc
00000100: 9735 eebd d0b7 1abf 02bc e4bd 4eac ea3d
00000110: bc61 b9bc c2b5 1bbd 90fe fcbe 7bc6 10bf
00000120: 0094 e63c 74ae 3ebd b8df fbbe 95fc fbbe
00000130: 71e7 1b3c 8c49 0a3d 825a 42bd 51dc 2cbf
00000140: 2226 0abf 0efd e63d 945e 1abf 018d d4bd
00000150: f85d e2bc b34e 0bbf fbfc 15bf b8f5 a93c
00000160: 99b2 30bf 2358 37bf ce5e f6be 6425 f2bd
00000170: 04fc 11bf 2021 2abf 692f 1abf 1257 08bf
00000180: 983e 33bf 6967 25bf 082f cfbd 3f46 023e
00000190: 0475 32bf 8f0e 30bf 5c88 023d 7a93 32bf
000001a0: 90e6 503c 88c9 c93c 2c12 f1bd 4c46 733d
000001b0: 87c6 0ebf 747f 413d 42bc 06bf 40fa fbbe
000001c0: a825 7d3d 4e11 96bd 97d8 02be 77b9 11bf
000001d0: 74c2 c5bd a048 74bd 48de bf3c dde4 08bf
000001e0: 181e 5bbd ea04 2d3f e0c1 5d3c d066 2c3c
000001f0: 426d 8e3d 54bf 0c3f b835 943d 483c bebc
00000200: 3bc0 98bd dc7b a8bc aec3 0d3f cc50 203f
00000210: ac8c b7bc 3a56 fdbd 182f 2f3f 1563 0b3f
00000220: efd4 36bc c203 5bbd 0a80 18bd aa60 323f
00000230: 1843 1f3f 583e 013d 606e 373f 6051 b53c
00000240: 0c78 3b3d f6a7 033f 64c6 f23e baef 963d
00000250: cb3e f23e 9f24 223f d9aa 003f 10ec 043d
00000260: c695 383f f441 373f d274 323f 8e16 2f3f
00000270: bbe2 063f c42b 2d3f 24a3 103d 9901 c6bd
00000280: 798d 2f3f ca01 203f a035 553d 6808 0c3f
00000290: 08b5 d83c d2d9 f7bd 9096 5ebc 102b 4f3c
000002a0: dfde 253f 4c45 533d bfeb 0e3f 41e7 2a3f
000002b0: 82b9 b1bd a25b d23d 483e c5bc 3349 1c3f
000002c0: 00f5 38bb 50f1 0dbd 0ecb aabd 086a 2e3f
000002d0: 00ef 9cbc d2fd 06bf b6a5 8d3d 106a 1e3c
000002e0: cc89 763d e967 22bf 1131 153c c0a2 723d
000002f0: 12d4 aa3d 2c06 203d 261f 2ebf 53a8 f3be
00000300: 791a eabd b835 083d 9e25 00bf da70 33bf
00000310: d8fe e23d d0e4 873c cd44 bebd c082 1bbf
00000320: 7071 00bf 322d b03d b71d f7be 781f 023d
00000330: 120e 9b3d 2c7e 32bf 50d3 f9be be46 c9bd
00000340: 8ed2 24bf 66e5 36bf 2a19 18bf e0b7 31bc
00000350: 262c 30bf 456e fdbe b18d 1dbf 0479 32bf
00000360: d400 0ebf afb0 39bf 742f 37bd 5ec9 b53d
00000370: a382 04bf 3aeb 1fbf b04e e1bd 3263 0ebf
00000380: e243 babd 0431 e2bd 746c efbc 84ab 1d3d
00000390: 6289 17bf 4c78 f7bc 5fd9 16bf b860 23bf
000003a0: 68e3 86bd 3068 293c a1ad c0bd 2cb3 1dbf
000003b0: 70a1 2a3d 00e9 30bb 709a 87bd b625 01bf
000003c0: 4c24 f93d f6dc 0bbf cbfa 8a3d 6b3f 87bd
000003d0: 4496 c4bd 41e0 38bf 3645 df3c 5215 e5bd
000003e0: 5bf2 d8bd ef10 6fbd f8c8 18bf 12c0 35bf
000003f0: a24e f0bd bf08 a9bd 22e5 0abf 1d3c 39bf
-0.10201898 0.5564678 -0.07473037 -0.011339672 0.076593876 0.61346966 0.022776365 0.07946052
0.022138849 -0.00068975985 0.7125879 0.7124073 0.12077734 -0.015451275 0.5494068 0.4768971
0.24436174 0.12403034 -0.108220644 0.6535253 0.56374556 -0.009498186 0.7211017 0.09091471
-0.013203613 0.63935065 0.6890884 0.1075387 0.65729815 0.6933128 0.5929142 0.04967986
0.5806907 0.4864346 0.5727788 0.5252029 0.5949847 0.726335 -0.12059575 0.129052
0.61659855 0.7078641 -0.05206795 0.6879225 0.10067424 -0.025041997 -0.013494961 -0.05741006
0.592918 -0.021807775 0.47716215 0.5598678 -0.033892214 0.08143124 -0.056187384 0.6085741
0.015211314 6.574392e-05 0.021670312 0.6521266 -0.016811721 -0.5899684 0.025150672 -0.009174414
-0.11631315 -0.60436726 -0.11168672 0.11458646 -0.022629611 -0.038015135 -0.49412966 -0.5655286
0.028146744 -0.04655309 -0.4919412 -0.49216142 0.009515629 0.033761546 -0.047449596 -0.67523676
-0.53964436 0.11278735 -0.60300565 -0.10378457 -0.027632698 -0.5441696 -0.5858914 0.02074705
-0.6902252 -0.7161886 -0.48119205 -0.11823538 -0.5702517 -0.66456795 -0.6022859 -0.5325786
-0.70017385 -0.64610916 -0.101163924 0.1272211 -0.697098 -0.68772215 0.031868324 -0.6975628
0.012750283 0.02463223 -0.11771044 0.059393212 -0.5577168 0.04724069 -0.5263101 -0.49214363
0.06180349 -0.07327519 -0.12777935 -0.5692362 -0.096562296 -0.059639573 0.023421422 -0.5347422
-0.053495497 0.67585623 0.013534993 0.010522559 0.06954433 0.54979444 0.072368085 -0.023222104
-0.0745854 -0.020566873 0.5537671 0.62623286 -0.022405945 -0.12369962 0.68431234 0.5444806
-0.011159166 -0.05347038 -0.037231483 0.6967875 0.6221175 0.031553596 0.71652794 0.02213353
0.045768782 0.51428163 0.47416985 0.07369943 0.47313532 0.6333713 0.5026069 0.03245169
0.72103536 0.7158501 0.69709504 0.6839379 0.52689713 0.67644906 0.035311833 -0.096682735
0.68575245 0.6250273 0.052053094 0.54700327 0.02645351 -0.12102093 -0.013585702 0.012644544
0.647932 0.05157976 0.5582847 0.66759115 -0.08677961 0.10271384 -0.02407755 0.61049193
-0.0028222203 -0.03465396 -0.08339511 0.6813054 -0.019156933 -0.5273105 0.069163725 0.009668842
0.060190007 -0.63439804 0.009105937 0.05923724 0.083412305 0.039068386 -0.6801628 -0.4758936
-0.114308305 0.033254355 -0.500574 -0.7009407 0.11083764 0.016588598 -0.092904665 -0.60746384
-0.5017309 0.0860237 -0.48264858 0.031768292 0.07571043 -0.69723773 -0.4879403 -0.09827946
-0.6438378 -0.71443784 -0.594134 -0.010847062 -0.68817365 -0.4949819 -0.6154433 -0.69715905
-0.55470014 -0.7253522 -0.04472299 0.08876298 -0.51761836 -0.624683 -0.110013366 -0.5562011
-0.09094979 -0.11044505 -0.02922652 0.03849365 -0.59194005 -0.03020873 -0.5892543 -0.63819456
-0.06586343 0.010339782 -0.09408117 -0.6160152 0.041657865 -0.0026994348 -0.066212535 -0.5044817
0.12165126 -0.54634035 0.06786116 -0.06603893 -0.095989734 -0.72217184 0.027254682 -0.11185707
-0.10593101 -0.05836576 -0.59681654 -0.709962 -0.11733748 -0.08253621 -0.5425588 -0.7235735
