epoch_50_model/솔트/model.pth (torch, 201120 bytes, 18 tensors)

linear1.weight f4 [24, 48]
0	0xbf3275e5	-0.6971114
1	0xbf021f46	-0.5082897
2	0xbf29a00d	-0.66259843
3	0xbf14268d	-0.57871324
4	0xbf08ef7c	-0.53490424
5	0xbf12e224	-0.57376313
6	0xbf33af7e	-0.70189655
7	0xbf08f810	-0.53503513
8	0xbf3ac456	-0.72955835
9	0xbf077bbf	-0.52923197
10	0xbf17e620	-0.5933552
11	0xbf306ca8	-0.68915796
12	0xbf37c89c	-0.7179048
13	0xbf00fee1	-0.50388914
14	0xbee86c36	-0.45395058
15	0xbf2a8b83	-0.6661913
16	0xbf31e65c	-0.69492126
17	0xbf36b95c	-0.71376586
18	0xbf2a1d3c	-0.6645086
19	0xbf162fb1	-0.5866652
20	0xbeef4fa3	-0.46740445
21	0xbf0911d6	-0.5354284
22	0xbf00a562	-0.50252354
23	0xbf0a3bc5	-0.5399745
24	0xbf2284fa	-0.63484156
25	0xbf140e0c	-0.57833934
26	0xbeee3988	-0.46528268
27	0xbf1ac47f	-0.6045608
28	0xbf346e51	-0.7048083
29	0xbf29a89d	-0.6627291
30	0xbf1c7778	-0.61119795
31	0xbef21847	-0.47284147
32	0xbf22ca2c	-0.6358974
33	0xbf195ee0	-0.5991039
34	0xbf05c2cb	-0.52250355
35	0xbf2665e4	-0.6499922
36	0xbf112e1f	-0.56711
37	0xbf01792d	-0.50575525
38	0xbf14a35b	-0.5806176
39	0xbf2f8f7c	-0.68578315
40	0xbee968e5	-0.4558784
41	0xbf06a160	-0.5258999
42	0xbf2f4b2c	-0.6847408
43	0xbf156b2f	-0.58366674
44	0xbf033349	-0.5125013
45	0xbf30297e	-0.6881331
46	0xbf3738ee	-0.7157124
47	0xbf2b9529	-0.67024475
48	0xbe8031cf	-0.25038
49	0xbf0ddce2	-0.55415165
50	0xbecc048a	-0.39847213
51	0xbf093b9a	-0.5360657
52	0xbec8a0ab	-0.3918508
53	0xbefc305e	-0.4925565
54	0xbee4d816	-0.4469611
55	0xbf024e06	-0.50900304
56	0xbe9615ef	-0.2931361
57	0xbf18e082	-0.5971757
58	0xbeeb8521	-0.46000007
59	0xbf07fa19	-0.53115994
60	0xbf032582	-0.5122911
61	0xbf120daa	-0.570521
62	0xbec91fb8	-0.39282012
63	0xbed4662a	-0.41484195
64	0xbe73e198	-0.23816526
65	0xbf0bf79e	-0.5467471
66	0xbee66808	-0.45001245
67	0xbed333b3	-0.4125038
68	0xbf1cbb7b	-0.6122357
69	0xbf143433	-0.5789215
70	0xbeb64371	-0.3559833
71	0xbeab6676	-0.3347661
72	0xbed8c956	-0.42341107
73	0xbeecff72	-0.4628864
74	0xbf0d5e79	-0.5522228
75	0xbecc32d3	-0.39882526
76	0xbf1ded44	-0.61690164
77	0xbe9bb903	-0.3041459
78	0xbeb546e4	-0.35405648
79	0xbec9a1e8	-0.39381337
80	0xbf15b3ea	-0.5847765
81	0xbf077f91	-0.52929026
82	0xbedee5d0	-0.43534708
83	0xbecb5cea	-0.39719325
84	0xbeda1f1c	-0.4260186
85	0xbed6e97f	-0.41975018
86	0xbeb5ffda	-0.35546762
87	0xbefd71e8	-0.49500966
88	0xbee726af	-0.451467
89	0xbe91e138	-0.2849214
90	0xbed5c184	-0.41749203
91	0xbeb3bfde	-0.3510732
92	0xbf1a9c6a	-0.6039492
93	0xbf188f32	-0.595935
94	0xbed25f6d	-0.4108843
95	0xbed4570b	-0.4147266
96	0xbf7faa1f	-0.9986896
97	0xbf5e5df8	-0.86862135
98	0xbf8eb010	-1.114748
99	0xbf811e88	-1.0087442
100	0xbf84ea48	-1.0383997
101	0xbf8bb6cf	-1.0915164
102	0xbf8d8662	-1.1056635
103	0xbf777ba3	-0.9667303
104	0xbf62c510	-0.88581944
105	0xbf650470	-0.89459896
106	0xbf701f63	-0.9379789
107	0xbf56fd6b	-0.83980435
108	0xbf7b2712	-0.9810649
109	0xbf72dc93	-0.9486782
110	0xbf7ee53b	-0.9956853
111	0xbf612fde	-0.87963665
112	0xbf589a21	-0.8461018
113	0xbf8b9525	-1.090489
114	0xbf6fd9cb	-0.936917
115	0xbf7a33c4	-0.9773524
116	0xbf5aa23d	-0.85403806
117	0xbf8ec70c	-1.1154494
118	0xbf87f7b2	-1.0622466
119	0xbf7b84fa	-0.9824978
120	0xbf8c165e	-1.0944326
121	0xbf77d7fb	-0.96813935
122	0xbf5eab79	-0.86980397
123	0xbf8833c1	-1.0640794
124	0xbf7aab4d	-0.97917634
125	0xbf6927c3	-0.91076297
126	0xbf5ec4e1	-0.87019163
127	0xbf8f5a05	-1.1199347
128	0xbf8dbed5	-1.1073862
129	0xbf85b28e	-1.0445116
130	0xbf7f05f3	-0.9961845
131	0xbf6c9ad2	-0.9242374
132	0xbf6326b5	-0.8873094
133	0xbf8b7712	-1.0895712
134	0xbf6f9359	-0.9358421
135	0xbf8dfbb7	-1.1092442
136	0xbf8492d7	-1.0357312
137	0xbf5cb969	-0.86220413
138	0xbf8bf94d	-1.0935456
139	0xbf84ab1c	-1.0364718
140	0xbf5c31ba	-0.86013377
141	0xbf8c5fae	-1.0966699
142	0xbf5c2506	-0.85993993
143	0xbf680b6c	-0.9064243
144	0xbf82b474	-1.021132
145	0xbf8f35d3	-1.1188301
146	0xbf7e8710	-0.9942484
147	0xbf77e3b4	-0.9683182
148	0xbf89bd4e	-1.0760896
149	0xbf7cdc5e	-0.98773754
150	0xbf88f37d	-1.0699307
151	0xbf858431	-1.0430967
152	0xbf9557fb	-1.1667475
153	0xbf6ce8b2	-0.92542565
154	0xbf812aee	-1.0091226
155	0xbf818285	-1.0117956
156	0xbf83456a	-1.0255558
157	0xbf94a893	-1.1613945
158	0xbf832935	-1.024695
159	0xbf968ef1	-1.1762372
160	0xbf863673	-1.0485367
161	0xbf96d798	-1.1784544
162	0xbf958894	-1.1682305
163	0xbf86e8c4	-1.0539784
164	0xbf906712	-1.1281455
165	0xbf6d267b	-0.9263684
166	0xbf812202	-1.0088503
167	0xbf6b235a	-0.9185082
168	0xbf84ff6f	-1.0390452
169	0xbf7426a9	-0.9537149
170	0xbf755068	-0.95825815
171	0xbf92877a	-1.1447594
172	0xbf927ddf	-1.1444663
173	0xbf7fbab3	-0.99894255
174	0xbf938a05	-1.1526495
175	0xbf7ed2a8	-0.99540186
176	0xbf75a083	-0.95948046
177	0xbf68ebbd	-0.9098471
178	0xbf6deb5e	-0.92937267
179	0xbf920751	-1.1408483
180	0xbf911445	-1.1334311
181	0xbf840f18	-1.0317106
182	0xbf8b5e30	-1.0888119
183	0xbf7a3107	-0.9773106
184	0xbf7f8a1b	-0.9982011
185	0xbf73b743	-0.9520151
186	0xbf838694	-1.0275445
187	0xbf8afb3e	-1.0857923
188	0xbf952c5b	-1.1654161
189	0xbf70dad5	-0.9408391
190	0xbf810c2f	-1.0081843
191	0xbf78ff7d	-0.97264844
192	0x3eb3302c	0.3499769
193	0xbea58c2e	-0.3233351
194	0xbecd2814	-0.4006964
195	0xbe840222	-0.25782877
196	0xbe9c9b71	-0.30587342
197	0xbdfad78a	-0.12248142
198	0xbec31604	-0.38102734
199	0xbef9b6b4	-0.48772204
200	0xbeccf492	-0.40030342
201	0xbea0a17f	-0.31373212
202	0xbea67d3a	-0.32517415
203	0xbebc9b7f	-0.36837384
204	0xbe6d2f79	-0.2316264
205	0xbe6eee74	-0.2333315
206	0xbee353a9	-0.44399765
207	0xbeb88fbc	-0.3604716
208	0xbedb421d	-0.42823878
209	0xbec74546	-0.3892004
210	0xbef22c4c	-0.4729942
211	0xbefba153	-0.49146518
212	0x3e3cb1d5	0.18427213
213	0xbeeff68f	-0.46867797
214	0xbecb56f4	-0.39714777
215	0xbeea5cec	-0.4577402
216	0xbed94f4e	-0.42443317
217	0xbdc7509e	-0.097321734
218	0xbeae4b1f	-0.34041688
219	0xbea0afea	-0.31384212
220	0x3aaad5d4	0.0013033696
221	0xbe94d50f	-0.290688
222	0xbe9f8692	-0.31157357
223	0xbe723402	-0.23652652
224	0xbf0bfdbc	-0.5468404
225	0xbe9bd901	-0.30438998
226	0xbea155c4	-0.31510746
227	0xbf03c463	-0.5147154
228	0xbeb4fb12	-0.353478
229	0xbe83f0d9	-0.2576969
230	0xbee6041a	-0.44925004
231	0xbe8ec206	-0.27882403
232	0xbeecaef7	-0.46227238
233	0xbea087e6	-0.31353682
234	0xbea0da90	-0.3141675
235	0xbeac1369	-0.3360856
236	0x3e7fc583	0.24977688
237	0xbedae1b0	-0.4275031
238	0xbebc2600	-0.36747742
239	0xbe7c9715	-0.24667008
240	0xbef098c6	-0.46991557
241	0xbf2c80c0	-0.67383957
242	0xbf338699	-0.70127255
243	0xbf13865d	-0.576269
244	0xbf08a0e7	-0.5337052
245	0xbf0de843	-0.5543253
246	0xbeec35ae	-0.46134704
247	0xbf32f92c	-0.69911456
248	0xbf0a8621	-0.54110914
249	0xbf28fe95	-0.6601346
250	0xbf2707bf	-0.65246195
251	0xbf2fc67f	-0.68662256
252	0xbf37ba5c	-0.71768737
253	0xbf2e9efa	-0.6821133
254	0xbf28f81f	-0.660036
255	0xbf3df079	-0.7419506

linear1.bias f4 [24]
0	0xbf1b3a7c	-0.60636115
1	0xbeb26d97	-0.34849235
2	0xbf703450	-0.9382982
3	0xbf6be571	-0.92146975
4	0xbf05273c	-0.5201299
5	0xbf2c027b	-0.67191285
6	0xbf05a124	-0.52199006
7	0xbf0183f5	-0.50591975
8	0x3c4ca3b4	0.012490202
9	0xbf698049	-0.9121137
10	0xbf7ee937	-0.9957461
11	0xbee7a99e	-0.45246595
12	0xbeb5aa4a	-0.35481483
13	0xbef278b5	-0.47357717
14	0xbe12ec2d	-0.14347906
15	0xbf0705e0	-0.5274334
16	0xbe11d7f4	-0.14242536
17	0xbefa096b	-0.4883531
18	0xbf93d7d7	-1.1550244
19	0xbf12f37a	-0.57402766
20	0x3e646321	0.2230344
21	0x3ee834ce	0.45352787
22	0xbf7fc27a	-0.9990612
23	0xbf160e66	-0.5861572

linear2.weight f4 [12, 24]
0	0xbf22248b	-0.6333701
1	0x3e265b98	0.16245878
2	0x3e2aca23	0.16678672
3	0xbf5adb3c	-0.85490775
4	0xbd7cbea1	-0.061705235
5	0xbeed0fd0	-0.46301126
6	0xbf11b666	-0.5691894
7	0xbf2a2946	-0.6646923
8	0x3ece82b8	0.40334105
9	0xbf26742a	-0.65021
10	0xbf05a396	-0.5220274
11	0x3dc99db6	0.09844534
12	0xbcffe294	-0.03123597
13	0xbe99ed60	-0.30063915
14	0x3d07a9a8	0.03312078
15	0xbf3e770d	-0.7440041
16	0xbe062246	-0.13099012
17	0xbed34bc6	-0.41268748
18	0xbef77668	-0.48332524
19	0xbeda4c11	-0.4263616
20	0xbee71972	-0.451366
21	0xbeea8dd9	-0.45811346
22	0xbf049ddc	-0.51803374
23	0xbf2dca90	-0.6788721
24	0x3efb4d6f	0.49082515
25	0xbf0fb703	-0.5613863
26	0xbf909416	-1.1295192
27	0xbf9ddcd5	-1.2333018
28	0x3c119591	0.008885757
29	0x3eebdb91	0.46065953
30	0x3eda79f2	0.42671162
31	0x3f3448ad	0.70423394
32	0xbf842784	-1.0324559
33	0xbf996c25	-1.1986128
34	0xbf7bc003	-0.9833986
35	0x3dcb3aef	0.0992335
36	0xbebe6e74	-0.37193644
37	0x3ef8b825	0.4857799
38	0xbe0b58ae	-0.13608047
39	0x3f3f967c	0.74838996
40	0xbf2082dd	-0.6269968
41	0x3eeda4fb	0.46414933
42	0xbf63e298	-0.8901763
43	0x3f3af9bd	0.7303732
44	0xbf9cd0bb	-1.22512
45	0xbf90c8a5	-1.1311232
46	0xbf8322ed	-1.0245034
47	0x3ef3828d	0.4756054
48	0x3eefd285	0.468403
49	0xbf06f702	-0.52720654
50	0xbc5e1c35	-0.01355653
51	0x3de30e36	0.11086695
52	0xbe2db48b	-0.16963403
53	0x3f3c28a5	0.7349952
54	0x3f44292a	0.7662531
55	0x3ecb0801	0.39654544
56	0xbf2966dd	-0.6617258
57	0x3ddcb386	0.10776429
58	0xbf1acb0c	-0.60466075
59	0xbd1b0898	-0.037849993
60	0xbdb0a014	-0.086242825
61	0xbc969997	-0.018383784
62	0xbdbcd273	-0.092198275
63	0x3efa5166	0.48890227
64	0xbf16a937	-0.5885195
65	0x3e6a233c	0.22865003
66	0xbd666b98	-0.056254953
67	0x3f22d5f1	0.636077
68	0xbeb9d5ab	-0.36295828
69	0xbc0047db	-0.007829632
70	0x3d0fef6c	0.03514044
71	0x3f3b6d1f	0.7321338
72	0xbe111ebe	-0.14171883
73	0x3d814f1c	0.06313917
74	0xbf232c8c	-0.6373985
75	0xbeaf4926	-0.34235495
76	0xbd9aedfc	-0.07564923
77	0x3f08e8b3	0.5348007
78	0x3e757f67	0.23974381
79	0x3ee481a3	0.44630155
80	0xbf1ad223	-0.60476893
81	0xbf245f5f	-0.64208025
82	0xbf22ede8	-0.63644266
83	0x3c5ba3c0	0.01340574
84	0xbdb60c84	-0.08889106
85	0x3dd32470	0.10309684
86	0xbda0ec5a	-0.078575805
87	0x3f2197a2	0.63122
88	0xbd425510	-0.047444403
89	0xbc9ee248	-0.019395009
90	0xbf184dc6	-0.5949367
91	0x3f331326	0.69951093
92	0xbf1c6081	-0.61084753
93	0xbe9a4dc2	-0.3013745
94	0xbf15a75f	-0.58458513
95	0x3ea71d1d	0.326394
96	0xbf28a8aa	-0.6588236
97	0x3f3c012b	0.7343928
98	0xbd843edd	-0.06457303
99	0x3e9fc2f7	0.31203434
100	0xbe39b224	-0.18134362
101	0xbf24e3eb	-0.64410275
102	0x3ed29023	0.41125593
103	0x3f22f187	0.6364979
104	0xbe89b5d0	-0.26896524
105	0x3e1c525c	0.15265793
106	0xbd118435	-0.035526473
107	0x3c8b956f	0.017039029
108	0x3ebd1273	0.36928138
109	0x3ece85da	0.40336496
110	0x3e400c1a	0.18754616
111	0x3f28df1a	0.65965426
112	0x3f1f2c5b	0.62177056
113	0x3e95a82e	0.29229873
114	0x3e9682d2	0.29396683
115	0x3efe784c	0.49701154
116	0xbf01f162	-0.50758946
117	0xbf09ceeb	-0.53831357
118	0x3e0d9047	0.13824569
119	0x3f2080f5	0.6269677
120	0xbf028542	-0.50984585
121	0xbd441392	-0.047870226
122	0xbf842cb0	-1.0326138
123	0xbf4b01a2	-0.79299366
124	0xbf0a503f	-0.54028696
125	0xbee944ee	-0.45560402
126	0xbece4d3c	-0.402933
127	0xbeea2104	-0.45728314
128	0xbf1e9d36	-0.61958635
129	0xbf5caa41	-0.86197287
130	0xbf5119ae	-0.8167981
131	0xbeb25de3	-0.34837255
132	0xbf226a14	-0.6344311
133	0x3e9ccc4f	0.30624625
134	0xbd8cd804	-0.06877139
135	0xbed3dff7	-0.4138181
136	0xbed96363	-0.4245864
137	0xbefb8387	-0.49123785
138	0xbf5b9a23	-0.8578207
139	0xbf2b23cc	-0.66851497
140	0xbf8b9b06	-1.0906684
141	0xbf6b5e2c	-0.9194057
142	0xbf0b1f03	-0.54344195
143	0xbf00a95a	-0.5025841
144	0x3ee637d7	0.44964477
145	0xbee693d0	-0.45034647
146	0xbe09b295	-0.1344703
147	0x3d6a8bcc	0.057262227
148	0x3f156750	0.5836077
149	0x3f219839	0.631229
150	0x3f45d804	0.7728274
151	0x3f0e92bb	0.5569264
152	0xbfad8530	-1.3556271
153	0xbd6771d6	-0.056505047
154	0xbf4a77ae	-0.79088867
155	0xbd4682b5	-0.048464496
156	0xbf21cc4d	-0.63202363
157	0xbeea422c	-0.4575361
158	0x3c8ccf78	0.017188773
159	0x3f4a4df8	0.7902522
160	0xbef89ae4	-0.48555672
161	0xbf12fa6b	-0.5741336
162	0x3cb9ff97	0.022704883
163	0x3f18ba4c	0.59659266
164	0xbf2f6ee3	-0.68528575
165	0xbf19b301	-0.60038763
166	0xbf449dd8	-0.7680335
167	0x3f4059ad	0.75136834
168	0xbf252b7e	-0.6451949
169	0x3d687b7d	0.056758393
170	0xbf0a9156	-0.54128015
171	0xbf0bdb67	-0.54631656
172	0x3ef393ba	0.47573644
173	0xbf0b4e43	-0.5441629
174	0xbef3f2d4	-0.476462
175	0xbf42efe2	-0.7614728
176	0xbed5a4af	-0.41727206
177	0xbef90347	-0.48635313
178	0xbefe10d5	-0.49622217
179	0x3ebb58ab	0.36591086
180	0x3df67998	0.12034911
181	0xbf171062	-0.59009373
182	0x3d812be4	0.063071996
183	0xbf049792	-0.5179378
184	0xbdcd793f	-0.100328915
185	0xbf12ec69	-0.57391983
186	0xbf39743f	-0.72443
187	0xbecf4de4	-0.40489113
188	0xbf382213	-0.71926993
189	0xbf4ce555	-0.8003743
190	0xbf5b5b77	-0.8568644
191	0xbecae9d3	-0.3963152
192	0x3c408f80	0.011752963
193	0x3de1eb08	0.11031157
194	0xbf3e14f6	-0.74250734
195	0xbdf97de0	-0.12182212
196	0x3e17d716	0.14828143
197	0xbe14ad7b	-0.14519303
198	0xbe4f94b0	-0.20271564
199	0x3e1b3acc	0.15159148
200	0xbf223ff4	-0.63378835
201	0xbc7aeba0	-0.015314966
202	0xbe431a92	-0.19053105
203	0x3cc459d0	0.023968607
204	0xbd12b01c	-0.035812482
205	0x3d15a0f8	0.036530465
206	0x3e5018d4	0.20321971
207	0xbdf5e679	-0.1200685
208	0xbeb34c2d	-0.35019055
209	0xbdcb5030	-0.09927404
210	0x3d9bfa14	0.07616058
211	0xbd2b655c	-0.04184471
212	0xbef6ee29	-0.48228577
213	0xbedb7e08	-0.42869592
214	0xbe15e4c5	-0.1463805
215	0x3e16c53a	0.14723673
216	0x3edfb797	0.43694755
217	0x3f3a5d77	0.72798866
218	0xbe08ce88	-0.13360035
219	0x3e78d225	0.24298914
220	0x3e4c51e5	0.19953115
221	0x3c9e8494	0.019350328
222	0x3edc9c1d	0.43087855
223	0x3f1da9ae	0.61587036
224	0xbdc5a27a	-0.096501306
225	0x3e5cbb89	0.21555914
226	0x3d8542ce	0.065068826
227	0xbe472717	-0.19448505
228	0x3d9c73b4	0.07639256
229	0x3de3e670	0.11127937
230	0x3de8ce30	0.11367452
231	0x3ec22c81	0.3792458
232	0xbecfc1cd	-0.40577546
233	0xbc32f260	-0.0109220445
234	0x3e4ad771	0.19808747
235	0x3ef88bc5	0.48544136
236	0xbef26f0e	-0.47350353
237	0xbecd3fb7	-0.40087673
238	0xbc2eaa34	-0.010660697
239	0x3f08b3ed	0.53399545
240	0xbcf0b050	-0.029380947
241	0xbe3cf5cf	-0.18453144
242	0x3cc275a8	0.023737743
243	0xbd03da20	-0.032190442
244	0x3e0570ac	0.13031262
245	0x3d1d86ac	0.03845851
246	0x3cc023c0	0.023454547
247	0x3e051766	0.12997207
248	0xbe477da1	-0.19481517
249	0x3ddb36f4	0.10703841
250	0x3b78b600	0.0037950277
251	0xbe166d68	-0.14690173
252	0xbdf79442	-0.12088825
253	0xbd2ba734	-0.041907504
254	0xbe1bff40	-0.15234089
255	0xbe2342b8	-0.1594342

linear2.bias f4 [12]
0	0x3e1ca659	0.15297832
1	0xbf6b2664	-0.91855454
2	0xbe4cd0fe	-0.20001599
3	0xbf12ea81	-0.57389075
4	0xbe8e107b	-0.2774695
5	0xbf4ed401	-0.8079224
6	0xbf07ffce	-0.531247
7	0xbf5a6f2b	-0.8532588
8	0xbf2a6330	-0.665576
9	0xbe2dbd81	-0.16966821
10	0xbe1a0652	-0.15041474
11	0x3b722480	0.0036948025

linear3.weight f4 [1200, 12]
0	0xbec68372	-0.3877216
1	0xbeaf9a20	-0.34297276
2	0xbedd7cdd	-0.43259326
3	0x3bc9f1e6	0.0061628697
4	0xbf9f2ac2	-1.2434924
5	0x3e4c14d2	0.19929817
6	0x3a959d5a	0.0011414692
7	0xbee00362	-0.4375258
8	0xbf025fd6	-0.50927484
9	0xbfa9a3e3	-1.3253139
10	0x3e772820	0.241364
11	0x3e601474	0.21882802
12	0x3e0decaa	0.13859811
13	0xbf1f0d1e	-0.6212939
14	0xbf02d2ce	-0.5110291
15	0x3c92b320	0.01790768
16	0xbf355126	-0.7082695
17	0xbe83c446	-0.25735682
18	0xbf0620cc	-0.52393794
19	0x3e6b6ba4	0.2299028
20	0xbe6d7cb9	-0.23192109
21	0xbf2793ae	-0.65459716
22	0x3e433d42	0.19066337
23	0xbe22ac8e	-0.15886137
24	0xbe0f6a10	-0.14005303
25	0xbe2ab300	-0.16669846
26	0x3d2c39b0	0.042047203
27	0x3e370eea	0.17876783
28	0xbd925280	-0.07144642
29	0xbd55a8b8	-0.052162856
30	0xbc9edd20	-0.01939255
31	0x3e80a94a	0.25129157
32	0xbe86d4c6	-0.26334208
33	0xbe0f78ae	-0.1401088
34	0xbe1a61eb	-0.15076415
35	0x3e35bbac	0.17747372
36	0xbf37b826	-0.71765363
37	0x3edf9769	0.43670204
38	0xbeda372d	-0.4262022
39	0xbf082d81	-0.53194433
40	0xbe1d3a4c	-0.1535427
41	0xbf3241c8	-0.69631624
42	0x3ee77cf9	0.45212534
43	0xbf345fe5	-0.70458823
44	0xbe9e86bb	-0.30962166
45	0xbfa1ec44	-1.2650228
46	0x3dda62c8	0.10663372
47	0xbe688870	-0.22708297
48	0xbe806179	-0.25074366
49	0xbe5a2a77	-0.21305262
50	0x3dfd5078	0.12368864
51	0xbe7387ba	-0.23782244
52	0xbe418fbe	-0.1890249
53	0xbd4eaa38	-0.050455302
54	0xb8b0d000	-8.431077e-05
55	0xbdab8b30	-0.08376157
56	0xbd341c7c	-0.043972477
57	0xbe897d56	-0.26853436
58	0xbdbe5bdc	-0.092948645
59	0x3e1ec9a0	0.15506601
60	0xbf60d9f8	-0.87832594
61	0xbe2ed394	-0.17072898
62	0xbe5841ab	-0.211188
63	0xbeaac412	-0.33352715
64	0xbe254c7c	-0.16142458
65	0xbf3da4c6	-0.7407955
66	0x3e7f164b	0.24910848
67	0xbe8f84cf	-0.28031012
68	0xbe3b3483	-0.1828175
69	0xbf655daa	-0.89596045
70	0xbe1dc72c	-0.1540801
71	0x3e92df42	0.28685957
72	0xbf62df77	-0.8862223
73	0xbdf8222b	-0.12115892
74	0xbd9354ac	-0.07193884
75	0xbeb64e63	-0.3560668
76	0x3e77bef0	0.2419393
77	0xbf52015d	-0.8203333
78	0xbf1e1bc1	-0.617611
79	0xbf1feb8a	-0.6246878
80	0xbee0cb50	-0.43905115
81	0xbf1cab75	-0.6119912
82	0x3e7dd578	0.24788463
83	0xbe8b0c62	-0.27157885
84	0xbe3635e8	-0.17794001
85	0xbf23aab2	-0.63932335
86	0xbec394f6	-0.38199586
87	0x3e8c8fdc	0.27453506
88	0xbea56a28	-0.32307553
89	0xbe4aa205	-0.19788368
90	0xbf4f6cda	-0.8102547
91	0x3d9caeec	0.07650551
92	0x3e3561c8	0.17713082
93	0xbf2c8b2f	-0.6739988
94	0x3d104020	0.035217404
95	0xbe2db292	-0.1696265
96	0x3bada5f6	0.005299325
97	0x3f9e4a48	1.2366419
98	0x3e920bf7	0.28524753
99	0x3f01c300	0.5068817
100	0x3fbb9038	1.4653387
101	0x3f5c145f	0.85968584
102	0xbea42fba	-0.32067662
103	0x3f52c38a	0.8232962
104	0xbf280729	-0.65635926
105	0xbea0bf7c	-0.3139609
106	0xbe856e00	-0.26060486
107	0x3e062dae	0.13103363
108	0xbe503035	-0.2033089
109	0xbf4d4e02	-0.80197155
110	0xbf0f50b9	-0.5598255
111	0x3e71ef10	0.23626351
112	0xbf0da9e7	-0.55337375
113	0xbf13c17f	-0.57717127
114	0xbed111f9	-0.40834025
115	0xbecbe52b	-0.3982328
116	0x3df67a10	0.12035
117	0xbe6a63ef	-0.22889684
118	0xbd6eb988	-0.058282405
119	0xbde8315a	-0.11337538
120	0x3e940462	0.28909594
121	0x3f949f27	1.161107
122	0xbd97efad	-0.074187614
123	0xbc2a471c	-0.01039293
124	0x3fa032bd	1.2515484
125	0x3f353e0c	0.707978
126	0xbea8acb9	-0.32944277
127	0xbe871d56	-0.2638957
128	0xbefaca1b	-0.4898232
129	0xbf056023	-0.5209982
130	0x3d90944c	0.070595354
131	0xbe4ade6f	-0.19811414
132	0xbf135770	-0.57555294
133	0xbe62d175	-0.22150214
134	0x3d9a1453	0.07523408
135	0xbf45269a	-0.77012026
136	0x3d3848a8	0.044991165
137	0xbf042586	-0.51619756
138	0xbf3619a1	-0.71132857
139	0xbf2ba07a	-0.6704174
140	0xbf34cb23	-0.7062246
141	0xbf1797aa	-0.59215796
142	0x3cfd5c50	0.030927807
143	0xbe8b91a4	-0.27259552
144	0xbf192b37	-0.59831566
145	0xbed6bb96	-0.41939992
146	0xbe9bb45a	-0.30411035
147	0xbef3e5da	-0.476363
148	0xbef767c0	-0.48321342
149	0xbf079fb3	-0.52978057
150	0xbf0eae82	-0.5573503
151	0xbf473c0f	-0.7782602
152	0xbd4b1ca4	-0.04958786
153	0xbf0d7e04	-0.5527041
154	0x3df5a41c	0.11994192
155	0xbe505a4a	-0.20346943
156	0xbefcbf18	-0.49364543
157	0xbf332945	-0.6998485
158	0xbe113549	-0.14180483
159	0xbe7c3e42	-0.24633124
160	0xbf07a4ea	-0.52986014
161	0xbf0cc1d3	-0.5498325
162	0xbf2d2fc0	-0.67650986
163	0xbeb65381	-0.35610583
164	0x3d4e9988	0.050439388
165	0xbeda535c	-0.42641723
166	0xbe77e426	-0.24208125
167	0x3dad1300	0.084508896
168	0x3d897eb0	0.06713617
169	0xbe914d63	-0.28379354
170	0xbde1b7a2	-0.11021353
171	0x3e3a7f24	0.18212563
172	0xbc306160	-0.0107654035
173	0x3d0729a0	0.03299868
174	0xbdf72602	-0.12067796
175	0xbd99837a	-0.0749578
176	0x3c4fc180	0.012680411
177	0xbdc1555e	-0.094401106
178	0xbdd229a0	-0.102618456
179	0x3e892eea	0.26793605
180	0xbefecbbb	-0.4976481
181	0xbea84a7a	-0.3286932
182	0xbbf7e080	-0.0075646043
183	0x3e4bb536	0.19893345
184	0xbeb90b48	-0.3614142
185	0xbf0c6c38	-0.5485263
186	0xbd957610	-0.07297909
187	0xbee6e7c8	-0.4509871
188	0x3e7aef38	0.24505317
189	0xbf2f11d7	-0.68386596
190	0x3e28c348	0.16480744
191	0xbe54d8e9	-0.2078587
192	0xbf038c1d	-0.5138567
193	0xbf8f377a	-1.1188805
194	0xbedf511b	-0.43616566
195	0xbe8c48dc	-0.27399337
196	0xbf80ef24	-1.007298
197	0xbf34e427	-0.7066063
198	0xbe2536bd	-0.16134162
199	0xbf35e595	-0.7105344
200	0xbe77a91b	-0.24185602
201	0xbf8abc0f	-1.0838641
202	0x3dd2c198	0.10290831
203	0x3d24e030	0.040252864
204	0x3e7d4217	0.24732243
205	0x3ea5a004	0.32348645
206	0xbf45084a	-0.76965773
207	0x3ec8cfe1	0.392211
208	0x3f3f0de3	0.74630564
209	0x3f37f818	0.71862936
210	0xbf3e5057	-0.7434134
211	0x3eca4d72	0.3951221
212	0xbe933993	-0.28754863
213	0xbe6421fc	-0.22278589
214	0x3e7f85d4	0.24953395
215	0x3d007778	0.031363934
216	0xbcc93ac0	-0.024564147
217	0xbf14b83f	-0.5809364
218	0xbf03cf4d	-0.5148819
219	0xbe315b95	-0.17320092
220	0xbebf90a2	-0.37415034
221	0xbe88abaa	-0.2669347
222	0xbf340600	-0.70321655
223	0x3e894cc2	0.26816374
224	0x3d8bc424	0.0682452
225	0xbee19fc9	-0.4406722
226	0xbca36210	-0.01994422
227	0x3e7f34c4	0.24922472
228	0xbe505867	-0.20346223
229	0xbf18527d	-0.5950087
230	0xbefa2355	-0.4885508
231	0xbe8985ac	-0.26859796
232	0x3e36b980	0.178442
233	0xbed7a2f3	-0.42116508
234	0xbef00917	-0.46881935
235	0xbf24fff9	-0.64453083
236	0x3e053f34	0.13012391
237	0xbdf36ee0	-0.11886382
238	0x3e3af8d6	0.18258986
239	0xbe11b3ce	-0.14228746
240	0xbe8a04bd	-0.2695674
241	0xbe1ff821	-0.15621997
242	0xbf2277da	-0.6346413
243	0x3e47bc76	0.19505486
244	0xbce49590	-0.027903348
245	0x3d08a818	0.03336343
246	0xbef19a1a	-0.47187883
247	0xbe8c5a4a	-0.27412635
248	0x3e4478a8	0.19186652
249	0xbea03b56	-0.3129527
250	0xbe0c4b48	-0.13700593
251	0xbd76eba0	-0.060283303
252	0xbe450588	-0.19240391
253	0xbf572793	-0.8404476
254	0xbe90cc0e	-0.2828068
255	0x3bb98d80	0.00566262

linear3.bias f4 [1200]
0	0xbeeade3b	-0.45872673
1	0xbf2ce91e	-0.6754321
2	0xbd25cd20	-0.040478826
3	0xbf8dad80	-1.1068573
4	0xbe7a7cd3	-0.24461679
5	0xbf910940	-1.1330948
6	0xbf7e8d4f	-0.9943437
7	0xbf5b0965	-0.8556121
8	0xbe87757a	-0.26456815
9	0xbeb1b9d2	-0.34712082
10	0xbf263e88	-0.64939165
11	0xbf8d53fc	-1.1041255
12	0xbf00c950	-0.5030718
13	0xbf209317	-0.6272444
14	0xbe8cf6ab	-0.27531943
15	0xbf28f300	-0.6599579
16	0xbf79fa74	-0.97647786
17	0xbe3f1014	-0.18658477
18	0xbf48682a	-0.7828394
19	0xbf1e7aa7	-0.619059
20	0xbf4e9689	-0.8069845
21	0xbf307d02	-0.68940747
22	0xbe8acae6	-0.27107924
23	0xbee1b1ae	-0.4408087
24	0xbf93c9eb	-1.1545995
25	0xbf88f2ab	-1.0699056
26	0xbf5f3786	-0.871941
27	0xbf14fb85	-0.5819629
28	0xbe8427b6	-0.25811547
29	0xbe6c9902	-0.23105243
30	0xbf8d6ad6	-1.1048229
31	0xbf05fc6c	-0.5233829
32	0xbf4ffad9	-0.8124214
33	0xbe335457	-0.17512642
34	0xbf3c7a06	-0.73623693
35	0xbeebcb7a	-0.46053678
36	0xbf37f45d	-0.71857244
37	0xbee4d06d	-0.44690266
38	0xbf0ef6db	-0.5584542
39	0xbe9450e4	-0.28967965
40	0xbf83e05c	-1.0302844
41	0xbf083574	-0.53206563
42	0xbf852744	-1.0402608
43	0xbf3e38ba	-0.7430531
44	0xbf831edf	-1.0243796
45	0xbf2160aa	-0.6303812
46	0xbf40c444	-0.7529948
47	0xbf86c839	-1.0529853
48	0xbf8576e0	-1.0426903
49	0xbf513460	-0.8172054
50	0xbf3ddf7d	-0.7416914
51	0xbf85752f	-1.0426387
52	0xbec26b67	-0.37972566
53	0xbe053fe2	-0.1301265
54	0xbf23c0cc	-0.6396606
55	0xbf923943	-1.1423725
56	0xbef577ff	-0.47943112
57	0xbf387389	-0.7205129
58	0xbec046e7	-0.37554094
59	0xbeb271b2	-0.34852368
60	0xbf93f904	-1.1560369
61	0xbf4174a8	-0.7556863
62	0xbdd0dd4d	-0.1019846
63	0xbf71b77c	-0.944206
64	0xbf848756	-1.0353801
65	0xbf8379ef	-1.0271586
66	0xbf393e5c	-0.7236078
67	0xbd1935a3	-0.037404668
68	0xbe68c8d7	-0.22732864
69	0xbfa39055	-1.2778422
70	0xbe5ef0e1	-0.21771576
71	0xbf86d31f	-1.0533179
72	0xbf905b7a	-1.1277916
73	0xbe1a3327	-0.15058576
74	0xbe98e350	-0.29860926
75	0xbf5de279	-0.86673695
76	0xbf5ecd47	-0.8703198
77	0xbe1405e2	-0.14455369
78	0xbf6688eb	-0.9005267
79	0xbf05ca31	-0.52261645
80	0xbe8533a7	-0.2601597
81	0xbf4134ef	-0.75471395
82	0xbf1f912d	-0.62330896
83	0xbf8ee301	-1.1163026
84	0xbf93f6c2	-1.155968
85	0xbf8bb00d	-1.0913101
86	0xbdfc7af4	-0.12328139
87	0xbf434030	-0.7626982
88	0xbf1fa81c	-0.6236589
89	0xbe37124c	-0.17878073
90	0xbf7f63a7	-0.9976143
91	0xbf319840	-0.6937294
92	0xbf094629	-0.5362268
93	0xbf807909	-1.0036937
94	0xbeb34354	-0.35012305
95	0xbf67cb21	-0.90544325
96	0xbf89f490	-1.077776
97	0xbf8acc5c	-1.0843616
98	0xbf4caa07	-0.7994694
99	0xbf284880	-0.65735626
100	0xbf0c4dea	-0.5480639
101	0xbeb0bbc1	-0.34518245
102	0xbf7394a0	-0.9514866
103	0xbf19d2dc	-0.6008737
104	0xbe09a7d9	-0.13442935
105	0xbf20e0d8	-0.62843084
106	0xbf2eba56	-0.68253076
107	0xbe8edf80	-0.27904892
108	0xbf6e72fa	-0.9314419
109	0xbe8d4279	-0.27589777
110	0xbf8eae19	-1.114688
111	0xbe0d265c	-0.13784164
112	0xbf166ad2	-0.58756745
113	0xbe86277e	-0.26202005
114	0xbf0805d3	-0.5313389
115	0xbf69e83a	-0.91369975
116	0xbed06510	-0.40702105
117	0xbf8a31f8	-1.0796499
118	0xbf225386	-0.63408697
119	0xbf6e57c6	-0.9310268
120	0xbf67b444	-0.9050944
121	0xbe8da95a	-0.27668267
122	0xbef53793	-0.47893962
123	0xbf3a802d	-0.7285183
124	0xbf41285f	-0.75452226
125	0xbf778395	-0.96685153
126	0xbf8cd66b	-1.1002935
127	0xbf79491d	-0.97377187
128	0xbf15e86a	-0.5855776
129	0xbf2a22e5	-0.66459495
130	0xbf0c2e1b	-0.5475785
131	0xbdc4fd90	-0.09618676
132	0xbef90975	-0.48640028
133	0xbf90ce2d	-1.131292
134	0xbeef1e1b	-0.46702656
135	0xbefe8a4a	-0.4971488
136	0xbf692a6d	-0.9108036
137	0xbdba985f	-0.09111094
138	0xbeec1c7d	-0.46115485
139	0xbe7e51d2	-0.248359
140	0xbe00b4f5	-0.1256903
141	0xbf4039fa	-0.75088465
142	0xbf732de1	-0.9499188
143	0xbf3562a5	-0.70853645
144	0xbf2bdf35	-0.6713746
145	0xbf10d191	-0.5656977
146	0xbe92d275	-0.2867619
147	0xbf60d3d1	-0.87823206
148	0xbf18f304	-0.5974581
149	0xbf8fdbd2	-1.1238959
150	0xbf5a1a79	-0.85196644
151	0xbeea9f25	-0.45824543
152	0xbf31502a	-0.69262946
153	0xbf4f4594	-0.8096554
154	0xbe3924fc	-0.18080515
155	0xbe368c49	-0.17826952
156	0xbf8e6e23	-1.1127361
157	0xbf7da927	-0.9908623
158	0xbf05bbde	-0.5223979
159	0xbef08fcd	-0.4698471
160	0xbedb5dd6	-0.4284503
161	0xbf143c3a	-0.579044
162	0xbf142cd9	-0.5788093
163	0xbf13726e	-0.5759648
164	0xbe822448	-0.25418305
165	0xbf4213ca	-0.75811446
166	0xbf21ddb0	-0.63228893
167	0xbf19e6dd	-0.60117894
168	0xbf950dca	-1.1644833
169	0xbf875835	-1.0573794
170	0xbf9237da	-1.1423295
171	0xbf0883ab	-0.5332591
172	0xbf98f3b9	-1.1949378
173	0xbf79d737	-0.97594017
174	0xbf377748	-0.71666384
175	0xbf6eba1f	-0.9325275
176	0xbf1077e0	-0.56432915
177	0xbf001dde	-0.50045574
178	0xbf0ab6f6	-0.54185426
179	0xbebac303	-0.36476907
180	0xbf3929cd	-0.7232941
181	0xbf704a4f	-0.93863386
182	0xbe57e732	-0.21084288
183	0xbf23dbc4	-0.6400721
184	0xbf5e54a6	-0.86847913
185	0xbf82a766	-1.0207336
186	0xbf6c80b2	-0.92383873
187	0xbf52ba6a	-0.82315695
188	0xbf5dd412	-0.8665172
189	0xbecbad44	-0.3978063
190	0xbee36318	-0.4441154
191	0xbf752e9e	-0.9577426
192	0xbf32bab7	-0.69816154
193	0xbf870aae	-1.0550134
194	0xbf1b8ef8	-0.6076503
195	0xbf8bedca	-1.0931942
196	0xbf72fad1	-0.94913965
197	0xbef74ea8	-0.48302197
198	0xbf23cada	-0.639814
199	0xbddf1ad8	-0.10893792
200	0xbeb2df77	-0.34936115
201	0xbf0bc188	-0.5459218
202	0xbdc1d87c	-0.09465119
203	0xbebc6700	-0.36797333
204	0xbed44a71	-0.41463044
205	0xbf6537a1	-0.8953801
206	0xbf411565	-0.7542327
207	0xbf333a25	-0.70010597
208	0xbf28539f	-0.65752596
209	0xbf10a19b	-0.5649659
210	0xbf974228	-1.1817064
211	0xbe20e946	-0.15713987
212	0xbf860788	-1.0471048
213	0xbf020e66	-0.5080322
214	0xbf24aeab	-0.6432902
215	0xbf8bd4f5	-1.0924364
216	0xbf30ad9e	-0.6901492
217	0xbf5ef06e	-0.87085617
218	0xbf3f6ed4	-0.74778485
219	0xbf31a5eb	-0.69393796
220	0xbe8846fd	-0.2661666
221	0xbf9fbd94	-1.247973
222	0xbe24757b	-0.1606044
223	0xbf50a325	-0.8149894
224	0xbec12544	-0.37723744
225	0xbee69411	-0.4503484
226	0xbf595f8f	-0.84911436
227	0xbf451600	-0.76986694
228	0xbf7f5ddb	-0.9975259
229	0xbf916ddc	-1.1361651
230	0xbf3e0a37	-0.74234337
231	0xbe03ec18	-0.12883031
232	0xbe6ec8b8	-0.23318756
233	0xbe0319ee	-0.1280286
234	0xbf3a5fcc	-0.72802424
235	0xbf908c09	-1.1292735
236	0xbf4234e4	-0.75861955
237	0xbf312c0d	-0.6920784
238	0xbf8c9022	-1.0981486
239	0xbf4c2a02	-0.797516
240	0xbf0b1f45	-0.5434459
241	0xbf1a41af	-0.60256475
242	0xbf402810	-0.7506113
243	0xbf80a0ad	-1.0049034
244	0xbf353367	-0.7078156
245	0xbefbecfc	-0.49204242
246	0xbf973138	-1.1811895
247	0xbf824386	-1.0176857
248	0xbf390e4e	-0.7228745
249	0xbf6e93d1	-0.931943
250	0xbf020865	-0.5079406
251	0xbf7c25ba	-0.98495066
252	0xbf5d98a4	-0.86561036
253	0xbf8dba5f	-1.1072501
254	0xbf49ee38	-0.7887912
255	0xbf947b78	-1.160018

linear1.weight f4 [12, 1200]
0	0xbce53e45	-0.027983794
1	0xbce93ae7	-0.02847047
2	0xbc0a71e0	-0.0084500015
3	0x3f030f98	0.5119567
4	0x3cdf5b18	0.027265117
5	0x3f095461	0.53644377
6	0x3caf8ca6	0.021429371
7	0x3cb534e6	0.02211995
8	0xbe84587f	-0.25848767
9	0x3c2bbce8	0.0104820505
10	0xbeaae513	-0.33377895
11	0xbae6fc30	-0.0017622765
12	0x3c8bc5be	0.017062064
13	0xbca60d9c	-0.020270161
14	0xbc9270d5	-0.017876068
15	0xbcc3c7e0	-0.023899019
16	0xbcd9f53c	-0.026606195
17	0xbea74347	-0.32668516
18	0x3c38fbd4	0.011290509
19	0xbb9fd42c	-0.004877588
20	0xbc63b57f	-0.0138982525
21	0x3c5b3b9c	0.013380911
22	0xbc995c42	-0.01872075
23	0xba5403c0	-0.0008087717
24	0x3cae8b84	0.02130676
25	0x3f052f65	0.52025443
26	0x3f089b3c	0.5336187
27	0x3bf3a0c8	0.007434938
28	0xbc7aabbf	-0.0152997365
29	0xbe9f94c8	-0.311682
30	0x3ef81bf3	0.48458824
31	0x3ca3a898	0.019977853
32	0x3a5d2040	0.00084352866
33	0x3b221c10	0.0024735965
34	0x3c8d2962	0.017231647
35	0xbecd3799	-0.4008148
36	0x3ca3d444	0.019998677
37	0x3ca53aa8	0.020169571
38	0xbad909a0	-0.0016558655
39	0x3f07f589	0.5310903
40	0x3f0212ad	0.50809747
41	0xbccefbfd	-0.025266642
42	0x3f0d4588	0.5518422
43	0xbac7bec0	-0.0015239343
44	0xbca88da4	-0.020575352
45	0x3c1b5eec	0.00948308
46	0xbe53d2a3	-0.2068582
47	0x3f04bfab	0.5185496
48	0xbee51c94	-0.44748366
49	0xbee2eb1e	-0.44320005
50	0xbc9b0fed	-0.018928492
51	0x3ec59554	0.3859049
52	0xbe940e05	-0.28916946
53	0xbce559fd	-0.027997011
54	0x3cdb0784	0.026736982
55	0xbcd8f9b2	-0.026486252
56	0x3c7c8d24	0.01541451
57	0xbef68904	-0.4815141
58	0x3ea001e2	0.31251436
59	0xbc3aa0ac	-0.011390846
60	0x3ec3736f	0.38174006
61	0x3cd4bcb0	0.02596888
62	0x3cd80c32	0.026373003
63	0xbc390cee	-0.011294587
64	0x3c2ee460	0.010674566
65	0x3f02a6b9	0.5103565
66	0xba8f53a0	-0.0010934956
67	0x3f077d16	0.5292524
68	0x3d758aa0	0.059946656
69	0x3f07bd72	0.53023446
70	0xbcb3f86c	-0.021969043
71	0x3f0b8814	0.54504514
72	0x3ef25d66	0.47336882
73	0x3c53cce8	0.012927271
74	0x3c653b04	0.013991121
75	0xbf0390a4	-0.5139258
76	0x3ca3a00e	0.019973781
77	0xbec12414	-0.37722838
78	0x3ce7a0ca	0.028274912
79	0xbea0fedf	-0.3144445
80	0xbe8574c2	-0.26065642
81	0xbca6ccfc	-0.020361416
82	0xbed60ada	-0.41805154
83	0x3f0d668e	0.5523461
84	0x3b4a2910	0.003084723
85	0x3f0d4f39	0.5519901
86	0x3c23d684	0.009999875
87	0x3af039a0	0.001832772
88	0xbc5ba9e7	-0.013407207
89	0x3cb78e80	0.022406816
90	0xbc4245a2	-0.011857422
91	0x3bb16170	0.005413227
92	0x3ccce506	0.02501155
93	0xbcb9dc6e	-0.022688117
94	0x3eafcc42	0.34335524
95	0x3f0487f0	0.51769924
96	0xbcda626a	-0.026658256
97	0x3caaad2c	0.020834528
98	0xbcbc08d3	-0.022953426
99	0x3f0b4b47	0.5441174
100	0xbe763cfb	-0.240467
101	0xbc8cf155	-0.01720492
102	0x3ccada0b	0.024762174
103	0x3f036c27	0.513369
104	0xbebd13df	-0.36929223
105	0xbc792610	-0.015206829
106	0xbccff3c4	-0.025384791
107	0x3c96551a	0.018351126
108	0x3eb8f281	0.36122516
109	0x3c0014f8	0.007817499
110	0x3cd56920	0.026051104
111	0xbc08a272	-0.008339511
112	0x3ca7c6d0	0.020480543
113	0x3c1fbc78	0.009749524
114	0x3cd0c2f8	0.025483593
115	0xbcc36509	-0.023851888
116	0x3cdc398a	0.026882906
117	0x3efb46bb	0.490774
118	0xbcb216ac	-0.021739326
119	0x3c286fc8	0.010280557
120	0xbc4a6ddc	-0.012355294
121	0x3cd8f818	0.026485488
122	0x3cb3edc4	0.021963961
123	0xbc1ce46c	-0.009575944
124	0xbc1e921e	-0.009678392
125	0x3f04dcad	0.51899225
126	0x3b5a1a20	0.0033279732
127	0xbe9f3398	-0.3109405
128	0xbc74ed3c	-0.014949139
129	0xbbea8d88	-0.007157985
130	0xbc8cc088	-0.01718165
131	0x3bdb9fb0	0.006702386
132	0x3a9f33c0	0.001214616
133	0x3f03d196	0.5149168
134	0xbeae2d30	-0.3401885
135	0xbe97d659	-0.29655722
136	0x3eb0b1d5	0.34510675
137	0x3f0310a9	0.51197296
138	0xbe98250f	-0.29715773
139	0x3c8b06ac	0.016970955
140	0xbcad9f42	-0.021194104
141	0x3ede0d64	0.4336959
142	0xbc5c2659	-0.013436877
143	0x3bf88b38	0.0075849555
144	0xbedfb377	-0.43691608
145	0xbca8f23c	-0.020623319
146	0xbcbf9fc3	-0.02339161
147	0x3e0563a7	0.13026296
148	0x3f093ed3	0.5361149
149	0xb971c100	-0.00023055449
150	0xbe767b61	-0.24070503
151	0xbc9798e2	-0.018505517
152	0x3c622304	0.013802294
153	0xbc1eeacc	-0.009699535
154	0x3cd58e18	0.026068732
155	0xbedc40ab	-0.43018088
156	0xba9a5010	-0.0011773128
157	0xba6939e0	-0.00088968687
158	0x3c354b00	0.011065245
159	0xbca627f3	-0.020282721
160	0xbecf0e61	-0.40440658
161	0x3b95e818	0.004574787
162	0xbbc0b6f4	-0.0058811847
163	0xbc44983a	-0.011999184
164	0xbc7c60f9	-0.015403979
165	0x3caaf920	0.020870745
166	0x3c154d74	0.009112705
167	0x3c8db91e	0.017300185
168	0xbc016662	-0.007897945
169	0xbcb2d792	-0.021831308
170	0x3cd3e96c	0.02586814
171	0x3bbcc838	0.0057611726
172	0xbc110d34	-0.0088532455
173	0x3c8bfa70	0.017087191
174	0x3d64fbc1	0.055904154
175	0x3eb7ea77	0.3592107
176	0xbcb48be8	-0.022039369
177	0xbe809816	-0.25116032
178	0xbe80fcb4	-0.25192797
179	0x3e17bce6	0.14818153
180	0x3c0268c0	0.007959545
181	0x3f0b8820	0.54504585
182	0x3cc01dec	0.023451768
183	0xbf014b22	-0.5050527
184	0x3c831536	0.016001325
185	0x3f0c75d2	0.5486728
186	0xbc84b219	-0.016198205
187	0xbc9a4c6e	-0.018835273
188	0x3e915127	0.28382227
189	0xbed6ad40	-0.41929054
190	0x3f0323bf	0.5122642
191	0x3ccd155c	0.025034599
192	0x3cc498c0	0.023998618
193	0x3e73af49	0.23797335
194	0x3f04e435	0.51910716
195	0x3ec81434	0.39077914
196	0x3f08ad8b	0.53389806
197	0xbc0f038a	-0.008728871
198	0xbbaabec8	-0.005210731
199	0x3ca205b2	0.019778106
200	0x3c93cd1c	0.01804214
201	0x3f09f70d	0.53892595
202	0xbb9d48c8	-0.004799936
203	0xbcd823b8	-0.02638422
204	0xbc444724	-0.011979852
205	0xbc4823b6	-0.012215545
206	0xbf0140b3	-0.5048935
207	0x3cd0b948	0.025478974
208	0xbc80755c	-0.015680961
209	0x3f0d76b7	0.5525927
210	0xbb171438	-0.0023052823
211	0x3c8a77f2	0.016902898
212	0x3f07e3a7	0.53081745
213	0xbe7dd717	-0.24789082
214	0x3c185068	0.009296514
215	0x3f041c1b	0.51605386
216	0xbbf5a800	-0.007496834
217	0x3c2977e4	0.010343526
218	0xbc9012dc	-0.017587118
219	0xbc26da34	-0.01018386
220	0xbe95f755	-0.29290262
221	0x3b9fe450	0.004879512
222	0x3c85a92c	0.016316019
223	0xbccb02ae	-0.024781551
224	0xbc050e40	-0.008121073
225	0xbcd344c9	-0.025789635
226	0x3b8d78c8	0.0043173768
227	0xbefa2736	-0.4885804
228	0xbe5fc3d2	-0.21852043
229	0xbc99b941	-0.018765094
230	0xbc925bc2	-0.01786602
231	0xbaafd450	-0.0013414714
232	0xbcb768ee	-0.022388902
233	0x3c6142f8	0.013748877
234	0x3f00316b	0.50075406
235	0x3b2bd400	0.002621889
236	0x3b59a7b0	0.0033211522
237	0x3a0aefc0	0.0005300008
238	0x3eccc863	0.39996633
239	0x3f02bc48	0.51068544
240	0xbc1875ce	-0.009305431
241	0xbc765a99	-0.015036249
242	0xbf02dba1	-0.5111638
243	0x3d94271d	0.07234023
244	0x3ccd4eac	0.025061928
245	0xbcd4aa00	-0.025959969
246	0x3f1014d5	0.5628179
247	0x3f04bdcd	0.51852113
248	0x3b6ea1d0	0.0036412366
249	0x3ea54505	0.3227922
250	0x3cb31902	0.02186251
251	0x3f084e5a	0.53244555
252	0xbc9aa5b9	-0.01887785
253	0xbc85e869	-0.016346173
254	0xbc29b4dc	-0.010358062
255	0x3f0cac52	0.5495044

linear1.bias f4 [12]
0	0xbd7b44ef	-0.061345037
1	0xbf1f74e0	-0.6228771
2	0xbf17e16e	-0.59328353
3	0xbf1bb14b	-0.608174
4	0xbf0f8e26	-0.56076276
5	0xbee1ab3f	-0.44075963
6	0xbf1ac473	-0.6045601
7	0xbef94006	-0.48681659
8	0xbf184ff6	-0.5949701
9	0xbf13c329	-0.57719666
10	0xbc20dfa2	-0.009818943
11	0xbedb14c4	-0.4278928

linear2.weight f4 [24, 12]
0	0xbeaf9654	-0.3429438
1	0xbedcca27	-0.4312298
2	0xbf1488ad	-0.5802105
3	0xbf2a41f6	-0.665069
4	0x3f1ce680	0.61289215
5	0x3e9e47dc	0.309142
6	0xbf407330	-0.7517576
7	0x3dcb6c1b	0.09932729
8	0xbefc27a5	-0.49248996
9	0xbf4dae57	-0.80344146
10	0x3e393e48	0.18090165
11	0x3f1b8b7f	0.6075973
12	0xbe8432be	-0.25819963
13	0xbf0f5340	-0.55986404
14	0xbf1fb653	-0.6238758
15	0xbf4042c1	-0.7510186
16	0xbf3fd57f	-0.74935144
17	0xbf432530	-0.7622862
18	0xbf4381db	-0.7637002
19	0xbedce6ce	-0.4314484
20	0xbf0d5a4e	-0.5521592
21	0xbf1dc9a9	-0.61635834
22	0xbe8a1b49	-0.26973942
23	0xbf2954f1	-0.66145235
24	0xbe085361	-0.13313057
25	0x3d401680	0.046896458
26	0x3da1e818	0.079055965
27	0xbe90dbc9	-0.28292683
28	0xbe771e0c	-0.24132556
29	0xbd37e0ac	-0.044892
30	0xbe0103fb	-0.12599175
31	0xbe574abe	-0.21024606
32	0xbe0d8094	-0.1381858
33	0xbdd1a25a	-0.10236044
34	0x3e1998d6	0.14999709
35	0xbe48b2a4	-0.19599396
36	0xbe83772e	-0.25676864
37	0x3e02578e	0.12728712
38	0xbe0547fe	-0.13015744
39	0xbd90e334	-0.070745856
40	0xbf17005c	-0.58984923
41	0xbf295836	-0.66150224
42	0xbd1951a8	-0.03743139
43	0xbf4d86f2	-0.80284035
44	0xbdd599d6	-0.104297325
45	0x3e201b1a	0.15635338
46	0x3cf84740	0.030307412
47	0xbea9a102	-0.33130652
48	0xbf31bcf8	-0.6942897
49	0x3ed654d7	0.41861603
50	0x3eb63178	0.35584617
51	0x3f4661d3	0.7749302
52	0xbea1fc6a	-0.3163789
53	0xbe521f91	-0.20519854
54	0x3f2a9922	0.6663991
55	0xbef33b0e	-0.47505993
56	0x3f0d7550	0.5525713
57	0x3f1a62a7	0.6030678
58	0xbe81c85a	-0.2534817
59	0xbf3a8030	-0.7285185
60	0x3c33df60	0.01097855
61	0xbf314ce0	-0.69257927
62	0xbf27deb9	-0.6557422
63	0xbf4050ae	-0.7512311
64	0xbf02734c	-0.5095718
65	0xbf34c01d	-0.7060564
66	0xbf0faf33	-0.5612671
67	0xbf439309	-0.7639623
68	0xbf145f51	-0.5795794
69	0xbf51d158	-0.8196006
70	0xbe777372	-0.24165133
71	0xbf4bb448	-0.7957196
72	0xbd667284	-0.056261554
73	0xbf46da14	-0.7767651
74	0xbf589347	-0.8459973
75	0xbf56c329	-0.8389154
76	0xbf468b82	-0.7755662
77	0xbf2c0ed6	-0.6721014
78	0xbf55a001	-0.8344727
79	0xbeda8f77	-0.4268758
80	0xbf3d0cca	-0.7384764
81	0xbf0c99c9	-0.5492216
82	0x3e218b7c	0.15775865
83	0xbf41500c	-0.75512767
84	0xbec82107	-0.39087698
85	0xbd7407d4	-0.059577778
86	0x3e0e4940	0.1389513
87	0x3d9cd8c8	0.07658535
88	0xbe3deb98	-0.18546903
89	0xbe8b53c2	-0.2721234
90	0x3e4f7358	0.20258844
91	0x3e7b1c7c	0.24522585
92	0xbe2ee8dc	-0.17081016
93	0xbe62cd24	-0.22148567
94	0x3dfe373c	0.12412879
95	0x3f0795ae	0.5296277
96	0x3d126988	0.035745174
97	0x3e39bd54	0.18138629
98	0xbd910642	-0.07081272
99	0x3e8d7a0a	0.2763217
100	0xbe0f1073	-0.13971119
101	0x3e125e54	0.14293796
102	0xbdf70764	-0.120619565
103	0xbe80a07a	-0.25122434
104	0x3e1c7272	0.15278032
105	0xbbd58940	-0.0065166056
106	0x3e02c3f8	0.12770069
107	0xbdf0e598	-0.117625415
108	0xbdf4731e	-0.11936019
109	0xbedf438f	-0.4360623
110	0xbef6fd69	-0.48240212
111	0xbf33ca9e	-0.70231044
112	0xbf276531	-0.6538878
113	0xbecdd37f	-0.4020042
114	0xbee4edb6	-0.4471261
115	0x3f157a5b	0.58389825
116	0xbea6262a	-0.32450992
117	0xbee4e2a1	-0.44704154
118	0x3d1a7d48	0.037717134
119	0xbec4748c	-0.38370168
120	0xbd5cdbe0	-0.053920627
121	0x3e3fcae2	0.18729737
122	0xbd5d6330	-0.05404967
123	0xbdb0b6e4	-0.086286336
124	0x3d0e8608	0.03479579
125	0xbce1e9d0	-0.02757731
126	0xbe1babf9	-0.15202321
127	0xbd224cc4	-0.03962399
128	0xbd92d0a2	-0.071687
129	0xbe8b6fae	-0.27233642
130	0x3e1fd94a	0.15610233
131	0xbe451f78	-0.19250286
132	0xbe18172f	-0.14852594
133	0xbea6a508	-0.32547784
134	0xbedd3834	-0.43206942
135	0xbeebd85b	-0.46063504
136	0xbf1c4c0b	-0.6105353
137	0xbf2db405	-0.67852813
138	0xbed8f82f	-0.4237685
139	0xbf49131a	-0.7854477
140	0xbef8f734	-0.486261
141	0xbedafbf4	-0.4277035
142	0xbda48360	-0.0803287
143	0xbf08b433	-0.5339996
144	0xbf1db88d	-0.6160973
145	0x3f18c0d8	0.59669256
146	0x3f462001	0.77392584
147	0x3f0fbb76	0.5614542
148	0xbed22685	-0.41045013
149	0xbe389e3c	-0.18029112
150	0x3eab21fb	0.33424363
151	0xbed32ef6	-0.41246766
152	0x3f432fb6	0.76244676
153	0x3eb81548	0.35953736
154	0x3d094380	0.03351164
155	0xbebc652e	-0.36795944
156	0x3b727f00	0.0037001967
157	0xbf0621bf	-0.5239524
158	0xbf28339e	-0.6570376
159	0xbf3744e1	-0.71589476
160	0xbf5622b3	-0.83646697
161	0xbf481f9a	-0.7817322
162	0xbee07db0	-0.43845892
163	0xbf0e3a12	-0.5555736
164	0xbf4cd32d	-0.8000973
165	0xbef01d7d	-0.46897498
166	0x3dd4d688	0.10392481
167	0xbf50a681	-0.81504065
168	0x3ef74828	0.48297238
169	0x3e3d20e6	0.18469581
170	0x3e151ec0	0.14562511
171	0xbc9b0250	-0.018922001
172	0xbf0b8866	-0.54505
173	0xbf0c159a	-0.5472046
174	0x3dceb578	0.10093206
175	0xbec39bdd	-0.38204852
176	0x3e3c2910	0.18375039
177	0x3e32f962	0.17477944
178	0x3de6f1fc	0.112766236
179	0xbf2fce1e	-0.68673885
180	0xbf4d8b60	-0.80290794
181	0xbe2a8bdc	-0.16654915
182	0x3e302dd4	0.17204982
183	0xb959e800	-0.0002078116
184	0x3f3f1074	0.7463448
185	0x3e952421	0.29129127
186	0x3e29072c	0.16506642
187	0x3f544bf5	0.829284
188	0x3e0f3844	0.13986307
189	0xbddbc700	-0.107313156
190	0x3d9054e8	0.070474446
191	0x3ec8cbb3	0.3921791
192	0xbf1618d4	-0.58631635
193	0x3f0d0ebb	0.551006
194	0x3f11cce4	0.56953263
195	0x3eb87e99	0.36034086
196	0xbf1895ef	-0.5960378
197	0xbf0e43fc	-0.55572486
198	0x3ef9d5b9	0.4879587
199	0xbf47732e	-0.77910125
200	0x3f1838c3	0.5946161
201	0x3f1a348e	0.6023644
202	0xbdb260ec	-0.08709893
203	0xbf07ea42	-0.53091824
204	0xbe602d80	-0.21892357
205	0x3f56bf57	0.8388571
206	0x3f06c26b	0.5264041
207	0x3f2adf4f	0.6674699
208	0xbebe5f4e	-0.37182087
209	0xbf399d9e	-0.7250613
210	0x3eea47ed	0.45758
211	0xbeaea57c	-0.3411063
212	0x3f45ad36	0.77217424
213	0x3f414cc2	0.7550775
214	0xbe91ae19	-0.28453138
215	0xbf2064a7	-0.62653583
216	0xbeb43f3e	-0.352045
217	0xb9367800	-0.00017401576
218	0xbe53e75f	-0.2069373
219	0x3e3b216e	0.18274471
220	0x3e01311c	0.1261639
221	0xbe832e2a	-0.25621158
222	0xbd8304a8	-0.063973725
223	0x3e8f9628	0.28044248
224	0xbe045fc6	-0.1292716
225	0xbe0b96b0	-0.13631701
226	0xbe1c1376	-0.15241799
227	0xbe886b74	-0.2664448
228	0xbdfd301a	-0.1236269
229	0x3ea20553	0.31644687
230	0x3f18288a	0.5943686
231	0x3f3f0cfe	0.746292
232	0xbe95da65	-0.29268184
233	0xbf247daf	-0.6425428
234	0x3f54c8f1	0.8311911
235	0xbecd2f60	-0.40075207
236	0x3f61c7bc	0.88195395
237	0x3efd2599	0.49442747
238	0xbc7724c0	-0.0150844455
239	0xbf319c76	-0.69379365
240	0xbf47cc47	-0.7804608
241	0x3e8303be	0.25588793
242	0x3e8a5a06	0.27021807
243	0xbe924a07	-0.28572103
244	0x3e7af088	0.24505818
245	0x3c31ab11	0.010844008
246	0xbd3cef20	-0.046126485
247	0x3e7aef70	0.245054
248	0xbe773358	-0.2414068
249	0x3d653910	0.055962622
250	0x3dc5aeb8	0.096524656
251	0xbe7ae20a	-0.2450029
252	0x3e1a0fe2	0.15045121
253	0x3e10dd86	0.14147004
254	0x3eb906d9	0.36138037
255	0x3eb4b583	0.35294732

linear2.bias f4 [24]
0	0xbd642edd	-0.055708755
1	0xbf39b1ff	-0.72537225
2	0xbe22748d	-0.15864773
3	0xbf57c6a5	-0.8428748
4	0xbef42c35	-0.47689977
5	0xbebf5f5d	-0.37377444
6	0xbeec9da9	-0.46214035
7	0xbf14975b	-0.5804345
8	0xbe3ee52c	-0.1864211
9	0xbf0054fb	-0.5012967
10	0xbe420a96	-0.1894935
11	0xbec28937	-0.37995312
12	0xbeaab3b7	-0.33340237
13	0xbeb355bf	-0.35026357
14	0xbe283385	-0.16425903
15	0xbf204531	-0.6260558
16	0xbf280129	-0.6562677
17	0x3c636f55	0.013881524
18	0xbf470936	-0.7774843
19	0xbec21fc7	-0.3791487
20	0xbeefa00c	-0.46801794
21	0xbebf7606	-0.37394732
22	0xbc5c9bf8	-0.01346492
23	0xbdef58ee	-0.11686884

linear3.weight f4 [48, 24]
0	0x3e82b172	0.25526005
1	0xbde1bd1b	-0.11022397
2	0x3e15895e	0.14603183
3	0x3f05f8e4	0.523329
4	0xbe8a54fa	-0.27017957
5	0x3f496482	0.7866899
6	0x3ed15f61	0.4089308
7	0xbec67d35	-0.387674
8	0x3e3cf03e	0.1845102
9	0x3f1cbe91	0.6122828
10	0xbe4529ad	-0.1925418
11	0x3f315535	0.6927064
12	0xbf12e84c	-0.57385707
13	0x3f2f58ab	0.6849467
14	0xbf406a39	-0.7516208
15	0xbf328fec	-0.6975086
16	0xbec140e1	-0.3774481
17	0xbed45ce4	-0.4147712
18	0xbf2cf8f8	-0.67567396
19	0xbe84587b	-0.25848755
20	0xbedd47da	-0.4321888
21	0xbe860df4	-0.2618252
22	0xbdf55459	-0.11978979
23	0xbb1188df	-0.0022206826
24	0xbc0c41c9	-0.008560606
25	0xbe4e773b	-0.2016267
26	0xbe48e9b4	-0.196204
27	0x3e90a6a1	0.28252128
28	0xbeb60ee1	-0.35558227
29	0x3ed56d09	0.4168475
30	0x3f394b00	0.72380066
31	0xbf1768c9	-0.59144264
32	0x3e31f3fc	0.17378229
33	0x3f317b91	0.6932917
34	0xbe1a389f	-0.15060662
35	0x3ef8d8c4	0.4860288
36	0xbea236d5	-0.3168246
37	0x3f267926	0.6502861
38	0xbef0fd63	-0.4706832
39	0xbebec25c	-0.3725766
40	0x3d1b8e67	0.037977602
41	0xbeae0bcf	-0.33993384
42	0xbeee7f78	-0.46581626
43	0xbf24a5b4	-0.6431534
44	0x3c763318	0.01502683
45	0x3dc28d28	0.0949958
46	0xbe4b381e	-0.19845626
47	0xbe913e17	-0.28367683
48	0x3f35ab74	0.7096474
49	0x3f02aaa6	0.5104164
50	0xbda3a11f	-0.07989716
51	0x3e05a2a4	0.13050324
52	0x3d44d5e6	0.048055552
53	0x3ed760a5	0.4206592
54	0x3f0a6d19	0.5407272
55	0x3ead63f2	0.33865315
56	0xbbb62d80	-0.0055596232
57	0x3efb884d	0.49127427
58	0x3d43c5e0	0.04779613
59	0x3eecaab5	0.4622399
60	0x3e9530a8	0.29138684
61	0x3f0901b5	0.5351823
62	0x3d180720	0.03711617
63	0xbe1ff372	-0.15620211
64	0x3e91c880	0.28473282
65	0x3ed9a014	0.42504942
66	0xbedbd38e	-0.4293484
67	0xbe4b4b92	-0.19853047
68	0xbf37c856	-0.71790063
69	0xbf1ea5e2	-0.6197187
70	0x3e951958	0.29120898
71	0x3f4a7ae5	0.7909377
72	0x3e837fd8	0.25683475
73	0xbe517057	-0.2045301
74	0xbd8e6f18	-0.06954783
75	0x3eb2b936	0.3490693
76	0xbeef23b5	-0.4670693
77	0x3f0cf54f	0.5506181
78	0x3f2a90e4	0.66627336
79	0xbee3ad97	-0.44468376
80	0x3df17890	0.117905736
81	0x3eeb13a9	0.45913437
82	0xbdf2b4bd	-0.11850879
83	0x3efd1594	0.49430525
84	0x3e1b9f38	0.15197456
85	0x3f3c2d53	0.7350666
86	0xbee71059	-0.4512966
87	0xbe8b48fe	-0.27204126
88	0x3f0a0b97	0.53923935
89	0x3c160b6f	0.009157999
90	0xbeaf58b4	-0.34247363
91	0xbf0e1582	-0.5550157
92	0x3e727edd	0.23681207
93	0x3e3da9b7	0.18521772
94	0x3eb84156	0.35987347
95	0x3e95ca5b	0.29255947
96	0xbe544304	-0.2072869
97	0x3f41a25c	0.75638366
98	0x3dcd0994	0.100115925
99	0xbe83892b	-0.25690588
100	0xbeb4ca10	-0.3531041
101	0x3f062d87	0.5241322
102	0x3f3a9be4	0.7289412
103	0xbf23add7	-0.63937134
104	0x3dc86d9c	0.09786531
105	0x3f390441	0.72272116
106	0x3db41dc0	0.08794737
107	0x3ece0c3e	0.40243715
108	0xbe7b6f4e	-0.24554178
109	0x3f0b74dc	0.5447519
110	0x3ea1ac55	0.3157679
111	0x3de3c5f6	0.111217424
112	0xbf2a31c3	-0.6648218
113	0x3eac47b8	0.33648467
114	0x3ebc3f3e	0.36767
115	0xbec0e0ea	-0.37671596
116	0xbf69bb80	-0.9130173
117	0xbf4655ca	-0.77474654
118	0x3eb5cca7	0.355077
119	0xbd090f5b	-0.03346191
120	0xbe873a1a	-0.26411515
121	0xbea71e01	-0.3264008
122	0x3c997210	0.018731147
123	0xbc9d39f3	-0.019192671
124	0x3ed0fcc6	0.4081785
125	0xbf261503	-0.6487581
126	0x3ed09841	0.4074116
127	0x3ef3f257	0.47645828
128	0x3da522dc	0.080632895
129	0xbef08dc5	-0.46983162
130	0x3bc9aec0	0.006154865
131	0xbf09ebe8	-0.5387559
132	0x3ec54928	0.38532376
133	0x3f0fc6e9	0.5616289
134	0x3eb30780	0.3496666
135	0x3e43408e	0.19067594
136	0x3f0d45d5	0.5518468
137	0x3e98a1e0	0.29811
138	0xbeb7bae5	-0.35884777
139	0x3e97baee	0.29634804
140	0x3f3238fd	0.6961821
141	0x3f3dc2fc	0.7412565
142	0x3e55a07e	0.20862004
143	0xbf088ef6	-0.5334314
144	0x3eeedac3	0.46651277
145	0x3cc33e9e	0.02383357
146	0x3cf70ba0	0.03015691
147	0x3ee5d702	0.448906
148	0x3e88e0ac	0.2673391
149	0x3f12fcb6	0.57416856
150	0x3f1d404a	0.6142622
151	0x3efa56f8	0.48894477
152	0xbdfefba3	-0.1245034
153	0x3f463f26	0.77440107
154	0x3de22ef8	0.11044115
155	0x3ef73bd4	0.48287833
156	0x3e9d9355	0.30776468
157	0x3f30d089	0.690682
158	0xbe2c6bd9	-0.16838016
159	0x3d440f81	0.04786635
160	0x3f1e4ce9	0.61836106
161	0x3ea1fba7	0.31637308
162	0xbf09b97d	-0.5379866
163	0x3d1b973f	0.037986036
164	0x3ea5b5f4	0.32365382
165	0x3efee778	0.49785972
166	0x3ec32ec0	0.38121605
167	0x3effd1c5	0.4996473
168	0x3ee3ebb1	0.44515756
169	0x3f2fbe3e	0.6864966
170	0xbdad248a	-0.08454235
171	0xbe9fa08a	-0.3117717
172	0x3edaa52b	0.42704138
173	0x3f2ef2fc	0.68339515
174	0x3f463fd2	0.7744113
175	0x3f21a519	0.63142544
176	0xbcb77b90	-0.022397786
177	0x3f0e3ec1	0.55564505
178	0x3c1539c0	0.009108007
179	0x3f4cca99	0.7999664
180	0xbea717e7	-0.32635424
181	0x3f46b0ad	0.77613336
182	0x3eab0569	0.33402565
183	0xbeeb8943	-0.4600316
184	0xbdc592a4	-0.0964711
185	0x3e49df18	0.1971401
186	0x3ea617e8	0.32440114
187	0x3e43ad75	0.19109137
188	0xbf12f4ea	-0.5740496
189	0xbf07e8e0	-0.53089714
190	0xbd731979	-0.059350464
191	0x3f459dd5	0.7719396
192	0xbd2a35e8	-0.041555315
193	0xbde33f61	-0.11096073
194	0xbd74c4f0	-0.059758127
195	0x3f06b7c9	0.52624184
196	0xbeb7b577	-0.35880634
197	0x3f288890	0.6583338
198	0x3f0bfc6e	0.5468205
199	0xbf273778	-0.65319014
200	0x3de4a144	0.111635715
201	0x3f24295d	0.64125615
202	0x3e2271dc	0.15863746
203	0x3ee881fe	0.45411676
204	0xbe7def57	-0.24798332
205	0x3f2f0f53	0.6838276
206	0xbeb650f6	-0.35608643
207	0xbf1861af	-0.59524053
208	0x3e213570	0.15743041
209	0xbdb605fa	-0.08887859
210	0xbf0b535e	-0.54424083
211	0xbea02641	-0.31279185
212	0xbc630d76	-0.01385819
213	0x3e9a6e62	0.3016234
214	0xbd9f10c3	-0.07766869
215	0xbed21454	-0.41031134
216	0x3ec5cec4	0.38634312
217	0x3f4348dc	0.7628305
218	0xbe068375	-0.13136084
219	0xbee1758c	-0.44034994
220	0xbf1700df	-0.58985704
221	0x3f1b0309	0.60551506
222	0x3f238566	0.63875425
223	0xbf1f3ea3	-0.6220495
224	0xbce8c770	-0.028415412
225	0x3ecfb384	0.40566647
226	0x3e10b496	0.14131388
227	0x3f2860ce	0.6577271
228	0xbf0a623b	-0.5405614
229	0x3ed803c4	0.42190373
230	0xbd891eff	-0.06695365
231	0xbed13e1f	-0.40867707
232	0xbf293c92	-0.6610805
233	0x3dbbcc3c	0.09169814
234	0x3e8ffe1f	0.28123567
235	0xbf1a8c99	-0.60370785
236	0xbf1d0ce9	-0.61347824
237	0xbf1a89b4	-0.6036637
238	0xbe9fa22c	-0.31178415
239	0x3ebb1015	0.36535707
240	0x3ee6546a	0.44986278
241	0xbe189146	-0.14899167
242	0xbe4697ef	-0.19393896
243	0x3eaae5d7	0.3337848
244	0xbe3d4706	-0.18484125
245	0x3f329811	0.69763285
246	0x3ee33087	0.4437296
247	0x3ef0cd52	0.47031647
248	0x3e1eb67e	0.15499303
249	0x3f4dbda0	0.8036747
250	0x3dae2938	0.085039556
251	0x3f300ce4	0.6876967
252	0xbb5154aa	-0.0031941333
253	0x3f20383e	0.6258582
254	0xbe974a27	-0.2954876
255	0xbecede38	-0.40403914

linear3.bias f4 [48]
0	0x3e353795	0.17696984
1	0x3e0ba6f3	0.13637905
2	0x3f4f913b	0.8108098
3	0x3f1a12ee	0.60185134
4	0x3e355c54	0.17711002
5	0x3e0bc61c	0.13649791
6	0x3f4fad9e	0.81124294
7	0x3f1a0528	0.6016412
8	0x3e355efe	0.17712018
9	0x3e0c4ed3	0.13701944
10	0x3f4fad10	0.8112345
11	0x3f1a1490	0.60187626
12	0x3e356828	0.17715514
13	0x3e0bfc44	0.1367045
14	0x3f4fb81b	0.811403
15	0x3f1a259e	0.6021365
16	0x3e35474e	0.17702982
17	0x3e0bea65	0.13663633
18	0x3f4f96ab	0.81089276
19	0x3f1a1f44	0.6020396
20	0x3e352fdc	0.17694038
21	0x3e0bb85f	0.1364455
22	0x3f4f9290	0.8108301
23	0x3f1a29e0	0.60220146
24	0x3e34bb96	0.17649683
25	0x3e0bb00e	0.13641378
26	0x3f4f741b	0.8103654
27	0x3f1a3c7f	0.6024856
28	0x3e34c53a	0.17653361
29	0x3e0b6947	0.13614379
30	0x3f4f8562	0.810629
31	0x3f1a3d99	0.6025024
32	0x3e35355b	0.17696135
33	0x3e0bb001	0.13641359
34	0x3f4f7bd3	0.81048316
35	0x3f1a2fae	0.60229003
36	0x3e35c38f	0.17750381
37	0x3e0c2357	0.13685356
38	0x3f4f9e81	0.8110123
39	0x3f1a2e69	0.60227066
40	0x3e3622a9	0.1778666
41	0x3e0be531	0.13661648
42	0x3f4f9305	0.8108371
43	0x3f1a3660	0.6023922
44	0x3e35f10f	0.17767738
45	0x3e0c6218	0.13709295
46	0x3f4f8f73	0.8107826
47	0x3f1a4825	0.60266334
